q_relu_optim/ckpts/sgd_momentum/width10/seed378/ckpt_and_history.pt (torch, 13887 bytes, 33 tensors)

0.weight f4 [10, 1]
00000000: 1bbf 34bf 5edc 89be 65e6 5bbf 1d66 923c
00000010: 3f7f 2b3f 0ae3 37bf 745d 7ebf 711d 87bd
00000020: 38f6 5c3f f381 2f3f
-0.70604104 -0.2692594 -0.8589843 0.017870957 0.6699104 -0.7183081 -0.9936135 -0.065974124
0.863132 0.6855766

0.bias f4 [10]
00000000: 07d6 463d b844 a63d ec56 9e3e 9642 15bc
00000010: 52ed a6be 8e59 b93e f5f7 093f f958 233d
00000020: 0e84 52bf d852 28bf
0.048543956 0.08118576 0.3092569 -0.009110114 -0.32602936 0.36201137 0.5389398 0.039879773
-0.8223275 -0.6575141

2.weight f4 [1, 10]
00000000: 44aa 883e c369 063e eb73 49be e887 a13e
00000010: 1fed 86be e20a a2bc d81b 85be 9b15 b23d
00000020: daca a2bd 8755 11be
0.26692402 0.13126282 -0.19673125 0.31549 -0.26352784 -0.01978058 -0.25997806 0.08695527
-0.07948847 -0.14192782

0.weight f4 [10, 1]
00000000: d0fb 64c0 0af0 aebf 9be9 1fc0 54b3 34bc
00000010: 13f5 4440 dbd6 ddbf 32bd 3cc0 da8a 2fc0
00000020: eab0 3e40 a1c9 2e40
-3.5778694 -1.3667004 -2.4986331 -0.011029083 3.0774581 -1.7331194 -2.9490476 -2.7428498
2.979548 2.7310565

0.bias f4 [10]
00000000: 6637 d03e 470f 1f3e 0603 483f 24f1 01bd
00000010: bcef ddbf 85f1 0d3f 2094 713f 3d4b b93f
00000020: 4666 13c0 e501 fbbf
0.40667266 0.15533172 0.78129613 -0.03172411 -1.7338786 0.55446655 0.94366646 1.4476086
-2.3031173 -1.9609953

2.weight f4 [1, 10]
00000000: 7f97 5e40 f2f1 a93f c2e0 13c0 331b a13e
00000010: 721c 4f40 befb c5bf 34d9 2dc0 e1cd 3840
00000020: 94bd 59c0 9b3a 43c0
3.4779966 1.3276961 -2.3105931 0.31466064 3.2361112 -1.5467451 -2.716382 2.8875659
-3.402196 -3.050452

0.weight f4 [10, 1]
00000000: 3791 84c0 4b8a cabf 83cb 30c0 54b3 34bc
00000010: 81db 5b40 f8ea f4bf 7d94 4ac0 654f 49c0
00000020: bcf9 4940 f105 4040
-4.1427264 -1.5823454 -2.7624214 -0.011029083 3.4352725 -1.9134207 -3.165313 -3.1454709
3.1558676 3.0003626

0.bias f4 [10]
00000000: 94ab de3e 5b18 2a3e a09d 533f 24f1 01bd
00000010: 0eee 00c0 b2e8 123f a474 913f a470 cb3f
00000020: 69ec 1bc0 5485 06c0
0.4349028 0.16610853 0.8266239 -0.03172411 -2.0145297 0.57386315 1.1363721 1.589375
-2.4363043 -2.1018877

2.weight f4 [1, 10]
00000000: 3887 8140 85cd c53f b2a8 25c0 331b a13e
00000010: dcdc 5a40 0eb0 debf d491 3fc0 3059 5340
00000020: cacb 5dc0 c40c 4ac0
4.047756 1.5453345 -2.5884213 0.31466064 3.4197302 -1.7397478 -2.9932756 3.3023186
-3.4655633 -3.1570292

0.weight f4 [10, 1]
00000000: 10db 84c0 15fb cabf 865e 3cc0 54b3 34bc
00000010: 1d69 6740 1843 02c0 8eac 4ac0 4a09 58c0
00000020: cb87 4d40 e7ee 4940
-4.151741 -1.5857874 -2.9432693 -0.011029083 3.6157906 -2.035345 -3.166782 -3.375567
3.2114131 3.1552064

0.bias f4 [10]
00000000: a86a e13e 3931 2c3e 7b94 633f 24f1 01bd
00000010: 9558 06c0 b572 1d3f 8bfc 973f cbe5 d43f
00000020: 6b4c 1fc0 ab41 0ec0
0.44026685 0.16815652 0.8889844 -0.03172411 -2.0991566 0.61503154 1.1873945 1.6632627
-2.4890392 -2.222758

2.weight f4 [1, 10]
00000000: aa91 8140 a6dd c53f 8f30 32c0 331b a13e
00000010: 9f43 5540 a213 f0bf 71b0 3fc0 f6ef 6140
00000020: ca65 57c0 6b06 49c0
4.0490313 1.5458267 -2.7842138 0.31466064 3.3322523 -1.8755991 -2.9951441 3.530271
-3.3655877 -3.1410167

0.weight f4 [10, 1]
00000000: e014 85c0 6953 cbbf 49f0 43c0 54b3 34bc
00000010: f018 6f40 9562 07c0 d0da 46c0 667e 5dc0
00000020: 6a5f 5040 bdb5 5240
-4.158798 -1.588483 -3.0615408 -0.011029083 3.735897 -2.115392 -3.1071053 -3.4608397
3.2558236 3.2923424

0.bias f4 [10]
00000000: f17b de3e 15f4 293e 7e75 6d3f 24f1 01bd
00000010: 901e 0bc0 dbd1 233f f50c 9a3f 49ae d93f
00000020: 671a 21c0 9da1 13c0
0.43453935 0.16597016 0.92757404 -0.03172411 -2.1737404 0.6399209 1.2035204 1.7006313
-2.5172365 -2.306739

2.weight f4 [1, 10]
00000000: 7183 8140 f0c7 c53f afd2 39c0 331b a13e
00000010: a3c9 4d40 c8aa fabf 34be 3ac0 2975 6640
00000020: db43 50c0 1adb 46c0
4.047295 1.5451641 -2.903484 0.31466064 3.215432 -1.9583368 -2.917859 3.600901
-3.2541416 -3.107123

0.weight f4 [10, 1]
00000000: ec66 85c0 d7d0 cbbf 8c92 49c0 54b3 34bc
00000010: 5261 7640 9f2b 0bc0 7e52 43c0 c96f 61c0
00000020: e766 5340 bb54 5a40
-4.1688137 -1.5923108 -3.1495695 -0.011029083 3.84969 -2.1745374 -3.05191 -3.5224478
3.3031557 3.4114215

0.bias f4 [10]
00000000: 6469 e33e 40b7 2d3e 46dc 743f 24f1 01bd
00000010: 0bad 10c0 5603 293f dca8 983f 4dbb dc3f
00000020: 26fc 22c0 2d6f 18c0
0.44416344 0.16964436 0.9564861 -0.03172411 -2.2605617 0.66020715 1.1926532 1.724466
-2.54664 -2.3817856

2.weight f4 [1, 10]
00000000: 6ba4 8140 48fa c53f 135f 3fc0 331b a13e
00000010: 504f 4840 702e 01c0 d597 35c0 6368 6940
00000020: b13d 4ac0 9852 44c0
4.0513206 1.5467005 -2.9901779 0.31466064 3.1298409 -2.0184593 -2.837392 3.6469963
-3.1600153 -3.0675411

0.weight f4 [10, 1]
00000000: 7a81 85c0 8df9 cbbf b773 4cc0 54b3 34bc
00000010: dce4 7c40 6f1d 0dc0 d0b3 40c0 92b4 62c0
00000020: 0606 5640 e320 6140
-4.1720552 -1.5935532 -3.1945627 -0.011029083 3.9514685 -2.2049215 -3.010975 -3.5422711
3.3441176 3.5176322

0.bias f4 [10]
00000000: 6aff e23e 7166 2d3e 37b4 7a3f 24f1 01bd
00000010: 3790 14c0 9ef2 2c3f 39cc 983f 634b dd3f
00000020: 6327 25c0 6c5c 1dc0
0.4433549 0.1693361 0.97931236 -0.03172411 -2.3213022 0.67557704 1.1937324 1.7288631
-2.580529 -2.458766

2.weight f4 [1, 10]
00000000: 6e82 8140 64c6 c53f ded5 41c0 331b a13e
00000010: 5b1c 4440 0ee6 02c0 a8b3 31c0 5c2e 6940
00000020: 34d0 45c0 2964 43c0
4.0471716 1.5451169 -3.0286784 0.31466064 3.0642307 -2.0452914 -2.7765903 3.6434546
-3.0908327 -3.0529883

0.weight f4 [10, 1]
00000000: 7b9d 85c0 6424 ccbf 065b 4ec0 54b3 34bc
00000010: 5a3f 8240 6b66 0ec0 71c6 3ec0 b62d 63c0
00000020: 2559 5740 7ad9 6540
-4.1754737 -1.5948606 -3.2243056 -0.011029083 4.0702333 -2.225001 -2.980862 -3.549665
3.364816 3.5913987

0.bias f4 [10]
00000000: c42d e43e 554d 2e3e 9f74 7c3f 24f1 01bd
00000010: 5f0b 17c0 001f 2e3f d67f 973f 4ae9 de3f
00000020: 9363 28c0 197d 22c0
0.44566166 0.17021687 0.9861545 -0.03172411 -2.360069 0.6801605 1.1835887 1.7414944
-2.6310775 -2.5388854

2.weight f4 [1, 10]
00000000: 3969 8140 f39f c53f 630e 43c0 331b a13e
00000010: 8eb8 4040 89c1 03c0 4d62 2ec0 c19e 6840
00000020: 01f5 40c0 6681 40c0
4.0440946 1.5439438 -3.047753 0.31466064 3.0112643 -2.0586874 -2.7247498 3.6346896
-3.0149539 -3.0078979

0.weight f4 [10, 1]
00000000: 1cd5 85c0 5c79 ccbf ef7c 50c0 54b3 34bc
00000010: 4cce 8440 2cd7 0fc0 e57f 3dc0 0927 64c0
00000020: c68e 5a40 deea 6b40
-4.1822643 -1.5974536 -3.2576253 -0.011029083 4.1501827 -2.247508 -2.960931 -3.5648825
3.4149642 3.6862102

0.bias f4 [10]
00000000: c857 e33e c1a9 2d3e e4b2 7f3f 24f1 01bd
00000010: c9d4 1bc0 854d 303f c83d 973f 7c9a df3f
00000020: 6a0d 2ac0 1309 26c0
0.4440291 0.16959287 0.9988234 -0.03172411 -2.4348624 0.68868285 1.1815729 1.746902
-2.6570687 -2.5943038

2.weight f4 [1, 10]
00000000: 506a 8140 7da1 c53f 959f 44c0 331b a13e
00000010: 2030 3c40 dad9 04c0 93fb 2bc0 c652 6840
00000020: 19fc 3cc0 b7f7 3dc0
4.0442276 1.5439907 -3.07224 0.31466064 2.9404373 -2.0757966 -2.6872299 3.630052
-2.9528868 -2.9682443

0.weight f4 [10, 1]
00000000: fedc 85c0 6985 ccbf 207a 51c0 54b3 34bc
00000010: 354c 8740 5b82 10c0 4c91 3cc0 13cf 64c0
00000020: 3664 5d40 49e6 7140
-4.1832266 -1.5978214 -3.273079 -0.011029083 4.2280526 -2.2579563 -2.9463682 -3.5751388
3.4592414 3.7796805

0.bias f4 [10]
00000000: be3c e43e af58 2e3e e7f8 803f 24f1 01bd
00000010: 2745 1fc0 0cd0 313f c7f5 963f cd02 e03f
00000020: 2759 2bc0 72a7 28c0
0.44577593 0.17026018 1.0075959 -0.03172411 -2.4885957 0.6945808 1.1793755 1.7500855
-2.6773164 -2.63522

2.weight f4 [1, 10]
00000000: e144 8140 5368 c53f 8e19 45c0 331b a13e
00000010: 5354 3a40 bf30 05c0 5a26 2ac0 40f4 6740
00000020: f76f 3ac0 fccc 3dc0
4.039658 1.5422462 -3.0796847 0.31466064 2.9113967 -2.0811002 -2.6585908 3.6242828
-2.9130838 -2.9656363

0.weight f4 [10, 1]
00000000: a3ff 85c0 77ba ccbf 862b 52c0 54b3 34bc
00000010: 805a 8a40 5efa 10c0 7325 3cc0 a200 65c0
00000020: 1794 5f40 883c 7640
-4.1874557 -1.5994405 -3.2839065 -0.011029083 4.3235474 -2.2652812 -2.9397857 -3.5781636
3.4934137 3.8474445

0.bias f4 [10]
00000000: ba98 e33e 5cdb 2d3e c769 813f 24f1 01bd
00000010: eba0 22c0 fb66 323f 18a2 963f 2563 e03f
00000020: 821b 2dc0 b47d 2cc0
0.4445246 0.1697821 1.0110406 -0.03172411 -2.5410717 0.69688386 1.1768217 1.7530257
-2.704804 -2.6951723

2.weight f4 [1, 10]
00000000: 9d3a 8140 bb58 c53f 9426 45c0 331b a13e
00000010: f273 3640 953c 05c0 71de 28c0 5f1d 6740
00000020: 2365 35c0 6950 39c0
4.038405 1.5417703 -3.0804796 0.31466064 2.8508267 -2.0818226 -2.6385767 3.6111677
-2.834298 -2.8955328
