dis/dis03/code/ckpts/sgd_momentum/width40/seed216/ckpt_and_history.pt (torch, 18111 bytes, 33 tensors)

0.weight f4 [40, 1]
0	0xbe971263	-0.29506215
1	0x3ed00134	0.40625918
2	0xbf61bdf9	-0.881805
3	0x3d1f66c2	0.038916357
4	0xbe5b0d36	-0.21391758
5	0x3f036235	0.5132173
6	0x3eb44a67	0.35213014
7	0xbf10f533	-0.56624144
8	0x3f6fa128	0.9360528
9	0xbf5951d4	-0.84890485
10	0x3d1d80e9	0.038453016
11	0x3f07f100	0.5310211
12	0xbf6ae007	-0.9174809
13	0xbf45e0d0	-0.7729616
14	0xbeb36975	-0.35041395
15	0xbf38f35c	-0.72246337
16	0xbf4441ab	-0.766627
17	0x3f395b57	0.72405
18	0x3f276401	0.6538697
19	0xbf574df6	-0.84103334
20	0x3ed02f57	0.40661117
21	0xbf54953e	-0.83040226
22	0xbeaf4e4d	-0.34239426
23	0x3e9323c9	0.2873824
24	0xbea9c78b	-0.33160052
25	0x3f281bf4	0.65667653
26	0x3f525db2	0.8217422
27	0xbe875e32	-0.26439053
28	0x3f07d7a6	0.5306343
29	0x3e995dcc	0.29954374
30	0x3ef3daee	0.47627968
31	0x3eea7820	0.45794773
32	0xbeab74a6	-0.33487433
33	0xbeefc3a3	-0.46828946
34	0x3f500ba6	0.81267774
35	0xbe9ac497	-0.3022811
36	0x3f03fc3d	0.5155676
37	0x3f5e6d06	0.86885107
38	0x3e8d3558	0.2757976
39	0xbec5d6d1	-0.38640454

0.bias f4 [40]
0	0x3cfc968d	0.030833507
1	0xbd30f231	-0.04319972
2	0x3de3c171	0.111208804
3	0xbbab14eb	-0.0052209995
4	0x3d4c7654	0.049917534
5	0xbdfd3cb3	-0.12365093
6	0xbdb67335	-0.08908693
7	0x3e161033	0.14654617
8	0xbe8085ce	-0.25102085
9	0x3e83c5a4	0.25736725
10	0xbc517338	-0.012783818
11	0xbe3d0dd6	-0.18462309
12	0x3eb72bb3	0.35775527
13	0x3ea5ffa3	0.32421598
14	0x3e1c7a9a	0.15281144
15	0x3eaa82cd	0.33302918
16	0x3ec280cb	0.37988886
17	0xbebfcc9d	-0.37460795
18	0xbec2b23b	-0.38026604
19	0x3f007c6f	0.5018987
20	0xbe78e41e	-0.2430577
21	0x3f006905	0.5016025
22	0x3e56512e	0.20929405
23	0xbe36220a	-0.17786422
24	0x3e53a6e1	0.20669128
25	0xbed2782d	-0.41107312
26	0xbf068337	-0.5254397
27	0x3e34c4b1	0.17653157
28	0xbeb5f363	-0.35537252
29	0xbe586f70	-0.2113626
30	0xbeb04165	-0.34424892
31	0xbeb1f353	-0.34755954
32	0x3e87e573	0.26542243
33	0x3ebeee4b	0.37291178
34	0xbf2937da	-0.6610085
35	0x3e881932	0.26581722
36	0xbef1efe5	-0.47253338
37	0xbf5056af	-0.8138227
38	0xbe84c46b	-0.25931105
39	0x3ebc2860	0.36749554

2.weight f4 [1, 40]
0	0x3ddde930	0.108354926
1	0xbcb482ba	-0.022034992
2	0xbdb4a89c	-0.08821222
3	0x3dad1209	0.084507056
4	0x3df3228b	0.11871823
5	0x3d8e1d19	0.06939144
6	0xbe195eac	-0.1497752
7	0xbdc513d4	-0.096229225
8	0xbe166f3c	-0.1469087
9	0x3da98558	0.082773864
10	0x3d39588e	0.045250468
11	0xbd814d5e	-0.06313585
12	0xbe0c71b2	-0.13715246
13	0x3d1ce2f3	0.038302373
14	0x3db53b17	0.08849161
15	0xbdf7d2aa	-0.12100728
16	0xbe04e9e8	-0.12979853
17	0xbdaa12bb	-0.08304354
18	0xbdda83d5	-0.10669676
19	0xbdf378e0	-0.118882895
20	0xbddfbdd5	-0.109248795
21	0xbb60b89a	-0.0034289719
22	0xbe06e200	-0.1317215
23	0x389de6c8	7.52933e-05
24	0xbcbc8464	-0.023012348
25	0x3e04789f	0.12936638
26	0x3dbce2fc	0.09222981
27	0x3ccf0ae4	0.025273748
28	0xbd702c1d	-0.05863582
29	0x3cd03dc1	0.025420072
30	0x3db64fd8	0.08901948
31	0x3ccc0bf1	0.024908038
32	0xbd1f2eed	-0.03886311
33	0x3e126c23	0.14299063
34	0xbd810f1f	-0.06301712
35	0x3de47fc3	0.11157181
36	0xbdf038ed	-0.11729608
37	0xbda5569a	-0.080731586
38	0xbca4d420	-0.02012068
39	0x3d9786b1	0.07398737

0.weight f4 [40, 1]
0	0xc01afc70	-2.4216576
1	0x3f932632	1.1496031
2	0xbf9ce1c0	-1.2256393
3	0x3ad86eb8	0.0016512489
4	0xbffc3269	-1.9702884
5	0x3fcf8fd6	1.621577
6	0x3f7ed20f	0.99539274
7	0xbf6c6706	-0.923447
8	0x400f9e57	2.2440393
9	0xbf9586b3	-1.1681732
10	0x3e5636be	0.2091932
11	0x3fa30f1b	1.2738985
12	0xbfc4075a	-1.5314744
13	0xbf8dfe4d	-1.1093231
14	0xc00894e5	-2.1340878
15	0xbf9d4b8a	-1.2288678
16	0xbfa5cc44	-1.2952962
17	0x3fd8cd10	1.693758
18	0x3fb4ba9b	1.4119447
19	0xbf87a64d	-1.0597626
20	0x3f76a4b3	0.9634506
21	0xbf745010	-0.95434666
22	0xbefe29ae	-0.49641174
23	0x3f10f13d	0.566181
24	0xbed0dee5	-0.40795055
25	0x401c907f	2.4463193
26	0x403bceeb	2.9345043
27	0xbe962adf	-0.29329583
28	0x3f9d2f28	1.2280016
29	0x3f1ba4f0	0.6079855
30	0x3f5d9499	0.8655487
31	0x3f71b2c3	0.94413394
32	0xbeec1a31	-0.46113732
33	0xbf034bdc	-0.5128763
34	0x3fef7f87	1.8710793
35	0xbeb8cb31	-0.36092523
36	0x3fb19d36	1.3876102
37	0x40056b9f	2.0846937
38	0x3f2507b3	0.64464873
39	0xbee729e8	-0.4514916

0.bias f4 [40]
0	0x3e90cce0	0.28281307
1	0xbe11e7ee	-0.1424863
2	0x3ed2a9de	0.41145223
3	0x3c842d14	0.016134776
4	0x3e6bce6b	0.23027961
5	0xbe4dd08a	-0.20099083
6	0xbe9ee73c	-0.31035793
7	0x3e9e70de	0.30945486
8	0xbf333c87	-0.7001423
9	0x3ec8e5ad	0.3923773
10	0xbdfd2533	-0.12360611
11	0xbecb72c1	-0.39735988
12	0x3f036bcf	0.5133638
13	0x3ebec28d	0.37257805
14	0x3f8c3ad0	1.0955448
15	0x3ed2ec8a	0.4119609
16	0x3ede50f5	0.4342114
17	0xbf075642	-0.52865994
18	0xbf89c884	-1.0764318
19	0x3f55e4e6	0.83552396
20	0xbf3c04d6	-0.7344488
21	0x3f4057bc	0.7513387
22	0x3ec8361b	0.3910378
23	0xbecbfbf0	-0.3984065
24	0x3ea4ae2c	0.32164133
25	0xbfb8fab8	-1.4451513
26	0xbfccb616	-1.5993068
27	0x3e6ce6f1	0.23134972
28	0xbf5cf631	-0.8631316
29	0xbedb1807	-0.4279177
30	0xbf28b8de	-0.65907085
31	0xbf3c476c	-0.7354648
32	0x3eb9ea28	0.3631146
33	0x3eeac920	0.4585657
34	0xbfba985c	-1.4577746
35	0x3ea5208e	0.322514
36	0xbf7998df	-0.9749889
37	0xbfbbbd2c	-1.4667106
38	0xbee8129b	-0.45326695
39	0x3ecee0c7	0.40405867

2.weight f4 [1, 40]
0	0x4018a888	2.3852863
1	0x3f86018d	1.0469223
2	0xbf5e8ccb	-0.86933583
3	0x3d0b37dd	0.033988822
4	0x3ff8d20c	1.9439101
5	0x3fbe53ae	1.4869287
6	0xbf66ed02	-0.90205395
7	0xbf364549	-0.7119947
8	0xbffef3b5	-1.9918123
9	0xbf4e0dc9	-0.80489784
10	0x3e62ee12	0.22161129
11	0xbf903b66	-1.1268127
12	0xbf9604e3	-1.1720241
13	0xbf436827	-0.763308
14	0x400729f8	2.1119366
15	0xbf6fba5d	-0.9364374
16	0xbf79e0b6	-0.97608507
17	0xbfbd08af	-1.4768275
18	0xbfc34ca5	-1.5257765
19	0xbf50698f	-0.8141107
20	0xbf875282	-1.0572054
21	0xbf2dff13	-0.6796734
22	0xbed1f4d9	-0.41007116
23	0xbf12a4ce	-0.5728272
24	0xbe9c8aa8	-0.30574536
25	0x40220a54	2.5318804
26	0x403cf8f5	2.9526951
27	0xbe482c29	-0.19548096
28	0xbfa41faf	-1.2822169
29	0xbf1d580a	-0.6146246
30	0xbf61ad2e	-0.88154876
31	0xbf804f33	-1.002417
32	0xbeb4ea18	-0.3533485
33	0x3ebbf4a5	0.36710086
34	0xc001995d	-2.0249856
35	0x3e8bcf60	0.27306652
36	0xbfbac0c0	-1.4590073
37	0xc0089fb4	-2.1347475
38	0xbf27a9bf	-0.65493387
39	0x3ea09e33	0.31370696

0.weight f4 [40, 1]
0	0xc0435c03	-3.052491
1	0x3fad1b8a	1.3524029
2	0xbfa9f6de	-1.3278463
3	0xb9567f11	-0.00020455966
4	0xc01eff4b	-2.4843318
5	0x3ff0984a	1.8796475
6	0x3f8c5943	1.096474
7	0xbf7d2850	-0.98889637
8	0x401de8f8	2.4673443
9	0xbfa1ab55	-1.2630411
10	0x3e6b9baf	0.23008607
11	0x3fb338de	1.400173
12	0xbfd1d33f	-1.6392592
13	0xbf998281	-1.1992952
14	0xc014c6ec	-2.3246412
15	0xbfab83a7	-1.3399552
16	0xbfb4a1fe	-1.4111936
17	0x3fedfb0d	1.859224
18	0x3fba21e1	1.4541589
19	0xbf90171a	-1.125705
20	0x3f7e6509	0.9937292
21	0xbf816422	-1.0108683
22	0xbf079b74	-0.5297158
23	0x3f184b6d	0.5949009
24	0xbedda8c1	-0.43292812
25	0x402bdc3e	2.6853175
26	0x40497b0c	3.1481352
27	0xbe9eba07	-0.31001303
28	0x3fa5568b	1.2917036
29	0x3f2384c3	0.63874453
30	0x3f6e5a89	0.93106896
31	0x3f7aa425	0.97906715
32	0xbefabe8b	-0.48973498
33	0xbf20e0ca	-0.62843
34	0x3ff8898b	1.9416975
35	0xbee44635	-0.44584814
36	0x3fbadd5e	1.4598806
37	0x400c3f39	2.1913588
38	0x3f2d5e3b	0.6772191
39	0xbf0d0dc7	-0.5509915

0.bias f4 [40]
0	0x3e9b622c	0.30348337
1	0xbe0cd9a3	-0.13754897
2	0x3ee08b28	0.43856168
3	0x3c4a05fe	0.01233053
4	0x3e7ce3ae	0.24696228
5	0xbea6e31d	-0.3259515
6	0xbea8f360	-0.3299818
7	0x3ec3ff93	0.38280925
8	0xbf3e044d	-0.7422531
9	0x3ed5b679	0.41740778
10	0xbe0dc8c1	-0.13846113
11	0xbed7af77	-0.42126057
12	0x3f225920	0.63417244
13	0x3ecae992	0.39631325
14	0x3f949707	1.160859
15	0x3edf6518	0.43631816
16	0x3eeb4bb9	0.4595621
17	0xbf0f41c3	-0.5595972
18	0xbf92e886	-1.147721
19	0x3f56c4aa	0.83893836
20	0xbf4847d8	-0.78234625
21	0x3f407dfb	0.7519223
22	0x3ec91ce0	0.39279842
23	0xbed72ac6	-0.4202482
24	0x3ea52b8e	0.32259792
25	0xbfceb47b	-1.6148828
26	0xbfdac609	-1.7091686
27	0x3e6c5f0a	0.2308313
28	0xbf69ab64	-0.91277146
29	0xbee726f4	-0.45146906
30	0xbf286f95	-0.6579526
31	0xbf45e8dc	-0.7730844
32	0x3ebaae94	0.36461318
33	0x3f11f346	0.5701183
34	0xbfc44e32	-1.5336363
35	0x3ecf2fe3	0.40466222
36	0xbf841095	-1.031756
37	0xbfc639ee	-1.5486429
38	0xbef5103e	-0.47863954
39	0x3efff36a	0.49990398

2.weight f4 [1, 40]
0	0x4040bcbb	3.0115192
1	0x3f95495e	1.1663015
2	0xbf80de0a	-1.0067761
3	0x3ceaa7d6	0.028644484
4	0x401d0648	2.4535084
5	0x3fd19900	1.6374817
6	0xbf6ec3d3	-0.93267554
7	0xbf50cbd3	-0.8156101
8	0xc0042a3f	-2.0650785
9	0xbf6fa6fe	-0.93614185
10	0x3e6e77b2	0.23287848
11	0xbf959b04	-1.1687932
12	0xbfac0676	-1.3439472
13	0xbf6350c1	-0.88795096
14	0x4012a9f4	2.291623
15	0xbf896a2d	-1.0735527
16	0xbf8f73be	-1.1207197
17	0xbfc474d8	-1.5348158
18	0xbfc71dcb	-1.5555967
19	0xbf5c6943	-0.86098117
20	0xbf89db09	-1.0769969
21	0xbf39920f	-0.7248849
22	0xbedc51dc	-0.43031204
23	0xbf15c9ff	-0.58511347
24	0xbea602ff	-0.3242416
25	0x402abc0e	2.667728
26	0x403dfee9	2.9686835
27	0xbe573f23	-0.21020178
28	0xbfa742aa	-1.3067219
29	0xbf20b8a0	-0.62781715
30	0xbf6659e0	-0.8998089
31	0xbf831d22	-1.0243266
32	0xbebf5eed	-0.3737711
33	0x3f158fb0	0.58422375
34	0xc00449ab	-2.0669963
35	0x3ed9c90e	0.42536205
36	0xbfbe3c99	-1.4862243
37	0xc00b6e29	-2.1785986
38	0xbf2b3361	-0.66875273
39	0x3f016849	0.5054975

0.weight f4 [40, 1]
0	0xc04a4ac6	-3.1608138
1	0x3fabc4b5	1.3419405
2	0xbfb4fcd4	-1.4139657
3	0xba8617d4	-0.001023049
4	0xc024a523	-2.5725791
5	0x3fef009a	1.8672059
6	0x3f92671f	1.143772
7	0xbf8963f1	-1.0733625
8	0x40249194	2.5713854
9	0xbfa8982a	-1.3171437
10	0x3e801fae	0.2502417
11	0x3fbac10f	1.4590167
12	0xbfe3a05b	-1.7783312
13	0xbfa33c9f	-1.2752875
14	0xc01bc2e5	-2.4337704
15	0xbfb8e67a	-1.4445336
16	0xbfc29a08	-1.5203257
17	0x3ff7d611	1.9362203
18	0x3fbf3e31	1.4940854
19	0xbf94bcf3	-1.1620163
20	0x3f829d16	1.0204189
21	0xbf854a0a	-1.041322
22	0xbf0dc63b	-0.553806
23	0x3f1c0667	0.6094727
24	0xbee4a9ec	-0.4466089
25	0x403b0d3c	2.9226828
26	0x40534090	3.3008156
27	0xbea37cca	-0.31931144
28	0x3fa98326	1.3243148
29	0x3f278144	0.6543162
30	0x3f73ed6a	0.9528414
31	0x3f80b2ef	1.0054606
32	0xbefddf52	-0.49584442
33	0xbf4d5621	-0.8020955
34	0x3fff6683	1.9953159
35	0xbf125c86	-0.5717243
36	0x3fbf9d6e	1.4969919
37	0x400fbb9d	2.245826
38	0x3f31a7ac	0.6939647
39	0xbf33662f	-0.70077795

0.bias f4 [40]
0	0x3e9faf12	0.31188256
1	0xbe28933d	-0.16462417
2	0x3eee5cd9	0.46555212
3	0x3c222ea7	0.009898818
4	0x3e81f2cd	0.25380555
5	0xbeb96f38	-0.36217666
6	0xbeb04c31	-0.3443313
7	0x3ed9a0df	0.42505547
8	0xbf463aee	-0.7743367
9	0x3f05adb4	0.52218175
10	0xbe1b5b24	-0.15171486
11	0xbee0f3a0	-0.4393587
12	0x3f3446c2	0.7042047
13	0x3ed732bb	0.42030892
14	0x3f99e783	1.2023777
15	0x3edddbf6	0.4333188
16	0x3ee9d1de	0.45667928
17	0xbf154f84	-0.58324456
18	0xbf961ee1	-1.1728173
19	0x3f5cae2f	0.86203283
20	0xbf4d0998	-0.80092764
21	0x3f457bce	0.77142036
22	0x3ecaf628	0.39640927
23	0xbed9de7e	-0.4255256
24	0x3ea9a5cf	0.33134314
25	0xbfe0cd5b	-1.756267
26	0xbfde861d	-1.7384678
27	0x3e7185bf	0.23586176
28	0xbf6cac6b	-0.9245059
29	0xbeea1887	-0.45721838
30	0xbf2ab9cd	-0.6668976
31	0xbf4a1d50	-0.7895098
32	0x3ec75beb	0.38937315
33	0x3f369394	0.71318936
34	0xbfc87bf0	-1.5662823
35	0x3f021ca9	0.5082498
36	0xbf85c426	-1.0450485
37	0xbfc8b433	-1.5679992
38	0xbef8165a	-0.48454553
39	0x3f1fd555	0.62434894

2.weight f4 [1, 40]
0	0x40475409	3.114504
1	0x3f85a22b	1.0440115
2	0xbf8f6ef4	-1.1205735
3	0x3cc2efee	0.023796048
4	0x4022637c	2.537322
5	0x3fbaa0d3	1.458033
6	0xbf633b50	-0.8876238
7	0xbf6d4fe7	-0.92700046
8	0xbffbed80	-1.9681854
9	0xbf86220e	-1.0479143
10	0x3e753be5	0.23948629
11	0xbf8e9ebb	-1.1142191
12	0xbfc3a9ab	-1.5286154
13	0xbf7da7c5	-0.9908412
14	0x401933d0	2.3937874
15	0xbf989322	-1.1919901
16	0xbf9f6bf0	-1.2454815
17	0xbfbb79b4	-1.4646516
18	0xbfc52096	-1.540057
19	0xbf64b53b	-0.89339036
20	0xbf88689e	-1.0656927
21	0xbf4197ba	-0.7562214
22	0xbee3964f	-0.44450614
23	0xbf10d8ef	-0.56581014
24	0xbeac89d7	-0.33698913
25	0x402ff1d6	2.7491355
26	0x4035131f	2.829292
27	0xbe61af37	-0.22039495
28	0xbfa19726	-1.2624252
29	0xbf1b6be2	-0.6071149
30	0xbf5ee447	-0.87067074
31	0xbf81e816	-1.0148952
32	0xbec5698e	-0.38557094
33	0x3f515333	0.81767577
34	0xc002fe19	-2.046759
35	0x3f173324	0.5906241
36	0xbfb7c04e	-1.4355562
37	0xc006c7e0	-2.1059494
38	0xbf258748	-0.6465955
39	0x3f35f4f6	0.71076906

0.weight f4 [40, 1]
0	0xc04ef3b9	-3.2336257
1	0x3fa8d599	1.3190185
2	0xbfbb31fb	-1.4624628
3	0xbae82ac8	-0.0017712945
4	0xc02870e0	-2.6318893
5	0x3fee5ea8	1.8622637
6	0x3f952aef	1.1653727
7	0xbf907fff	-1.1289061
8	0x4027a0ab	2.6191814
9	0xbfb0ad54	-1.3802896
10	0x3e897138	0.26844192
11	0x3fbe3626	1.4860275
12	0xbfef5afb	-1.869964
13	0xbfa8bacd	-1.3182007
14	0xc01c89d6	-2.4459128
15	0xbfbfdf24	-1.4989972
16	0xbfc9e8a3	-1.577412
17	0x3ffc59a9	1.9714862
18	0x3fc3ff7d	1.5312344
19	0xbf98a9d4	-1.1926827
20	0x3f85e8c9	1.0461665
21	0xbf8b603f	-1.0888747
22	0xbf14e28a	-0.5815817
23	0x3f1f273b	0.62169236
24	0xbeef56ec	-0.46746004
25	0x40481a99	3.1266234
26	0x4058e645	3.3890545
27	0xbea6bfd8	-0.3256824
28	0x3fad01b6	1.3516147
29	0x3f2ae598	0.6675658
30	0x3f78f179	0.9724346
31	0x3f840d7f	1.0316619
32	0xbf052ba8	-0.5201974
33	0xbf7cd7f4	-0.9876702
34	0x4002dfca	2.044909
35	0xbf349840	-0.70544815
36	0x3fc39756	1.5280559
37	0x4012a59a	2.2913575
38	0x3f353b3a	0.707935
39	0xbf5ccdf1	-0.8625174

0.bias f4 [40]
0	0x3ea45b84	0.3210107
1	0xbe63ba06	-0.22238931
2	0x3ef8d6ea	0.48601466
3	0x3be777d0	0.0070638433
4	0x3e85c175	0.26124159
5	0xbec1a99b	-0.3782471
6	0xbeb16524	-0.34647477
7	0x3ee86474	0.4538914
8	0xbf47448b	-0.77838963
9	0x3f0dede8	0.5544114
10	0xbe254076	-0.16137871
11	0xbee228bc	-0.44171703
12	0x3f406eae	0.75168884
13	0x3ee0736e	0.43838066
14	0x3f99c79e	1.2014043
15	0x3ee80edd	0.4532384
16	0x3ef42fc4	0.47692692
17	0xbf162dfa	-0.58663905
18	0xbf993d9d	-1.1971928
19	0x3f6f6fe4	0.93530107
20	0xbf515707	-0.8177342
21	0x3f4da4f2	0.8032981
22	0x3ed46a36	0.41487283
23	0xbedf0441	-0.43557933
24	0x3eb120b8	0.34595275
25	0xbff0149e	-1.8756292
26	0xbfdf826c	-1.7461677
27	0x3e82dc20	0.25558567
28	0xbf726745	-0.94688827
29	0xbeef84c0	-0.46780968
30	0xbf2e65bd	-0.6812399
31	0xbf4dabf5	-0.8034051
32	0x3ed0f906	0.4081499
33	0x3f62109c	0.88306594
34	0xbfcc9849	-1.5983974
35	0x3f216e32	0.6305877
36	0xbf89052b	-1.0704702
37	0xbfcd7bd4	-1.6053414
38	0xbefdf704	-0.4960252
39	0x3f457e95	0.77146274

2.weight f4 [1, 40]
0	0x404bc4b3	3.1838806
1	0x3f794b6e	0.9738072
2	0xbf9785c0	-1.1837692
3	0x3cac07fc	0.020999901
4	0x40260081	2.5937808
5	0x3fb06961	1.3782159
6	0xbf5d84ce	-0.8653077
7	0xbf7f93e1	-0.9983502
8	0xbff5c17d	-1.9199673
9	0xbf916325	-1.1358382
10	0x3e817f0a	0.25292236
11	0xbf8b2426	-1.0870407
12	0xbfd2cc4c	-1.6468596
13	0xbf8622b1	-1.0479337
14	0x4018e7cd	2.389148
15	0xbfa1190e	-1.2585771
16	0xbfa865e4	-1.3156095
17	0xbfb6fc68	-1.4295778
18	0xbfc737c8	-1.5563898
19	0xbf79bf48	-0.975575
20	0xbf89cacf	-1.0765017
21	0xbf555182	-0.83327496
22	0xbef80ee6	-0.48448867
23	0xbf111384	-0.56670403
24	0xbebd56eb	-0.36980376
25	0x403a15de	2.9075847
26	0x4031a54a	2.7757134
27	0xbe798396	-0.24366602
28	0xbfa1b0ac	-1.2632041
29	0xbf1babdb	-0.60809106
30	0xbf5f61e1	-0.87258726
31	0xbf836207	-1.026429
32	0xbed821b3	-0.4221321
33	0x3f8a3497	1.0797299
34	0xc004679f	-2.0688245
35	0x3f46f091	0.77710825
36	0xbfb7d332	-1.4361327
37	0xc006f1bb	-2.108504
38	0xbf25c499	-0.6475311
39	0x3f70a81a	0.940065

0.weight f4 [40, 1]
0	0xc052677e	-3.2875667
1	0x3fa58556	1.2931316
2	0xbfbee7b3	-1.4914459
3	0xbb32a5cb	-0.0027259465
4	0xc02b40d5	-2.675832
5	0x3feb5e0f	1.838808
6	0x3f95d028	1.1704149
7	0xbf95ad7a	-1.1693566
8	0x402852c8	2.6300526
9	0xbfb68efd	-1.4262387
10	0x3e900489	0.2812846
11	0x3fbefe85	1.4921423
12	0xbff7e5b3	-1.9366974
13	0xbfac03ed	-1.3438698
14	0xc01ad065	-2.4189694
15	0xbfc3fa82	-1.5310824
16	0xbfce33ec	-1.6109595
17	0x3ffd5f78	1.979476
18	0x3fc58125	1.5430037
19	0xbfa0e6a2	-1.2570384
20	0x3f86f20d	1.0542618
21	0xbf932b61	-1.1497613
22	0xbf1dec70	-0.616889
23	0x3f2149ed	0.63003427
24	0xbefce396	-0.49392384
25	0x40518a9b	3.2740848
26	0x405d5583	3.4583442
27	0xbeaedf4c	-0.34154737
28	0x3faf608e	1.3701341
29	0x3f2d30c1	0.6765252
30	0x3f7c3720	0.98521614
31	0x3f84c5b1	1.0372831
32	0xbf0c45ac	-0.5479381
33	0xbf949ef5	-1.161101
34	0x4003dd23	2.060372
35	0xbf54539a	-0.82940066
36	0x3fc65680	1.5495148
37	0x4014ab45	2.3229535
38	0x3f37b51d	0.7176073
39	0xbf81a5c9	-1.0128719

0.bias f4 [40]
0	0x3ea9a45c	0.3313321
1	0xbe843167	-0.2581894
2	0x3efd4ee1	0.49474242
3	0x3b5e7fed	0.0033950761
4	0x3e8a0fa5	0.2696506
5	0xbebc0084	-0.36719143
6	0xbeb2a277	-0.34889576
7	0x3ef0e04a	0.4704612
8	0xbf48ae89	-0.7839132
9	0x3f12d6f5	0.5735925
10	0xbe2c815e	-0.16846225
11	0xbee3c8fd	-0.4448928
12	0x3f476d7a	0.7790142
13	0x3ee46514	0.44608366
14	0x3f98ad76	1.1927936
15	0x3eede061	0.4646025
16	0x3efa43a5	0.48879734
17	0xbf1733fb	-0.5906369
18	0xbf9c0d78	-1.219161
19	0x3f7fa7b2	0.9986526
20	0xbf553e79	-0.8329845
21	0x3f57fd12	0.8437053
22	0x3ee0709f	0.43835923
23	0xbee24a8b	-0.44197497
24	0x3ebaaba3	0.36459073
25	0xbffa8bef	-1.9573954
26	0xbfe1618e	-1.7607896
27	0x3e8b28c6	0.27179545
28	0xbf761541	-0.9612618
29	0xbef30670	-0.4746585
30	0xbf30f07c	-0.6911695
31	0xbf521323	-0.8206045
32	0x3edf157a	0.43571073
33	0x3f84e2d6	1.0381725
34	0xbfd05c94	-1.6278253
35	0x3f3e2dc2	0.7428857
36	0xbf8b09b7	-1.086234
37	0xbfd06d83	-1.628342
38	0xbf00cd47	-0.5031323
39	0x3f684a7e	0.90738666

2.weight f4 [1, 40]
0	0x404f0604	3.2347422
1	0x3f6803e8	0.9063096
2	0xbf9bba0e	-1.2166154
3	0x3c995e26	0.018721651
4	0x4028a6cd	2.6351807
5	0x3fa46520	1.2843361
6	0xbf55515c	-0.8332727
7	0xbf85c73e	-1.0451429
8	0xbfecbb9e	-1.8494756
9	0xbf98c50a	-1.1935132
10	0x3e85a954	0.2610575
11	0xbf860a02	-1.0471804
12	0xbfdcb934	-1.724402
13	0xbf89f052	-1.0776465
14	0x4015c411	2.340092
15	0xbfa5a817	-1.2941922
16	0xbfad3391	-1.3531362
17	0xbfb04f3c	-1.377418
18	0xbfc6f95c	-1.5544848
19	0xbf8a8181	-1.0820771
20	0xbf899827	-1.0749558
21	0xbf6def9e	-0.9294375
22	0xbf090f71	-0.53539187
23	0xbf108eff	-0.56468195
24	0xbed26151	-0.41089872
25	0x40403ca8	3.0037022
26	0x402f4f20	2.7392044
27	0xbe8bff20	-0.27343082
28	0xbfa1035f	-1.2579154
29	0xbf1b1e51	-0.60593134
30	0xbf5eaca8	-0.869822
31	0xbf834580	-1.0255585
32	0xbeeffa8f	-0.4687085
33	0x3fa6c215	1.3027979
34	0xc004412c	-2.0664778
35	0x3f6facad	0.9362286
36	0xbfb70762	-1.4299128
37	0xc0066e2d	-2.1004746
38	0xbf252a01	-0.6451722
39	0x3f9149fd	1.1350704

0.weight f4 [40, 1]
0	0xc053fc46	-3.3122725
1	0x3fa39e98	1.2782774
2	0xbfc0a7a0	-1.5051155
3	0xbb9ee02e	-0.0048485016
4	0xc02c8a86	-2.6959548
5	0x3fe8a8ae	1.8176477
6	0x3f96625b	1.1748766
7	0xbf98f77b	-1.1950525
8	0x4028ef65	2.6396115
9	0xbfba522a	-1.4556324
10	0x3e944e32	0.28965908
11	0x3fbfafee	1.4975564
12	0xbffd5305	-1.979096
13	0xbfad8db3	-1.3558868
14	0xc019be8c	-2.402255
15	0xbfc5e1aa	-1.5459492
16	0xbfd033b0	-1.6265774
17	0x3ffe4921	1.9866067
18	0x3fc6d2b6	1.5533054
19	0xbfaa995b	-1.332805
20	0x3f87e8ec	1.0617957
21	0xbf9ae47a	-1.2100976
22	0xbf276bee	-0.6539906
23	0x3f231fb2	0.6372024
24	0xbf070338	-0.52739286
25	0x4057b265	3.3702633
26	0x40613312	3.518742
27	0xbeb8d108	-0.36096978
28	0x3fb16bcd	1.3861023
29	0x3f2f2a26	0.6842369
30	0x3f7f0c00	0.99627686
31	0x3f85c25f	1.0449942
32	0xbf14bffc	-0.58105445
33	0xbfa6b133	-1.3022827
34	0x4004c981	2.0747988
35	0xbf6e9d6c	-0.93208957
36	0x3fc89b4a	1.567239
37	0x40165659	2.3490202
38	0x3f39c45e	0.7256526
39	0xbf918982	-1.1370089

0.bias f4 [40]
0	0x3eabfc48	0.33590913
1	0xbe85d900	-0.2614212
2	0x3efcf211	0.49403432
3	0x3b908557	0.0044104266
4	0x3e8bfa17	0.2733924
5	0xbebe766b	-0.3719972
6	0xbeb224b8	-0.3479364
7	0x3ef61599	0.48063353
8	0xbf48417e	-0.78224933
9	0x3f15c82d	0.5850857
10	0xbe31d133	-0.1736496
11	0xbee343c4	-0.4438764
12	0x3f4bb8c4	0.79578805
13	0x3ee43884	0.44574368
14	0x3f96b4f0	1.1773968
15	0x3eefd134	0.46839297
16	0x3efc2b5f	0.4925184
17	0xbf16c2b5	-0.5889085
18	0xbf9d465c	-1.2287097
19	0x3f87df98	1.061511
20	0xbf56cd47	-0.8390698
21	0x3f647f5d	0.8925684
22	0x3eed1c0f	0.4631047
23	0xbee39dd9	-0.44456366
24	0x3ec0f664	0.3768798
25	0xc0011bfb	-2.0173328
26	0xbfe43869	-1.7829715
27	0x3e932c78	0.28744864
28	0xbf77900d	-0.9670418
29	0xbef46f13	-0.47740993
30	0xbf31f37b	-0.69512147
31	0xbf536382	-0.8257371
32	0x3eecd7e5	0.46258464
33	0x3f96dfbc	1.1787028
34	0xbfd1ddf6	-1.6395862
35	0x3f57ad90	0.8424921
36	0xbf8bf4f6	-1.0934131
37	0xbfd1c6b3	-1.6388763
38	0xbf019ca4	-0.5062964
39	0x3f83a638	1.0285101

2.weight f4 [1, 40]
0	0x40505b51	3.2555735
1	0x3f5a91d9	0.85378796
2	0xbf9cf942	-1.2263567
3	0x3c96c0a2	0.018402401
4	0x4029bcaa	2.6521401
5	0x3f9ade53	1.2099098
6	0xbf4e837f	-0.806694
7	0xbf892b8b	-1.0716413
8	0xbfe53d6d	-1.7909371
9	0xbf9cf919	-1.2263519
10	0x3e8786a1	0.264699
11	0xbf81cd50	-1.0140781
12	0xbfe2587f	-1.7683257
13	0xbf8b1378	-1.0865316
14	0x401303d6	2.2971091
15	0xbfa73a08	-1.3064585
16	0xbfaedbeb	-1.3660864
17	0xbfaac426	-1.334111
18	0xbfc60c34	-1.5472474
19	0xbf98f8d6	-1.1950939
20	0xbf88ef2a	-1.0697987
21	0xbf835600	-1.026062
22	0xbf162eeb	-0.5866534
23	0xbf0fa505	-0.56111175
24	0xbee79e83	-0.45238122
25	0x40430570	3.0472069
26	0x402e0770	2.719204
27	0xbe9c0446	-0.3047201
28	0xbf9fed04	-1.2494206
29	0xbf1a23dd	-0.60210973
30	0xbf5d546c	-0.8645694
31	0xbf82b01d	-1.0209996
32	0xbf04a0ac	-0.51807666
33	0x3fbd5cdd	1.4793965
34	0xc003a50d	-2.056949
35	0x3f87f641	1.0622026
36	0xbfb5c6a5	-1.4201247
37	0xc0058f5f	-2.0868757
38	0xbf241c6f	-0.64105886
39	0x3fa5054b	1.289224

0.weight f4 [40, 1]
0	0xc054b2c1	-3.3234103
1	0x3fa353f9	1.2760001
2	0xbfc1461d	-1.5099522
3	0xbbd3b6ed	-0.0064610154
4	0xc02d1efe	-2.7050166
5	0x3fe84165	1.8144957
6	0x3f971533	1.1803344
7	0xbf9b46af	-1.2130946
8	0x4029b369	2.6515753
9	0xbfbcf7a2	-1.4763072
10	0x3e96fcb6	0.29489678
11	0x3fc08d70	1.5043163
12	0xc000913f	-2.008865
13	0xbfadf9c6	-1.359185
14	0xc0183c2a	-2.3786721
15	0xbfc6c255	-1.5528055
16	0xbfd11e7d	-1.6337429
17	0x3fff69ca	1.9954159
18	0x3fc702b3	1.5547699
19	0xbfb45f89	-1.4091655
20	0x3f881775	1.0632159
21	0xbfa22320	-1.2666969
22	0xbf30dca9	-0.690867
23	0x3f23fa73	0.6405403
24	0xbf0ed50e	-0.55793846
25	0x405b8cf9	3.4304793
26	0x40643c1c	3.5661688
27	0xbec2cc40	-0.38046455
28	0x3fb26b87	1.3939065
29	0x3f3017a4	0.6878607
30	0x3f802ffc	1.0014644
31	0x3f85ee62	1.0463374
32	0xbf1d3a0d	-0.61416703
33	0xbfb75844	-1.4323812
34	0x4004f5ef	2.0775106
35	0xbf8330e3	-1.0249294
36	0x3fc9be30	1.5761166
37	0x40172fb2	2.362286
38	0x3f3acf38	0.7297244
39	0xbfa003e6	-1.250119

0.bias f4 [40]
0	0x3eac33ec	0.33633363
1	0xbe86f800	-0.26361084
2	0x3efc838d	0.49319115
3	0x3bbae070	0.0057030246
4	0x3e8c3c1d	0.27389613
5	0xbebfce14	-0.37461913
6	0xbeb2139c	-0.34780586
7	0x3ef9a4b1	0.48758462
8	0xbf483be9	-0.78216416
9	0x3f17ca68	0.5929322
10	0xbe356718	-0.17715108
11	0xbee33fe8	-0.44384694
12	0x3f4ea807	0.8072514
13	0x3ee55fca	0.44799644
14	0x3f95645f	1.1671256
15	0x3ef034ab	0.46915182
16	0x3efc9507	0.4933245
17	0xbf16c75e	-0.5889796
18	0xbf9e6929	-1.2375842
19	0x3f908eff	1.1293639
20	0xbf583da9	-0.84469086
21	0x3f71c51c	0.9444139
22	0x3ef97383	0.4872094
23	0xbee51552	-0.4474283
24	0x3ec901b5	0.39259115
25	0xc003b24c	-2.0577574
26	0xbfe7844d	-1.808725
27	0x3e9c0e5e	0.3047971
28	0xbf790ff3	-0.9728996
29	0xbef5f9a2	-0.48042017
30	0xbf330fc5	-0.6994594
31	0xbf54c453	-0.83112067
32	0x3efbe8b1	0.49200967
33	0x3fa3e00c	1.2802749
34	0xbfd340b1	-1.6504117
35	0x3f6a7d4c	0.9159744
36	0xbf8ccedd	-1.100063
37	0xbfd2fba9	-1.648305
38	0xbf025ac2	-0.50919735
39	0x3f8f0653	1.1173805

2.weight f4 [1, 40]
0	0x4050cf98	3.2626705
1	0x3f5629ff	0.8365783
2	0xbf9cf8c2	-1.2263415
3	0x3c996cbf	0.018728612
4	0x402a1b4b	2.6579158
5	0x3f97c02f	1.1855525
6	0xbf4cb1cf	-0.79958814
7	0xbf8b6b29	-1.0892078
8	0xbfe343b7	-1.775504
9	0xbf9fc452	-1.2481787
10	0x3e897c86	0.26852816
11	0xbf80afff	-1.005371
12	0xbfe612ba	-1.7974465
13	0xbf8b15f1	-1.0866071
14	0x4010391d	2.253486
15	0xbfa79225	-1.3091475
16	0xbfaf3a25	-1.3689619
17	0xbfa952d4	-1.3228402
18	0xbfc57b02	-1.5428164
19	0xbfa89862	-1.3171504
20	0xbf8887f0	-1.0666485
21	0xbf8f9ac4	-1.1219106
22	0xbf237045	-0.63843185
23	0xbf0f8162	-0.560568
24	0xbefd2ee2	-0.4944983
25	0x4045e75b	3.0922458
26	0x402fa746	2.7445846
27	0xbead1575	-0.33805433
28	0xbf9fbace	-1.2478883
29	0xbf19fdb6	-0.6015276
30	0xbf5d2674	-0.863868
31	0xbf825362	-1.0181696
32	0xbf12408f	-0.5712976
33	0x3fd1998d	1.6374985
34	0xc00344f9	-2.0510848
35	0x3f966cab	1.1751913
36	0xbfb58aef	-1.4183024
37	0xc0056ab7	-2.0846384
38	0xbf23f21b	-0.640413
39	0x3fb6afc5	1.4272391

0.weight f4 [40, 1]
0	0xc054989f	-3.3218153
1	0x3fa451f3	1.2837509
2	0xbfc2246b	-1.5167364
3	0xbbfaf62b	-0.00765874
4	0xc02d0b38	-2.7038097
5	0x3fe9a73a	1.8254158
6	0x3f970157	1.1797284
7	0xbf9d2a5d	-1.2278553
8	0x40299b9a	2.6501222
9	0xbfbf228f	-1.4932421
10	0x3e9852f2	0.29750782
11	0x3fc0721a	1.5034821
12	0xc0022063	-2.0332267
13	0xbfad8d94	-1.3558831
14	0xc0167ed0	-2.35149
15	0xbfc71e4f	-1.5556124
16	0xbfd17c51	-1.6366063
17	0x3fff43e4	1.9942594
18	0x3fc66b1e	1.550144
19	0xbfbce89c	-1.4758487
20	0x3f87966d	1.0592781
21	0xbfa4a180	-1.2861786
22	0xbf3a0ed4	-0.72678876
23	0x3f251586	0.6448597
24	0xbf15df33	-0.585437
25	0x405d7898	3.4604855
26	0x4066b3d0	3.604725
27	0xbecb874f	-0.3975167
28	0x3fb398ba	1.4030983
29	0x3f3142c8	0.69242525
30	0x3f810940	1.0080948
31	0x3f8572f6	1.0425708
32	0xbf249b13	-0.64299124
33	0xbfc5022f	-1.5391291
34	0x400549f9	2.08264
35	0xbf8cf8c5	-1.1013418
36	0x3fcb14bf	1.5865706
37	0x401827c4	2.377427
38	0x3f3c0251	0.73441035
39	0xbfabecd9	-1.3431655

0.bias f4 [40]
0	0x3ead6c45	0.33871666
1	0xbe858b3b	-0.26082787
2	0x3ef47baf	0.47750613
3	0x3be1d764	0.0068921316
4	0x3e8cd8aa	0.27509052
5	0xbebde3c0	-0.37087822
6	0xbeb32db0	-0.34995794
7	0x3efd8d3a	0.4952181
8	0xbf497eed	-0.787093
9	0x3f1a0276	0.60160005
10	0xbe36984c	-0.17831534
11	0xbee4af8c	-0.44665182
12	0x3f51e133	0.8198425
13	0x3eed0830	0.4629531
14	0x3f936526	1.1515243
15	0x3ef06ab7	0.46956417
16	0x3efcee95	0.49400774
17	0xbf17be66	-0.592749
18	0xbf9e12b4	-1.2349458
19	0x3f96ddc6	1.178643
20	0xbf58038c	-0.8438041
21	0x3f8386e5	1.0275542
22	0x3f028a4e	0.50992286
23	0xbee70c6e	-0.4512667
24	0x3ed2478d	0.41070214
25	0xc0048f1f	-2.0712354
26	0xbfe87820	-1.8161659
27	0x3ea29550	0.3175454
28	0xbf7b67a0	-0.98204994
29	0xbef8218c	-0.48463094
30	0xbf34959f	-0.70540804
31	0xbf548d94	-0.8302853
32	0x3f03755a	0.5135094
33	0x3fb0e50a	1.3819897
34	0xbfd0f981	-1.6326143
35	0x3f7d39f3	0.9891655
36	0xbf8e2350	-1.1104527
37	0xbfd4f981	-1.6638643
38	0xbf039112	-0.51393235
39	0x3f9a5f4f	1.2060336

2.weight f4 [1, 40]
0	0x40508431	3.2580683
1	0x3f564a87	0.8370747
2	0xbf9cb5db	-1.2242998
3	0x3c9d4cf5	0.019201735
4	0x4029dde3	2.654168
5	0x3f97da10	1.1863422
6	0xbf49e59e	-0.78865993
7	0xbf8d6457	-1.1046246
8	0xbfe02bf7	-1.7513417
9	0xbfa23596	-1.2672603
10	0x3e89b22d	0.2689375
11	0xbf7de01c	-0.9917009
12	0xbfe957f2	-1.8229964
13	0xbf8ae00c	-1.0849624
14	0x400d3486	2.2063308
15	0xbfa774ff	-1.3082579
16	0xbfaf1c54	-1.368052
17	0xbfa70737	-1.3049077
18	0xbfc36683	-1.5265659
19	0xbfb4e319	-1.4131805
20	0xbf871993	-1.055468
21	0xbf99c7a9	-1.2014056
22	0xbf301af6	-0.6879114
23	0xbf1042ba	-0.56351817
24	0xbf08dc37	-0.5346102
25	0x40463ba1	3.0973895
26	0x40309e0c	2.7596464
27	0xbeba76b0	-0.36418676
28	0xbfa084af	-1.2540492
29	0xbf1acdd2	-0.60470307
30	0xbf5e5c22	-0.86859334
31	0xbf80f13e	-1.0073621
32	0xbf1cf7f2	-0.61315835
33	0x3fe4046e	1.7813852
34	0xc001e102	-2.0293584
35	0x3fa3975a	1.2780564
36	0xbfb66ce1	-1.4251977
37	0xc0061a42	-2.0953526
38	0xbf24cced	-0.6437519
39	0x3fc6c3a5	1.5528456

0.weight f4 [40, 1]
0	0xc054b376	-3.3234534
1	0x3fa4f8bf	1.2888411
2	0xbfc261ee	-1.5186136
3	0xbc0beea8	-0.008540787
4	0xc02d217d	-2.705169
5	0x3fea93b8	1.832633
6	0x3f974a81	1.1819612
7	0xbf9e830d	-1.2383744
8	0x4029ebde	2.6550212
9	0xbfc0ae7e	-1.5053251
10	0x3e99294c	0.2991432
11	0x3fc0cced	1.5062538
12	0xc0033ccb	-2.0505855
13	0xbfad819c	-1.3555179
14	0xc0153c04	-2.331788
15	0xbfc6ee42	-1.554146
16	0xbfd1475b	-1.6349901
17	0x3fffba26	1.9978683
18	0x3fc50a70	1.539381
19	0xbfc43b39	-1.5330573
20	0x3f86a29b	1.0518373
21	0xbfaadefd	-1.3349301
22	0xbf4173f7	-0.75567573
23	0x3f25cdb6	0.64767015
24	0xbf1ba125	-0.6079276
25	0x405eac94	3.4792833
26	0x40688314	3.6330004
27	0xbed31b20	-0.41231632
28	0x3fb47042	1.4096758
29	0x3f320b87	0.6954884
30	0x3f819b5d	1.0125538
31	0x3f847e1b	1.0350984
32	0xbf2af63f	-0.6678199
33	0xbfcf77db	-1.6208452
34	0x40046816	2.068853
35	0xbf947dba	-1.1600869
36	0x3fcc0953	1.5940346
37	0x4018db12	2.388371
38	0x3f3cd2cc	0.7375915
39	0xbfb50b1a	-1.4144013

0.bias f4 [40]
0	0x3eabae0a	0.3353122
1	0xbe86b770	-0.26311827
2	0x3eef0376	0.46682328
3	0x3bfb7a95	0.007674525
4	0x3e8b5009	0.272095
5	0xbebf81d1	-0.3740373
6	0xbeb41062	-0.3516875
7	0x3effdd41	0.4997349
8	0xbf4a7fcb	-0.79101247
9	0x3f1b528e	0.60672843
10	0xbe379623	-0.17928366
11	0xbee5d371	-0.4488788
12	0x3f53c976	0.8272928
13	0x3eeba2a7	0.4602253
14	0x3f921e2d	1.1415459
15	0x3ef0d702	0.47039038
16	0x3efd857f	0.49515912
17	0xbf18813a	-0.59572184
18	0xbf9d6a03	-1.2297977
19	0x3f9cb6df	1.2243308
20	0xbf571a25	-0.8402427
21	0x3f887bf7	1.0662831
22	0x3f08c836	0.534305
23	0xbee7b3a6	-0.45254248
24	0x3edbf7f8	0.42962623
25	0xc005469a	-2.0824342
26	0xbfeae89f	-1.835224
27	0x3ea89597	0.32926628
28	0xbf7c03f3	-0.98443526
29	0xbef8cc15	-0.48593202
30	0xbf350ac8	-0.70719576
31	0xbf53cd99	-0.8273559
32	0x3f088822	0.5333272
33	0x3fba12ad	1.4536949
34	0xbfcfff8b	-1.624986
35	0x3f852e30	1.040472
36	0xbf8e7ce2	-1.1131861
37	0xbfd57e60	-1.6679192
38	0xbf03f389	-0.5154348
39	0x3fa25f71	1.2685376

2.weight f4 [1, 40]
0	0x405076a8	3.2572422
1	0x3f570843	0.8399698
2	0xbf9c2122	-1.2197611
3	0x3ca0f707	0.019649042
4	0x4029d2f8	2.6535015
5	0x3f986265	1.1905028
6	0xbf4976e1	-0.7869702
7	0xbf8ec29a	-1.1153138
8	0xbfdfb67d	-1.7477566
9	0xbfa3e690	-1.2804737
10	0x3e8a0813	0.26959285
11	0xbf7d5be8	-0.9896836
12	0xbfeb9c64	-1.8407102
13	0xbf8a5752	-1.0807898
14	0x400b1851	2.1733592
15	0xbfa6e4cf	-1.3038577
16	0xbfae8545	-1.3634421
17	0xbfa6b31c	-1.302341
18	0xbfc0ced8	-1.5063124
19	0xbfbff604	-1.4996953
20	0xbf8552bb	-1.0415872
21	0xbfa37581	-1.2770234
22	0xbf3b6a5e	-0.7320918
23	0xbf10a0e5	-0.56495506
24	0xbf11fef5	-0.5702966
25	0x4046bbcb	3.105212
26	0x40325cbb	2.7869098
27	0xbec6738d	-0.38760033
28	0xbfa0e674	-1.2570329
29	0xbf1b331c	-0.6062486
30	0xbf5ef34e	-0.87090003
31	0xbf7e69fb	-0.99380463
32	0xbf269f56	-0.6508688
33	0x3ff1edbb	1.8900675
34	0xc00021dc	-2.0020666
35	0x3fad8aab	1.3557943
36	0xbfb6da5b	-1.4285387
37	0xc0066f7e	-2.100555
38	0xbf2537ab	-0.6453807
39	0x3fd2e7fe	1.6477048

0.weight f4 [40, 1]
0	0xc0548356	-3.320516
1	0x3fa5d869	1.2956668
2	0xbfc1f1fb	-1.5151972
3	0xbc168fce	-0.009189559
4	0xc02cfa6d	-2.7027848
5	0x3febd06d	1.8422982
6	0x3f977ab0	1.1834316
7	0xbf9f559e	-1.2448003
8	0x402a20b4	2.658246
9	0xbfc1a08b	-1.5127119
10	0x3e999da9	0.30003098
11	0x3fc108a3	1.5080761
12	0xc003eabf	-2.0612028
13	0xbfad21d4	-1.3525949
14	0xc01444f1	-2.3167078
15	0xbfc654a0	-1.5494576
16	0xbfd0a9fb	-1.6301874
17	0x400003f4	2.0002413
18	0x3fc3ec1d	1.5306431
19	0xbfca12bc	-1.5786967
20	0x3f85e3f9	1.0460197
21	0xbfafdac6	-1.3738639
22	0xbf47d4c2	-0.7805902
23	0x3f26234c	0.6489761
24	0xbf209706	-0.62730443
25	0x405f53cc	3.4894896
26	0x4069e969	3.6548712
27	0xbed922e0	-0.4240942
28	0x3fb4c827	1.4123582
29	0x3f326683	0.6968767
30	0x3f81d9dc	1.014461
31	0x3f83cf92	1.029772
32	0xbf3007e1	-0.6876202
33	0xbfd756d7	-1.6823376
34	0x40038691	2.0550883
35	0xbf9a22f1	-1.2041913
36	0x3fcc6d51	1.5970861
37	0x4019246b	2.3928478
38	0x3f3d3747	0.7391247
39	0xbfbbe7bb	-1.4680094

0.bias f4 [40]
0	0x3eab38cd	0.33441773
1	0xbe874a0a	-0.26423675
2	0x3eed4b9a	0.46346742
3	0x3c078089	0.008270391
4	0x3e8af07b	0.27136597
5	0xbec050b7	-0.3756158
6	0xbeb49b24	-0.35274613
7	0x3f010791	0.5040217
8	0xbf4b1d5c	-0.79341674
9	0x3f1c92ad	0.6116131
10	0xbe3853cd	-0.18000717
11	0xbee68681	-0.45024493
12	0x3f5598da	0.8343636
13	0x3eea3792	0.45745522
14	0x3f90e45d	1.1319691
15	0x3ef0c386	0.47024173
16	0x3efd46e4	0.49468148
17	0xbf18f92a	-0.59755194
18	0xbf9c8eb0	-1.2231045
19	0x3fa18dd7	1.2621411
20	0xbf55d859	-0.83533245
21	0x3f8c9835	1.098395
22	0x3f0d27e2	0.5513898
23	0xbee8301f	-0.45349213
24	0x3ee2cfea	0.4429925
25	0xc005cf86	-2.0907912
26	0xbfebe37f	-1.8428801
27	0x3ead99be	0.33906358
28	0xbf7ca3b2	-0.9868728
29	0xbef95489	-0.48697308
30	0xbf3574b0	-0.70881176
31	0xbf528818	-0.8223891
32	0x3f0cbc16	0.54974496
33	0x3fc17132	1.511267
34	0xbfcf1da3	-1.618092
35	0x3f8a77dd	1.0817829
36	0xbf8ed77d	-1.1159512
37	0xbfd60400	-1.6719971
38	0xbf0436bf	-0.51646036
39	0x3fa8cc19	1.3187286

2.weight f4 [1, 40]
0	0x40502b7c	3.252654
1	0x3f58ae26	0.8464073
2	0xbf9b2b40	-1.2122574
3	0x3ca3f133	0.020012474
4	0x402995e4	2.6497736
5	0x3f998f68	1.1996889
6	0xbf490a71	-0.7853156
7	0xbf8fa37f	-1.122177
8	0xbfdf4177	-1.7441853
9	0xbfa4fd08	-1.2889719
10	0x3e8a2496	0.26981038
11	0xbf7cd81b	-0.9876725
12	0xbfed1111	-1.8520833
13	0xbf897c4f	-1.0741061
14	0x40096ecb	2.1473873
15	0xbfa5e691	-1.2960988
16	0xbfad7a38	-1.3552923
17	0xbfa65e45	-1.2997519
18	0xbfbe8067	-1.4882935
19	0xbfc8b4e6	-1.5680206
20	0xbf83be69	-1.0292484
21	0xbfab1859	-1.3366805
22	0xbf444ad8	-0.766767
23	0xbf10b67f	-0.56528467
24	0xbf1927eb	-0.59826535
25	0x4046e751	3.1078684
26	0x40337da7	2.8045442
27	0xbecfe7b6	-0.4060647
28	0xbfa0fa83	-1.257645
29	0xbf1b4a3d	-0.60660154
30	0xbf5f1777	-0.8714518
31	0xbf7b52a0	-0.9817295
32	0xbf2e3ebf	-0.6806449
33	0x3ffc825c	1.9727283
34	0xbffd1ab2	-1.9773772
35	0x3fb51c3e	1.4149244
36	0xbfb6f03e	-1.4292066
37	0xc006823e	-2.1016994
38	0xbf254fad	-0.645747
39	0x3fdc23f4	1.7198472
