dis/dis03/code/ckpts/adam/width10/seed818/ckpt_and_history.pt (torch, 13887 bytes, 33 tensors)

0.weight f4 [10, 1]
00000000: 3248 733f d9ef 383e e0cb 35bf ffc5 60bf
00000010: a8ea d23e 5e78 1ebf d147 cfbe f662 103f
00000020: b23c 17bf 894e 643f
0.95032036 0.18060245 -0.71014214 -0.8780212 0.41194654 -0.61902416 -0.4048448 0.56401
-0.5907699 0.89182335

0.bias f4 [10]
00000000: 4bf3 65be b7a4 b2bc 0a93 843e 6454 a63e
00000010: f140 38be b516 ef3e 0207 943e fbc1 0abf
00000020: 2f1a 033f 7a0b 52bf
-0.2245609 -0.021807058 0.25893432 0.3248626 -0.17993523 0.46697012 0.28911597 -0.5420224
0.5121183 -0.8204876

2.weight f4 [1, 10]
00000000: b81c 8c3e e4ff 7bbd 8deb 63be 84ef b3bd
00000010: f6f2 943d d0c3 2fbe 55b3 363e 554e 973e
00000020: 366a 373e 48f3 0ebd
0.2736566 -0.061523333 -0.22257824 -0.08785918 0.072729036 -0.1716454 0.17841847 0.2955195
0.1791161 -0.03489998

0.weight f4 [10, 1]
00000000: bc7f d83f ca0b 3e40 3b4f 48c0 bc38 63c0
00000010: 1890 803e 518a 63c0 9f0b c0c0 3fc0 e23e
00000020: 4859 31c0 d9d1 0c40
1.6913981 2.9694695 -3.1298358 -3.5503378 0.25109935 -3.5553172 -6.0014186 0.44287297
-2.7710743 2.200308

0.bias f4 [10]
00000000: 5fd7 96bf 6f4b d8bf b10b 813f ae86 883f
00000010: 71d3 afbe e3b5 e23f 96f6 223f f894 29bf
00000020: bbba 8e3f 6c97 d8bf
-1.1784476 -1.689802 1.0081693 1.0666101 -0.34341004 1.7711757 0.6365751 -0.66242933
1.1150736 -1.692121

2.weight f4 [1, 10]
00000000: 57c7 10c0 dba2 5640 4c01 1fc0 fb3f 1bc0
00000010: 45dd 23be a615 4d40 4e9e 4e40 e942 433e
00000020: 8e19 ddbf afe9 d7c0
-2.2621667 3.35369 -2.4844542 -2.42578 -0.16002376 3.2044463 3.2284122 0.19068493
-1.7273424 -6.747276

0.weight f4 [10, 1]
00000000: 287b 0040 d8d0 4540 8b65 47c0 a66b 64c0
00000010: 1890 803e c85e 6ec0 8066 c8c0 3fc0 e23e
00000020: 557a 4ac0 8584 0d40
2.0075169 3.0908718 -3.1155727 -3.5690703 0.25109935 -3.724535 -6.262512 0.44287297
-3.1637166 2.2112134

0.bias f4 [10]
00000000: b6f4 b2bf 9eae e5bf 9d9f 7f3f 3935 8a3f
00000010: 71d3 afbe d62a eb3f 7e74 283f f894 29bf
00000020: 0474 a23f 3369 d8bf
-1.398093 -1.7943914 0.99852926 1.0797492 -0.34341004 1.8372447 0.6580275 -0.66242933
1.2691655 -1.6907104

2.weight f4 [1, 10]
00000000: 3c8e 5ac0 956a 6440 5085 12c0 d68d 13c0
00000010: 45dd 23be 4250 5440 cb52 4540 e942 433e
00000020: 2b98 04c0 8b5e bdc0
-3.4149313 3.5690053 -2.2893867 -2.305532 -0.16002376 3.3173985 3.0831783 0.19068493
-2.0717876 -5.917791

0.weight f4 [10, 1]
00000000: d372 0c40 d3b4 4b40 361b 4bc0 f106 65c0
00000010: 1890 803e aa74 72c0 757a d0c0 3fc0 e23e
00000020: 9e5f 55c0 43f0 0e40
2.1945083 3.1829116 -3.1735358 -3.5785487 0.25109935 -3.7883706 -6.5149484 0.44287297
-3.333961 2.2334144

0.bias f4 [10]
00000000: 37e9 c3bf d7fc ecbf 6d46 7e3f 2d38 8d3f
00000010: 71d3 afbe 0a86 ee3f f25a 2f3f f894 29bf
00000020: f93c aa3f a81e ddbf
-1.5305547 -1.8514661 0.9932621 1.1032768 -0.34341004 1.8634655 0.68498147 -0.66242933
1.3299857 -1.727498

2.weight f4 [1, 10]
00000000: 9f14 7ac0 d209 6840 4b6b 0bc0 45f1 0dc0
00000010: 45dd 23be 271b 5440 c9fe 3d40 e942 433e
00000020: 87fc 0ac0 7554 aac0
-3.9075086 3.6255994 -2.1784236 -2.217851 -0.16002376 3.3141572 2.9686759 0.19068493
-2.171663 -5.3228097

0.weight f4 [10, 1]
00000000: 9ce3 1440 94f5 4f40 f080 51c0 17b5 6ac0
00000010: 1890 803e 981e 75c0 9444 d9c0 3fc0 e23e
00000020: 5715 5ac0 6b37 1240
2.3263922 3.249364 -3.2734947 -3.6673028 0.25109935 -3.8299923 -6.7896214 0.44287297
-3.4075525 2.2846324

0.bias f4 [10]
00000000: fab6 d0bf ffd4 f4bf 5c81 813f 505b 903f
00000010: 71d3 afbe 409a f03f 6b8d 343f f894 29bf
00000020: 9eb2 ae3f 9140 e0bf
-1.630584 -1.9127501 1.0117602 1.1277866 -0.34341004 1.8797073 0.70528287 -0.66242933
1.364826 -1.7519704

2.weight f4 [1, 10]
00000000: d38d 83c0 da6d 6740 77c4 07c0 18bc 0bc0
00000010: 45dd 23be 5bb8 5140 8c1b 3740 e942 433e
00000020: 2198 0ac0 64c9 9ac0
-4.1110625 3.6160798 -2.1213663 -2.1833553 -0.16002376 3.2768772 2.8610563 0.19068493
-2.1655352 -4.837084

0.weight f4 [10, 1]
00000000: 3b87 1b40 6a51 5540 859e 55c0 0ac4 6ec0
00000010: 1890 803e 9813 78c0 536e e0c0 3fc0 e23e
00000020: 086f 5dc0 50dd 1440
2.4301288 3.3330941 -3.3378003 -3.7307153 0.25109935 -3.876196 -7.0134673 0.44287297
-3.4599018 2.3260078

0.bias f4 [10]
00000000: e2b4 dabf adb0 f7bf 3275 833f 5b84 923f
00000010: 71d3 afbe be80 f33f 6a7f 3b3f f894 29bf
00000020: 30cb b03f 934d e6bf
-1.7086451 -1.9350792 1.027014 1.1446642 -0.34341004 1.9023664 0.73241293 -0.66242933
1.3812008 -1.7992424

2.weight f4 [1, 10]
00000000: c3b6 86c0 3a03 6740 fa58 03c0 dea1 08c0
00000010: 45dd 23be 4ba4 5040 814f 3040 e942 433e
00000020: 4568 08c0 3c50 8fc0
-4.20981 3.609572 -2.0523057 -2.1348796 -0.16002376 3.2600276 2.7548525 0.19068493
-2.131364 -4.478544

0.weight f4 [10, 1]
00000000: 8c54 2140 5909 5940 5942 5ac0 3155 73c0
00000010: 1890 803e 15a5 79c0 9b1b e8c0 3fc0 e23e
00000020: ff10 61c0 fd89 1840
2.5207853 3.3911955 -3.4102995 -3.8020747 0.25109935 -3.9007008 -7.25337 0.44287297
-3.5166624 2.3834221

0.bias f4 [10]
00000000: 84e2 e2bf dda6 fdbf ccba 853f df0f 953f
00000010: 71d3 afbe 15d2 f53f 72ba 433f f894 29bf
00000020: b5ae b23f 5ae5 ebbf
-1.7725377 -1.9816548 1.0447631 1.1645468 -0.34341004 1.9204737 0.7645637 -0.66242933
1.3959566 -1.8429368

2.weight f4 [1, 10]
00000000: 03e4 87c0 0fb6 6540 2235 00c0 29c3 06c0
00000010: 45dd 23be 4e85 4e40 e796 2b40 e942 433e
00000020: 4794 06c0 75f0 87c0
-4.2465835 3.589237 -2.003243 -2.1056616 -0.16002376 3.2268863 2.6810853 0.19068493
-2.1028001 -4.2481027

0.weight f4 [10, 1]
00000000: e226 2740 a73b 5c40 9323 5fc0 bb1b 78c0
00000010: 1890 803e 322d 7cc0 3c81 f0c0 3fc0 e23e
00000020: 3165 63c0 8728 1c40
2.6117482 3.441141 -3.4865463 -3.8766925 0.25109935 -3.9402585 -7.5157757 0.44287297
-3.5530512 2.4399736

0.bias f4 [10]
00000000: dd9d e9bf b6d9 00c0 6e6b 883f 9621 983f
00000010: 71d3 afbe 464b f73f b9eb 493f f894 29bf
00000020: ade3 b53f dc41 f2bf
-1.8251301 -2.013288 1.0657785 1.188525 -0.34341004 1.9319847 0.7887531 -0.66242933
1.4210106 -1.8926349

2.weight f4 [1, 10]
00000000: a89b 88c0 1c6c 6140 d3ae fabf 963a 05c0
00000010: 45dd 23be ea37 4c40 92e2 2640 e942 433e
00000020: 6abb 04c0 ac59 82c0
-4.269001 3.5222235 -1.9584602 -2.0817008 -0.16002376 3.1909127 2.6075788 0.19068493
-2.0739388 -4.0734463

0.weight f4 [10, 1]
00000000: 9a05 2b40 2a36 6040 2511 63c0 cddb 7bc0
00000010: 1890 803e 3679 7ec0 bb7f f6c0 3fc0 e23e
00000020: 15c8 66c0 e482 1f40
2.672217 3.503306 -3.5479214 -3.9352906 0.25109935 -3.9761481 -7.703092 0.44287297
-3.605962 2.492364

0.bias f4 [10]
00000000: c1da f1bf 1616 03c0 be94 8b3f 20c9 9b3f
00000010: 71d3 afbe f2ef f93f 13a2 4f3f f894 29bf
00000020: 5250 b83f 3a2b f9bf
-1.8894883 -2.048223 1.0904768 1.2170753 -0.34341004 1.952635 0.8110668 -0.66242933
1.4399512 -1.9466317

2.weight f4 [1, 10]
00000000: c353 86c0 4ee4 5f40 12da f4bf 849f 03c0
00000010: 45dd 23be 55b6 4a40 d76f 2040 e942 433e
00000020: 3429 03c0 5a27 79c0
-4.197725 3.4983096 -1.912905 -2.056611 -0.16002376 3.1673787 2.5068262 0.19068493
-2.0493898 -3.8930268

0.weight f4 [10, 1]
00000000: 89cc 2f40 d7c3 6340 8f2e 67c0 1ed3 7fc0
00000010: 1890 803e a133 80c0 a453 fec0 3fc0 e23e
00000020: 3e2f 6ac0 e8b0 2340
2.7468588 3.558828 -3.6122167 -3.9972606 0.25109935 -4.0063024 -7.94771 0.44287297
-3.6591334 2.5576725

0.bias f4 [10]
00000000: 56f8 f7bf 7468 05c0 16f5 8d3f c2b5 9e3f
00000010: 71d3 afbe 042c fc3f ab70 533f f894 29bf
00000020: 2b08 ba3f a38a ffbf
-1.9372661 -2.0845003 1.1090419 1.2399218 -0.34341004 1.9700933 0.8259379 -0.66242933
1.4533743 -1.9964184

2.weight f4 [1, 10]
00000000: 614f 84c0 cef8 5c40 1649 eebf 0bab 01c0
00000010: 45dd 23be 82a9 4840 ce5a 1b40 e942 433e
00000020: 8f0e 01c0 db66 71c0
-4.13469 3.4526858 -1.8616054 -2.0260646 -0.16002376 3.135346 2.4274173 0.19068493
-2.0165136 -3.7719028

0.weight f4 [10, 1]
00000000: 4288 3440 139a 6740 3b93 6bc0 b50a 82c0
00000010: 1890 803e 72a4 81c0 e931 02c1 3fc0 e23e
00000020: a558 6cc0 3c46 2840
2.8208165 3.618779 -3.6808612 -4.063807 0.25109935 -4.051324 -8.137185 0.44287297
-3.6929104 2.6292868

0.bias f4 [10]
00000000: c6d2 fdbf 3e77 07c0 f2be 8f3f 030b a13f
00000010: 71d3 afbe f9c2 fd3f e2f9 593f f894 29bf
00000020: 19e3 bc3f bebb 02c0
-1.9829948 -2.116653 1.1230147 1.2581486 -0.34341004 1.9825126 0.85146916 -0.66242933
1.4756805 -2.0427089

2.weight f4 [1, 10]
00000000: fe24 81c0 3669 5940 d678 e9bf 0170 00c0
00000010: 45dd 23be ef4b 4740 8db2 1740 e942 433e
00000020: 82a5 ffbf 0ce7 68c0
-4.0357656 3.3970466 -1.8240001 -2.0068362 -0.16002376 3.1140096 2.3702729 0.19068493
-1.9972384 -3.639102
