dis/dis03/code/ckpts/sgd_momentum/width40/seed836/ckpt_and_history.pt (torch, 18111 bytes, 33 tensors)

0.weight f4 [40, 1]
000000 16 b1 3d 3e 22 f4 6a 3e c9 15 75 bf 43 94 e3 3e
       0.18524584 0.22944692 -0.95736367 0.44449052
000010 70 fd 34 bf e8 46 0b 3f fc 2b f8 be aa c5 30 bf
       -0.70699215 0.5440507 -0.48471057 -0.6905161
000020 1c 7b 42 3f 23 59 fd 3e bd c1 f0 3e ac 69 10 3f
       0.759691 0.49482068 0.4702281 0.5641124
000030 01 7e 44 bf c1 b6 06 3f 8e 83 9c be b2 df 1a 3f
       -0.76754767 0.5262261 -0.30569118 0.6049758
000040 66 18 2e bf 2f ab f0 3b 47 fe f6 3e 84 a4 55 bf
       -0.6800598 0.0073446254 0.48240873 -0.83454156
000050 40 29 62 3f 69 e7 90 be 8b 2e 39 3f db 14 09 bf
       0.8834419 -0.28301552 0.72336644 -0.5354745
000060 46 0c 71 bf 6a a0 98 3e 2b 5f be 3e 9f f1 1f be
       -0.9415935 0.29809886 0.37181982 -0.15619515
000070 1b d5 d2 bd 8b 71 9c bd 46 be 3f bf 2f 72 ff be
       -0.10294553 -0.07638844 -0.7489971 -0.49891803
000080 c4 6b 9d 3e ec 88 4a bf 8f 01 39 3f 54 5e f3 be
       0.3074628 -0.79115176 0.72268003 -0.47532904
000090 eb e9 2f bf c1 6d bb bd c5 f1 72 3e 50 7b 62 3f
       -0.68716305 -0.09151793 0.2372504 0.8846941

0.bias f4 [40]
000000 d3 bc 6c bb e7 37 b2 bb 65 82 6c 3d b8 4d f8 bc
       -0.003612329 -0.005438793 0.05774154 -0.030310497
000010 58 ab 7e 3d 46 24 54 bd 0e a2 51 3d f4 e8 cf 3d
       0.062175125 -0.051792406 0.051179938 0.10151854
000020 95 1a f0 bd 63 ac bd bd 08 d2 cc bd 73 34 06 be
       -0.1172382 -0.09261396 -0.10000998 -0.13105945
000030 c4 26 3e 3e 39 d1 23 be 6d 24 c4 3d 62 17 4e be
       0.18569475 -0.15997781 0.0957726 -0.20126107
000040 40 62 87 3e 47 7a 41 bb 06 89 66 be d3 9f ca 3e
       0.26442146 -0.0029522346 -0.22513208 0.3957506
000050 ba 42 da be 9e aa 1e 3e 4d 91 e3 be 17 79 a9 3e
       -0.42629033 0.15494773 -0.44446793 0.33100197
000060 d6 35 1a 3f 1e da 45 be 71 5c 81 be 65 9e dc 3d
       0.602384 -0.19321486 -0.2526584 0.10772399
000070 0c 93 a2 3d 59 49 79 3d e2 c4 19 3f ee 00 e1 3e
       0.07938203 0.060860965 0.60066044 0.43946022
000080 b9 9c 8d be 5f 95 37 3f 95 1c 28 bf a3 8a df 3e
       -0.27658632 0.717123 -0.6566861 0.4366046
000090 5c 00 26 3f e6 65 b3 3d 4b e3 6e be 1e 66 5f bf
       0.648443 0.0875967 -0.23328893 -0.87265193

2.weight f4 [1, 40]
000000 65 f7 0d bd ee 39 43 3c aa 75 fe bd 3b ba 25 3c
       -0.034659762 0.011915667 -0.124247864 0.010115202
000010 c8 dc df 3c 1e 3b e3 bc 94 49 0b 3d 7c 87 40 3d
       0.027326956 -0.02773815 0.034005716 0.047004208
000020 ee e3 04 be 86 67 3b 3c 75 10 a9 bd 06 1d f5 3d
       -0.12977573 0.011438256 -0.08255092 0.119684264
000030 0f a2 9d bb d6 1c 1f be 65 03 e9 bc 4f 8b 16 be
       -0.0048105787 -0.15538344 -0.028444001 -0.1470158
000040 46 09 39 bd 7a ee 45 bd 73 ad 02 3e b5 ee ab bd
       -0.04517486 -0.048323132 0.12761478 -0.08395139
000050 c8 77 1a 3e 2e 7b be bd 4b f0 e4 3d d3 ac 9d bd
       0.15084755 -0.093008384 0.11178645 -0.07698979
000060 70 8a 02 be ef a8 5d bd 67 08 61 3d 74 83 b4 3d
       -0.12748122 -0.054116186 0.054939654 0.08814135
000070 ee de 07 3e 2f fb 5d 3d 1e ee 1c 3e 59 41 f9 bd
       0.13268635 0.054194625 0.1532521 -0.12170667
000080 c5 42 1a be 81 21 9b 3d 91 70 14 3e af bb d7 3c
       -0.15064533 0.0757475 0.14496066 0.026334612
000090 8a d6 0e be 73 ba fb 3c 4b c0 24 bc 19 bd 02 be
       -0.13949028 0.030728554 -0.010055612 -0.12767448

0.weight f4 [40, 1]
000000 1f 85 2f 3e fe 5d dc 3e e4 0a 75 bf d2 2d 52 3f
       0.17140625 0.4304046 -0.9571974 0.82101166
000010 d9 f2 1a c0 ad d3 6c 3f 36 75 da bf 0e 22 19 c0
       -2.4210722 0.9251049 -1.706702 -2.3927035
000020 4d b7 02 40 62 20 78 3f 22 f6 ab 3f e6 09 93 3f
       2.0424378 0.9692441 1.3434489 1.1487396
000030 fa cb a6 bf d8 ed d9 3f 23 48 14 bf ef 40 f4 3f
       -1.3030999 1.7025709 -0.5792257 1.9082316
000040 ca c7 a4 bf 67 77 15 3e 4a 8d d1 3f 85 19 cf bf
       -1.2873471 0.1459633 1.6371243 -1.6179663
000050 b7 dc 36 40 96 48 1f bf dd 2f 1f 40 47 5a 5f bf
       2.8572214 -0.6222013 2.4872963 -0.8724713
000060 db 1b c6 bf 5b b6 86 3f dd 8c 6a 3f 1c 38 ae bf
       -1.5477251 1.05244 0.9162119 -1.3610873
000070 7b 1f 26 be 2b cc f2 bd 59 9d 72 bf 7e 20 73 bf
       -0.16222946 -0.11855348 -0.94771343 -0.94971454
000080 cb 1d b6 3f 22 f8 82 bf 84 09 2e 3f df 57 1b bf
       1.4227842 -1.0231974 0.6798327 -0.60680956
000090 0b a8 a2 bf 44 38 09 be f5 5e 2b 3f f6 42 40 40
       -1.2707533 -0.1340037 0.6694177 3.004087

0.bias f4 [40]
000000 1d 7e 3b 3a c6 15 59 bd 4d 93 b8 ba eb 53 cf bd
       0.0007152276 -0.05299928 -0.0014081985 -0.10123428
000010 29 09 85 3e bd 8d e9 bd 69 7a 3b 3e 9c 62 83 3e
       0.2598355 -0.114039876 0.18308415 0.2566117
000020 84 9e 33 bf da 2e ac be 63 ad d8 be 78 69 11 be
       -0.7016375 -0.33629495 -0.42319784 -0.1420039
000030 4c 1a cf 3e 71 4a 09 bf 3e 1a 38 3e 7a e8 19 bf
       0.4044975 -0.53629214 0.1797876 -0.60120356
000040 63 8e cc 3e f1 95 ed bd cc c7 71 bf 9e 92 00 3f
       0.39952382 -0.11600865 -0.9444549 0.5022372
000050 51 72 cd bf 74 a8 45 3e 39 d3 a4 bf 70 40 1b 3f
       -1.6050512 0.19302541 -1.287696 0.606452
000060 b0 c7 89 3f bf 0f 56 bf 20 3e 25 bf 1c 14 35 3f
       1.0764065 -0.83617777 -0.6454792 0.7073381
000070 d1 43 27 3e c8 2e d8 3d be 91 58 3f 81 c3 28 3f
       0.16334464 0.10555798 0.84597385 0.65923315
000080 33 cc 90 bf 12 c4 69 3f 06 76 33 bf 43 61 0a 3f
       -1.1312317 0.91314805 -0.70101964 0.5405466
000090 a3 40 62 3f f7 f6 f4 3d 92 7c f1 be 3d 01 14 c0
       0.8837988 0.11961167 -0.47165352 -2.3125756

2.weight f4 [1, 40]
000000 8e 17 86 bd 39 3a b9 3e d0 d0 d8 bd 04 ef 2f 3f
       -0.065474615 0.36177233 -0.10586703 0.68724084
000010 11 65 13 40 20 bb 41 3f ab 45 d0 3f 7d ba 11 40
       2.3030436 0.75676155 1.6271261 2.2770073
000020 6a 03 ea bf 78 a7 54 bf 0c 28 99 bf 6f 42 7a 3f
       -1.8282292 -0.8306804 -1.1965346 0.9775762
000030 76 3e 87 bf 65 b3 c3 bf 7c 15 f9 be 22 c3 da bf
       -1.0565937 -1.5289122 -0.48649204 -1.70908
000040 7e 2f 89 bf 9c 41 35 be 38 a5 d5 3f 6d f2 ab bf
       -1.0717618 -0.17700809 1.6691046 -1.3433357
000050 56 f2 37 40 bf fe 08 bf 1c e1 1c 40 7e 00 3d bf
       2.874166 -0.5351371 2.4512396 -0.73828876
000060 f7 c1 a7 bf d0 40 9c bf 69 37 79 bf 88 89 b5 3f
       -1.3106068 -1.2207279 -0.97350174 1.4182596
000070 a8 af 29 3e e5 09 e4 3d 62 d8 46 3f 7c 83 4f bf
       0.16570914 0.111347 0.77673924 -0.81060004
000080 78 37 d5 bf 81 49 51 3f 27 22 0d 3e 31 06 f4 3e
       -1.6657553 0.81752783 0.1378256 0.47660974
000090 17 38 88 bf b7 80 eb 3d f1 3e 35 bf f7 86 58 c0
       -1.0642117 0.1149916 -0.70799166 -3.3832376

0.weight f4 [40, 1]
000000 e0 5b 2a 3e 4c 23 eb 3e e4 0a 75 bf d7 32 60 3f
       0.1663661 0.45925367 -0.9571974 0.87577575
000010 93 90 2d c0 44 be 7b 3f ab c2 f4 bf f3 89 2b c0
       -2.711949 0.983372 -1.9121908 -2.6802948
000020 bc ee 0d 40 9e 6b 86 3f 18 2f be 3f f6 cf 9c 3f
       2.2176962 1.0501592 1.4858122 1.2250965
000030 29 36 ba bf 96 34 f1 3f 8c 1b 26 bf 96 27 07 40
       -1.4547778 1.8844173 -0.64885783 2.1117911
000040 0f 6c b8 bf c2 70 18 3e 89 a1 e1 3f cb bb e7 bf
       -1.4407977 0.14886764 1.7627422 -1.8104185
000050 0e 6b 44 40 b1 d5 32 bf eb 24 35 40 98 78 76 bf
       3.069034 -0.6985732 2.8303783 -0.9627776
000060 e5 a9 da bf 21 de 88 3f b6 df 81 3f 03 6b c5 bf
       -1.7083098 1.0692788 1.0146396 -1.5423282
000070 32 97 53 be f8 80 12 be 7a b3 8f bf 83 31 86 bf
       -0.20663145 -0.1430701 -1.1226647 -1.048386
000080 b7 1a b9 3f 71 94 9a bf 84 09 2e 3f 22 ce 36 bf
       1.4461278 -1.2076551 0.6798327 -0.71408284
000090 ed 4b b3 bf 3a 9a 23 be 48 b5 3d 3f 4d 38 43 40
       -1.4007546 -0.15976802 0.7410474 3.0503113

0.bias f4 [40]
000000 c1 14 0a ba ed fc a1 bd 4d 93 b8 ba 89 2d 1a be
       -0.0005267375 -0.0790957 -0.0014081985 -0.15056433
000010 c0 58 8c 3e b8 65 40 be 16 bd 45 3e 28 95 8a 3e
       0.2741146 -0.18788803 0.19310412 0.27066922
000020 a4 99 5a bf b4 be ce be 68 38 e8 be 8b 90 6f be
       -0.85390687 -0.4037987 -0.45355535 -0.23394983
000030 b5 eb e2 3e ba 4c 13 bf d7 5f 4a 3e 0b d8 24 bf
       0.44320455 -0.5753895 0.19763122 -0.64392155
000040 95 c5 e0 3e 47 5e f3 bd 42 26 88 bf f5 2d 0d 3f
       0.43900743 -0.11883216 -1.0636675 0.5514825
000050 44 4b df bf 58 01 5a 3e 69 67 b4 bf 44 b4 2a 3f
       -1.7444844 0.21289575 -1.4094058 0.66681314
000060 fa 71 97 3f 84 0f 5c bf 0f 70 35 bf 9c 63 44 3f
       1.1831658 -0.85961175 -0.7087411 0.7671449
000070 28 bc 3e 3e ce fa 03 3e b0 62 81 3f 88 e1 39 3f
       0.18626463 0.12888643 1.0108242 0.7260976
000080 5c d5 94 bf 98 37 8b 3f 06 76 33 bf 4c a1 24 3f
       -1.1627612 1.0876341 -0.70101964 0.6430862
000090 aa a7 78 3f 4b 48 13 3e 40 83 04 bf 0b 71 16 c0
       0.97130835 0.14383046 -0.5176277 -2.3506496

2.weight f4 [1, 40]
000000 2f b0 75 bd 98 73 bf 3e d0 d0 d8 bd 22 ef 35 3f
       -0.059982475 0.3739288 -0.10586703 0.7106801
000010 89 5a 26 40 34 26 49 3f d9 00 eb 3f 18 77 24 40
       2.5992758 0.7857392 1.8359634 2.569769
000020 79 02 f8 bf cb e4 62 bf c2 a5 a2 bf 44 4a 81 3f
       -1.9375755 -0.8863036 -1.2706835 1.0100789
000030 95 b4 9e bf 0e 99 cf bf 26 63 11 bf fd 24 e8 bf
       -1.2398859 -1.6218584 -0.56791914 -1.8136288
000040 71 5a a0 bf 23 e6 33 be 0d 0e e1 3f 0d 11 c9 bf
       -1.25276 -0.17568259 1.7582413 -1.5708328
000050 08 47 3e 40 91 60 1f bf 21 32 2b 40 9b db 5c bf
       2.9730854 -0.62256724 2.6749346 -0.8627259
000060 d6 04 c4 bf 86 42 9b bf 7d fb 87 bf df 60 cc 3f
       -1.5313976 -1.2129676 -1.0623623 1.5967063
000070 88 86 5c 3e 6c 2c 17 3e b7 4a 89 3f 27 1f 72 bf
       0.21535695 0.1476304 1.0725926 -0.94578785
000080 7c cf d3 bf 52 a6 91 3f 27 22 0d 3e 2d b3 2a 3f
       -1.6547694 1.1378882 0.1378256 0.6667965
000090 57 75 9f bf 03 5a 20 3e a5 e6 45 bf 63 e5 55 c0
       -1.2457684 0.15659337 -0.7730506 -3.3421257

0.weight f4 [40, 1]
000000 0f c0 29 3e b7 64 ec 3e e4 0a 75 bf 03 5e 61 3f
       0.16577171 0.4617059 -0.9571974 0.88034075
000010 84 9f 30 c0 9a e4 7d 3f 70 3e f9 bf 20 ad 2e c0
       -2.759736 0.99176943 -1.947218 -2.7293167
000020 ff 41 13 40 36 46 8b 3f 15 e3 c3 3f 6a 40 9e 3f
       2.300903 1.0880802 1.5303675 1.2363408
000030 6f 01 c0 bf a3 82 f8 3f 67 69 2b bf 9c 38 0b 40
       -1.5000437 1.9414867 -0.66957706 2.1753302
000040 00 46 be bf 91 05 19 3e ea 66 e6 3f 13 12 ef bf
       -1.4865112 0.1494353 1.8000157 -1.8677391
000050 02 84 46 40 92 a5 38 bf 46 4c 42 40 d6 90 86 bf
       3.101807 -0.7212764 3.0359054 -1.051295
000060 b4 c7 ee bf 7b a6 89 3f 51 61 8b 3f d7 4c d2 bf
       -1.8654695 1.0753931 1.0889074 -1.64297
000070 5e 40 76 be 5a 3e 2a be 36 63 a5 bf 33 9d 92 bf
       -0.24047992 -0.16625348 -1.2920902 -1.1454223
000080 40 4f ba 3f 37 a9 b1 bf 84 09 2e 3f ab e4 51 bf
       1.4555435 -1.3879765 0.6798327 -0.81989545
000090 e9 bb c3 bf fd e1 3c be 5c 8b 4b 3f 35 39 42 40
       -1.5291721 -0.18445583 0.7950952 3.0347416

0.bias f4 [40]
000000 bb bd 62 3b 74 7f bd bd 4d 93 b8 ba 90 a7 34 be
       0.0034597951 -0.092528254 -0.0014081985 -0.17642045
000010 3f 6f 93 3e 3f 8f 4b be 2b 1d 43 3e e2 be 88 3e
       0.28795812 -0.19878863 0.19054095 0.26708132
000020 c3 e4 67 bf dd f1 da be f3 fd ea be 74 a2 7d be
       -0.9058344 -0.42762652 -0.45896873 -0.24769002
000030 6c d9 ed 3e 38 f5 14 bf c6 66 54 3e f5 e8 26 bf
       0.46454942 -0.58186674 0.2074233 -0.65199214
000040 82 d3 eb 3e 93 88 f2 bd af 8c 8d bf 0a 1c 14 3f
       0.46059805 -0.11842456 -1.1058558 0.57855284
000050 a3 b0 e5 bf d0 01 65 3e 45 72 c3 bf f1 31 3c 3f
       -1.794453 0.22363973 -1.5269247 0.73513705
000060 51 f5 a6 3f fc a5 5a bf 00 11 42 bf 88 9f 4f 3f
       1.3043615 -0.8540952 -0.7580719 0.811028
000070 9d c1 5c 3e a8 9b 18 3e eb 42 94 3f 14 0a 4d 3f
       0.21558233 0.14903128 1.1582922 0.80093503
000080 1f b2 93 bf a9 36 9f 3f 06 76 33 bf c4 0f 3c 3f
       -1.1538733 1.2438556 -0.70101964 0.73461556
000090 a5 db 88 3f 33 4d 29 3e 4f b4 0d bf c4 2b 17 c0
       1.069203 0.16533355 -0.55353254 -2.3620462

2.weight f4 [1, 40]
000000 a3 f1 81 bd ef 5e ba 3e d0 d0 d8 bd 82 1f 31 3f
       -0.06344917 0.36400554 -0.10586703 0.691887
000010 be 44 29 40 dc 01 44 3f 81 1e ef 3f b0 59 27 40
       2.6448207 0.7656534 1.8681184 2.614849
000020 9f ab fb bf c9 c0 66 bf dc 17 a2 bf d4 b5 7b 3f
       -1.966175 -0.90137917 -1.2663531 0.9832432
000030 57 50 a5 bf 0d d3 ce bf f2 41 17 bf e7 4d e7 bf
       -1.2915143 -1.6158158 -0.59085 -1.8070649
000040 c5 e0 a6 bf 48 e1 30 be 1b 2e e1 3f 73 44 d1 bf
       -1.3037344 -0.17273438 1.7592195 -1.6349014
000050 8c 29 3b 40 c7 ad 25 bf ff 64 35 40 02 9d 7d bf
       2.9244108 -0.6471829 2.8342893 -0.990677
000060 79 14 e1 bf fa a8 98 bf 3c 87 91 bf 1b 61 d9 3f
       -1.7584373 -1.1926568 -1.1369395 1.6982759
000070 0a a1 85 3e 69 95 37 3e d3 6a a9 3f a5 e1 8a bf
       0.26099426 0.17928089 1.3235725 -1.0850111
000080 da 41 d0 bf e8 44 b4 3f 27 22 0d 3e de b5 53 3f
       -1.6270096 1.4083529 0.1378256 0.8269938
000090 08 51 b7 bf 50 c9 44 3e e3 dc 53 bf 92 a4 51 c0
       -1.4321604 0.1921742 -0.8275892 -3.2756696

0.weight f4 [40, 1]
000000 25 26 2b 3e 6f 79 ee 3e e4 0a 75 bf 6d 57 63 3f
       0.1671377 0.4657702 -0.9571974 0.88805276
000010 62 be 31 c0 84 05 80 3f d8 d5 fa bf 19 ca 2f c0
       -2.777245 1.0001683 -1.959651 -2.74671
000020 1a 8f 17 40 5d 2c 8f 3f 40 60 c6 3f 59 aa 9f 3f
       2.3681092 1.1185414 1.5498123 1.2473861
000030 2d dc c1 bf 5c b2 fb 3f 97 1b 2d bf 25 00 0d 40
       -1.5145317 1.9663806 -0.67620224 2.2031338
000040 2f 25 c0 bf 36 c2 17 3e cb eb e7 3f e2 6a f1 bf
       -1.5011348 0.1482018 1.8118833 -1.8860743
000050 54 93 45 40 0b 81 3a bf 42 6f 4d 40 15 fc 8f bf
       3.0871172 -0.72853154 3.2099156 -1.1248804
000060 af 7e ff bf cc a5 88 3f 41 e0 90 3f d9 16 dc bf
       -1.9960536 1.0675597 1.1318437 -1.7194473
000070 3c a4 88 be 68 d7 3c be 09 8d b6 bf 82 ed 9c bf
       -0.266878 -0.18441546 -1.426179 -1.2259982
000080 c3 d2 b8 3f 9c ef c3 bf 84 09 2e 3f 10 51 67 bf
       1.4439319 -1.5307498 0.6798327 -0.90358067
000090 68 59 d1 bf 1e cd 50 be e7 8b 53 3f 10 a5 40 40
       -1.635541 -0.20390746 0.8263535 3.0100746

0.bias f4 [40]
000000 04 c8 28 3c ed b5 c0 bd 4d 93 b8 ba 86 ad 37 be
       0.010301594 -0.094096996 -0.0014081985 -0.17937288
000010 d0 27 97 3e 8e ed 4e be f7 03 43 3e 3c ad 88 3e
       0.29522562 -0.20207807 0.19044481 0.26694667
000020 c0 58 70 bf ab 0e e3 be f3 c8 ed be 25 05 81 be
       -0.9388542 -0.44347128 -0.46442375 -0.25199237
000030 bd 0f f0 3e 22 b6 16 bf 50 71 56 3e c3 e1 28 bf
       0.46887007 -0.5887166 0.20941663 -0.65969485
000040 cc 12 ee 3e 3c 98 f2 bd 40 d4 8d bf 89 84 15 3f
       0.46498716 -0.11845443 -1.1080399 0.5840536
000050 17 41 e8 bf 04 41 67 3e 1a 60 ce bf 3d ef 48 3f
       -1.8144864 0.22583395 -1.6123078 0.7849005
000060 58 44 b2 3f 18 77 5a bf fb 16 49 bf 9c c6 59 3f
       1.3927107 -0.8533797 -0.7855069 0.8506868
000070 4a d3 74 3e ac 21 29 3e d4 8f a3 3f c0 fd 5a 3f
       0.23908725 0.16516751 1.2778268 0.8554344
000080 94 b9 93 bf 91 82 af 3f 06 76 33 bf ed 3d 4f 3f
       -1.1541009 1.3711721 -0.70101964 0.80953866
000090 1a 13 92 3f b2 15 3b 3e 5d d1 12 bf 18 35 17 c0
       1.1412079 0.18269995 -0.57350713 -2.3626156

2.weight f4 [1, 40]
000000 a2 19 91 bd af 70 b7 3e d0 d0 d8 bd 3e 5a 2e 3f
       -0.07084967 0.35828158 -0.10586703 0.6810645
000010 6c 29 2a 40 66 09 41 3f 49 61 f0 3f fe 3b 28 40
       2.6587782 0.75404966 1.8779689 2.6286616
000020 59 2c ff bf 90 54 6a bf cd fa 9f bf 72 b1 77 3f
       -1.9935409 -0.9153528 -1.2498413 0.96755135
000030 86 ba a6 bf 98 18 cc bf c1 7f 18 bf cc 43 e4 bf
       -1.3025672 -1.5945005 -0.59569937 -1.783319
000040 20 43 a8 bf 56 a3 2d be 96 63 dd 3f 59 02 d3 bf
       -1.3145485 -0.16956839 1.7296016 -1.6485091
000050 d0 23 36 40 1a 00 27 bf 83 63 3e 40 58 2a 8b bf
       2.8459358 -0.6523453 2.9748237 -1.0872297
000060 43 02 f7 bf a6 d3 95 bf b9 6c 96 bf cb 6a e3 3f
       -1.9297565 -1.1705215 -1.175193 1.7766966
000070 e7 02 97 3e 69 a4 4f 3e 2c 0f c1 3f e5 55 98 bf
       0.29494402 0.20277561 1.5082755 -1.1901213
000080 aa 66 cc bf 75 b5 cd 3f 27 22 0d 3e a6 cd 71 3f
       -1.596883 1.6071001 0.1378256 0.9445442
000090 fd 4e c9 bf 30 af 5f 3e 8d 06 5b bf 42 97 4d c0
       -1.572723 0.21844172 -0.8555687 -3.212357

0.weight f4 [40, 1]
000000 d5 e3 2d 3e 0d e7 f1 3e e4 0a 75 bf 97 99 66 3f
       0.16981442 0.4724659 -0.9571974 0.9007811
000010 ec f6 31 c0 5c d0 81 3f f3 06 fb bf a6 03 30 c0
       -2.780696 1.0141711 -1.9611496 -2.7502227
000020 0b 72 1b 40 10 bd 92 3f 2c 97 c7 3f 31 fc a1 3f
       2.4288356 1.1463947 1.5593009 1.2655088
000030 8d 5d c2 bf 26 4d fd 3f 15 8e 2d bf 8a e5 0d 40
       -1.51848 1.9789169 -0.67794925 2.217135
000040 d3 a3 c0 bf de fd 16 3e 73 38 e7 3f 68 09 f2 bf
       -1.5049995 0.1474528 1.8064102 -1.890912
000050 88 d4 43 40 8e fe 3a bf 22 f4 54 40 87 db 96 bf
       3.0598469 -0.7304467 3.3274007 -1.1785744
000060 5f dd 05 c0 d5 05 88 3f 8f 03 93 3f 3a 95 e1 bf
       -2.0916364 1.062678 1.1485461 -1.7623665
000070 68 4c 92 be 5b 18 4a be ab f0 c2 bf 2f 74 a4 bf
       -0.28573918 -0.19735853 -1.5229696 -1.2847956
000080 66 ef b7 3f 04 1e d1 bf 84 09 2e 3f 76 d6 76 bf
       1.4369934 -1.6337285 0.6798327 -0.9642099
000090 60 4b db bf 7a 1d 5f be e5 bb 56 3f a2 bb 3e 40
       -1.7132378 -0.21788588 0.83880454 2.9802022

0.bias f4 [40]
000000 87 e1 a0 3c 45 cb c4 bd 4d 93 b8 ba 77 83 3b be
       0.01963879 -0.09609083 -0.0014081985 -0.18311869
000010 a5 b2 97 3e 63 52 53 be 27 c8 4c 3e 1f 3d 87 3e
       0.29628482 -0.20636897 0.19998227 0.2641382
000020 ed b1 77 bf 48 cf e9 be 8c 6e ee be bf c5 83 be
       -0.9675587 -0.45665956 -0.46568716 -0.25736806
000030 0e 9d ef 3e 68 c6 16 bf 90 3a 56 3e 5d f5 28 bf
       0.4679951 -0.58896494 0.20920777 -0.65999395
000040 a3 d5 ed 3e d1 72 f0 bd d9 41 8c bf 0c 5e 15 3f
       0.46452054 -0.117406495 -1.0957595 0.5834663
000050 4c b5 e8 bf fa 06 67 3e d6 82 d7 bf 69 34 53 3f
       -1.8180327 0.22561255 -1.6836803 0.82501847
000060 c9 54 bb 3f 26 85 58 bf 6a 44 4c bf 76 fe 5e 3f
       1.4635249 -0.8457817 -0.7979189 0.87107027
000070 d0 77 83 3e 04 9c 35 3e a5 19 af 3f cd 39 66 3f
       0.25677347 0.17735296 1.3679701 0.89931947
000080 49 71 92 bf de d4 bb 3f 06 76 33 bf 49 b4 5d 3f
       -1.1440822 1.4674337 -0.70101964 0.8660322
000090 50 80 99 3f f6 7f 48 3e 34 06 15 bf 14 08 17 c0
       1.1992283 0.19580063 -0.5821259 -2.359868

2.weight f4 [1, 40]
000000 59 49 a4 bd 26 22 b9 3e d0 d0 d8 bd 64 fa 2f 3f
       -0.080218025 0.36158866 -0.10586703 0.6874144
000010 1e 31 2a 40 3d f1 42 3f 78 70 f0 3f 0d 45 28 40
       2.6592479 0.7614935 1.8784323 2.6292145
000020 ba d4 02 c0 3c 96 70 bf b0 cf 9e bf 01 ea 79 3f
       -2.0442338 -0.9397924 -1.2407131 0.97622687
000030 9f ac a6 bf 17 97 ca bf ab 6f 18 bf 1d 96 e2 bf
       -1.302143 -1.5827359 -0.5954539 -1.7702061
000040 56 32 a8 bf 02 10 2b be 8a d2 d8 3f b5 ed d2 bf
       -1.3140361 -0.16705325 1.6939251 -1.6478792
000050 c5 0b 32 40 49 ec 26 bf 07 bf 45 40 2e 6a 94 bf
       2.7819684 -0.6520429 3.0897844 -1.1594903
000060 b7 b5 03 c0 56 8e 93 bf 7a 19 98 bf 6e cb e8 3f
       -2.057966 -1.1527812 -1.1882775 1.8187082
000070 12 07 a4 3e 2b a6 61 3e 51 9a d2 3f a5 68 a2 bf
       0.32036644 0.22036044 1.6453344 -1.2688185
000080 24 51 c9 bf ed 8f e0 3f 27 22 0d 3e 42 0b 84 3f
       -1.5727887 1.7543923 0.1378256 1.0315936
000090 4d c4 d6 bf d1 b3 73 3e 55 7a 5d bf 93 52 4a c0
       -1.6778656 0.23799063 -0.8651479 -3.16129

0.weight f4 [40, 1]
000000 77 42 31 3e 90 15 f6 3e e4 0a 75 bf ca 90 6a 3f
       0.1731051 0.48063326 -0.9571974 0.9162718
000010 9d c7 31 c0 27 03 84 3f c3 c0 fa bf 9c cf 2f c0
       -2.7778084 1.0313462 -1.9590076 -2.7470465
000020 5e 32 1f 40 95 2f 96 3f 86 2e c8 3f 62 ce a4 3f
       2.4874492 1.1733271 1.5639198 1.2875483
000030 16 67 c2 bf a9 13 fe 3f c0 96 2d bf 6f 54 0e 40
       -1.5187709 1.984975 -0.6780815 2.2239034
000040 54 ad c0 bf 59 d8 15 3e 0a 94 e6 3f 74 15 f2 bf
       -1.5052896 0.14633311 1.8013928 -1.8912797
000050 28 71 43 40 d7 07 3b bf 3b 16 5a 40 85 54 9b bf
       3.0537815 -0.7305884 3.4076068 -1.2135168
000060 46 cf 09 c0 14 00 87 3f 1d e8 92 3f 1f 7c e3 bf
       -2.153276 1.0546899 1.1477085 -1.7772254
000070 7b 73 99 be f5 ef 53 be 90 1d cc bf 5e 56 a9 bf
       -0.29970917 -0.20697005 -1.5946522 -1.3229482
000080 9c 91 b6 3f c8 e8 da bf 84 09 2e 3f 9e 2a 81 bf
       1.4263186 -1.7102289 0.6798327 -1.0091131
000090 26 c1 e1 bf c5 c3 69 be 00 2e 57 3f 9c 18 3d 40
       -1.7637069 -0.22828586 0.84054565 2.954627

0.bias f4 [40]
000000 80 3f f8 3c a1 df c7 bd 4d 93 b8 ba e9 98 3e be
       0.030303717 -0.09759451 -0.0014081985 -0.18613018
000010 4a 4c 96 3e 1a 83 56 be b1 d1 4c 3e 0f 12 86 3e
       0.2935508 -0.20948449 0.20001866 0.26185653
000020 67 ed 7d bf be 8c ef be 18 5f f0 be 30 eb 85 be
       -0.9919037 -0.46787065 -0.4694755 -0.26155996
000030 cf 72 f0 3e aa e0 17 bf b0 ff 56 3e a9 31 2a bf
       0.46962592 -0.59327185 0.20995975 -0.66482025
000040 9c ae ee 3e a5 20 ef bd 4a 6e 8c bf 0c e6 15 3f
       0.4661759 -0.11676148 -1.0971158 0.5855415
000050 9d 85 e8 bf 01 e0 67 3e 55 bd db bf 18 0a 5a 3f
       -1.8165776 0.22644044 -1.7167155 0.8517165
000060 6f 77 c1 3f 2b 77 57 bf 60 0b 4b bf 8f 97 60 3f
       1.5114573 -0.8416621 -0.7931423 0.8773126
000070 dc e2 89 3e de 6f 3e 3e 9d 5b b7 3f b9 bc 6d 3f
       0.26930892 0.18597361 1.4324833 0.9286609
000080 ea af 91 bf ae a0 c4 3f 06 76 33 bf 0e 13 68 3f
       -1.138181 1.5361536 -0.70101964 0.90654075
000090 0d 77 9e 3f 30 06 52 3e 51 45 13 bf f9 99 16 c0
       1.2380081 0.20510173 -0.57527643 -2.3531477

2.weight f4 [1, 40]
000000 3d b1 b9 bd f6 36 bd 3e d0 d0 d8 bd f2 df 33 3f
       -0.09067009 0.36955994 -0.10586703 0.7026359
000010 7c d7 29 40 98 5d 47 3f f3 f7 ef 3f ca ec 27 40
       2.6537771 0.7787719 1.8747543 2.6238275
000020 fb d5 06 c0 87 35 78 bf 03 59 9e bf 9c 5b 7f 3f
       -2.1068103 -0.96956676 -1.2370914 0.9974916
000030 21 62 a6 bf 89 fd c9 bf d4 2a 18 bf 32 eb e1 bf
       -1.2998697 -1.5780498 -0.5944035 -1.7649901
000040 9e e6 a7 bf b5 f8 28 be 0e cb d6 3f d7 8e d2 bf
       -1.3117254 -0.16501124 1.6780717 -1.6449841
000050 37 5b 30 40 6e a0 26 bf 4b b3 4a 40 6f 76 9a bf
       2.7555673 -0.65088546 3.1671932 -1.2067393
000060 1c 13 09 c0 29 b2 91 bf c0 c9 96 bf 35 39 ea 3f
       -2.1417913 -1.1382495 -1.1780319 1.8298708
000070 56 e0 ad 3e 5d 43 6f 3e a1 cb df 3f 24 ff a8 bf
       0.33960217 0.23365541 1.7484018 -1.3202863
000080 74 cb c6 bf 35 ba ee 3f 27 22 0d 3e d3 68 8c 3f
       -1.5530839 1.8650576 0.1378256 1.096949
000090 0f 90 df bf d0 63 81 3e 12 92 5b bf a3 bb 47 c0
       -1.7465838 0.25271463 -0.8576976 -3.1208274

0.weight f4 [40, 1]
000000 d9 95 34 3e 64 4f fa 3e e4 0a 75 bf 47 95 6e 3f
       0.17635287 0.48888695 -0.9571974 0.9319653
000010 8a 9e 31 c0 46 3c 86 3f ca 87 fa bf 09 9e 2f c0
       -2.7753015 1.0487144 -1.957269 -2.7440207
000020 dc 52 22 40 a3 0f 99 3f 6d 87 c8 3f d5 a8 a7 3f
       2.5363073 1.1957897 1.5666329 1.3098398
000030 21 43 c2 bf 33 85 fe 3f f0 75 2d bf d7 93 0e 40
       -1.5176736 1.9884399 -0.67758083 2.2277734
000040 40 89 c0 bf 4f 88 15 3e 47 c7 e6 3f 0b e8 f1 bf
       -1.5041885 0.14602779 1.8029565 -1.8898939
000050 75 83 43 40 e6 e3 3a bf cb 8e 5d 40 b3 41 9e bf
       3.0548985 -0.73003995 3.4618404 -1.23638
000060 2f 68 0c c0 19 bb 86 3f ed 3b 91 3f 6e 29 e4 bf
       -2.1938589 1.0525848 1.1346413 -1.7825143
000070 1d 02 9e be 20 36 5a be 3b ec d1 bf f0 89 ac bf
       -0.30860987 -0.2130971 -1.6400217 -1.3479595
000080 1d 32 b6 3f f5 18 e1 bf 84 09 2e 3f ca d7 84 bf
       1.4234043 -1.7585741 0.6798327 -1.0378354
000090 9c fd e5 bf bf 88 70 be c0 75 56 3f ff 9e 3c 40
       -1.796802 -0.23489664 0.8377342 2.9472044

0.bias f4 [40]
000000 03 ca 25 3d de 8d ca bd 4d 93 b8 ba aa 24 41 be
       0.040475857 -0.0989034 -0.0014081985 -0.18861642
000010 01 65 96 3e cb 63 59 be 34 db 4c 3e bc 91 86 3e
       0.29373935 -0.21229474 0.20005494 0.26283062
000020 d0 c3 81 bf b8 ba f4 be af 47 f1 be 81 b6 87 be
       -1.0137882 -0.47798705 -0.47125003 -0.26506427
000030 7f 90 ef 3e bc 74 18 bf 11 32 56 3e a5 d7 2a bf
       0.4678993 -0.5955312 0.20917536 -0.667353
000040 41 cb ed 3e 51 b6 ef bd ff d4 8c bf 64 57 15 3f
       0.46444133 -0.11704696 -1.1002501 0.5833647
000050 75 7b e9 bf b3 ff 66 3e c6 1e df bf 55 43 5e 3f
       -1.8240801 0.22558479 -1.7431266 0.8682149
000060 f5 36 c5 3f 69 f8 57 bf 5f 85 4a bf e4 67 61 3f
       1.5407397 -0.8436342 -0.7910976 0.8804915
000070 d8 56 8e 3e f1 8f 44 3e fb 26 bd 3f 42 5c 72 3f
       0.27800632 0.19195534 1.4777521 0.94672024
000080 b9 09 92 bf df d0 ca 3f 06 76 33 bf 53 45 6f 3f
       -1.1409217 1.5844992 -0.70101964 0.93465155
000090 48 85 a1 3f 1b aa 58 3e b7 43 10 bf 6b 14 17 c0
       1.2618799 0.2115864 -0.56353325 -2.3606212

2.weight f4 [1, 40]
000000 c2 7b ce bd a9 c2 c1 3e d0 d0 d8 bd 19 36 38 3f
       -0.10082199 0.37843826 -0.10586703 0.71957546
000010 1a 93 29 40 30 45 4c 3f 74 99 ef 3f 70 a4 27 40
       2.6496034 0.7979307 1.8718705 2.6194115
000020 30 5c 0a c0 bb e5 7e bf 9a f0 9d bf 46 b7 82 3f
       -2.1618767 -0.9956929 -1.2339051 1.0212181
000030 5e d6 a5 bf 19 77 c9 bf 4c ac 17 bf 4a 55 e1 bf
       -1.2956045 -1.5739471 -0.5924728 -1.7604153
000040 7b 5a a7 bf 84 7f 28 be 24 4b d6 3f 3a df d1 bf
       -1.3074487 -0.16454893 1.6741681 -1.6396248
000050 e3 f1 2f 40 b4 16 26 bf ea 2c 4e 40 d6 2e 9e bf
       2.7491386 -0.6487839 3.2214913 -1.2358043
000060 2f 60 0c c0 f4 48 91 bf b4 75 94 bf cc 79 ea 3f
       -2.1933706 -1.1350389 -1.159842 1.831842
000070 fa 35 b4 3e ba 04 78 3e 73 46 e8 3f f6 0c ad bf
       0.3519743 0.24220553 1.8146499 -1.351958
000080 fe 3b c6 bf 66 d4 f7 3f 27 22 0d 3e aa c8 91 3f
       -1.5487058 1.9361694 0.1378256 1.1389363
000090 8d f9 e4 bf 9c 3c 86 3e 5a 02 58 bf 02 2b 47 c0
       -1.7888657 0.26218116 -0.8437859 -3.112

0.weight f4 [40, 1]
000000 fc a0 37 3e 17 f9 fd 3e e4 0a 75 bf b1 11 72 3f
       0.17932504 0.49604103 -0.9571974 0.94558245
000010 9e 57 31 c0 a3 2a 88 3f de 20 fa bf 39 51 2f c0
       -2.7709727 1.0638012 -1.954128 -2.7393324
000020 b4 aa 24 40 c5 37 9b 3f 8d bb c8 3f 22 22 aa 3f
       2.572919 1.2126395 1.5682236 1.3291667
000030 5e 04 c2 bf ac c7 fe 3f 70 3c 2d bf f5 b8 0e 40
       -1.5157583 1.9904685 -0.67670345 2.230039
000040 b7 49 c0 bf b0 77 16 3e 11 a2 e8 3f 73 98 f1 bf
       -1.5022496 0.14694095 1.8174459 -1.8874649
000050 5a d7 44 40 dc a4 3a bf 5a 85 60 40 2c 92 a0 bf
       3.075644 -0.72907805 3.5081391 -1.2544608
000060 de 75 0e c0 a1 85 87 3f 67 6a 90 3f 72 09 e5 bf
       -2.225944 1.0587655 1.1282471 -1.7893507
000070 4f 63 a1 be 1b dd 5e be d7 46 d6 bf f2 11 af bf
       -0.3152108 -0.21764033 -1.6740369 -1.3677351
000080 bb 47 b7 3f 73 be e5 bf 84 09 2e 3f c1 94 87 bf
       1.4318765 -1.7948745 0.6798327 -1.0592271
000090 20 57 e9 bf ca 92 75 be 62 52 59 3f 96 a3 3d 40
       -1.8229713 -0.23981777 0.8489133 2.9631095

0.bias f4 [40]
000000 3e bd 4a 3d 9a a4 cd bd 4d 93 b8 ba 44 02 44 be
       0.04949688 -0.10041161 -0.0014081985 -0.1914149
000010 e2 8b 95 3e f3 97 5c be db a2 4c 3e 57 be 85 3e
       0.29208285 -0.21542339 0.19984 0.2612178
000020 92 a5 83 bf d6 35 f8 be 5f dc f0 be 3a c3 89 be
       -1.0284903 -0.48478574 -0.4704313 -0.2690676
000030 09 95 ed 3e 2b 30 18 bf b2 62 54 3e 12 8b 2a bf
       0.46402767 -0.594485 0.20740774 -0.66618454
000040 bd cb eb 3e 1f b4 f0 bd 2f a6 8d bf 92 16 14 3f
       0.46053877 -0.11753105 -1.106634 0.5784694
000050 bf 76 eb bf c9 04 65 3e 9b 2a e2 bf 6e 75 61 3f
       -1.8395613 0.22365107 -1.7669252 0.8806981
000060 d9 0c c8 3f ec dc 58 bf 6e 78 48 bf 8b 1d 62 3f
       1.5628921 -0.847121 -0.7830876 0.8832633
000070 f6 12 91 3e 5b 53 48 3e 41 ad c0 3f 6f db 75 3f
       0.2833478 0.19563048 1.5052873 0.96037954
000080 03 a4 92 bf 45 93 ce 3f 06 76 33 bf b3 ae 73 3f
       -1.1456302 1.6138693 -0.70101964 0.95188445
000090 2e d5 a3 3f 7c bb 5c 3e cf 4f 07 bf 3b c6 17 c0
       1.2799432 0.21555895 -0.52856153 -2.371474

2.weight f4 [1, 40]
000000 eb 33 e1 bd 66 fa c5 3e d0 d0 d8 bd e7 3b 3c 3f
       -0.10996231 0.386676 -0.10586703 0.73528904
000010 83 35 29 40 a8 cf 50 3f 24 17 ef 3f 2c 43 27 40
       2.643891 0.8156686 1.8678937 2.6134748
000020 6c 09 0d c0 ef fb 81 bf 93 97 9d bf 79 89 85 3f
       -2.2037 -1.0155009 -1.2311882 1.0432578
000030 2d 31 a5 bf 10 05 c9 bf b1 17 17 bf 00 d6 e0 bf
       -1.2905632 -1.570467 -0.59020525 -1.7565308
000040 d3 b5 a6 bf db 6f 29 be 77 3b d8 3f 62 10 d1 bf
       -1.3024238 -0.16546576 1.6893147 -1.6333125
000050 74 95 31 40 a7 75 25 bf 5e 74 51 40 9d 2d a1 bf
       2.774747 -0.6463265 3.2727275 -1.2592045
000060 99 08 0f c0 d4 23 92 bf 60 a7 92 bf 9d 1f eb 3f
       -2.2348998 -1.1417184 -1.1457329 1.8369023
000070 53 93 b8 3e df 0c 7e 3e 77 1b ee 3f 89 50 b0 bf
       0.360499 0.24809597 1.8602132 -1.3774577
000080 66 63 c7 bf c5 16 fe 3f 27 22 0d 3e 86 7a 95 3f
       -1.5577209 1.9850699 0.1378256 1.1678016
000090 a4 54 e9 bf 6f 92 89 3e 3c 84 54 bf e5 5e 48 c0
       -1.8228955 0.26869532 -0.83014274 -3.130792

0.weight f4 [40, 1]
000000 6c 83 3a 3e d7 92 00 3f e4 0a 75 bf 6e 16 75 3f
       0.18214196 0.5022406 -0.9571974 0.9573735
000010 5e 19 31 c0 63 d7 89 3f 6f c6 f9 bf d9 09 2f c0
       -2.7671733 1.0768856 -1.9513682 -2.734976
000020 7b b6 26 40 3c 1a 9d 3f 22 0e c9 3f a2 46 ac 3f
       2.6048877 1.2273631 1.5707438 1.3459055
000030 1b dd c1 bf 31 31 ff 3f 82 18 2d bf cb f3 0e 40
       -1.5145601 1.9936887 -0.6761552 2.23363
000040 fe 21 c0 bf b0 03 17 3e 5f e5 e9 3f af 66 f1 bf
       -1.5010374 0.147475 1.8273124 -1.8859462
000050 60 e3 45 40 9a 7d 3a bf 4f 08 62 40 a8 c9 a1 bf
       3.0920029 -0.728479 3.531757 -1.2639666
000060 62 8a 0f c0 52 02 88 3f d3 de 8e 3f e8 ad e4 bf
       -2.2428212 1.0625708 1.116175 -1.7865572
000070 66 9b a3 be 25 eb 61 be b8 24 d9 bf d9 66 b0 bf
       -0.31954497 -0.22062357 -1.6964331 -1.3781387
000080 5b f1 b7 3f a8 cd e8 bf 84 09 2e 3f 82 61 89 bf
       1.4370531 -1.8187761 0.6798327 -1.0732882
000090 35 1a eb bf 62 e2 78 be 63 6d 58 3f 84 53 3e 40
       -1.8367373 -0.24305108 0.8454191 2.9738474

0.bias f4 [40]
000000 00 12 6d 3d ec 89 d0 bd 4d 93 b8 ba 8e bf 46 be
       0.057878494 -0.101825565 -0.0014081985 -0.1940901
000010 3a 24 95 3e 20 93 5f be fc ff 4c 3e 6b 4e 86 3e
       0.291292 -0.21833467 0.20019525 0.26231703
000020 65 48 85 bf 95 3c fb be 63 2d f1 be 18 b3 8b be
       -1.0412718 -0.49069658 -0.4710494 -0.27285075
000030 c5 d9 ec 3e b4 63 18 bf fd b7 53 3e c1 c4 2a bf
       0.46259895 -0.59527135 0.20675655 -0.6670647
000040 49 0f eb 3e 6e cb f1 bd 0a 79 8e bf 71 a0 13 3f
       0.459101 -0.11806379 -1.1130688 0.5766669
000050 0c c8 ec bf 78 4a 64 3e 82 ad e3 bf f7 48 63 3f
       -1.849855 0.22294033 -1.7787325 0.8878321
000060 97 ab c9 3f 24 c4 59 bf 66 94 46 bf 3f aa 61 3f
       1.575549 -0.8506491 -0.7757019 0.881504
000070 1a 1b 93 3e 16 1f 4b 3e 34 4a c3 3f 0e db 77 3f
       0.28731614 0.19836077 1.525702 0.96818626
000080 6f 42 93 bf 9a 5c d1 3f 06 76 33 bf e2 f5 76 3f
       -1.1504649 1.6356385 -0.70101964 0.9646894
000090 66 27 a5 3f 2a c1 5f 3e 50 e8 05 bf ba 5e 18 c0
       1.2902648 0.2185103 -0.52307606 -2.3807817

2.weight f4 [1, 40]
000000 e4 d3 f2 bd bc a2 c9 3e d0 d0 d8 bd a8 b8 3f 3f
       -0.11856821 0.3938197 -0.10586703 0.7489114
000010 42 e5 28 40 35 bf 54 3f 0e a7 ee 3f 31 ee 26 40
       2.6389928 0.8310426 1.8644731 2.608288
000020 05 60 0f c0 a5 32 84 bf a0 91 9d bf d1 fb 87 3f
       -2.2402356 -1.0327955 -1.2310066 1.0623723
000030 c6 c9 a4 bf 7d fc c8 bf 7b ba 16 bf bf cc e0 bf
       -1.2874076 -1.5702053 -0.58878297 -1.7562484
000040 a4 4e a6 bf f3 17 2a be e7 a1 d9 3f bf 8e d0 bf
       -1.2992749 -0.16610698 1.7002534 -1.6293563
000050 c7 c4 32 40 6e 10 25 bf 25 e0 52 40 a4 a3 a2 bf
       2.7932603 -0.64478195 3.2949307 -1.2706189
000060 6a 54 10 c0 41 bd 92 bf fa 37 90 bf d6 54 ea 3f
       -2.2551522 -1.1464006 -1.1267083 1.830714
000070 47 76 bb 3e 25 05 81 3e 28 f8 f1 3f e8 e7 b1 bf
       0.36613676 0.25199237 1.8903856 -1.3898897
000080 ad 32 c8 bf f1 1d 01 40 27 22 0d 3e 01 ed 97 3f
       -1.5640465 2.0174525 0.1378256 1.1869203
000090 cb 74 eb bf 9b c7 8b 3e cb 3b 52 bf 61 37 49 c0
       -1.8395017 0.27300724 -0.82122487 -3.144005

0.weight f4 [40, 1]
000000 f6 e3 3c 3e f9 08 02 3f e4 0a 75 bf f0 dc 77 3f
       0.18446335 0.5079494 -0.9571974 0.968215
000010 96 ea 30 c0 b4 61 8b 3f 95 81 f9 bf 71 d5 2e c0
       -2.764318 1.0889192 -1.949267 -2.7317774
000020 ab 0b 28 40 69 54 9e 3f f4 1c c9 3f c2 3e ae 3f
       2.6257122 1.236951 1.5711961 1.3612902
000030 88 d1 c1 bf 33 44 ff 3f d3 0d 2d bf 5e fe 0e 40
       -1.5142069 1.9942688 -0.6759922 2.2342753
000040 41 16 c0 bf c8 99 17 3e 3b 60 ea 3f e8 57 f1 bf
       -1.5006791 0.14804757 1.8310617 -1.8854952
000050 5b 78 46 40 04 72 3a bf e7 26 63 40 9b 70 a2 bf
       3.101096 -0.72830224 3.5492494 -1.2690614
000060 89 1e 10 c0 1b 7f 88 3f 55 96 8d 3f 12 dd e3 bf
       -2.2518637 1.066379 1.1061503 -1.780184
000070 f2 0b a5 be db ee 63 be 4a 04 db bf 56 1d b1 bf
       -0.32235676 -0.22259085 -1.7110684 -1.3837078
000080 c5 a4 b8 3f a3 cd ea bf 84 09 2e 3f 8d 91 8a bf
       1.4425284 -1.8344005 0.6798327 -1.0825669
000090 d4 0b ec bf 7d 11 7b be ea 03 58 3f eb fd 3e 40
       -1.844111 -0.2451839 0.8438097 2.984248

0.bias f4 [40]
000000 1a 13 86 3d 9b 8e d2 bd 4d 93 b8 ba 42 be 48 be
       0.06546612 -0.10281106 -0.0014081985 -0.19603828
000010 86 c2 93 3e bb bb 61 be bf 0a 4c 3e 75 f2 84 3e
       0.28859347 -0.2204427 0.19925974 0.2596623
000020 8b 9e 86 bf bf b5 fd be da aa f1 be b0 1d 8d be
       -1.0517133 -0.49552724 -0.47200662 -0.27561712
000030 12 79 ec 3e 97 b3 18 bf f3 5f 53 3e 3f 1e 2b bf
       0.4618612 -0.5964903 0.2064207 -0.66843027
000040 05 ae ea 3e 6f a7 f2 bd d1 3e 8f bf 7d 63 13 3f
       0.4583589 -0.11848342 -1.1191045 0.5757368
000050 2a 6e ed bf 6e ea 63 3e 5f 89 e4 bf f9 32 64 3f
       -1.8549244 0.22257397 -1.7854422 0.8914028
000060 62 7b ca 3f 0d 8e 5a bf 84 a3 42 bf 74 61 60 3f
       1.5818903 -0.85373 -0.76030755 0.876487
000070 2f 9a 94 3e fe 24 4d 3e 68 33 c5 3f 6a db 78 3f
       0.29023883 0.20033643 1.5406313 0.972098
000080 3c c0 93 bf 7f 66 d3 3f 06 76 33 bf 4f 55 79 3f
       -1.154304 1.6515654 -0.70101964 0.97395796
000090 b0 d0 a5 3f 0d f1 61 3e ad 0a 05 bf bc e9 18 c0
       1.2954311 0.2206461 -0.51969415 -2.389266

2.weight f4 [1, 40]
000000 78 17 01 be 67 f4 cc 3e d0 d0 d8 bd af e2 42 3f
       -0.12606609 0.40030214 -0.10586703 0.7612714
000010 48 a4 28 40 0f 51 58 3f b5 4c ee 3f 5b a9 26 40
       2.635027 0.84498686 1.8617159 2.6040866
000020 d2 db 10 c0 9c 9a 85 bf b2 48 9d bf 24 34 8a 3f
       -2.2634168 -1.0437808 -1.228781 1.0797162
000030 42 94 a4 bf 23 9f c8 bf fc 89 16 bf 5c 64 e0 bf
       -1.2857745 -1.5673565 -0.588043 -1.7530627
000040 12 19 a6 bf 6a bb 2a be da 39 da 3f 5c 4b d0 bf
       -1.2976401 -0.16673055 1.7048905 -1.6272998
000050 db 45 33 40 7e db 24 bf 29 c8 53 40 e7 4c a3 bf
       2.8011386 -0.6439742 3.3090918 -1.2757844
000060 8d ea 10 c0 4a 52 93 bf ee 5a 8d bf 2f fb e8 3f
       -2.2643158 -1.1509488 -1.1043375 1.8201655
000070 e1 54 bd 3e f8 4f 82 3e 93 79 f4 3f 24 a0 b2 bf
       0.3697882 0.25451636 1.9099602 -1.3955121
000080 be fb c8 bf 59 76 02 40 27 22 0d 3e a3 83 99 3f
       -1.5701826 2.0384734 0.1378256 1.1993297
000090 42 6b ec bf 25 36 8d 3e 95 d8 50 bf 0e 09 4a c0
       -1.8470232 0.27580371 -0.8158048 -3.1568027
