dis/dis03/code/ckpts/sgd/width20/seed277/ckpt_and_history.pt (torch, 15999 bytes, 33 tensors)

0.weight f4 [20, 1]
00000000: 7f56 063f 70cd 0b3f 7437 b93e 99fb 003f
00000010: 1a65 963e 97cf 4d3f f686 1a3f 6f70 7e3e
00000020: 5625 47bf 91aa bf3e 12dd 6ebf 1084 4a3f
00000030: 0f2a 573f abe4 98bd 8b14 22bf 5aec 193f
00000040: 9ccd 123f 4239 003f 8125 5cbe b01e b33e
0.5247573 0.5461035 0.3617512 0.5038391 0.2937401 0.8039488 0.60362184 0.24847578
-0.77791345 0.3743482 -0.93306077 0.7910776 0.8404855 -0.0746549 -0.63312596 0.6012627
0.57344985 0.5008737 -0.21498682 0.3498435

0.bias f4 [20]
00000000: b95e 30ba 336f 6abc 0e8e edbc 7ac2 98bd
00000010: a7bc adbd b4dc 82be 85ee 59be 2ada fabd
00000020: ef0a f03e 4e33 6dbe 27f8 153f 4c6e 03bf
00000030: f3ca 12bf 7675 4e3d 55fb 023f 539b 01bf
00000040: 5fe5 fbbe ba43 e0be a174 4c3e 75b5 b0be
-0.0006727982 -0.0143087385 -0.028998401 -0.074589685 -0.08483248 -0.25559008 -0.21282394 -0.12248643
0.46883342 -0.23164102 0.58581775 -0.51340175 -0.57340926 0.05040499 0.5116475 -0.5062763
-0.49198434 -0.4380167 0.19966365 -0.3451344

2.weight f4 [1, 20]
00000000: e40a 44be d750 cc3c 480b 66bd d00b 51bd
00000010: 0497 c83a 7cb7 09be b484 2e3e a721 813d
00000020: 3129 2b3e e4ee 37bd 9c71 8cbd 8fb0 3ebe
00000030: bafd bdbd 09f4 1c3e a47a 2d3e 24d7 3e3e
00000040: fdd5 f4bd 7b13 33bc c23d 073e d9f5 babd
-0.1914478 0.024940891 -0.056163102 -0.051036656 0.0015303795 -0.134489 0.1704281 0.06305247
0.16714932 -0.04490556 -0.06857607 -0.1862204 -0.0927691 0.15327467 0.16941315 0.18636757
-0.119548775 -0.0109299375 0.13207152 -0.09128923

0.weight f4 [20, 1]
00000000: aedc f83e fe34 1a3f 54b8 bb3e 100c 0c3f
00000010: 8166 b73e 5afd 8d3f 14bb 353f a1da 803e
00000020: 9bff 6bbf bc3e e83e d507 96bf dd37 843f
00000030: cac0 863f 2bfc 9fbd eef1 0cbf 412a 0e3f
00000040: 7546 4f3f 3bb0 243f 357a 2abe f1d4 023f
0.48605865 0.6023711 0.3666407 0.54705906 0.35820392 1.1092942 0.70988584 0.251668
-0.921869 0.45360363 -1.172114 1.0329548 1.0527585 -0.07811769 -0.55056655 0.55533224
0.80966884 0.64331406 -0.16648181 0.5110617

0.bias f4 [20]
00000000: eeb6 d8bb b5f2 67bd 4c3f 0bbd 67e9 24be
00000010: 3e82 d8bd d822 a8be 3759 87bd be5e 0fbe
00000020: ad76 873e 5a30 b4be 5efd 633f 9a3b 4dbf
00000030: 6e10 51bf 1b11 363d 4d32 173f 46d2 0dbf
00000040: 93ef 20bf e96b ffbe 5acc 7f3e 9f21 cbbe
-0.006613604 -0.056627948 -0.03399591 -0.16104661 -0.10571717 -0.32839084 -0.06608813 -0.14000985
0.2645773 -0.3519314 0.8905848 -0.8016907 -0.81665695 0.044449907 0.5906113 -0.55398977
-0.6286556 -0.49887016 0.24980298 -0.39674088

2.weight f4 [1, 20]
00000000: 8cb8 c93a a834 873e ab82 b73d f646 86be
00000010: 2512 5bbe 7173 4cbf 954a b73e 913c ce3d
00000020: 4abf b3be 44ba bdbe 0fdc 78bf 2d32 6cbf
00000030: 8614 5dbf 184b 1b3e 2f5a 153e 41a6 373e
00000040: 0097 33bf e7d5 efbe 0c48 163e a505 dcbe
0.0015390082 0.2640736 0.0896047 -0.26226014 -0.2139364 -0.7986365 0.3579909 0.10070146
-0.3510688 -0.37056172 -0.9721078 -0.9226406 -0.8635944 0.15165365 0.14585184 0.17934515
-0.7015228 -0.46842882 0.14675921 -0.42973056

0.weight f4 [20, 1]
00000000: b522 f93e b208 2d3f 3839 ca3e 8111 213f
00000010: 7334 d83e dba6 ab3f c5ac 4e3f 13d9 de3e
00000020: 6479 84bf a790 043f 66ac a1bf 72ab 983f
00000030: 51f4 993f 9010 7fbe 2bb1 0bbf 412a 0e3f
00000040: 0066 6e3f 1d99 393f bfdc 24be 0eec 153f
0.48659292 0.67591393 0.3949678 0.62917334 0.42227516 1.3410295 0.80732375 0.4352499
-1.0349545 0.5178322 -1.2630737 1.1927321 1.2027684 -0.24908662 -0.5456721 0.55533224
0.9312439 0.7249926 -0.16099833 0.58563316

0.bias f4 [20]
00000000: 097f 5fbd e3bb a4bd 55ff 3fbd ade0 33be
00000010: 6b97 f1bd aded bfbe 2652 c4bd 5c5a 72be
00000020: 2365 943e 3524 d5be 2263 813f fa36 75bf
00000030: a94e 77bf 9df6 0a3e 2a9d 1d3f 46d2 0dbf
00000040: e194 3fbf 422b 15bf 6493 8c3e 3ef4 f0be
-0.05456451 -0.08043649 -0.046874363 -0.17566176 -0.11796459 -0.3748602 -0.09585981 -0.23667282
0.2898341 -0.41629186 1.0108378 -0.9578701 -0.966044 0.13570638 0.6156794 -0.55398977
-0.74836546 -0.5826913 0.274562 -0.47061342

2.weight f4 [1, 20]
00000000: 8c68 923d bc11 d03e f7be 333e 945e d1be
00000010: 390f 9fbe 54dc 8cbf 51b1 063f 6bfc d33e
00000020: 2c02 19bf 2e43 ffbe d137 95bf 689e 9bbf
00000030: 0292 94bf 8963 9d3e 1e21 623e 41a6 373e
00000040: 3c4e 6ebf 2114 26bf e048 393e 7000 13bf
0.07148847 0.4063853 0.17553316 -0.4089247 -0.310663 -1.1004739 0.52614313 0.41403517
-0.5976894 -0.49855942 -1.1657659 -1.2157717 -1.1607058 0.30740002 0.22082946 0.17934515
-0.93088126 -0.64874464 0.18094206 -0.5742254

0.weight f4 [20, 1]
00000000: 782f 013f d644 413f 175a dc3e e3a5 333f
00000010: eb2f f43e cc3a c43f a9a7 683f 6e91 843f
00000020: f75f 8cbf 407c 103f ba40 aabf f70b a73f
00000030: d9c5 a73f b7e5 31bf 6b06 11bf 412a 0e3f
00000040: 8941 823f e827 493f e00b 35be a294 233f
0.50463057 0.7549566 0.43037483 0.70175 0.47692809 1.5330443 0.9088083 1.0356882
-1.0966786 0.5643959 -1.3301003 1.3050526 1.3107253 -0.6949114 -0.5665042 0.55533224
1.017625 0.7857652 -0.17680311 0.6389867

0.bias f4 [20]
00000000: a83b 79bd dfe6 b7bd 4cba 51bd acd0 4dbe
00000010: cc8f 0bbe bf71 e0be c9fb dcbd 9d30 13bf
00000020: 3298 a13e 6e44 e7be 5917 883f 4ac0 85bf
00000030: 0a45 86bf fa48 c53e b6ea 193f 46d2 0dbf
00000040: a494 50bf a50e 21bf 1184 873e 52f9 02bf
-0.06084791 -0.08979582 -0.051203057 -0.20099133 -0.13629073 -0.4383678 -0.10790212 -0.57496053
0.31561428 -0.45169395 1.0632125 -1.0449307 -1.0489819 0.3853224 0.60123765 -0.55398977
-0.8147681 -0.6291297 0.26467946 -0.5116168

2.weight f4 [1, 20]
00000000: eb33 203e e429 063f 2844 7a3e 506f 04bf
00000010: fd4a c4be a869 aabf 51a8 2a3f 7af9 923f
00000020: 946a 35bf ffdf 12bf 01b5 a1bf 48d2 b1bf
00000030: d5e9 aabf afd7 4c3f b0e8 723e 41a6 373e
00000040: c57a 88bf 3df3 40bf 32e8 383e 45c7 28bf
0.15644805 0.5240767 0.24440062 -0.5173235 -0.38338462 -1.3313494 0.6666308 1.1482384
-0.7086575 -0.5737304 -1.2633363 -1.3892298 -1.335261 0.8001661 0.23721576 0.17934515
-1.0662466 -0.7537115 0.18057325 -0.6592906

0.weight f4 [20, 1]
00000000: 0614 0b3f 7a3f 5e3f 180e f83e 7602 573f
00000010: 79fe 133f e7df f03f 03a5 863f 82dd f03f
00000020: bd99 a3bf da95 243f 9619 c2bf 8336 bf3f
00000030: 5f26 bf3f 9c4b a3bf ed4a 13bf 412a 0e3f
00000040: c0dd 943f 32d9 633f 2ca9 3bbe 44a3 3a3f
0.5432743 0.8681561 0.48448253 0.8398813 0.5781017 1.881833 1.0519108 1.8817599
-1.2781292 0.64291155 -1.5164058 1.4938511 1.4933585 -1.2757449 -0.575362 0.55533224
1.1630173 0.8900329 -0.18326253 0.72905374

0.bias f4 [20]
00000000: 7808 7bbd 2aef c5bd 983a 5ebd 54c7 83be
00000010: 42d7 35be ced5 13bf 44b6 efbd 2657 86bf
00000020: 67a7 c93e acde febe 18dc 963f 6f16 94bf
00000030: e502 94bf 3e4b 363f 724e 153f 46d2 0dbf
00000040: e982 66bf b36f 30bf 52ef 803e ed88 10bf
-0.061287373 -0.096647575 -0.054255098 -0.25738013 -0.17757896 -0.57748115 -0.11704686 -1.0495346
0.3938553 -0.4977926 1.1785917 -1.1569346 -1.1563383 0.7120856 0.58322823 -0.55398977
-0.90043503 -0.6892044 0.25182587 -0.5645893

2.weight f4 [1, 20]
00000000: 438c 823e f75b 2c3f 8081 a83e 30ed 34bf
00000010: 8c42 03bf c7e2 dfbf 35b2 583f 511c 0840
00000020: 210a 7ebf 8beb 2ebf f502 c4bf 5b53 d2bf
00000030: 807b cbbf 589f ba3f 677e 5c3e 41a6 373e
00000040: aacd a1bf 31e4 67bf a5d2 2b3e 9f8e 48bf
0.25497636 0.6732783 0.329113 -0.7067442 -0.5127342 -1.7491082 0.8464692 2.1267283
-0.99234205 -0.6832816 -1.5313402 -1.6431688 -1.5897064 1.4579878 0.21532594 0.17934515
-1.2640889 -0.9058257 0.16779573 -0.7834262

0.weight f4 [20, 1]
00000000: bc10 1d3f 512c 853f 30f3 113f 5644 823f
00000010: 1dda 343f 994d 1440 da3f a23f 2215 2140
00000020: d7bd c3bf 0cde 383f e524 d9bf 8f83 d73f
00000030: 94bd d63f 9957 dabf 7cdb 14bf 412a 0e3f
00000040: 3690 a73f e7e4 7e3f c1cc 3dbe 0cdf 513f
0.6135366 1.0404149 0.570117 1.0177104 0.70645314 2.3172362 1.2675736 2.5169148
-1.529231 0.72213817 -1.6964384 1.6837023 1.6776605 -1.7057983 -0.58147407 0.55533224
1.3090885 0.9956803 -0.18535139 0.8198097

0.bias f4 [20]
00000000: 04bc 9ebd 29bd 07be 4b20 94bd a5b8 a4be
00000010: 3ed2 64be e5c1 3bbf d172 25be 8ba3 b2bf
00000020: 3125 f53e 9728 0cbf 5b33 a63f ab63 a3bf
00000030: a2cf a2bf 7c31 733f 8ab2 123f 46d2 0dbf
00000040: 041b 7ebf fe41 41bf 4c08 7d3e e41d 1fbf
-0.07750705 -0.13255753 -0.07232722 -0.32172123 -0.22345826 -0.73342735 -0.1615708 -1.3956159
0.47879937 -0.54749435 1.2984422 -1.2764791 -1.2719615 0.9499738 0.5730368 -0.55398977
-0.9925997 -0.7549132 0.24710196 -0.62154984

2.weight f4 [1, 20]
00000000: 19cc c43e 6788 623f 7e89 e43e 5a64 6dbf
00000010: 7c46 2abf f0cc 0fc0 653d 8d3f 205c 3640
00000020: f89c a9bf bd85 4abf 4278 e4bf 2a72 f2bf
00000030: cc8a ebbf adba f83f bb0c 543e 41a6 373e
00000040: 2dcb babf 2804 87bf e5d6 263e eddf 67bf
0.38436964 0.88489383 0.44636148 -0.9273125 -0.665138 -2.2468834 1.1034361 2.8493729
-1.3251028 -0.7911032 -1.78492 -1.894109 -1.8401732 1.9431969 0.20707981 0.17934515
-1.4593254 -1.0548143 0.16292913 -0.9057606

0.weight f4 [20, 1]
00000000: e38b 343f 7743 9f3f 187f 2c3f 4e9d 943f
00000010: ea21 4f3f 3977 2a40 99b5 c23f 595b 3640
00000020: 2c56 d5bf 8a2a 483f 575d e3bf 17e1 e73f
00000030: d989 e83f d142 ffbf 4e21 1bbf 412a 0e3f
00000040: 04bf b53f 9a3f 893f 5b66 49be 418c 613f
0.7052595 1.2442464 0.6738143 1.1610506 0.80911124 2.6635268 1.5211669 2.8493254
-1.6666923 0.7818991 -1.776286 1.8115567 1.8167068 -1.9942266 -0.60597694 0.55533224
1.4198918 1.0722535 -0.19667952 0.88104635

0.bias f4 [20]
00000000: a91f bbbd 8e9c 24be ab5c b2bd 0595 c2be
00000010: dc9b 87be f243 5fbf b519 49be 59ce cabf
00000020: 760c 0f3f 64cd 13bf 6f96 b33f 5c19 afbf
00000030: 60b1 abbf b941 8a3f 9ada 0c3f 46d2 0dbf
00000040: 94fc 85bf 3392 4cbf f922 703e c44e 2abf
-0.09136898 -0.16075346 -0.08709081 -0.38004318 -0.264861 -0.8721305 -0.19638713 -1.5844222
0.5587839 -0.57735276 1.4030284 -1.3679614 -1.3413506 1.0801307 0.5502106 -0.55398977
-1.0467706 -0.7991058 0.23450841 -0.66526437

2.weight f4 [1, 20]
00000000: 74f3 043f 6710 8f3f 2ac2 123f e39b 8cbf
00000010: b9be 48bf 5ed2 28c0 df98 b13f 599f 4e40
00000020: 5ec5 c0bf 4b67 5dbf a0d4 f6bf 5c3c 04c0
00000030: d4bc 00c0 b83b 1040 7e8d 5e3e 41a6 373e
00000040: 77ea cbbf 8805 94bf d149 213e 5050 7dbf
0.5193398 1.1176881 0.5732752 -1.0985073 -0.7841602 -2.6378398 1.3874778 3.2284758
-1.5060232 -0.8648574 -1.9283638 -2.066184 -2.0115252 2.253645 0.21733662 0.17934515
-1.5930928 -1.1564188 0.15750815 -0.9895067

0.weight f4 [20, 1]
00000000: 2058 4c3f 0874 b83f 1b71 463f 0ac1 a23f
00000010: 014c 633f c26a 3b40 0af1 e13f 787f 4240
00000020: 2a88 d9bf 91fc 513f 5643 eabf 09e1 f13f
00000030: 7ff5 f33f b48e 0ec0 c81d 1cbf 412a 0e3f
00000040: 88be be3f e747 8f3f 1e78 62be 2e1d 6b3f
0.7982197 1.441041 0.77516335 1.2715161 0.8878785 2.928391 1.7651684 3.03903
-1.6994679 0.8202601 -1.8301799 1.88968 1.9059294 -2.22746 -0.6098294 0.55533224
1.4901896 1.1193818 -0.22116134 0.918414

0.bias f4 [20]
00000000: 345f debd 3f5e 48be 99d2 d7bd 4807 d3be
00000010: 2553 93be dad0 72bf d16e 75be 8f26 dbbf
00000020: 0758 173f 7028 18bf c63f ba3f c58b b6bf
00000030: 01c2 b0bf 91d9 973f 9308 0d3f 46d2 0dbf
00000040: 6c0e 8abf 03cb 53bf 9ef3 523e db76 31bf
-0.10858002 -0.19567202 -0.10538215 -0.41216493 -0.28774372 -0.9484993 -0.23968054 -1.7121142
0.59118694 -0.594367 1.4550712 -1.4261404 -1.3809205 1.1863271 0.5509121 -0.55398977
-1.0785651 -0.82731646 0.20600745 -0.69321984

2.weight f4 [1, 20]
00000000: 5821 243f 11d0 aa3f 61bc 303f 0473 9cbf
00000010: f9d4 5ebf bf01 3bc0 2c8c d33f cbeb 5c40
00000020: b191 c6bf 33e5 68bf afa3 00c0 a3ee 0ac0
00000030: bf69 07c0 855b 2040 7f7a 6c3e 41a6 373e
00000040: 8258 d6bf 09e7 9bbf ab61 193e 9f2b 85bf
0.6411338 1.3344747 0.69037443 -1.22226 -0.8704372 -2.9219816 1.6527152 3.4518917
-1.5513211 -0.9097473 -2.0099905 -2.1708152 -2.1158292 2.505586 0.23093604 0.17934515
-1.674576 -1.2179881 0.14978664 -1.0403937

0.weight f4 [20, 1]
00000000: 4660 613f 9f26 ce3f 28f2 5c3f 923b ae3f
00000010: e2a2 733f 4f1f 4940 dbcc fc3f c809 4940
00000020: 9198 d7bf cd98 583f df17 f0bf 620c f83f
00000030: 46af fb3f 1fc3 1ac0 8de6 1cbf 412a 0e3f
00000040: c2ca c43f 2ef9 933f 4e7f 67be 6e09 713f
0.88037527 1.6105536 0.86307 1.361193 0.95170414 3.142536 1.9750017 3.141222
-1.6843435 0.84608155 -1.8757285 1.9378779 1.9662864 -2.4181592 -0.6128929 0.55533224
1.5374377 1.1560419 -0.22607157 0.94155014

0.bias f4 [20]
00000000: 9eb6 f6bd 88a9 61be 63d6 f1bd 7207 dfbe
00000010: 7cdb 9bbe 218f 80bf 8645 8abe cce8 e4bf
00000020: eb71 1a3f ea63 1bbf 9fd5 bf3f 44a0 bcbf
00000030: 3c76 b4bf 96a7 a13f 421e 0d3f 46d2 0dbf
00000040: 7514 8dbf 2461 57bf ac15 503e 4e48 37bf
-0.1204655 -0.22037327 -0.11808469 -0.43560368 -0.3044089 -1.004368 -0.27006167 -1.7883544
0.60330075 -0.6069933 1.4987067 -1.4736409 -1.4098582 1.2629268 0.55124295 -0.55398977
-1.1021868 -0.841326 0.20320767 -0.71594703

2.weight f4 [1, 20]
00000000: 38b6 3d3f affc c13f 88a4 493f 7fed a8bf
00000010: 2942 70bf e85f 49c0 86f1 ef3f 44a6 6440
00000020: 56bc c4bf 5fa7 70bf d5fd 04c0 ba76 0fc0
00000030: 74eb 0bc0 723d 2d40 2875 763e 41a6 373e
00000040: 9263 ddbf f539 a1bf c6c0 1c3e 8d93 89bf
0.7410617 1.5155238 0.7876668 -1.3197478 -0.9385095 -3.1464787 1.8745582 3.572648
-1.5369976 -0.9400539 -2.0779927 -2.2416215 -2.186246 2.7068753 0.24068129 0.17934515
-1.7296011 -1.2595812 0.15307912 -1.0748154

0.weight f4 [20, 1]
00000000: ddbe 723f 11d7 df3f 5659 6f3f a9aa b73f
00000010: 9984 803f 4256 5440 d755 0940 9a60 4d40
00000020: e1ea d2bf 733a 5d3f a8a6 f5bf d59d fc3f
00000030: b382 0040 b757 25c0 8f98 1dbf 412a 0e3f
00000040: f5fe c83f d2c5 973f def6 68be c66a 753f
0.94822484 1.7487508 0.9349569 1.4348956 1.0040466 3.3177648 2.1458642 3.209021
-1.6477929 0.8641731 -1.9191484 1.9735667 2.0079772 -2.5834787 -0.6156091 0.55533224
1.5702807 1.1857245 -0.22750422 0.9586605

0.bias f4 [20]
00000000: 6ac2 04be a3b5 74be 45f1 02be 188b e9be
00000010: 1869 a3be 19f7 86bf 351f 96be 9907 ebbf
00000020: 8e86 213f de09 1dbf 8ac3 c43f cbb1 bfbf
00000030: 5272 b6bf 3e46 a93f fb1f 0d3f 46d2 0dbf
00000040: baac 8ebf 3ea2 57bf e89b 503e bf39 3abf
-0.12964788 -0.23897414 -0.1278735 -0.45613933 -0.31916118 -1.0544158 -0.29320684 -1.8361694
0.6309594 -0.6134318 1.5372174 -1.4976133 -1.4253638 1.3224561 0.55126923 -0.55398977
-1.1146462 -0.84231937 0.20371974 -0.72744364

2.weight f4 [1, 20]
00000000: 19d1 513f f85e d43f f658 5d3f fff3 b2bf
00000010: b944 7ebf 04ef 54c0 433e 0340 2f6c 6940
00000020: c0ce c0bf 1180 75bf 77f4 08c0 5545 12c0
00000030: 27bc 0ec0 4e39 3840 0a26 7e3e 41a6 373e
00000040: 7ec9 e1bf 688d a4bf 3d59 1f3e 524e 8cbf
0.8195968 1.6591482 0.8646387 -1.3980712 -0.9932361 -3.3270884 2.0506752 3.647228
-1.5063095 -0.9589854 -2.139921 -2.2854817 -2.230234 2.8784976 0.24819198 0.17934515
-1.7639616 -1.2855654 0.15561385 -1.0961401

0.weight f4 [20, 1]
00000000: 37af 803f e89c ee3f c3c1 7e3f ad1c bf3f
00000010: 5ace 853f 3130 5d40 a576 1240 a308 5040
00000020: 2a12 cebf d03c 603f f099 fabf 0e81 ff3f
00000030: 9142 0240 b4fe 2ec0 c130 1ebf 412a 0e3f
00000040: 00bd cb3f f13d 993f fa80 6abe 1532 783f
1.0053471 1.8641634 0.99514407 1.4930626 1.0453598 3.4560664 2.2884915 3.2505271
-1.6099293 0.8759279 -1.9578228 1.9961259 2.035313 -2.7342958 -0.6179314 0.55533224
1.5917053 1.1972028 -0.22900763 0.9695142

0.bias f4 [20]
00000000: 863c 0cbe bcec 81be 8cc0 0abe 1822 f3be
00000010: 223a aabe 68b2 8cbf 6b7e 9fbe 2575 f0bf
00000020: 4fa3 223f b54b 1ebf ce86 c83f 38ee c1bf
00000030: 8de8 b7bf 2112 b13f 717e 0d3f 46d2 0dbf
00000040: b6dd 8fbf eddb 5abf 969b 513e 175c 3cbf
-0.13694963 -0.25375926 -0.13550013 -0.4748695 -0.33247477 -1.0991945 -0.31151137 -1.878575
0.6353044 -0.6183427 1.5666139 -1.5150824 -1.4367844 1.3833658 0.5527106 -0.55398977
-1.1239536 -0.8549183 0.20469508 -0.7357802

2.weight f4 [1, 20]
00000000: 170f 623f 704b e33f 7052 6d3f 57a3 babf
00000010: 2e81 84bf c9cb 5dc0 a265 0c40 6165 6c40
00000020: 358c bbbf 0384 78bf b02d 0cc0 ce08 14c0
00000030: 607c 10c0 f977 4240 fbb3 833e 41a6 373e
00000040: 4f85 e4bf 6ba2 a6bf e682 223e aa05 8ebf
0.88304275 1.7757397 0.92703915 -1.4581097 -1.0351923 -3.465563 2.1937032 3.6936877
-1.4652163 -0.97076434 -2.1902885 -2.3130374 -2.2575912 3.0385725 0.25723252 0.17934515
-1.7853183 -1.3018316 0.15870246 -1.1095479
