q_relu_optim/ckpts/adam/width40/seed689/ckpt_and_history.pt (torch, 18111 bytes, 33 tensors)

0.weight f4 [40, 1]
0	0xbea04001	-0.3129883
1	0x3eec1539	0.46109942
2	0xbf0dd351	-0.5540057
3	0xbea4ac74	-0.3216282
4	0x3f66fa4b	0.90225667
5	0x3e2510ed	0.16119738
6	0x3f6bd146	0.921162
7	0x3ece050d	0.40238228
8	0x3e1e2ca4	0.15446717
9	0xbe9f832c	-0.31154764
10	0xbeb0cec6	-0.34532756
11	0xbecf8ba1	-0.40536216
12	0x3ed05235	0.4068772
13	0x3e0a9de1	0.13536789
14	0xbeb9a5c4	-0.36259282
15	0xbe836da0	-0.25669575
16	0xbf60ef5e	-0.87865245
17	0x3f3efd96	0.7460569
18	0xbeb2058e	-0.34769863
19	0x3e6512e7	0.22370492
20	0x3cae167c	0.021250956
21	0xbeb70ade	-0.35750479
22	0xbf36568a	-0.712258
23	0x3f222e76	0.63352144
24	0xbf23ecd7	-0.64033264
25	0xbec89390	-0.3917508
26	0x3edc807c	0.43066776
27	0x3f1a0d60	0.6017666
28	0x3f4a8758	0.7911277
29	0xbf7638ae	-0.96180236
30	0xbf37b218	-0.71756124
31	0xbf001730	-0.5003538
32	0x3f675ace	0.9037293
33	0x3f0674d8	0.5252204
34	0xbee6e338	-0.4509523
35	0xbf1fe3ec	-0.62457156
36	0x3f5620da	0.8364388
37	0xbf013430	-0.50470257
38	0xbebcfd3e	-0.36911958
39	0xbf659ad2	-0.8968936

0.bias f4 [40]
0	0xbca1608c	-0.019699357
1	0xbd022469	-0.031773005
2	0x3d4769b3	0.048684787
3	0x3be909e0	0.007111773
4	0xbdd3974a	-0.103315905
5	0xbd0edbe3	-0.03487767
6	0xbdfa449e	-0.12220119
7	0xbd9531d7	-0.07284897
8	0xbc9eaef0	-0.019370526
9	0x3d7006ef	0.058600362
10	0x3dfd05ba	0.12354608
11	0x3e144f7e	0.14483449
12	0xbe1848e7	-0.1487156
13	0xbd9c5f6f	-0.0763539
14	0x3de5431a	0.11194439
15	0x3e094fa8	0.13409293
16	0x3eafbf1c	0.34325492
17	0xbed069dc	-0.40705764
18	0x3e24f0dd	0.16107507
19	0xbdcc8835	-0.09986917
20	0xbcaa6818	-0.020801589
21	0x3e499dff	0.19689177
22	0x3f003bbd	0.50091153
23	0xbef7d4fd	-0.48404685
24	0x3efd1031	0.49426416
25	0x3e7d1315	0.2471431
26	0xbe951684	-0.2911874
27	0xbf0010f8	-0.5002589
28	0xbf28d45f	-0.6594905
29	0x3f3d6fa4	0.73998475
30	0x3f1d8e65	0.615454
31	0x3ec242f0	0.37941694
32	0xbf3f0f7d	-0.7463301
33	0xbeff67a4	-0.4988376
34	0x3eb88e26	0.3604595
35	0x3f1af2ce	0.6052674
36	0xbf3ab79f	-0.72936434
37	0x3f0092a2	0.50223744
38	0x3ea199b2	0.31562573
39	0x3f6b9332	0.9202148

2.weight f4 [1, 40]
0	0xbdd756ab	-0.105145775
1	0x3deb1646	0.11478858
2	0xbdb0c121	-0.086305864
3	0xbc9489ac	-0.018132053
4	0xbdf8a433	-0.121406935
5	0xbe355578	-0.17708385
6	0xbda82493	-0.08210101
7	0xbd66fb8e	-0.056392245
8	0x3d5e59fe	0.054285042
9	0x3bf23bc8	0.0073923804
10	0xbdf8fd9c	-0.12157747
11	0xbd69f7be	-0.05712103
12	0xbe114265	-0.14185484
13	0x3de8907b	0.113556825
14	0xbe0f36d0	-0.13985753
15	0x3db7398a	0.089465216
16	0xbe2d1278	-0.16901577
17	0xbc9e214c	-0.019302987
18	0xbd7a4472	-0.06110043
19	0xbe314d92	-0.17314747
20	0xbdf565a0	-0.11982274
21	0x3dbf83bf	0.093513004
22	0xbd74d2ea	-0.059771456
23	0x3d600440	0.054691553
24	0x3d44fafc	0.04809092
25	0xbd46900b	-0.048477214
26	0xbdf0a342	-0.11749889
27	0xbb4aca50	-0.0030943342
28	0x3e0515eb	0.12996642
29	0xbd81f3d5	-0.063453354
30	0x3d9882d4	0.074468285
31	0xbdc3fe37	-0.09569972
32	0xbd9b2fae	-0.075774536
33	0x3df7e81b	0.121048175
34	0xbd930c4b	-0.07180079
35	0xbc76997b	-0.015051241
36	0xbe13bfc1	-0.14428617
37	0x3dbf02a6	0.09326677
38	0xbcedcdcf	-0.029028801
39	0xbdb9a23b	-0.09064146

0.weight f4 [40, 1]
0	0xbec60280	-0.38673782
1	0x3e14a848	0.14517319
2	0xc006dcc9	-2.1072257
3	0xbee52ff2	-0.44763142
4	0x3fd138cb	1.6345457
5	0x3d78f264	0.060778037
6	0x3feb5831	1.8386289
7	0x3e8317ab	0.25603995
8	0x3f8718e7	1.0554475
9	0xbed62015	-0.41821352
10	0xbffdb61b	-1.9821199
11	0xbff3dee7	-1.9052399
12	0x3f5561d7	0.83352417
13	0x3d2d9c73	0.04238553
14	0xc001262b	-2.0179546
15	0xbfe0d537	-1.7565068
16	0xc025ba99	-2.589514
17	0x3fa1ad83	1.2631077
18	0xbfefd2c1	-1.8736192
19	0x3f943e8b	1.1581587
20	0xbb7514c9	-0.0037396422
21	0xc0aeb71b	-5.4598517
22	0xbf8dd91c	-1.1081882
23	0x3edba3dc	0.42898452
24	0xbe956eb0	-0.2918601
25	0xbf34c9f7	-0.70620674
26	0x3f71e494	0.9448941
27	0x3f96c42d	1.1778618
28	0x3f13b53d	0.5769842
29	0xbfaeb53c	-1.3649058
30	0xbf025352	-0.50908387
31	0xbf5f0b51	-0.8712664
32	0x3fc9c765	1.5763975
33	0x3ecad17b	0.39612946
34	0xbf5047e0	-0.8135967
35	0xc062c07b	-3.542998
36	0x3fb8ea1b	1.4446443
37	0xbeebff7e	-0.46093363
38	0xbf0ffce5	-0.5624526
39	0xbfa2f820	-1.2731972

0.bias f4 [40]
0	0xbdf55c6a	-0.11980517
1	0xbddce681	-0.10786153
2	0x3f229b87	0.63518566
3	0xbe0d0604	-0.13771826
4	0xbf7777a9	-0.9666696
5	0xbe4269f2	-0.18985727
6	0xbf8ac180	-1.0840302
7	0xbee02c3b	-0.43783745
8	0xbf21ab39	-0.6315189
9	0xbd901007	-0.07034307
10	0x3f195529	0.5989557
11	0x3f40e2c1	0.75346
12	0xbf28dc9b	-0.6596162
13	0xbd6c8a61	-0.057749156
14	0x3f1c0626	0.6094688
15	0x3f5dcf5f	0.8664455
16	0x3f49d24c	0.7883651
17	0xbf64eaef	-0.8942098
18	0x3f3dc1a8	0.7412362
19	0xbf2fb52e	-0.68635833
20	0xbdf1ae76	-0.11800854
21	0x3f14a887	0.5806965
22	0x3f465571	0.77474123
23	0xbf2fabf9	-0.68621784
24	0x3e928a7c	0.2862128
25	0x3efdd599	0.49577025
26	0xbf3f4503	-0.7471468
27	0xbf6e1bbb	-0.93011063
28	0xbf5f0136	-0.8711122
29	0x3f74a295	0.9556058
30	0x3eef41f5	0.4673001
31	0x3f1c9a44	0.6117289
32	0xbf8ebbcc	-1.1151061
33	0xbf209eff	-0.6274261
34	0x3f124e9f	0.57151216
35	0x3fe60a94	1.7971978
36	0xbf8d4510	-1.1036701
37	0x3ee31e27	0.44358942
38	0x3ecbafc0	0.39782524
39	0x3f640a94	0.8907864

2.weight f4 [1, 40]
0	0xbbe5b679	-0.007010278
1	0xbb8498e9	-0.0040465486
2	0xbfc744c1	-1.5567857
3	0xbdddf0cf	-0.10836946
4	0x3fbd5471	1.4791394
5	0xbe029946	-0.12753782
6	0x3feca6d9	1.8488418
7	0xbe818791	-0.2529874
8	0x3f4ca5e3	0.79940623
9	0xbdf12626	-0.11774854
10	0xbfd9763e	-1.698921
11	0xbfdda25e	-1.7315176
12	0xbfa6c0d1	-1.3027593
13	0xbc61d781	-0.01378429
14	0xbfdea5cc	-1.7394347
15	0x3f931d7c	1.1493373
16	0xbffb2eda	-1.9623673
17	0xc0165bec	-2.3493605
18	0xbfe3089c	-1.7737002
19	0x3fcd8382	1.6055758
20	0xbe90ac2c	-0.28256357
21	0x406434f4	3.565732
22	0xbf210220	-0.6289387
23	0xbe20f467	-0.15718232
24	0xb9ea7878	-0.00044721714
25	0xbece629f	-0.40309617
26	0xc005c071	-2.0898707
27	0xc0196364	-2.3966913
28	0xbd749e15	-0.05972107
29	0xbf2b161d	-0.6683062
30	0x3d862fd6	0.06552093
31	0xbf0f369e	-0.55942714
32	0xc0343909	-2.8159811
33	0x3bf3d2e6	0.0074409125
34	0xbefdab50	-0.49544764
35	0x40728fdd	3.7900307
36	0xc0321dd8	-2.7830715
37	0x3deb7dcd	0.11498604
38	0xbe50eb72	-0.20402315
39	0xbedc9f25	-0.43090168

0.weight f4 [40, 1]
0	0xbec60280	-0.38673782
1	0x3ddfb59d	0.10923312
2	0xc00a8857	-2.1645715
3	0xbee52ff2	-0.44763142
4	0x3fdce2f3	1.725676
5	0x3d78f264	0.060778037
6	0x3ff838a5	1.9392287
7	0x3e8317ab	0.25603995
8	0x3f8f0329	1.1172839
9	0xbed62015	-0.41821352
10	0xc0034830	-2.051281
11	0xc002aaa0	-2.0416641
12	0x3f688087	0.9082112
13	0x3d2d9c73	0.04238553
14	0xc005c572	-2.090176
15	0xbfe7e9a4	-1.8118176
16	0xc02a7c1b	-2.6638248
17	0x3fabe7eb	1.3430151
18	0xc002069c	-2.0316534
19	0x3f9f9d12	1.2469809
20	0xbb7514c9	-0.0037396422
21	0xc0b6afc1	-5.7089543
22	0xbfa459fd	-1.2839962
23	0x3edba3dc	0.42898452
24	0xbf5357d1	-0.8255587
25	0xbf526c1a	-0.821962
26	0x3f840d4e	1.031656
27	0x3fa2a726	1.270726
28	0x3f13b53d	0.5769842
29	0xbfc67c02	-1.5506594
30	0xbf961fb9	-1.1728431
31	0xbf842a00	-1.0325317
32	0x3fd72b53	1.6810097
33	0x3ecad17b	0.39612946
34	0xbf761733	-0.9612915
35	0xc068d3d7	-3.6379297
36	0x3fc2e054	1.522471
37	0xbefe47dd	-0.49664202
38	0xbf04800e	-0.51757896
39	0xbfb6c504	-1.4278874

0.bias f4 [40]
0	0xbdf55c6a	-0.11980517
1	0xbe074834	-0.13211137
2	0x3f2a9e38	0.6664767
3	0xbe0d0604	-0.13771826
4	0xbf844eac	-1.0336509
5	0xbe4269f2	-0.18985727
6	0xbf92fed3	-1.1484016
7	0xbee02c3b	-0.43783745
8	0xbf2cd88d	-0.6751793
9	0xbd901007	-0.07034307
10	0x3f20bc0a	0.62786925
11	0x3f51f751	0.82018
12	0xbf36afcf	-0.7136201
13	0xbd6c8a61	-0.057749156
14	0x3f235417	0.63800186
15	0x3f653778	0.89537764
16	0x3f5253a4	0.82158875
17	0xbf79c66a	-0.9756838
18	0x3f4cb533	0.7996399
19	0xbf3f648c	-0.747628
20	0xbdf1ae76	-0.11800854
21	0x3f1b0e65	0.6056884
22	0x3f6845f8	0.90731764
23	0xbf2fabf9	-0.68621784
24	0x3f3909a4	0.72280335
25	0x3f14e9ae	0.58169067
26	0xbf5045ee	-0.81356704
27	0xbf80601c	-1.002933
28	0xbf5f0136	-0.8711122
29	0x3f8bef64	1.0932431
30	0x3f8523cc	1.0401549
31	0x3f3b21b2	0.7309829
32	0xbf970046	-1.1796958
33	0xbf209eff	-0.6274261
34	0x3f2e52f7	0.68095344
35	0x3fec374e	1.8454378
36	0xbf99e0ca	-1.2021725
37	0x3e943a10	0.28950548
38	0x3ebc2ddd	0.3675374
39	0x3f813521	1.0094339

2.weight f4 [1, 40]
0	0xbbe5b679	-0.007010278
1	0x3cc3ffb8	0.023925647
2	0xbfba6a05	-1.4563605
3	0xbdddf0cf	-0.10836946
4	0x3fb89f01	1.4423524
5	0xbe029946	-0.12753782
6	0x3fef7225	1.8706709
7	0xbe818791	-0.2529874
8	0x3f0a235f	0.5396022
9	0xbdf12626	-0.11774854
10	0xbfcaada8	-1.5834246
11	0xbfe1beb7	-1.7636327
12	0xbf44affa	-0.7683102
13	0xbc61d781	-0.01378429
14	0xbfd078f5	-1.6286913
15	0x3f8da909	1.106721
16	0xbff4c3a9	-1.9122211
17	0xc007190d	-2.110904
18	0xbfe6bf62	-1.8027155
19	0x3faf146a	1.3678105
20	0xbe90ac2c	-0.28256357
21	0x405ae0d7	3.4199731
22	0xbf45a007	-0.7719731
23	0xbe20f467	-0.15718232
24	0x3ec8cfef	0.3922114
25	0xbed11c46	-0.40841883
26	0xbfcc43eb	-1.5958227
27	0xc00a0867	-2.1567628
28	0xbd749e15	-0.05972107
29	0xbf5b8352	-0.85747254
30	0x3f38b4d9	0.7215095
31	0xbf23b24e	-0.63943946
32	0xc0317435	-2.7727177
33	0x3bf3d2e6	0.0074409125
34	0xbf0d7709	-0.5525976
35	0x40761f11	3.8456461
36	0xc030aeb5	-2.7606633
37	0x3d9449ca	0.07240637
38	0xbe039172	-0.12848452
39	0xbf178355	-0.5918477

0.weight f4 [40, 1]
0	0xbec60280	-0.38673782
1	0x3ddfb59d	0.10923312
2	0xc0131f6d	-2.298793
3	0xbee52ff2	-0.44763142
4	0x3fe9abb6	1.8255527
5	0x3d78f264	0.060778037
6	0x4002edb4	2.0457582
7	0x3e8317ab	0.25603995
8	0x3f96895e	1.1760671
9	0xbed62015	-0.41821352
10	0xc00bc3b1	-2.183819
11	0xc008baae	-2.136394
12	0x3f72f577	0.949058
13	0x3d2d9c73	0.04238553
14	0xc00e2a46	-2.2213302
15	0xbfe7a4b9	-1.8097144
16	0xc033f549	-2.811846
17	0x3fae51a4	1.3618665
18	0xc007efc3	-2.124009
19	0x3fabb102	1.3413393
20	0xbb7514c9	-0.0037396422
21	0xc0bb2432	-5.8481684
22	0xbfbf354e	-1.4938142
23	0x3edba3dc	0.42898452
24	0xbfa2edd3	-1.2728828
25	0xbf7c3270	-0.9851446
26	0x3f8bfdbb	1.0936807
27	0x3fab8661	1.3400384
28	0x3f13b53d	0.5769842
29	0xbfe2258a	-1.7667706
30	0xbfcf2b03	-1.6185001
31	0xbf9d3026	-1.2280319
32	0x3fe197bb	1.762443
33	0x3ecad17b	0.39612946
34	0xbf92d900	-1.1472473
35	0xc06b5e47	-3.6776292
36	0x3fcc49b3	1.5959991
37	0xc022d5b1	-2.5442927
38	0xbf0eb543	-0.55745333
39	0xbfd0cf2e	-1.6313226

0.bias f4 [40]
0	0xbdf55c6a	-0.11980517
1	0xbe074834	-0.13211137
2	0x3f31cc3d	0.6945227
3	0xbe0d0604	-0.13771826
4	0xbf8c4f82	-1.0961764
5	0xbe4269f2	-0.18985727
6	0xbf9b0af7	-1.2112721
7	0xbee02c3b	-0.43783745
8	0xbf3574fa	-0.7088162
9	0xbd901007	-0.07034307
10	0x3f28d1a0	0.6594486
11	0x3f5a8224	0.8535483
12	0xbf4161e5	-0.7554
13	0xbd6c8a61	-0.057749156
14	0x3f2bdc72	0.6713325
15	0x3f65251d	0.89509755
16	0x3f5aa5d2	0.8540927
17	0xbf89c104	-1.0762029
18	0x3f55c673	0.83505934
19	0xbf4df18b	-0.8044669
20	0xbdf1ae76	-0.11800854
21	0x3f17d695	0.593118
22	0x3f8769b6	1.0579135
23	0xbf2fabf9	-0.68621784
24	0x3f911432	1.1334288
25	0x3f32ca6d	0.6984013
26	0xbf5e27d2	-0.8677951
27	0xbf882dbf	-1.0638961
28	0xbf5f0136	-0.8711122
29	0x3f9ff36c	1.2496161
30	0x3fb9709b	1.448749
31	0x3f5f2094	0.87159085
32	0xbf9e337a	-1.2359459
33	0xbf209eff	-0.6274261
34	0x3f5053f1	0.81378084
35	0x3feee55a	1.8663743
36	0xbfa20f09	-1.2660838
37	0x3f007497	0.501779
38	0x3e5dec7e	0.21672246
39	0x3f93b218	1.1538725

2.weight f4 [1, 40]
0	0xbbe5b679	-0.007010278
1	0x3cc3ffb8	0.023925647
2	0xbfb6ad7f	-1.4271697
3	0xbdddf0cf	-0.10836946
4	0x3fc16a6b	1.5110601
5	0xbe029946	-0.12753782
6	0x3ffe5cde	1.9872091
7	0xbe818791	-0.2529874
8	0x3edd39d8	0.43208194
9	0xbdf12626	-0.11774854
10	0xbfc525d9	-1.5402175
11	0xbfde3f72	-1.7363112
12	0xbec029ef	-0.37531993
13	0xbc61d781	-0.01378429
14	0xbfcb8208	-1.5899057
15	0x3f80c2ac	1.0059409
16	0xbff6ccaf	-1.9281214
17	0xbff18d22	-1.8871195
18	0xbfe2f45f	-1.7730826
19	0x3fa3ded6	1.2802379
20	0xbe90ac2c	-0.28256357
21	0x404a1f6e	3.1581683
22	0xbf7d42f3	-0.9893028
23	0xbe20f467	-0.15718232
24	0x3f82fcd2	1.0233405
25	0xbf030076	-0.5117258
26	0xbf927d28	-1.1444445
27	0xbff16e04	-1.8861699
28	0xbd749e15	-0.05972107
29	0xbf8e0b03	-1.109711
30	0x3fbc1b98	1.4695921
31	0xbf4ee06b	-0.80811185
32	0xc02ed11f	-2.7315137
33	0x3bf3d2e6	0.0074409125
34	0xbf33534b	-0.7004897
35	0x40756312	3.8341718
36	0xc02a4604	-2.6605234
37	0x3f66a668	0.90097666
38	0xbd6373eb	-0.05553047
39	0xbf52e198	-0.8237548

0.weight f4 [40, 1]
0	0xbec60280	-0.38673782
1	0x3ddfb59d	0.10923312
2	0xc01a84c6	-2.4143538
3	0xbee52ff2	-0.44763142
4	0x3ff453c3	1.9088062
5	0x3d78f264	0.060778037
6	0x40087e92	2.1327252
7	0x3e8317ab	0.25603995
8	0x3f9bb5fd	1.2164913
9	0xbed62015	-0.41821352
10	0xc01348b8	-2.3013134
11	0xc00bc392	-2.1838117
12	0x3f798229	0.97464234
13	0x3d2d9c73	0.04238553
14	0xc015c8aa	-2.3403726
15	0xbfe59b39	-1.7937995
16	0xc03c52d5	-2.9425557
17	0x3fb5860e	1.4181535
18	0xc00b1a98	-2.1734982
19	0x3fb59d58	1.4188643
20	0xbb7514c9	-0.0037396422
21	0xc0bc70ac	-5.888754
22	0xbfd3bd66	-1.6542175
23	0x3edba3dc	0.42898452
24	0xbfc6edb6	-1.5541294
25	0xbf85e986	-1.0461891
26	0x3f926b2d	1.1438957
27	0x3fb331e6	1.3999603
28	0x3f13b53d	0.5769842
29	0xbff2de2a	-1.8974049
30	0xbff2a101	-1.8955384
31	0xbfb0b707	-1.3805856
32	0x3fea5656	1.8307598
33	0x3ecad17b	0.39612946
34	0xbf99bb1d	-1.2010227
35	0xc06d203b	-3.7050922
36	0x3fd440a6	1.6582229
37	0xc046f3fc	-3.1086416
38	0xbf141263	-0.57840556
39	0xbfe4eb0d	-1.7884232

0.bias f4 [40]
0	0xbdf55c6a	-0.11980517
1	0xbe074834	-0.13211137
2	0x3f398830	0.7247343
3	0xbe0d0604	-0.13771826
4	0xbf93ccdd	-1.1546894
5	0xbe4269f2	-0.18985727
6	0xbfa2c183	-1.2715305
7	0xbee02c3b	-0.43783745
8	0xbf3cfafd	-0.7382048
9	0xbd901007	-0.07034307
10	0x3f30b758	0.6902976
11	0x3f607ba3	0.87688655
12	0xbf45f122	-0.77321064
13	0xbd6c8a61	-0.057749156
14	0x3f33c9c2	0.70229733
15	0x3f633060	0.8874569
16	0x3f627fcd	0.8847626
17	0xbf905d4f	-1.1278476
18	0x3f5bba54	0.8583119
19	0xbf5bc4ea	-0.8584734
20	0xbdf1ae76	-0.11800854
21	0x3f176e68	0.5915284
22	0x3f942b5d	1.1575733
23	0xbf2fabf9	-0.68621784
24	0x3fb2779c	1.3942752
25	0x3f548354	0.8301289
26	0xbf68ccc5	-0.90937454
27	0xbf8e3d7a	-1.1112511
28	0xbf5f0136	-0.8711122
29	0x3faebf29	1.3652087
30	0x3fda729e	1.7066228
31	0x3f77941b	0.96710366
32	0xbfa392f5	-1.2779223
33	0xbf209eff	-0.6274261
34	0x3f74970d	0.95542985
35	0x3fef4ba5	1.869496
36	0xbfa8b32d	-1.317968
37	0x3f1fbd2a	0.62398016
38	0x3d873951	0.06602729
39	0x3fa03ba8	1.2518206

2.weight f4 [1, 40]
0	0xbbe5b679	-0.007010278
1	0x3cc3ffb8	0.023925647
2	0xbfb9e9d3	-1.4524482
3	0xbdddf0cf	-0.10836946
4	0x3fcb6758	1.5890913
5	0xbe029946	-0.12753782
6	0x4006aa99	2.1041625
7	0xbe818791	-0.2529874
8	0x3eaefc38	0.34176803
9	0xbdf12626	-0.11774854
10	0xbfc76f3b	-1.558082
11	0xbfdc4bff	-1.7210692
12	0xbe397473	-0.18110828
13	0xbc61d781	-0.01378429
14	0xbfce2702	-1.6105654
15	0x3f6f336a	0.93437827
16	0xbffd88a6	-1.9807327
17	0xbfdea98c	-1.7395492
18	0xbfe0c593	-1.7560295
19	0x3f9dab8e	1.2317979
20	0xbe90ac2c	-0.28256357
21	0x403df4bc	2.9680624
22	0xbf954930	-1.166296
23	0xbe20f467	-0.15718232
24	0x3fc1df17	1.5146207
25	0xbf226ce2	-0.6344739
26	0xbf55bbc4	-0.8348963
27	0xbfd9bbd9	-1.7010452
28	0xbd749e15	-0.05972107
29	0xbfa6bf5b	-1.3027147
30	0x3ffeaae0	1.9895897
31	0xbf75f357	-0.9607443
32	0xc02caf03	-2.6981819
33	0x3bf3d2e6	0.0074409125
34	0xbf58c73b	-0.84679
35	0x40744027	3.8164155
36	0xc02744a9	-2.6135657
37	0x3f988110	1.1914387
38	0x3b66e450	0.00352313
39	0xbf8108ac	-1.0080771

0.weight f4 [40, 1]
0	0xbec60280	-0.38673782
1	0x3ddfb59d	0.10923312
2	0xc01dc8dd	-2.4653847
3	0xbee52ff2	-0.44763142
4	0x3ffcc05f	1.9746207
5	0x3d78f264	0.060778037
6	0x400d05dc	2.2034826
7	0x3e8317ab	0.25603995
8	0x3f9ece79	1.240676
9	0xbed62015	-0.41821352
10	0xc016bcb9	-2.3552687
11	0xc00f74e3	-2.2415092
12	0x3f7b48b5	0.9815782
13	0x3d2d9c73	0.04238553
14	0xc0194d36	-2.3953376
15	0xbfe1f3d0	-1.7652531
16	0xc0405265	-3.005029
17	0x3fbcc11d	1.4746433
18	0xc00cc995	-2.1998036
19	0x3fbd6c1f	1.4798621
20	0xbb7514c9	-0.0037396422
21	0xc0c282b8	-6.078457
22	0xbfdd6a5b	-1.7298082
23	0x3edba3dc	0.42898452
24	0xbfd90985	-1.695603
25	0xbf90bf59	-1.1308395
26	0x3f98c116	1.1933925
27	0x3fba3dc9	1.4550105
28	0x3f13b53d	0.5769842
29	0xbffbdea7	-1.9677323
30	0xc002a37b	-2.041228
31	0xbfb9cc01	-1.4515382
32	0x3fee4348	1.8614283
33	0x3ecad17b	0.39612946
34	0xbfa65a62	-1.2996333
35	0xc06da8e9	-3.7134345
36	0x3fdbb81f	1.7165564
37	0xc04de9a6	-3.2173858
38	0xbf1a5e0c	-0.60299754
39	0xbfee3a7b	-1.8611597

0.bias f4 [40]
0	0xbdf55c6a	-0.11980517
1	0xbe074834	-0.13211137
2	0x3f3ebdf2	0.74508584
3	0xbe0d0604	-0.13771826
4	0xbf99ae12	-1.2006247
5	0xbe4269f2	-0.18985727
6	0xbfa85e8f	-1.3153857
7	0xbee02c3b	-0.43783745
8	0xbf418f2d	-0.75609094
9	0xbd901007	-0.07034307
10	0x3f360ba2	0.711115
11	0x3f63a983	0.8893053
12	0xbf47a393	-0.7798397
13	0xbd6c8a61	-0.057749156
14	0x3f393d6d	0.72359353
15	0x3f5d7f32	0.8652221
16	0x3f687c67	0.9081482
17	0xbf96547e	-1.1744535
18	0x3f62574a	0.8841444
19	0xbf66a285	-0.90091735
20	0xbdf1ae76	-0.11800854
21	0x3f1c24a6	0.6099342
22	0x3f9a8007	1.2070321
23	0xbf2fabf9	-0.68621784
24	0x3fc35bd2	1.5262396
25	0x3f67dbee	0.9056996
26	0xbf71ea85	-0.94498473
27	0xbf94542b	-1.1588186
28	0xbf5f0136	-0.8711122
29	0x3fb51940	1.4148331
30	0x3feb5424	1.8385053
31	0x3f817d43	1.0116352
32	0xbfa662c7	-1.2998894
33	0xbf209eff	-0.6274261
34	0x3f84f4f6	1.0387256
35	0x3feed890	1.865984
36	0xbfaf16d6	-1.3678844
37	0x3f2406db	0.6407296
38	0xbc0420a7	-0.008064426
39	0x3fa63914	1.2986169

2.weight f4 [1, 40]
0	0xbbe5b679	-0.007010278
1	0x3cc3ffb8	0.023925647
2	0xbfb46132	-1.4092162
3	0xbdddf0cf	-0.10836946
4	0x3fd4e13f	1.663124
5	0xbe029946	-0.12753782
6	0x400d40e9	2.2070868
7	0xbe818791	-0.2529874
8	0x3e8dbd60	0.27683544
9	0xbdf12626	-0.11774854
10	0xbfc0e4d7	-1.5069836
11	0xbfd7ef10	-1.6869831
12	0xbdc7d156	-0.097567245
13	0xbc61d781	-0.01378429
14	0xbfc7f7f0	-1.562254
15	0x3f53d1f7	0.82742256
16	0xbffbbbdc	-1.9666705
17	0xbfd838d5	-1.6892344
18	0xbfdc1fc4	-1.7197194
19	0x3f9aa5e2	1.2081873
20	0xbe90ac2c	-0.28256357
21	0x403a2d65	2.9090207
22	0xbf9c3c71	-1.2205945
23	0xbe20f467	-0.15718232
24	0x3fdf71f0	1.7456646
25	0xbf35300e	-0.7077645
26	0xbf2ab2ab	-0.66678876
27	0xbfd1faa1	-1.6404611
28	0xbd749e15	-0.05972107
29	0xbfae8ef5	-1.3637377
30	0x400f6c41	2.2409823
31	0xbf7dfffc	-0.99218726
32	0xc0216dc7	-2.5223253
33	0x3bf3d2e6	0.0074409125
34	0xbf71bac0	-0.9442558
35	0x407168af	3.7720144
36	0xc02b2cb8	-2.6746044
37	0x3f925150	1.1431065
38	0x3c983ec7	0.018584622
39	0xbf88f943	-1.0701069

0.weight f4 [40, 1]
0	0xbec60280	-0.38673782
1	0x3ddfb59d	0.10923312
2	0xc020d33a	-2.5128922
3	0xbee52ff2	-0.44763142
4	0x4001e780	2.0297546
5	0x3d78f264	0.060778037
6	0x4010e559	2.2639983
7	0x3e8317ab	0.25603995
8	0x3f9cfb73	1.2264236
9	0xbed62015	-0.41821352
10	0xc019df6d	-2.4042618
11	0xc0125c94	-2.2869005
12	0x3f69ccb2	0.91327965
13	0x3d2d9c73	0.04238553
14	0xc01c8205	-2.4454358
15	0xbfddf3bc	-1.7340007
16	0xc0439438	-3.0559216
17	0x3fc3de51	1.530222
18	0xc00f78c4	-2.241746
19	0x3fc3b28e	1.5288866
20	0xbb7514c9	-0.0037396422
21	0xc0c86281	-6.2620244
22	0xbfe15df3	-1.7606796
23	0x3edba3dc	0.42898452
24	0xbfe2c61f	-1.7716712
25	0xbf9911b3	-1.1958526
26	0x3f9e5af4	1.2371507
27	0x3fc16388	1.51085
28	0x3f13b53d	0.5769842
29	0xc001cae7	-2.0280092
30	0xc007c422	-2.121346
31	0xbfbece35	-1.4906679
32	0x3ff0054a	1.8751614
33	0x3ecad17b	0.39612946
34	0xbfaf65d7	-1.3702954
35	0xc06e5271	-3.7237818
36	0x3fe3388f	1.7751635
37	0xc05495c7	-3.3216417
38	0xbf1a5e0c	-0.60299754
39	0xbff29eb3	-1.8954681

0.bias f4 [40]
0	0xbdf55c6a	-0.11980517
1	0xbe074834	-0.13211137
2	0x3f4182b2	0.7559005
3	0xbe0d0604	-0.13771826
4	0xbf9d4e69	-1.2289554
5	0xbe4269f2	-0.18985727
6	0xbfaba499	-1.3409606
7	0xbee02c3b	-0.43783745
8	0xbf45b51b	-0.7722947
9	0xbd901007	-0.07034307
10	0x3f39102d	0.7229031
11	0x3f66e460	0.9019222
12	0xbf49fc2a	-0.78900397
13	0xbd6c8a61	-0.057749156
14	0x3f3c5ddf	0.73580736
15	0x3f5a9c53	0.8539478
16	0x3f6ce88f	0.92542356
17	0xbf9cbb89	-1.2244731
18	0x3f660173	0.8984596
19	0xbf6d88f8	-0.9278712
20	0xbdf1ae76	-0.11800854
21	0x3f1e0c7b	0.61737794
22	0x3f9ec2aa	1.2403157
23	0xbf2fabf9	-0.68621784
24	0x3fcba850	1.591074
25	0x3f744330	0.9541502
26	0xbf7ca0f5	-0.986831
27	0xbf9aa153	-1.2080482
28	0xbf5f0136	-0.8711122
29	0x3fb77890	1.4333668
30	0x3ff3d116	1.9048183
31	0x3f847410	1.034792
32	0xbfa87cf0	-1.3163128
33	0xbf209eff	-0.6274261
34	0x3f8c4cdc	1.0960956
35	0x3fefcc59	1.8734237
36	0xbfb5a9ed	-1.4192482
37	0x3f28ff84	0.66014886
38	0xbc0420a7	-0.008064426
39	0x3fa9dd18	1.3270597

2.weight f4 [1, 40]
0	0xbbe5b679	-0.007010278
1	0x3cc3ffb8	0.023925647
2	0xbfae74fd	-1.3629452
3	0xbdddf0cf	-0.10836946
4	0x3fd7d758	1.6862593
5	0xbe029946	-0.12753782
6	0x40107f8f	2.2577856
7	0xbe818791	-0.2529874
8	0x3e31bddd	0.17357583
9	0xbdf12626	-0.11774854
10	0xbfba2469	-1.4542361
11	0xbfd3f4c2	-1.6559069
12	0x3a4cfd9e	0.00078197743
13	0xbc61d781	-0.01378429
14	0xbfc1859c	-1.5118899
15	0x3f3ec109	0.745133
16	0xbff9238b	-1.9463972
17	0xbfd55eb0	-1.6669521
18	0xbfd7d981	-1.6863252
19	0x3f925864	1.1433225
20	0xbe90ac2c	-0.28256357
21	0x40355baa	2.8337197
22	0xbf9e7587	-1.2379616
23	0xbe20f467	-0.15718232
24	0x3fec0b52	1.8440955
25	0xbf4107c5	-0.7540248
26	0xbf047163	-0.51735514
27	0xbfcdcd8c	-1.6078353
28	0xbd749e15	-0.05972107
29	0xbfb148eb	-1.3850378
30	0x4016a688	2.3539143
31	0xbf7dd6ca	-0.9915587
32	0xc0115a02	-2.2711186
33	0x3bf3d2e6	0.0074409125
34	0xbf81237e	-1.0088956
35	0x406ffb72	3.749722
36	0xc031251b	-2.7678897
37	0x3f900912	1.1252768
38	0x3c983ec7	0.018584622
39	0xbf8c0424	-1.0938764

0.weight f4 [40, 1]
0	0xbec60280	-0.38673782
1	0x3ddfb59d	0.10923312
2	0xc023e063	-2.5605705
3	0xbee52ff2	-0.44763142
4	0x4004ebf0	2.0769005
5	0x3d78f264	0.060778037
6	0x40141a75	2.3141148
7	0x3e8317ab	0.25603995
8	0x3f8beb91	1.0931264
9	0xbed62015	-0.41821352
10	0xc01cf74b	-2.4525936
11	0xc013de35	-2.3104374
12	0x3f5f2ab0	0.8717451
13	0x3d2d9c73	0.04238553
14	0xc01fc93e	-2.4966578
15	0xbfda7a50	-1.7068577
16	0xc047a353	-3.1193435
17	0x3fcb8886	1.5901039
18	0xc01193a9	-2.2746375
19	0x3fc8e1ef	1.569395
20	0xbb7514c9	-0.0037396422
21	0xc0cbc36c	-6.367605
22	0xbfe6e876	-1.8039691
23	0x3edba3dc	0.42898452
24	0xbfe7f0f4	-1.8120408
25	0xbf9f1c65	-1.243054
26	0x3fa3d142	1.2798235
27	0x3fc8f507	1.5699776
28	0x3f13b53d	0.5769842
29	0xc00501c7	-2.0782335
30	0xc00a9712	-2.1654706
31	0xbfc1ec60	-1.5150261
32	0x3ff0919a	1.8794434
33	0x3ecad17b	0.39612946
34	0xbfb6a3ee	-1.4268777
35	0xc07027c8	-3.752428
36	0x3feb04dd	1.8360859
37	0xc05a21bc	-3.408309
38	0xbf1a5e0c	-0.60299754
39	0xbff6c32e	-1.9278314

0.bias f4 [40]
0	0xbdf55c6a	-0.11980517
1	0xbe074834	-0.13211137
2	0x3f446b14	0.7672589
3	0xbe0d0604	-0.13771826
4	0xbfa0f92d	-1.2576042
5	0xbe4269f2	-0.18985727
6	0xbfaf79db	-1.3709062
7	0xbee02c3b	-0.43783745
8	0xbf582fd9	-0.8444801
9	0xbd901007	-0.07034307
10	0x3f3c4ede	0.7355784
11	0x3f6b0c00	0.91815186
12	0xbf8068a3	-1.0031933
13	0xbd6c8a61	-0.057749156
14	0x3f3f8f09	0.7482763
15	0x3f59027c	0.84769416
16	0x3f7041a1	0.9385014
17	0xbfa2b795	-1.2712275
18	0x3f69389f	0.9110202
19	0xbf7408d1	-0.9532595
20	0xbdf1ae76	-0.11800854
21	0x3f24b936	0.6434511
22	0x3fa14ec3	1.2602161
23	0xbf2fabf9	-0.68621784
24	0x3fd174c8	1.6363764
25	0x3f7dcc38	0.9913974
26	0xbf83035e	-1.0235403
27	0xbfa0a231	-1.2549497
28	0xbf5f0136	-0.8711122
29	0x3fba032a	1.4532216
30	0x3ff9d8a0	1.9519234
31	0x3f8716ed	1.0553871
32	0xbfac6366	-1.3467834
33	0xbf209eff	-0.6274261
34	0x3f91f2d8	1.1402235
35	0x3ff1652c	1.8859
36	0xbfbc195e	-1.4695241
37	0x3f2a7d05	0.66597015
38	0xbc0420a7	-0.008064426
39	0x3fac93f7	1.3482655

2.weight f4 [1, 40]
0	0xbbe5b679	-0.007010278
1	0x3cc3ffb8	0.023925647
2	0xbfa8ce47	-1.3187951
3	0xbdddf0cf	-0.10836946
4	0x3fd5055b	1.6642259
5	0xbe029946	-0.12753782
6	0x40111af0	2.2672691
7	0xbe818791	-0.2529874
8	0x3c99cbed	0.018773997
9	0xbdf12626	-0.11774854
10	0xbfb3abfa	-1.4036858
11	0xbfced1db	-1.6157793
12	0x3e3d2223	0.18470053
13	0xbc61d781	-0.01378429
14	0xbfbb5d89	-1.463792
15	0x3f2cf23d	0.67557126
16	0xbff6c5e3	-1.927914
17	0xbfcdaf03	-1.6069034
18	0xbfd29652	-1.6452124
19	0x3f83aa5d	1.0286366
20	0xbe90ac2c	-0.28256357
21	0x402f82e0	2.742363
22	0xbf9f1176	-1.2427204
23	0xbe20f467	-0.15718232
24	0x3ff13080	1.8842926
25	0xbf461752	-0.77379334
26	0xbeac3466	-0.33633727
27	0xbfc4fe15	-1.539004
28	0xbd749e15	-0.05972107
29	0xbfb39250	-1.4029026
30	0x401a24f2	2.408505
31	0xbf7a63e2	-0.9780866
32	0xc0003b6c	-2.0036268
33	0x3bf3d2e6	0.0074409125
34	0xbf85ef4f	-1.0463656
35	0x406f993c	3.7437277
36	0xc035344a	-2.8313165
37	0x3f89591d	1.073032
38	0x3c983ec7	0.018584622
39	0xbf8d6e0f	-1.1049212

0.weight f4 [40, 1]
0	0xbec60280	-0.38673782
1	0x3ddfb59d	0.10923312
2	0xc0274302	-2.6134648
3	0xbee52ff2	-0.44763142
4	0x4007a7f4	2.119626
5	0x3d78f264	0.060778037
6	0x4016fc9c	2.359168
7	0x3e8317ab	0.25603995
8	0x3f88d6bc	1.0690532
9	0xbed62015	-0.41821352
10	0xc02082a3	-2.5079734
11	0xc0174672	-2.3636746
12	0x3f5f2ab0	0.8717451
13	0x3d2d9c73	0.04238553
14	0xc0232ea7	-2.5497224
15	0xbfd76db3	-1.6830353
16	0xc04be122	-3.185616
17	0x3fd1996c	1.6374946
18	0xc01426b0	-2.3148613
19	0x3fcdd623	1.6080974
20	0xbb7514c9	-0.0037396422
21	0xc0d16c37	-6.54446
22	0xbfe9ab5e	-1.8255422
23	0x3edba3dc	0.42898452
24	0xbfec6a03	-1.8469852
25	0xbfa1559a	-1.2604249
26	0x3fa7a8b8	1.3098364
27	0x3fcf39f4	1.6189561
28	0x3f13b53d	0.5769842
29	0xc0068b7d	-2.1022637
30	0xc00cea71	-2.2018092
31	0xbfc37f79	-1.5273277
32	0x3ff579a8	1.9177752
33	0x3ecad17b	0.39612946
34	0xbfba5923	-1.4558452
35	0xc071e1bc	-3.7794027
36	0x3ff16259	1.8858138
37	0xc05e5f5d	-3.4745705
38	0xbf1a5e0c	-0.60299754
39	0xbff92886	-1.9465492

0.bias f4 [40]
0	0xbdf55c6a	-0.11980517
1	0xbe074834	-0.13211137
2	0x3f48ee86	0.7848896
3	0xbe0d0604	-0.13771826
4	0xbfa4bea4	-1.2870679
5	0xbe4269f2	-0.18985727
6	0xbfb354b3	-1.4010223
7	0xbee02c3b	-0.43783745
8	0xbf5aa688	-0.85410357
9	0xbd901007	-0.07034307
10	0x3f40efa6	0.75365674
11	0x3f6f3f53	0.93456
12	0xbf8068a3	-1.0031933
13	0xbd6c8a61	-0.057749156
14	0x3f44bd1f	0.76851076
15	0x3f54d3fb	0.83135957
16	0x3f7594aa	0.9592997
17	0xbfa7ce52	-1.3109839
18	0x3f6ee56d	0.93318826
19	0xbf7a1d71	-0.97701174
20	0xbdf1ae76	-0.11800854
21	0x3f28b752	0.65904725
22	0x3fa36e46	1.2768028
23	0xbf2fabf9	-0.68621784
24	0x3fd4b017	1.6616238
25	0x3f80f805	1.007569
26	0xbf867202	-1.0503542
27	0xbfa57f0b	-1.2929395
28	0xbf5f0136	-0.8711122
29	0x3fbc672f	1.4718989
30	0x3ffd7b1a	1.9803193
31	0x3f88b8aa	1.0681355
32	0xbfac3891	-1.3454763
33	0xbf209eff	-0.6274261
34	0x3f94d2ea	1.1626866
35	0x3ff27941	1.8943254
36	0xbfc16c7d	-1.5111233
37	0x3f3175ab	0.6932017
38	0xbc0420a7	-0.008064426
39	0x3fae7283	1.3628696

2.weight f4 [1, 40]
0	0xbbe5b679	-0.007010278
1	0x3cc3ffb8	0.023925647
2	0xbfa59210	-1.29352
3	0xbdddf0cf	-0.10836946
4	0x3fd9efa9	1.7026263
5	0xbe029946	-0.12753782
6	0x4014bfd7	2.324209
7	0xbe818791	-0.2529874
8	0xbd10090d	-0.03516488
9	0xbdf12626	-0.11774854
10	0xbfafac5a	-1.3724473
11	0xbfcc7876	-1.5974262
12	0x3e3d2223	0.18470053
13	0xbc61d781	-0.01378429
14	0xbfb7ad10	-1.434969
15	0x3f18f665	0.5975097
16	0xbff6bec9	-1.9276973
17	0xbfd182ff	-1.6368102
18	0xbfd03869	-1.6267215
19	0x3f801035	1.0004946
20	0xbe90ac2c	-0.28256357
21	0x402c9c09	2.6970236
22	0xbf9dedfe	-1.2338254
23	0xbe20f467	-0.15718232
24	0x3ff39526	1.9029891
25	0xbf41b4c4	-0.7566645
26	0xbe94ca38	-0.2906053
27	0xbfc793b8	-1.5591955
28	0xbd749e15	-0.05972107
29	0xbfb3f45f	-1.4058951
30	0x401c1bc2	2.4391942
31	0xbf73d2fa	-0.952438
32	0xbff0ae44	-1.8803182
33	0x3bf3d2e6	0.0074409125
34	0xbf85b110	-1.044466
35	0x406ec893	3.730992
36	0xc03c8d77	-2.9461343
37	0x3f879a74	1.059401
38	0x3c983ec7	0.018584622
39	0xbf8d0589	-1.1017314

0.weight f4 [40, 1]
0	0xbec60280	-0.38673782
1	0x3ddfb59d	0.10923312
2	0xc02a3a5d	-2.6598122
3	0xbee52ff2	-0.44763142
4	0x400a4a51	2.160786
5	0x3d78f264	0.060778037
6	0x4019b785	2.4018261
7	0x3e8317ab	0.25603995
8	0x3f6dc314	0.9287579
9	0xbed62015	-0.41821352
10	0xc0237996	-2.554296
11	0xc019918e	-2.399509
12	0x3f5f2ab0	0.8717451
13	0x3d2d9c73	0.04238553
14	0xc0262adc	-2.596366
15	0xbfd6911b	-1.6763033
16	0xc04f2f2a	-3.2372537
17	0x3fd7f921	1.6872903
18	0xc0168325	-2.3517544
19	0x3fd23893	1.6423515
20	0xbb7514c9	-0.0037396422
21	0xc0d68ded	-6.704825
22	0xbfed935a	-1.8560593
23	0x3edba3dc	0.42898452
24	0xbfefe96f	-1.8743113
25	0xbfa47398	-1.2847776
26	0x3faa2f63	1.3295711
27	0x3fd55b6e	1.6668527
28	0x3f13b53d	0.5769842
29	0xc008c7f1	-2.1372035
30	0xc00e95c3	-2.2278907
31	0xbfc694a2	-1.5514109
32	0x3ff9b1fe	1.9507444
33	0x3ecad17b	0.39612946
34	0xbfbdc09d	-1.4824406
35	0xc0741963	-3.8140495
36	0x3ff836ab	1.9391683
37	0xc06348ad	-3.5513108
38	0xbf1a5e0c	-0.60299754
39	0xbffcfb65	-1.976422

0.bias f4 [40]
0	0xbdf55c6a	-0.11980517
1	0xbe074834	-0.13211137
2	0x3f4b915e	0.7951869
3	0xbe0d0604	-0.13771826
4	0xbfa7c930	-1.3108273
5	0xbe4269f2	-0.18985727
6	0xbfb6c245	-1.4278036
7	0xbee02c3b	-0.43783745
8	0xbf8010b4	-1.0005097
9	0xbd901007	-0.07034307
10	0x3f43e9c2	0.7652856
11	0x3f7341e8	0.9502244
12	0xbf8068a3	-1.0031933
13	0xbd6c8a61	-0.057749156
14	0x3f47f1f1	0.7810355
15	0x3f522ea7	0.82102436
16	0x3f79cce6	0.97578275
17	0xbfad07be	-1.3517988
18	0x3f72cd44	0.9484446
19	0xbf7e982f	-0.99450964
20	0xbdf1ae76	-0.11800854
21	0x3f2bd031	0.6711455
22	0x3fa60bd9	1.2972366
23	0xbf2fabf9	-0.68621784
24	0x3fd7538b	1.682237
25	0x3f825408	1.0181894
26	0xbf886c57	-1.0658063
27	0xbfaaedb1	-1.3353788
28	0xbf5f0136	-0.8711122
29	0x3fbf2a0e	1.4934709
30	0x40004c9e	2.0046763
31	0x3f8ac7ba	1.0842202
32	0xbfaf6228	-1.370183
33	0xbf209eff	-0.6274261
34	0x3f9765a2	1.1827891
35	0x3ff4caef	1.912443
36	0xbfc6c6d3	-1.5529426
37	0x3f352890	0.7076502
38	0xbc0420a7	-0.008064426
39	0x3fb0c5c5	1.3810354

2.weight f4 [1, 40]
0	0xbbe5b679	-0.007010278
1	0x3cc3ffb8	0.023925647
2	0xbfa208cd	-1.2658936
3	0xbdddf0cf	-0.10836946
4	0x3fd6f092	1.6792166
5	0xbe029946	-0.12753782
6	0x401505e2	2.328484
7	0xbe818791	-0.2529874
8	0x3dc1a4d6	0.09455268
9	0xbdf12626	-0.11774854
10	0xbfab811f	-1.339878
11	0xbfca0a7d	-1.5784451
12	0x3e3d2223	0.18470053
13	0xbc61d781	-0.01378429
14	0xbfb3c7b0	-1.4045315
15	0x3f0d2e37	0.55148643
16	0xbff603c0	-1.9219894
17	0xbfc84099	-1.5644714
18	0xbfcd8bd2	-1.6058295
19	0x3f65cdf2	0.8976737
20	0xbe90ac2c	-0.28256357
21	0x40296fb2	2.6474423
22	0xbf9ed5fa	-1.240905
23	0xbe20f467	-0.15718232
24	0x3ff444fd	1.9083554
25	0xbf3d66e2	-0.7398511
26	0xbe199a59	-0.15000285
27	0xbfbd14c1	-1.4771959
28	0xbd749e15	-0.05972107
29	0xbfb63362	-1.4234431
30	0x401d279d	2.4555428
31	0xbf71a38f	-0.94390196
32	0xbfe222b3	-1.7666839
33	0x3bf3d2e6	0.0074409125
34	0xbf855638	-1.0416937
35	0x406f94ab	3.743449
36	0xc03e8e50	-2.977436
37	0x3f85ba1d	1.0447422
38	0x3c983ec7	0.018584622
39	0xbf8e8c6d	-1.1136605

0.weight f4 [40, 1]
0	0xbec60280	-0.38673782
1	0x3ddfb59d	0.10923312
2	0xc02cee52	-2.702046
3	0xbee52ff2	-0.44763142
4	0x400cc358	2.1994228
5	0x3d78f264	0.060778037
6	0x401c5540	2.4427032
7	0x3e8317ab	0.25603995
8	0x3f6dc314	0.9287579
9	0xbed62015	-0.41821352
10	0xc0263daf	-2.5975149
11	0xc01c0611	-2.4378703
12	0x3f5f2ab0	0.8717451
13	0x3d2d9c73	0.04238553
14	0xc029259a	-2.64292
15	0xbfd116f2	-1.6335127
16	0xc052eac1	-3.2955782
17	0x3fde5672	1.7370131
18	0xc018cb55	-2.3874104
19	0x3fd5b681	1.6696321
20	0xbb7514c9	-0.0037396422
21	0xc0da7491	-6.8267293
22	0xbff0c951	-1.8811437
23	0x3edba3dc	0.42898452
24	0xbff1d54b	-1.8893217
25	0xbfa4c4a6	-1.2872512
26	0x3faa5d7b	1.3309778
27	0x3fdb97e3	1.7155727
28	0x3f13b53d	0.5769842
29	0xc00a78ca	-2.1636224
30	0xc00fa2d5	-2.2443135
31	0xbfc88ba2	-1.5667613
32	0x3ffe09a5	1.9846693
33	0x3ecad17b	0.39612946
34	0xbfc04ba7	-1.5023087
35	0xc075f3ca	-3.8430047
36	0x3ffee501	1.9913636
37	0xc068197b	-3.6265552
38	0xbf1a5e0c	-0.60299754
39	0xbfff9f02	-1.99704

0.bias f4 [40]
0	0xbdf55c6a	-0.11980517
1	0xbe074834	-0.13211137
2	0x3f4f5062	0.8098203
3	0xbe0d0604	-0.13771826
4	0xbfaa9ec9	-1.3329707
5	0xbe4269f2	-0.18985727
6	0xbfb9d0e7	-1.4516877
7	0xbee02c3b	-0.43783745
8	0xbf8010b4	-1.0005097
9	0xbd901007	-0.07034307
10	0x3f47f5b6	0.781093
11	0x3f768102	0.962906
12	0xbf8068a3	-1.0031933
13	0xbd6c8a61	-0.057749156
14	0x3f4bedf4	0.7965996
15	0x3f4ddef6	0.80418336
16	0x3f7e6962	0.9937955
17	0xbfb1aefc	-1.3881526
18	0x3f767d1a	0.9628464
19	0xbf81d813	-1.0144066
20	0xbdf1ae76	-0.11800854
21	0x3f2fdbbe	0.68694675
22	0x3fa82463	1.3136104
23	0xbf2fabf9	-0.68621784
24	0x3fd914cd	1.6959473
25	0x3f8315a1	1.0240976
26	0xbf8835a2	-1.0641367
27	0xbfaf9e30	-1.372015
28	0xbf5f0136	-0.8711122
29	0x3fc1af8a	1.5131695
30	0x4001606c	2.0215101
31	0x3f8c44b8	1.0958471
32	0xbfb2cd38	-1.3968878
33	0xbf209eff	-0.6274261
34	0x3f98f175	1.1948687
35	0x3ff67667	1.9254884
36	0xbfcbc2b0	-1.5918789
37	0x3f38cbda	0.7218605
38	0xbc0420a7	-0.008064426
39	0x3fb2bc9c	1.3963809

2.weight f4 [1, 40]
0	0xbbe5b679	-0.007010278
1	0x3cc3ffb8	0.023925647
2	0xbf9db0f4	-1.2319627
3	0xbdddf0cf	-0.10836946
4	0x3fd473b2	1.6597807
5	0xbe029946	-0.12753782
6	0x4015621d	2.3341134
7	0xbe818791	-0.2529874
8	0x3dc1a4d6	0.09455268
9	0xbdf12626	-0.11774854
10	0xbfa67c3c	-1.3006663
11	0xbfc640a5	-1.5488478
12	0x3e3d2223	0.18470053
13	0xbc61d781	-0.01378429
14	0xbfaf1894	-1.3679376
15	0x3ef45389	0.47719982
16	0xbff4e62d	-1.9132744
17	0xbfc3f53c	-1.5309215
18	0xbfc9a3be	-1.5753095
19	0x3f4e1595	0.8050168
20	0xbe90ac2c	-0.28256357
21	0x4024c15e	2.5743022
22	0xbf9dd788	-1.23314
23	0xbe20f467	-0.15718232
24	0x3ff20114	1.8906579
25	0xbf3380c5	-0.7011836
26	0xbdac1dbb	-0.08404108
27	0xbfb8225e	-1.4385488
28	0xbd749e15	-0.05972107
29	0xbfb6bc2f	-1.4276179
30	0x401ccf34	2.4501467
31	0xbf6b236e	-0.91850936
32	0xbfd7d626	-1.6862228
33	0x3bf3d2e6	0.0074409125
34	0xbf827099	-1.0190612
35	0x406f4f78	3.7392254
36	0xc04240d5	-3.035207
37	0x3f820f93	1.0161003
38	0x3c983ec7	0.018584622
39	0xbf8e42a0	-1.1114082
