dis/dis03/code/ckpts/adam/width20/seed748/ckpt_and_history.pt (torch, 15999 bytes, 33 tensors)

0.weight f4 [20, 1]
0	0xbe473480	-0.19453621
1	0x3f01188c	0.5042808
2	0xbf487b3e	-0.7831305
3	0x3f783002	0.96948254
4	0x3df7c60e	0.12098323
5	0xbf80fa93	-1.0076469
6	0xbf56d771	-0.8392249
7	0x3f23bf96	0.6396421
8	0x3f1c7dd6	0.6112951
9	0x3ec3a418	0.3821113
10	0x3f01ecaa	0.50751746
11	0xbf700751	-0.93761164
12	0xbf033c02	-0.5126344
13	0x3f0a7d8b	0.54097813
14	0xbf6668ba	-0.9000355
15	0x3bd321d0	0.0064432397
16	0xbf3c00e5	-0.73438865
17	0x3f4ef040	0.8083534
18	0xbf1ddb4d	-0.6166275
19	0x3f7a45e0	0.9776287

0.bias f4 [20]
0	0x39dd81c1	0.0004224908
1	0xbcd02b64	-0.025411315
2	0x3c190daa	0.009341637
3	0xbd8b93ec	-0.06815323
4	0xbd077b9c	-0.033076867
5	0x3dbb3d98	0.091426075
6	0x3d9aa546	0.07551055
7	0xbdcf3de4	-0.101192266
8	0xbddc5c78	-0.107598245
9	0xbd178978	-0.036996335
10	0xbde310fe	-0.110872254
11	0x3e9cb2b6	0.30605096
12	0x3e5ee937	0.21768652
13	0xbe445e51	-0.19176604
14	0x3ed45cde	0.41477102
15	0x3cdf3310	0.027246028
16	0x3eda9a71	0.42695954
17	0xbf381ede	-0.719221
18	0x3f030edc	0.5119455
19	0xbf5a4a5f	-0.8526973

2.weight f4 [1, 20]
0	0x3e06d90c	0.13168734
1	0x3dd1fc6b	0.10253223
2	0x3d5fc9a0	0.054635644
3	0x3df2be09	0.118526526
4	0x3e1f828d	0.15577145
5	0x3d919c56	0.07109897
6	0x3e427690	0.1899054
7	0x3db8e2c4	0.09027627
8	0x3d565d88	0.052335292
9	0xbd4286fe	-0.04749202
10	0x3d949f37	0.0725693
11	0x3c98acb3	0.018637037
12	0xbd4ea55c	-0.050450668
13	0xbcc531cb	-0.024071595
14	0x3d14987f	0.036278244
15	0xbe176bca	-0.14787212
16	0xbdef2e7f	-0.1167879
17	0xbb18f900	-0.0023341775
18	0x3c06de98	0.008231781
19	0xbd920148	-0.07129151

0.weight f4 [20, 1]
0	0xbfe6ad62	-1.8021662
1	0x3fbbd0a4	1.4673047
2	0xc097b83f	-4.741241
3	0x3fdd8106	1.7305
4	0xbcbc8d2f	-0.02301654
5	0xbf915522	-1.1354105
6	0xbf754655	-0.95810443
7	0x40042462	2.0647206
8	0x3fa23750	1.267313
9	0x3ed98aa5	0.4248859
10	0x3fa8083d	1.3127514
11	0xc040e3ad	-3.0138962
12	0xc0124797	-2.2856195
13	0x3fa969b3	1.3235382
14	0xc03c74dd	-2.9446328
15	0xbdf12123	-0.117738985
16	0xc04ef8b8	-3.2339306
17	0x3fec89c0	1.8479538
18	0xc03b51ed	-2.9268754
19	0x3ff1af5d	1.8881642

0.bias f4 [20]
0	0x3eb996ae	0.36247772
1	0xbf607fc0	-0.8769493
2	0x3ef5a4e1	0.47977355
3	0xbf84246f	-1.0323619
4	0xbe24c0fe	-0.16089246
5	0xbd229ea0	-0.039702058
6	0xbceed043	-0.029152041
7	0xbf93216f	-1.1494578
8	0xbf42f12c	-0.7614925
9	0xbefa81d7	-0.48927185
10	0xbf495296	-0.7864164
11	0x3f655245	0.8957866
12	0x3f44b85b	0.76843804
13	0xbf842dbf	-1.0326461
14	0x3f6066c1	0.8765679
15	0xbdf1a43c	-0.11798903
16	0x3fccc066	1.5996215
17	0xbfa5226f	-1.2901133
18	0x3f98278c	1.1887069
19	0xbfb7d8e7	-1.4363068

2.weight f4 [1, 20]
0	0x40056dc9	2.0848258
1	0x3fa71eca	1.3056271
2	0x406dc26b	3.7149913
3	0x3f8ea833	1.114508
4	0x3caa087a	0.020755995
5	0xbce76ecc	-0.028251074
6	0x3da63962	0.08116414
7	0x40106f42	2.2567906
8	0x3f630e52	0.88693726
9	0xbe90f567	-0.28312227
10	0x3f94fac7	1.1639031
11	0xc014fee1	-2.3280566
12	0xc01325fb	-2.2991931
13	0xc003686b	-2.0532482
14	0xc006b50b	-2.1048
15	0x3d922c3d	0.07137344
16	0x407338ab	3.8003337
17	0xc08db4f2	-4.428338
18	0xbfe7f1b5	-1.8120638
19	0xc09cc039	-4.8984647

0.weight f4 [20, 1]
0	0xbff8e736	-1.944556
1	0x3fcb24cf	1.5870608
2	0xc09dd2f9	-4.9320035
3	0x3fecd9df	1.8503989
4	0xbcbc8d2f	-0.02301654
5	0xbf915522	-1.1354105
6	0xbf754655	-0.95810443
7	0x400a9f3e	2.1659694
8	0x3faee730	1.3664303
9	0x3ed98aa5	0.4248859
10	0x3fb65d54	1.4247231
11	0xc03ed612	-2.9818158
12	0xc011dae5	-2.2789853
13	0x3faee1e7	1.366269
14	0xc03a3dda	-2.9100251
15	0xbdf12123	-0.117738985
16	0xc0534d04	-3.3015757
17	0x3ffd4b9c	1.9788699
18	0xc053e1b7	-3.3106515
19	0x3ff84baa	1.9398091

0.bias f4 [20]
0	0x3ec67a00	0.38764954
1	0xbf6f8e48	-0.9357648
2	0x3efb2d8a	0.4905818
3	0xbf8bb5f7	-1.0914906
4	0xbe24c0fe	-0.16089246
5	0xbd229ea0	-0.039702058
6	0xbceed043	-0.029152041
7	0xbf9934ed	-1.1969277
8	0xbf51cf30	-0.8195677
9	0xbefa81d7	-0.48927185
10	0xbf585c4f	-0.8451585
11	0x3f6525b9	0.89510685
12	0x3f314c61	0.6925717
13	0xbf8b62cf	-1.0889529
14	0x3f6012a4	0.87528443
15	0xbdf1a43c	-0.11798903
16	0x3fd02cd3	1.6263679
17	0xbfb22739	-1.391822
18	0x3faa03f8	1.3282461
19	0xbfbeec3f	-1.4915847

2.weight f4 [1, 20]
0	0x3ff6c1ca	1.927789
1	0x3fa4a8fe	1.2864072
2	0x406482a2	3.5704732
3	0x3f96ac0a	1.1771252
4	0x3caa087a	0.020755995
5	0xbce76ecc	-0.028251074
6	0x3da63962	0.08116414
7	0x401151fe	2.2706294
8	0x3f492e4e	0.7858628
9	0xbe90f567	-0.28312227
10	0x3f8a7e89	1.0819865
11	0xc00cb529	-2.1985571
12	0xc003195b	-2.0484226
13	0xbfbf144b	-1.4928068
14	0xbffc8ef9	-1.9731132
15	0x3d922c3d	0.07137344
16	0x40744eb1	3.817303
17	0xc0973733	-4.725488
18	0xc00ad25c	-2.1690893
19	0xc095170e	-4.6590643

0.weight f4 [20, 1]
0	0xc0064574	-2.097989
1	0x3fd6bd20	1.6776466
2	0xc0a50971	-5.1574025
3	0x3ff8ae53	1.94282
4	0xbcbc8d2f	-0.02301654
5	0xbf915522	-1.1354105
6	0xbf754655	-0.95810443
7	0x400f5974	2.2398348
8	0x3fb86f13	1.4408897
9	0x3ed98aa5	0.4248859
10	0x3fc1025c	1.5078845
11	0xc042436c	-3.035365
12	0xc015e75b	-2.3422458
13	0x3fb69bdf	1.4266318
14	0xc03d99f8	-2.9625225
15	0xbdf12123	-0.117738985
16	0xc055eb49	-3.3424857
17	0x4005fb33	2.093457
18	0xc05a5e7d	-3.412017
19	0x3fff6ce1	1.9955102

0.bias f4 [20]
0	0x3ed946ae	0.42436737
1	0xbf806357	-1.0030316
2	0x3f03e4d7	0.51521057
3	0xbf942ea9	-1.157674
4	0xbe24c0fe	-0.16089246
5	0xbd229ea0	-0.039702058
6	0xbceed043	-0.029152041
7	0xbf9fc9d1	-1.2483464
8	0xbf5eea9c	-0.87076735
9	0xbefa81d7	-0.48927185
10	0xbf68b712	-0.90904343
11	0x3f694b78	0.9113078
12	0x3f33cfc4	0.702389
13	0xbf8ed63a	-1.1159127
14	0x3f63a914	0.8892987
15	0xbdf1a43c	-0.11798903
16	0x3fd3674d	1.65159
17	0xbfbbfb1f	-1.4686011
18	0x3faea969	1.364545
19	0xbfc5bdb0	-1.5448513

2.weight f4 [1, 20]
0	0x3fe27a00	1.7693481
1	0x3f9e79fa	1.2380974
2	0x405bcb34	3.4342775
3	0x3f9a24a9	1.2042438
4	0x3caa087a	0.020755995
5	0xbce76ecc	-0.028251074
6	0x3da63962	0.08116414
7	0x400ee1de	2.2325358
8	0x3f2979f1	0.6620169
9	0xbe90f567	-0.28312227
10	0x3f799b3b	0.9750249
11	0xc008df8a	-2.1386437
12	0xbff92b8c	-1.9466414
13	0xbf85bf55	-1.0449015
14	0xbff47188	-1.9097147
15	0x3d922c3d	0.07137344
16	0x40739db5	3.8065007
17	0xc09cd39c	-4.900831
18	0xc00d7ae6	-2.2106261
19	0xc08f1620	-4.471451

0.weight f4 [20, 1]
0	0xc00f3f28	-2.2382298
1	0x3fe32871	1.7746717
2	0xc0aa5b05	-5.323611
3	0x4002a7bb	2.0414875
4	0xbcbc8d2f	-0.02301654
5	0xbf915522	-1.1354105
6	0xbf754655	-0.95810443
7	0x40148de6	2.3211608
8	0x3fc0d096	1.5063655
9	0x3ed98aa5	0.4248859
10	0x3fcbd2a3	1.5923656
11	0xc045eda3	-3.0926292
12	0xc0197e7b	-2.3983448
13	0x3fbcef4b	1.4760526
14	0xc0412e50	-3.0184517
15	0xbdf12123	-0.117738985
16	0xc0584631	-3.3792841
17	0x400c6743	2.1938026
18	0xc05cecc0	-3.45195
19	0x40044dd3	2.06725

0.bias f4 [20]
0	0x3ee64350	0.4497323
1	0xbf87765d	-1.0582997
2	0x3f08dcda	0.5346199
3	0xbf9b818c	-1.214891
4	0xbe24c0fe	-0.16089246
5	0xbd229ea0	-0.039702058
6	0xbceed043	-0.029152041
7	0xbfa6361f	-1.2985266
8	0xbf693ec7	-0.91111416
9	0xbefa81d7	-0.48927185
10	0xbf760c5a	-0.96112597
11	0x3f6eed52	0.9333087
12	0x3f38edd1	0.7223788
13	0xbf94747f	-1.1598052
14	0x3f68cbaa	0.90935767
15	0xbdf1a43c	-0.11798903
16	0x3fd56757	1.6672162
17	0xbfc46c47	-1.5345544
18	0x3fb03173	1.3765091
19	0xbfcd5dd4	-1.6044259

2.weight f4 [1, 20]
0	0x3fd3d12c	1.6548209
1	0x3f96d6e3	1.1784328
2	0x40551644	3.329484
3	0x3f9c1c1c	1.2196078
4	0x3caa087a	0.020755995
5	0xbce76ecc	-0.028251074
6	0x3da63962	0.08116414
7	0x400cb3b2	2.1984677
8	0x3f0727c0	0.5279503
9	0xbe90f567	-0.28312227
10	0x3f5b7265	0.8572143
11	0xc0072c6e	-2.1120868
12	0xbff0cbf2	-1.8812239
13	0xbf2f8a05	-0.68569976
14	0xbff0a3a5	-1.879994
15	0x3d922c3d	0.07137344
16	0x40728c59	3.7898161
17	0xc09e3a4f	-4.9446177
18	0xc00c5f57	-2.193319
19	0xc08b5410	-4.3540115

0.weight f4 [20, 1]
0	0xc01842bb	-2.379073
1	0x3fee383e	1.8610914
2	0xc0afa45d	-5.488814
3	0x40087bc3	2.1325538
4	0xbcbc8d2f	-0.02301654
5	0xbf915522	-1.1354105
6	0xbf754655	-0.95810443
7	0x40198c08	2.3991718
8	0x3fc7953d	1.5592419
9	0x3ed98aa5	0.4248859
10	0x3fd5c032	1.6699278
11	0xc04a61d7	-3.1622217
12	0xc01d82d4	-2.46111
13	0x3fc14054	1.5097756
14	0xc04532bf	-3.0812223
15	0xbdf12123	-0.117738985
16	0xc05a0f87	-3.4071977
17	0x40118dd9	2.2742827
18	0xc05e8ade	-3.4772258
19	0x40089097	2.133825

0.bias f4 [20]
0	0x3ef40e3c	0.4766711
1	0xbf8f76e1	-1.1208154
2	0x3f0d8f91	0.5529719
3	0xbfa377d8	-1.2770948
4	0xbe24c0fe	-0.16089246
5	0xbd229ea0	-0.039702058
6	0xbceed043	-0.029152041
7	0xbfac144f	-1.3443698
8	0xbf736cd1	-0.95087916
9	0xbefa81d7	-0.48927185
10	0xbf81a398	-1.012805
11	0x3f737072	0.9509345
12	0x3f3d5f66	0.7397369
13	0xbf9a0190	-1.2031727
14	0x3f6d6471	0.92731386
15	0xbdf1a43c	-0.11798903
16	0x3fd68ef5	1.6762377
17	0xbfcc54c3	-1.5963367
18	0x3fb27d5a	1.3944504
19	0xbfd4b288	-1.6616983

2.weight f4 [1, 20]
0	0x3fc7ba64	1.5603757
1	0x3f959f31	1.1689206
2	0x404de6d3	3.2172134
3	0x3fa3131e	1.2740209
4	0x3caa087a	0.020755995
5	0xbce76ecc	-0.028251074
6	0x3da63962	0.08116414
7	0x400c3fc6	2.1913924
8	0x3ee53f47	0.4477484
9	0xbe90f567	-0.28312227
10	0x3f4c0b53	0.7970478
11	0xc00574e9	-2.0852606
12	0xbfe845ac	-1.8146262
13	0xbee3d4a5	-0.44498172
14	0xbfecc31d	-1.8497044
15	0x3d922c3d	0.07137344
16	0x40707f70	3.7577782
17	0xc09f174b	-4.9715934
18	0xc00b3785	-2.1752636
19	0xc0898cc4	-4.2984333

0.weight f4 [20, 1]
0	0xc0215c7d	-2.52127
1	0x3ffa3bb2	1.9549468
2	0xc0b522be	-5.660491
3	0x400f1962	2.2359242
4	0xbcbc8d2f	-0.02301654
5	0xbf915522	-1.1354105
6	0xbf754655	-0.95810443
7	0x401f1ecc	2.4862547
8	0x3fcb7546	1.5895164
9	0x3ed98aa5	0.4248859
10	0x3fdf6f31	1.7455808
11	0xc04e368b	-3.222079
12	0xc020fc0f	-2.5153844
13	0x3fc37526	1.5270126
14	0xc048c6a4	-3.137124
15	0xbdf12123	-0.117738985
16	0xc05b4c2b	-3.426524
17	0x4015c2f7	2.3400247
18	0xc060b7ff	-3.5112302
19	0x400cfc86	2.2029128

0.bias f4 [20]
0	0x3f021923	0.50819606
1	0xbf95b35f	-1.1695365
2	0x3f115338	0.56767607
3	0xbfa93ff8	-1.3222647
4	0xbe24c0fe	-0.16089246
5	0xbd229ea0	-0.039702058
6	0xbceed043	-0.029152041
7	0xbfb1b9a3	-1.3884777
8	0xbf78bcb7	-0.97162956
9	0xbefa81d7	-0.48927185
10	0xbf86a26a	-1.0518315
11	0x3f7830e4	0.969496
12	0x3f41c301	0.7568818
13	0xbf9d2538	-1.2276983
14	0x3f71dc7b	0.9447705
15	0xbdf1a43c	-0.11798903
16	0x3fd84774	1.6896806
17	0xbfd44fb3	-1.6586822
18	0x3fb3fee4	1.4062161
19	0xbfdcd4f8	-1.7252493

2.weight f4 [1, 20]
0	0x3fbcffdf	1.4765586
1	0x3f8ec787	1.1154641
2	0x4046ac56	3.1042686
3	0x3fa561d2	1.2920477
4	0x3caa087a	0.020755995
5	0xbce76ecc	-0.028251074
6	0x3da63962	0.08116414
7	0x400ab85d	2.1675026
8	0x3ea4384b	0.32074198
9	0xbe90f567	-0.28312227
10	0x3f304bab	0.6886546
11	0xc0036d22	-2.053536
12	0xbfdf2f1b	-1.743625
13	0xbe408246	-0.18799695
14	0xbfe83c6f	-1.8143443
15	0x3d922c3d	0.07137344
16	0x406e760d	3.7259552
17	0xc09b0ec7	-4.845554
18	0xc009c2ff	-2.1525266
19	0xc08550d7	-4.166118

0.weight f4 [20, 1]
0	0xc02b8cf1	-2.6804774
1	0x40025b0f	2.0368078
2	0xc0bc9f7f	-5.8944697
3	0x4014b37d	2.323455
4	0xbcbc8d2f	-0.02301654
5	0xbf915522	-1.1354105
6	0xbf754655	-0.95810443
7	0x402454e4	2.5676813
8	0x3fcadf6d	1.5849434
9	0x3ed98aa5	0.4248859
10	0x3fe74c6f	1.8070201
11	0xc052f3c2	-3.2961278
12	0xc02562ae	-2.584148
13	0x3fc26d33	1.5189575
14	0xc04d571a	-3.2084413
15	0xbdf12123	-0.117738985
16	0xc05d3509	-3.456362
17	0x401aeb65	2.4206173
18	0xc062f560	-3.5462265
19	0x40124547	2.2854784

0.bias f4 [20]
0	0x3f08aaa9	0.53385407
1	0xbf9c8f3a	-1.2231209
2	0x3f172785	0.59044677
3	0xbfb0b81f	-1.3806189
4	0xbe24c0fe	-0.16089246
5	0xbd229ea0	-0.039702058
6	0xbceed043	-0.029152041
7	0xbfb86b45	-1.4407736
8	0xbf789bc7	-0.971127
9	0xbefa81d7	-0.48927185
10	0xbf8b68bc	-1.0891337
11	0x3f7e3749	0.9930311
12	0x3f46e9ac	0.77700305
13	0xbf99967c	-1.1999049
14	0x3f7748b8	0.96595335
15	0xbdf1a43c	-0.11798903
16	0x3fd9d814	1.7019067
17	0xbfd9f8b4	-1.7029023
18	0x3fb58bd5	1.4183298
19	0xbfe37c99	-1.7772399

2.weight f4 [1, 20]
0	0x3fb11ed6	1.3837535
1	0x3f88b813	1.0681175
2	0x4040dd79	3.0135176
3	0x3fa7ce9c	1.3109927
4	0x3caa087a	0.020755995
5	0xbce76ecc	-0.028251074
6	0x3da63962	0.08116414
7	0x400a2b27	2.1588838
8	0x3e4a6f82	0.197691
9	0xbe90f567	-0.28312227
10	0x3f16947c	0.5882032
11	0xc001b223	-2.0264976
12	0xbfd611da	-1.6724198
13	0xbdd8d662	-0.10587765
14	0xbfe43c13	-1.7830833
15	0x3d922c3d	0.07137344
16	0x406c1cfa	3.6892686
17	0xc0986a45	-4.7629724
18	0xc007d089	-2.122103
19	0xc083bf77	-4.117122

0.weight f4 [20, 1]
0	0xc0340232	-2.812634
1	0x40074ac0	2.1139374
2	0xc0c14306	-6.0394316
3	0x4019d975	2.4038975
4	0xbcbc8d2f	-0.02301654
5	0xbf915522	-1.1354105
6	0xbf754655	-0.95810443
7	0x4029369f	2.6439588
8	0x3fc34c34	1.525763
9	0x3ed98aa5	0.4248859
10	0x3fedc4b1	1.857565
11	0xc056acde	-3.354301
12	0xc0289612	-2.6341596
13	0x3fabce19	1.3422271
14	0xc050c367	-3.2619264
15	0xbdf12123	-0.117738985
16	0xc05eb543	-3.4798133
17	0x401f1467	2.4856203
18	0xc064fe78	-3.5780315
19	0x401660fb	2.3496692

0.bias f4 [20]
0	0x3f0fa094	0.561044
1	0xbfa33c9b	-1.275287
2	0x3f1ac188	0.60451555
3	0xbfb89fc9	-1.4423763
4	0xbe24c0fe	-0.16089246
5	0xbd229ea0	-0.039702058
6	0xbceed043	-0.029152041
7	0xbfbeb2c0	-1.48983
8	0xbf726ca9	-0.9469705
9	0xbefa81d7	-0.48927185
10	0xbf901f1b	-1.1259493
11	0x3f81856f	1.0118846
12	0x3f4b4eee	0.7941731
13	0xbfc01073	-1.500502
14	0x3f7bdc96	0.9838346
15	0xbdf1a43c	-0.11798903
16	0x3fdbbbd0	1.7166691
17	0xbfdf4ea7	-1.7445878
18	0x3fb71794	1.430407
19	0xbfe94934	-1.8225465

2.weight f4 [1, 20]
0	0x3faa478b	1.3303083
1	0x3f88937c	1.0670009
2	0x403b072a	2.9223123
3	0x3faed588	1.3658915
4	0x3caa087a	0.020755995
5	0xbce76ecc	-0.028251074
6	0x3da63962	0.08116414
7	0x400b0af0	2.1725426
8	0x3e015cd6	0.1263307
9	0xbe90f567	-0.28312227
10	0x3f09dc26	0.53851545
11	0xc0005a4d	-2.0055115
12	0xbfceef9c	-1.6166873
13	0x3ee2f70c	0.44329107
14	0xbfe11750	-1.758524
15	0x3d922c3d	0.07137344
16	0x406ab223	3.6671226
17	0xc0957d9a	-4.671582
18	0xc0069afa	-2.103209
19	0xc0807ec8	-4.015476

0.weight f4 [20, 1]
0	0xc03ac6fb	-2.9183948
1	0x400c3737	2.19087
2	0xc0c5b48b	-6.178289
3	0x401f4bae	2.4889941
4	0xbcbc8d2f	-0.02301654
5	0xbf915522	-1.1354105
6	0xbf754655	-0.95810443
7	0x402e4ca1	2.723427
8	0x3fa2b011	1.2709981
9	0x3ed98aa5	0.4248859
10	0x3ff37531	1.9020139
11	0xc05a579e	-3.4115977
12	0xc02bd21b	-2.6846988
13	0x3fabce19	1.3422271
14	0xc0542141	-3.3145297
15	0xbdf12123	-0.117738985
16	0xc060c888	-3.5122395
17	0x402281d0	2.5391731
18	0xc0679a0c	-3.6187773
19	0x4019d6a2	2.4037251

0.bias f4 [20]
0	0x3f157dbc	0.5839498
1	0xbfa7e0de	-1.3115499
2	0x3f1e7a87	0.6190571
3	0xbfbde7d8	-1.4836378
4	0xbe24c0fe	-0.16089246
5	0xbd229ea0	-0.039702058
6	0xbceed043	-0.029152041
7	0xbfc25cfa	-1.5184624
8	0xbf82abc4	-1.0208669
9	0xbefa81d7	-0.48927185
10	0xbf91d5f3	-1.1393417
11	0x3f837d90	1.0272694
12	0x3f4e9d17	0.8070845
13	0xbfc01073	-1.500502
14	0x3f7f9455	0.9983571
15	0xbdf1a43c	-0.11798903
16	0x3fdd54e4	1.7291532
17	0xbfe61c91	-1.7977468
18	0x3fb8a0c0	1.4424057
19	0xbff0c0cf	-1.880884

2.weight f4 [1, 20]
0	0x3fa2496c	1.2678657
1	0x3f8353de	1.0259969
2	0x4035943b	2.8371723
3	0x3fb0f06d	1.3823372
4	0x3caa087a	0.020755995
5	0xbce76ecc	-0.028251074
6	0x3da63962	0.08116414
7	0x4009ac30	2.1511345
8	0xbcf84b87	-0.030309452
9	0xbe90f567	-0.28312227
10	0x3ee33b80	0.44381332
11	0xbffe54f8	-1.986968
12	0xbfc88447	-1.5665368
13	0x3ee2f70c	0.44329107
14	0xbfde4bb3	-1.7366852
15	0x3d922c3d	0.07137344
16	0x40697d3a	3.6482682
17	0xc091c8cf	-4.555763
18	0xc00612f7	-2.0949075
19	0xc07a886e	-3.914577

0.weight f4 [20, 1]
0	0xc0425755	-3.0365803
1	0x400f6373	2.240445
2	0xc0cbbde9	-6.3669324
3	0x402295a0	2.5403824
4	0xbcbc8d2f	-0.02301654
5	0xbf915522	-1.1354105
6	0xbf754655	-0.95810443
7	0x4030f18b	2.7647426
8	0x401065c8	2.2562122
9	0x3ed98aa5	0.4248859
10	0x3ff632e6	1.9234283
11	0xc05e3a55	-3.4723103
12	0xc02f210b	-2.7363918
13	0x3fabce19	1.3422271
14	0xc0579e69	-3.3690436
15	0xbdf12123	-0.117738985
16	0xc06234e1	-3.5344775
17	0x4028f6a5	2.640054
18	0xc06935d3	-3.6439102
19	0x4021cc21	2.528084

0.bias f4 [20]
0	0x3f1bb07d	0.60816175
1	0xbfae616d	-1.3623482
2	0x3f23c025	0.63965064
3	0xbfc5ab92	-1.5442984
4	0xbe24c0fe	-0.16089246
5	0xbd229ea0	-0.039702058
6	0xbceed043	-0.029152041
7	0xbfc7978c	-1.5593123
8	0xc0027906	-2.0386367
9	0xbefa81d7	-0.48927185
10	0xbf960170	-1.1719189
11	0x3f85aa58	1.044261
12	0x3f5239c1	0.82119375
13	0xbfc01073	-1.500502
14	0x3f81e0c7	1.0146722
15	0xbdf1a43c	-0.11798903
16	0x3fdefea6	1.7421463
17	0xbfed6d83	-1.8549045
18	0x3fba976f	1.4577464
19	0xc0015f79	-2.0214522

2.weight f4 [1, 20]
0	0x3f9cdd91	1.2255117
1	0x3f89ed62	1.0775568
2	0x4031f285	2.7804272
3	0x3fbbf98d	1.4685532
4	0x3caa087a	0.020755995
5	0xbce76ecc	-0.028251074
6	0x3da63962	0.08116414
7	0x400a251d	2.1585152
8	0x4073c721	3.8090289
9	0xbe90f567	-0.28312227
10	0x3eebd862	0.46063524
11	0xbffc0a42	-1.969063
12	0xbfc1f156	-1.5151775
13	0x3ee2f70c	0.44329107
14	0xbfdb8a1a	-1.715152
15	0x3d922c3d	0.07137344
16	0x4067afdc	3.6201086
17	0xc09ca4e3	-4.895128
18	0xc004f892	-2.0776715
19	0xc0a0423a	-5.0080843
