dis/dis03/code/ckpts/sgd/width20/seed704/ckpt_and_history.pt (torch, 15999 bytes, 33 tensors)

0.weight f4 [20, 1]
0	0x3dd559a9	0.10417492
1	0x3e86ac96	0.26303548
2	0xbf2a5c06	-0.66546667
3	0xbeceae93	-0.40367565
4	0xbdd2414c	-0.10266361
5	0xbdd4449b	-0.10364648
6	0xbe96da66	-0.294635
7	0x3da6d874	0.08146754
8	0xbec2c03a	-0.38037282
9	0xbf4c005f	-0.79688066
10	0x3e576e58	0.21038187
11	0x3f2f2183	0.6841051
12	0x3d07dd6a	0.03317014
13	0xbe499e0c	-0.19689196
14	0xbf677dc1	-0.9042626
15	0xbf7d9430	-0.9905424
16	0xbedec48f	-0.43509337
17	0xbf76fbd3	-0.96478003
18	0xbf2772be	-0.6540946
19	0x3d46e65a	0.048559524

0.bias f4 [20]
0	0xbc200d6f	-0.009768828
1	0xbcf7c54a	-0.030245442
2	0x3dce4e6e	0.10073553
3	0x3d9eb3ec	0.07749161
4	0x3d2da888	0.042397052
5	0x3d31dcad	0.043423343
6	0x3e07c504	0.13258749
7	0xbd130cfd	-0.03590106
8	0x3e445b0e	0.1917536
9	0x3ed896b0	0.42302465
10	0xbdf3f297	-0.11911505
11	0xbec557ec	-0.38543642
12	0xbcaeaf92	-0.021323953
13	0x3e055164	0.1301933
14	0x3f376277	0.7163462
15	0x3f4ae094	0.7924893
16	0x3eb93209	0.36170986
17	0x3f5130a6	0.81714857
18	0x3f1bbaf4	0.6083214
19	0xbd44ba95	-0.0480295

2.weight f4 [1, 20]
0	0x3e4db517	0.20088612
1	0x3d8fed3e	0.07027672
2	0xbc4a912e	-0.012363715
3	0xbda999c6	-0.08281283
4	0x3d78ca07	0.060739543
5	0x3e0a41c9	0.13501658
6	0xbd9a3a41	-0.07530642
7	0xbe34efdb	-0.17669623
8	0x3e0a1412	0.13484219
9	0xbdd73fdd	-0.10510228
10	0x3e5efa16	0.21775088
11	0x3c87e423	0.016588276
12	0x3e5a173c	0.21297926
13	0xbe0ec0d4	-0.13940746
14	0xbdb4f58f	-0.08835899
15	0xbd6faad0	-0.05851251
16	0xbe1d7510	-0.15376687
17	0xbe1b8d69	-0.15190662
18	0x3e08aa5c	0.13346237
19	0xbe39873c	-0.18117994

0.weight f4 [20, 1]
0	0x3c82dba7	0.015973879
1	0x3e840554	0.25785315
2	0xbf3f96ee	-0.74839675
3	0xbf0a70f6	-0.54078615
4	0xbdf0f223	-0.11764934
5	0xbe0e974e	-0.13924906
6	0xbedd25a6	-0.43192786
7	0x3ee32a4f	0.44368216
8	0xbedad2d0	-0.42738962
9	0xbf8abf36	-1.0839603
10	0x3e22ad9e	0.15886542
11	0x3f972c75	1.1810442
12	0x3ca2c8b8	0.0198711
13	0xbe74ae92	-0.23894718
14	0xbf7f770c	-0.99791026
15	0xbf8abfa4	-1.0839734
16	0xbf053161	-0.5202847
17	0xbf8d68e0	-1.104763
18	0xbf48ac65	-0.78388053
19	0x3e8250b2	0.2545219

0.bias f4 [20]
0	0x3d85bf05	0.06530575
1	0xbad3733a	-0.0016132363
2	0x3e5d9a6a	0.21640936
3	0x3e1f3139	0.1554612
4	0x3d840fe1	0.06448341
5	0x3d9e0df8	0.07717508
6	0x3dfe09cd	0.12404213
7	0xbe039851	-0.12851073
8	0x3e6f84b6	0.23390469
9	0x3ea0193b	0.3126925
10	0xbdb2f186	-0.08737473
11	0xbeb04901	-0.34430698
12	0xbca2a280	-0.019852877
13	0x3e376413	0.17909269
14	0x3f3f985f	0.74841875
15	0x3f501144	0.81276345
16	0x3ec7caf0	0.39022017
17	0x3f54174f	0.82848066
18	0x3f644d01	0.8918
19	0xbe441857	-0.1914991

2.weight f4 [1, 20]
0	0x3e385df3	0.18004589
1	0xbd371642	-0.04469896
2	0xbec8be7c	-0.39207828
3	0xbec8e1e8	-0.39234853
4	0x3dc533de	0.096290335
5	0x3e32fac5	0.17478473
6	0xbea42eb7	-0.3206689
7	0xbef68b21	-0.48153022
8	0x3e8b0967	0.2715561
9	0xbf2f32cc	-0.68436885
10	0x3e14e92a	0.1454207
11	0xbf70f471	-0.9412299
12	0x3e58102d	0.2109992
13	0xbe694206	-0.22779092
14	0xbef723bc	-0.4826945
15	0xbef5fc84	-0.48044217
16	0xbeb5084e	-0.35357898
17	0xbf132dbf	-0.5749168
18	0x3f49caf3	0.788253
19	0xbeb77a4c	-0.35835493

0.weight f4 [20, 1]
0	0xbb9d6ad2	-0.0048039937
1	0x3e867677	0.26262257
2	0xbf44d46d	-0.76886636
3	0xbf0f8cf8	-0.56074476
4	0xbe74d6e3	-0.23910098
5	0xbeaa8b85	-0.3330957
6	0xbee57ab6	-0.44820184
7	0x3f0e0d51	0.5548907
8	0xbf4df93f	-0.80458444
9	0xbf8f436b	-1.1192449
10	0x3e8d6ee5	0.27623668
11	0x3fb3e354	1.405375
12	0x3ca2c8b8	0.0198711
13	0xbe92aabc	-0.28645885
14	0xbf8e00e5	-1.1094023
15	0xbf992f4a	-1.1967556
16	0xbf18f935	-0.5975526
17	0xbf9e217f	-1.2353972
18	0xbf637ced	-0.88862497
19	0x3ed44bfa	0.41464216

0.bias f4 [20]
0	0x3dddd18b	0.10830983
1	0xba06e89c	-0.0005146356
2	0x3e614cfb	0.22002022
3	0x3e23f079	0.16009702
4	0x3e04dfbe	0.12975976
5	0x3e3931c3	0.18085389
6	0x3e030282	0.12793925
7	0xbe267b6c	-0.16258019
8	0x3edf72e2	0.43642336
9	0x3ea3a9ae	0.31965393
10	0xbe186f4f	-0.14886211
11	0xbed29a98	-0.4113357
12	0xbca2a280	-0.019852877
13	0x3e5f3be5	0.21800192
14	0x3f57a734	0.84239507
15	0x3f68a2ba	0.908733
16	0x3ee84b24	0.45369828
17	0x3f705811	0.9388438
18	0x3f8d5504	1.104157
19	0xbea4ba2a	-0.32173282

2.weight f4 [1, 20]
0	0x3e489c4f	0.19590877
1	0xbd91899d	-0.07106326
2	0xbedc6c8f	-0.43051574
3	0xbed701fd	-0.41993704
4	0x3e825d77	0.25461933
5	0x3ec4c62b	0.3843244
6	0xbeaf7598	-0.34269404
7	0xbf15e9a5	-0.5855964
8	0x3f518899	0.81849056
9	0xbf3d6607	-0.73983806
10	0x3e95c5da	0.2925251
11	0xbf9b9d11	-1.2157308
12	0x3e58102d	0.2109992
13	0xbe99aad7	-0.30013153
14	0xbf477fe5	-0.77929527
15	0xbf4d543e	-0.8020667
16	0xbf0268f4	-0.50941396
17	0xbf675f94	-0.90380216
18	0x3f8bc725	1.0920149
19	0xbf0c6535	-0.5484193

0.weight f4 [20, 1]
0	0xbc593348	-0.013256855
1	0x3e875bb3	0.26437148
2	0xbf4cd451	-0.8001147
3	0xbf1768d5	-0.59144336
4	0xbeed5f52	-0.46361786
5	0xbf2a5551	-0.6653643
6	0xbef255cc	-0.47331083
7	0x3f25323b	0.6452977
8	0xbfc47cee	-1.5350626
9	0xbf962693	-1.1730522
10	0x3ef87854	0.48529303
11	0x3fcc1b92	1.5945914
12	0x3ca2c8b8	0.0198711
13	0xbeb72cc7	-0.3577635
14	0xbfa73e28	-1.3065844
15	0xbfb3619a	-1.4014161
16	0xbf38da8b	-0.7220847
17	0xbfbb3414	-1.4625268
18	0xbf6fcdb6	-0.93673265
19	0x3f1c97e0	0.6116924

0.bias f4 [20]
0	0x3e090231	0.13379742
1	0xb902cc30	-0.00012473832
2	0x3e77d83e	0.24203584
3	0x3e37295e	0.17886874
4	0x3e83a2e7	0.25710222
5	0x3ebcdda7	0.36887857
6	0x3e1266eb	0.14297073
7	0xbe48e227	-0.1961752
8	0x3f59d146	0.8508495
9	0x3eb5c11c	0.35498893
10	0xbe898ed7	-0.2686679
11	0xbef84100	-0.4848709
12	0xbca2a280	-0.019852877
13	0x3e89c19e	0.2690553
14	0x3f7b6290	0.9819727
15	0x3f86dd92	1.0536368
16	0x3f0ae971	0.54262453
17	0x3f8cbeaf	1.0995692
18	0x3fa06624	1.2531171
19	0xbeebeadf	-0.4607763

2.weight f4 [1, 20]
0	0x3e5596e1	0.20858337
1	0xbda32f02	-0.079679504
2	0xbefc7943	-0.49311265
3	0xbeee5b70	-0.46554136
4	0x3f04e8e3	0.51917857
5	0x3f429573	0.7600929
6	0xbec21ecc	-0.3791412
7	0xbf2c3ea2	-0.6728307
8	0x3fd985dd	1.6993977
9	0xbf54b535	-0.83089
10	0x3f0a24ff	0.539627
11	0xbfb7f5a0	-1.4371834
12	0x3e58102d	0.2109992
13	0xbecb2e00	-0.39683533
14	0xbf92caa0	-1.1468086
15	0xbf995426	-1.1978805
16	0xbf357b04	-0.7089083
17	0xbfa82b28	-1.313817
18	0x3fa19db6	1.2626255
19	0xbf47d8ea	-0.7806536

0.weight f4 [20, 1]
0	0xbba30027	-0.0049743834
1	0x3e8563b5	0.26052633
2	0xbf646e7d	-0.8923109
3	0xbf2d34e8	-0.67658854
4	0xbf2e9e1a	-0.68209994
5	0xbf7bec92	-0.9840785
6	0xbf0ae309	-0.5425268
7	0x3f466220	0.77493477
8	0xc010167f	-2.251373
9	0xbfa9c360	-1.3262749
10	0x3f2e5f47	0.6811413
11	0x3fefe8ab	1.874288
12	0x3ca2c8b8	0.0198711
13	0xbee2407e	-0.4418983
14	0xbfc73486	-1.5562904
15	0xbfd4eeb4	-1.6635346
16	0xbf5fcb1f	-0.87419313
17	0xbfdfbad5	-1.7478892
18	0xbf62ad49	-0.8854566
19	0x3f55ceb7	0.83518547

0.bias f4 [20]
0	0x3e2d72a0	0.16938257
1	0x395308cb	0.00020125804
2	0x3e90a138	0.28248
3	0x3e5b7c29	0.21434082
4	0x3ec0f71a	0.37688524
5	0x3f0b3cd0	0.5438967
6	0x3e2ff1d8	0.171821
7	0xbe7a899b	-0.24466555
8	0x3f9f3b1f	1.2439917
9	0x3ed74f1a	0.42052537
10	0xbec08537	-0.37601635
11	0xbf179481	-0.59210974
12	0xbca2a280	-0.019852877
13	0x3eab146b	0.33414015
14	0x3f9691ed	1.1763283
15	0x3fa0e42a	1.256963
16	0x3f29391e	0.6610278
17	0x3fa91f74	1.3212724
18	0x3fbc4fd9	1.4711868
19	0xbf21166e	-0.6292485

2.weight f4 [1, 20]
0	0x3e6c1994	0.23056632
1	0xbd8a7e0f	-0.06762325
2	0xbf25764e	-0.64633644
3	0xbf1476f4	-0.5799401
4	0x3f448748	0.7676892
5	0x3f8f1320	1.1177711
6	0xbef1072f	-0.47075793
7	0xbf4e20e1	-0.8051892
8	0x402154ad	2.5207932
9	0xbf8743a7	-1.0567521
10	0x3f438984	0.7638171
11	0xbfe197ec	-1.7624488
12	0x3e58102d	0.2109992
13	0xbf024ecc	-0.50901484
14	0xbfc6a74a	-1.5519803
15	0xbfd0e786	-1.6320655
16	0xbf6f159c	-0.9339235
17	0xbfe24974	-1.7678666
18	0x3fb7d10d	1.4360672
19	0xbf870848	-1.0549402

0.weight f4 [20, 1]
0	0x3ba82ce6	0.0051323054
1	0x3e83b499	0.25723723
2	0xbf7d303b	-0.9890172
3	0xbf433397	-0.76250595
4	0xbf5561f5	-0.83352596
5	0xbf9a2e19	-1.2045318
6	0xbf1cb954	-0.6122029
7	0x3f6281f9	0.8847957
8	0xc02fed19	-2.7488463
9	0xbfbde7e4	-1.4836392
10	0x3f5163f3	0.81793135
11	0x40076ad7	2.115896
12	0x3ca2c8b8	0.0198711
13	0xbf01f7b5	-0.50768596
14	0xbfe12708	-1.7590036
15	0xbff03c94	-1.8768487
16	0xbf7ee2c6	-0.9956478
17	0xbffd41a0	-1.9785652
18	0xbf5288e5	-0.82240134
19	0x3f80acae	1.0052698

0.bias f4 [20]
0	0x3e48e77e	0.19619557
1	0x39226734	0.0001548797
2	0x3ea6aa48	0.3255179
3	0x3e80945b	0.25113186
4	0x3eead126	0.45862693
5	0x3f299b7b	0.6625287
6	0x3e4e7d21	0.2016492
7	0xbe993a31	-0.2992721
8	0x3fc19953	1.5124916
9	0x3efa14b4	0.4884392
10	0xbee5dc6d	-0.44894734
11	0xbf36c1f5	-0.71389705
12	0xbca2a280	-0.019852877
13	0x3ec34f84	0.38146603
14	0x3fa93437	1.321906
15	0x3fb487ce	1.4103944
16	0x3f3f8409	0.74810845
17	0x3fbe5389	1.4869243
18	0x3fd19314	1.637301
19	0xbf4279b0	-0.7596693

2.weight f4 [1, 20]
0	0x3e7f6107	0.24939357
1	0xbd616b0d	-0.055033732
2	0xbf49bab9	-0.7880054
3	0xbf3019da	-0.68789446
4	0x3f6fb4a6	0.9363502
5	0x3fae3d93	1.3612541
6	0xbf0eae90	-0.5573511
7	0xbf6c609a	-0.923349
8	0x4044f2d3	3.0773208
9	0xbfa24ad9	-1.2679092
10	0x3f6b288a	0.9185873
11	0xc0030957	-2.047445
12	0x3e58102d	0.2109992
13	0xbf1759b0	-0.5912123
14	0xbfebb5c3	-1.8414844
15	0xbff882ae	-1.941488
16	0xbf8c5bbd	-1.0965496
17	0xc005f413	-2.093022
18	0x3fc84003	1.5644535
19	0xbfa21a6d	-1.2664315

0.weight f4 [20, 1]
0	0x3c6031a3	0.013683709
1	0x3e82922f	0.25502154
2	0xbf87ba4b	-1.0603727
3	0xbf5328e3	-0.82484263
4	0xbf6d4f7c	-0.9269941
5	0xbfab8c42	-1.3402178
6	0xbf29a8ba	-0.6627308
7	0x3f74efc9	0.95678383
8	0xc043947e	-3.0559382
9	0xbfcc9c7c	-1.5985255
10	0x3f6a1e55	0.91452533
11	0x40119b12	2.2750897
12	0x3ca2c8b8	0.0198711
13	0xbf0c6b03	-0.54850787
14	0xbff0cb1c	-1.8811984
15	0xbffe07d5	-1.984614
16	0xbf892490	-1.0714283
17	0xc007b034	-2.1201296
18	0xbf44e60f	-0.7691354
19	0x3f8a7bba	1.0819008

0.bias f4 [20]
0	0x3e58bca1	0.21165706
1	0xb8d05531	-9.934081e-05
2	0x3eb7f69b	0.35930333
3	0x3e8eeb3b	0.27913842
4	0x3f03eceb	0.51533383
5	0x3f3ec75c	0.7452295
6	0x3e659611	0.22420527
7	0xbea9754f	-0.33097312
8	0x3fd97dc3	1.6991504
9	0x3f0a880b	0.54113835
10	0xbefd8d6c	-0.4952196
11	0xbf49767e	-0.7869643
12	0xbca2a280	-0.019852877
13	0x3ecd2381	0.4006615
14	0x3fb1c534	1.3888307
15	0x3fc12e7f	1.5092314
16	0x3f48a47f	0.78376
17	0x3fc7983d	1.5593334
18	0x3fddbae6	1.7322662
19	0xbf59984c	-0.8499801

2.weight f4 [1, 20]
0	0x3e8580fd	0.26074973
1	0xbd3856a9	-0.04500452
2	0xbf6286e0	-0.8848705
3	0xbf433385	-0.7625049
4	0x3f8533fa	1.0406487
5	0x3fc18795	1.5119501
6	0xbf1e042f	-0.61725134
7	0xbf7fc705	-0.99913055
8	0x405af67b	3.421294
9	0xbfb4e1dc	-1.4131427
10	0x3f83345c	1.0250354
11	0xc00ea2f2	-2.2286954
12	0x3e58102d	0.2109992
13	0xbf222434	-0.6333649
14	0xbffe98ba	-1.9890358
15	0xc0065690	-2.0990334
16	0xbf97002d	-1.1796929
17	0xc0109131	-2.2588618
18	0x3fd0f3e6	1.6324432
19	0xbfb0bc4c	-1.3807464

0.weight f4 [20, 1]
0	0x3ca2ad90	0.019858152
1	0x3e81d293	0.25355968
2	0xbf8d5be2	-1.1043665
3	0xbf5ce2d0	-0.8628359
4	0xbf7c4e51	-0.98557
5	0xbfb67255	-1.4253641
6	0xbf318601	-0.693451
7	0x3f7e0706	0.99229467
8	0xc04fea16	-3.2486625
9	0xbfd59b17	-1.6687955
10	0x3f7b7c29	0.9823633
11	0x4016ac27	2.3542573
12	0x3ca2c8b8	0.0198711
13	0xbf13288a	-0.5748373
14	0xbff9b6e6	-1.9508941
15	0xc0030a27	-2.0474946
16	0xbf8f800b	-1.1210951
17	0xc00da09d	-2.212928
18	0xbf3b2a48	-0.7311139
19	0x3f90a7f6	1.1301258

0.bias f4 [20]
0	0x3e5e9174	0.21735173
1	0x36c6b48a	5.9218773e-06
2	0x3ec5cc59	0.38632467
3	0x3e9a8980	0.3018303
4	0x3f0afb5a	0.5428978
5	0x3f490215	0.785188
6	0x3e787b66	0.24265823
7	0xbeb4dd25	-0.3532497
8	0x3fe50eeb	1.7895178
9	0x3f157930	0.5838804
10	0xbf06b667	-0.52622074
11	0xbf5649c4	-0.8370631
12	0xbca2a280	-0.019852877
13	0x3ed33d7f	0.41257855
14	0x3fb8cb3e	1.4437025
15	0x3fca9bfa	1.582885
16	0x3f4e1616	0.8050245
17	0x3fcd31bc	1.6030803
18	0x3fe1f968	1.7654238
19	0xbf63de5b	-0.8901116

2.weight f4 [1, 20]
0	0x3e87705b	0.26452908
1	0xbd1a1e5e	-0.037626617
2	0xbf715683	-0.9427263
3	0xbf4ea23a	-0.8071629
4	0x3f8ca3d3	1.0987495
5	0x3fcc468a	1.5959027
6	0xbf273246	-0.65311086
7	0xbf84cac9	-1.0374385
8	0x406739a6	3.6128936
9	0xbfbfffa4	-1.499989
10	0x3f8c9e64	1.0985837
11	0xc0147d3c	-2.3201437
12	0x3e58102d	0.2109992
13	0xbf286dfc	-0.6579282
14	0xc004d24b	-2.0753353
15	0xc00c4e84	-2.1922922
16	0xbf9d37ca	-1.228265
17	0xc016c622	-2.355843
18	0x3fd2aa78	1.6458273
19	0xbfb89f44	-1.4423604

0.weight f4 [20, 1]
0	0x3cc56832	0.024097536
1	0x3e8144e6	0.25247878
2	0xbf91bb91	-1.1385366
3	0xbf645b0f	-0.89201444
4	0xbf8285ce	-1.0197084
5	0xbfbccad3	-1.4749397
6	0xbf3792a1	-0.7170811
7	0x3f822973	1.0168899
8	0xc057202c	-3.3613386
9	0xbfdc8f9d	-1.7231327
10	0x3f83dee1	1.0302392
11	0x401a2baa	2.408915
12	0x3ca2c8b8	0.0198711
13	0xbf16d1c3	-0.5891382
14	0xbfff145e	-1.992809
15	0xc0058297	-2.0860956
16	0xbf92eb5b	-1.1478075
17	0xc01150f3	-2.2705657
18	0xbf34959f	-0.70540804
19	0x3f94abaf	1.1614894

0.bias f4 [20]
0	0x3e613b0c	0.21995181
1	0x384c2ce1	4.8679187e-05
2	0x3ecc39cd	0.39887848
3	0x3ea0197a	0.31269437
4	0x3f0fa94d	0.5611771
5	0x3f4fcf73	0.8117592
6	0x3e80b583	0.25138482
7	0xbebb5cee	-0.36594337
8	0x3feca6db	1.848842
9	0x3f1a9540	0.6038399
10	0xbf0a88fe	-0.54115283
11	0xbf5dd3b3	-0.8665115
12	0xbca2a280	-0.019852877
13	0x3ed84a0a	0.42243987
14	0x3fbd458f	1.4786853
15	0x3fd09926	1.6296737
16	0x3f52c1ff	0.82327265
17	0x3fd08342	1.6290057
18	0x3fe3b1d2	1.7788641
19	0xbf69bf95	-0.91307956

2.weight f4 [1, 20]
0	0x3e880445	0.26565757
1	0xbd036776	-0.03208109
2	0xbf7b47aa	-0.98156226
3	0xbf564a9e	-0.83707607
4	0x3f908fdb	1.1293901
5	0x3fd1f0c3	1.64016
6	0xbf2d5826	-0.6771263
7	0xbf87eee7	-1.0619782
8	0x406db1c7	3.7139757
9	0xbfc773bb	-1.5582193
10	0x3f92b9b6	1.1462924
11	0xc0183df3	-2.378781
12	0x3e58102d	0.2109992
13	0xbf2b834d	-0.66997224
14	0xc0079a17	-2.11878
15	0xc00f632b	-2.2404277
16	0xbfa04ea2	-1.2523997
17	0xc019e3bb	-2.4045246
18	0x3fd27e35	1.6444765
19	0xbfbd767a	-1.4801781

0.weight f4 [20, 1]
0	0x3ce2e6cb	0.027697941
1	0x3e80cba6	0.2515537
2	0xbf94b2d7	-1.1617078
3	0xbf696ac5	-0.9117854
4	0xbf84a253	-1.0362037
5	0xbfbfde9c	-1.498981
6	0xbf3baad7	-0.73307556
7	0x3f83bd80	1.0292206
8	0xc05dc69e	-3.4652476
9	0xbfe144ce	-1.7599123
10	0x3f89bdad	1.076101
11	0x401befeb	2.4365184
12	0x3ca2c8b8	0.0198711
13	0xbf1a0478	-0.6016307
14	0xc001c395	-2.0275624
15	0xc007d40f	-2.122318
16	0xbf95dc68	-1.1707888
17	0xc0142906	-2.3150039
18	0xbf2f1275	-0.6838754
19	0x3f9728fb	1.1809381

0.bias f4 [20]
0	0x3e618911	0.22024943
1	0x3809622e	3.2754782e-05
2	0x3ed14624	0.40873826
3	0x3ea4632e	0.32106918
4	0x3f1a6b4e	0.60319984
5	0x3f5f65b0	0.8726454
6	0x3e842d42	0.2581578
7	0xbebede77	-0.37279102
8	0x3ff105b8	1.882987
9	0x3f1e980c	0.61950755
10	0xbf0e338d	-0.5554741
11	0xbf61c031	-0.88183886
12	0xbca2a280	-0.019852877
13	0x3edacbbb	0.4273356
14	0x3fc005c8	1.5001764
15	0x3fd3e3c9	1.655389
16	0x3f55314f	0.83278364
17	0x3fd2c390	1.6465931
18	0x3fe38e0c	1.7777724
19	0xbf6d82e7	-0.92777866

2.weight f4 [1, 20]
0	0x3e879ee2	0.26488405
1	0xbcde6c2c	-0.02715119
2	0xbf80bd3d	-1.0057751
3	0xbf5b07ae	-0.85558593
4	0x3f93e0b6	1.1552951
5	0x3fd6baa8	1.6775713
6	0xbf312586	-0.6919788
7	0xbf894c1d	-1.0726353
8	0x4072ca84	3.7936106
9	0xbfcc1467	-1.5943726
10	0x3f988c5d	1.1917835
11	0xc019e338	-2.4044933
12	0x3e58102d	0.2109992
13	0xbf2d517b	-0.67702454
14	0xc0094658	-2.1449184
15	0xc01144e8	-2.2698307
16	0xbfa22658	-1.2667952
17	0xc01bc529	-2.4339087
18	0x3fd0a043	1.6298908
19	0xbfc0749c	-1.5035586

0.weight f4 [20, 1]
0	0x3cfe8543	0.031069404
1	0x3e805b5e	0.25069708
2	0xbf97a7b6	-1.1848056
3	0xbf6e7246	-0.9314312
4	0xbf8781a5	-1.0586439
5	0xbfc40ce0	-1.5316429
6	0xbf3fbb5b	-0.74895257
7	0x3f852baf	1.0403956
8	0xc06231c6	-3.534288
9	0xbfe5f394	-1.7964959
10	0x3f8e92ed	1.1138588
11	0x401d8975	2.4615147
12	0x3ca2c8b8	0.0198711
13	0xbf1c19c2	-0.60976803
14	0xc0035c19	-2.0524962
15	0xc00953f2	-2.1457486
16	0xbf97de2c	-1.1864676
17	0xc01614db	-2.345023
18	0xbf29f951	-0.6639605
19	0x3f98ef8a	1.1948102

0.bias f4 [20]
0	0x3e614be0	0.220016
1	0x38844653	6.3073494e-05
2	0x3ed50b83	0.41610345
3	0x3ea79aaf	0.32735202
4	0x3f1e7ba0	0.61907387
5	0x3f65444d	0.89557344
6	0x3e86cc17	0.26327583
7	0xbec20512	-0.37894493
8	0x3ff476ca	1.9098752
9	0x3f219b6b	0.63127774
10	0xbf111f1d	-0.566881
11	0xbf654e38	-0.8957248
12	0xbca2a280	-0.019852877
13	0x3ede9799	0.43475035
14	0x3fc30daf	1.5238551
15	0x3fd7ded1	1.6864873
16	0x3f5889b4	0.8458512
17	0x3fd5f76b	1.6716131
18	0x3fe2f723	1.773167
19	0xbf712c4f	-0.94208235

2.weight f4 [1, 20]
0	0x3e86fd0b	0.2636493
1	0xbcb780de	-0.022400316
2	0xbf839f48	-1.0282984
3	0xbf5f6f56	-0.8727926
4	0x3f9606bc	1.1720805
5	0x3fd9d3fb	1.7017816
6	0xbf34ae6b	-0.7057864
7	0xbf8a7611	-1.0817281
8	0x40758172	3.8360257
9	0xbfd06219	-1.6279937
10	0x3f9d3d13	1.2284263
11	0xc01b4bdb	-2.4265049
12	0x3e58102d	0.2109992
13	0xbf2e6a78	-0.6813121
14	0xc00a581d	-2.161628
15	0xc0128538	-2.289381
16	0xbfa34e5a	-1.2758286
17	0xc01cf950	-2.4527168
18	0x3fce6749	1.612527
19	0xbfc2dba6	-1.5223281
