dis/dis03/code/ckpts/sgd/width20/seed808/ckpt_and_history.pt (torch, 15999 bytes, 33 tensors)

0.weight f4 [20, 1]
00000000: cba6 7a3e e1fd 4cbf 4e4d 54bf 0834 b13e
00000010: 12d7 bd3e 6d0a 673e 9178 06bf 469d a63e
00000020: cdc5 7cbf d5a8 643f 5483 5abf 2ad9 643f
00000030: 07ef 7abf 8e6f 023f 47bc 363f 722a 673f
00000040: 51fa d2bd d975 0c3e 0b64 08bf 8065 9b3c
0.24477689 -0.8007489 -0.8293046 0.3461001 0.37078148 0.22562571 -0.5252772 0.32541865
-0.9873932 0.8932012 -0.8535664 0.89393866 -0.98020977 0.5095147 0.7138104 0.9029914
-0.1030165 0.1371683 -0.53277653 0.018969297

0.bias f4 [20]
00000000: 726d 0cbd 65b1 243e a8b9 8b3e 08f3 03be
00000010: 39b9 0cbe cc33 b2bd afa9 673e 4109 19be
00000020: a752 093f a03d 08bf 839b 133f 99d7 1ebf
00000030: 1573 3b3f d68a c8be f694 12bf 4197 4bbf
00000040: dc1b be3d afca 02be cd61 063f f545 9abc
-0.034284063 0.16083296 0.27290082 -0.12885678 -0.13742532 -0.08701286 0.22623323 -0.14944936
0.5364174 -0.5321903 0.5765917 -0.62047726 0.73222476 -0.39168423 -0.57258546 -0.7952767
0.092826575 -0.1277263 0.5249298 -0.018832186

2.weight f4 [1, 20]
00000000: 29f1 3abe f29f 0cbb 706e 263e abbb 23be
00000010: 4142 2d3d 74f8 053e cc57 1e3e f0c8 4abe
00000020: f2bd 223e a546 30be b3e5 e0bd 1c91 35be
00000030: 3e6a cfbd 8eaf c2bd 4000 aa3b d48a 0a3e
00000040: 6801 7a3d b8d7 8b3d a7bd 133e aede 2d3e
-0.18256058 -0.002145764 0.16253066 -0.15989558 0.042299513 0.13083059 0.1546318 -0.19803214
0.15892771 -0.17214449 -0.10981312 -0.17731136 -0.10127686 -0.09506141 0.005188018 0.13529521
0.061036497 0.068282545 0.14427815 0.16979477

0.weight f4 [20, 1]
00000000: cf8c e13e 498b 7ebf 4952 78bf 4e0f 163f
00000010: 6cda e93e 2200 8a3e 4d3b 0abf b473 df3e
00000020: 3212 85bf 685d 8b3f 9359 76bf 679b 933f
00000030: 0ee1 90bf 5b55 2d3f aefb 603f 64de 593f
00000040: 494a b5bd dfd5 073e c803 00bf 83b2 9a3c
0.4405274 -0.9943128 -0.9700056 0.58617103 0.45674455 0.26953226 -0.53996736 0.43642962
-1.0396178 1.088788 -0.9623043 1.15318 -1.1318681 0.6770837 0.8788403 0.85104966
-0.088520594 0.13265179 -0.5000577 0.01888395

0.bias f4 [20]
00000000: 45c6 00be 50e2 943e 9b83 913e abee 2cbe
00000010: 490d 08be 1374 eebc e473 983e bb33 acbe
00000020: bed4 123f cfd7 56bf da41 3e3f 688e 63bf
00000030: 1ea5 5f3f 1b8c 05bf cb5f 2dbf 4b50 59bf
00000040: 2673 093e 507f 07be 5166 233f 6df9 9abc
-0.12575634 0.29078913 0.2842072 -0.1688792 -0.13286318 -0.029108083 0.29775918 -0.33633217
0.5735587 -0.8392305 0.7431923 -0.8888917 0.87361324 -0.5216691 -0.67724293 -0.8488814
0.13422832 -0.1323216 0.63828 -0.018917764

2.weight f4 [1, 20]
00000000: 3698 d8be a3f1 22bf 4cc4 08bf 2be2 01bf
00000010: 22c3 88be 55e5 353e d305 8e3e 508b ecbe
00000020: df0d d53e 74f6 69bf d8f3 26bf 234e 7bbf
00000030: ee58 3ebf 0b08 12bf a266 20bf 5763 fd3d
00000040: 7630 cf3d 407a 8b3d 2f64 b13e abde 2d3e
-0.42303628 -0.6364996 -0.53424525 -0.5073573 -0.26711375 0.17763264 0.2773882 -0.46200037
0.41612145 -0.9139168 -0.65215826 -0.981661 -0.74354446 -0.5704352 -0.62656605 0.12372463
0.10116665 0.06810427 0.34646747 0.16979472

0.weight f4 [20, 1]
00000000: 66e0 043f 41fa a0bf 7b6e 99bf 346b 2e3f
00000010: 6c48 023f 71cf b93e 3a07 4fbf f328 063f
00000020: 837a bebf 85ff a13f f783 91bf b0ef ab3f
00000030: 5684 aabf 1297 493f c840 803f 64de 593f
00000040: a352 86bd dfd5 073e ed09 d8be 83b2 9a3c
0.51904905 -1.2576371 -1.1986841 0.6813233 0.50891757 0.36291078 -0.808704 0.52406234
-1.4881138 1.2656103 -1.1368397 1.3432522 -1.3321636 0.7874614 1.001977 0.85104966
-0.065587305 0.13265179 -0.42195073 0.01888395

0.bias f4 [20]
00000000: bba9 1fbe 8ded c03e d1ad b73e 4ea5 51be
00000010: ad61 1cbe ba54 27bd 6d12 e43e 888f d3be
00000020: fa29 523f 8a85 7fbf 3ab9 633f 707f 87bf
00000030: e54b 853f bfe6 1ebf 1555 4abf 4b50 59bf
00000040: d04f 1c3e 507f 07be bf4f 333f 6df9 9abc
-0.15592091 0.37681237 0.358748 -0.20473215 -0.15271635 -0.040852286 0.44545308 -0.41320443
0.820953 -0.9981314 0.8895451 -1.0585766 1.0413786 -0.6207084 -0.79036075 -0.8488814
0.15264821 -0.1323216 0.7004356 -0.018917764

2.weight f4 [1, 20]
00000000: 55dd 01bf ff35 83bf 16a1 68bf ed87 1ebf
00000010: e323 b5be ecc8 993e f6fb 3c3f b567 18bf
00000020: fbef a33f 87d9 9ebf 0af3 80bf 2b0a aabf
00000030: 5991 94bf 9b1c 46bf 3b53 63bf 5763 fd3d
00000040: 6194 df3d 407a 8b3d d368 ba3e abde 2d3e
-0.5072835 -1.0250853 -0.908708 -0.61926156 -0.35378942 0.30036104 0.7382196 -0.59533244
1.2807611 -1.2410134 -1.007417 -1.3284353 -1.1606857 -0.773874 -0.88798875 0.12372463
0.10916973 0.06810427 0.364081 0.16979472

0.weight f4 [20, 1]
00000000: ed2c 0d3f d963 ccbf 6448 c0bf f187 383f
00000010: d4f7 073f 6f90 0e3f e288 97bf c7a4 153f
00000020: dc7d 09c0 0d49 b23f eb3f b3bf 8d4d bd3f
00000030: b368 d1bf 8ae3 5d3f 50ff 8b3f 64de 593f
00000040: 2f57 19bd dfd5 073e 516f aabe 83b2 9a3c
0.55146676 -1.5967971 -1.5022092 0.7208243 0.5311253 0.5568914 -1.1838648 0.58454555
-2.1483068 1.3928543 -1.4003881 1.4789292 -1.6360077 0.8667532 1.093729 0.85104966
-0.03743666 0.13265179 -0.33288053 0.01888395

0.bias f4 [20]
00000000: 5afb 32be d6a1 003f 7c68 f23e 27b9 69be
00000010: f5fe 2bbe 936f 80bd c802 283f 810b ebbe
00000020: b14d 983f cb21 8cbf 7d42 893f bacd 94bf
00000030: 2d6c a03f 1657 2ebf a72a 5cbf 4b50 59bf
00000040: b873 253e 507f 07be 2c40 3a3f 6df9 9abc
-0.17478696 0.5024694 0.4734534 -0.22824536 -0.16796477 -0.06271281 0.65629244 -0.45907214
1.189871 -1.0947813 1.0723416 -1.1625283 1.2533013 -0.6810163 -0.8600258 -0.8488814
0.16157424 -0.1323216 0.7275417 -0.018917764

2.weight f4 [1, 20]
00000000: 52b1 0abf 6044 babf 736f a8bf 1c31 2abf
00000010: 2ce8 c6be 1775 043f 394e 9d3f d2c8 2dbf
00000020: 4850 0b40 6f81 b8bf 3087 b5bf 6d45 c5bf
00000030: 1b1a d2bf d308 66bf 18e6 85bf 5763 fd3d
00000040: 3d8f df3d 407a 8b3d a439 a83e abde 2d3e
-0.5417682 -1.4552116 -1.3159012 -0.66481185 -0.38849008 0.51741165 1.2289497 -0.6788455
2.176775 -1.44145 -1.4181881 -1.5411812 -1.6414217 -0.89857215 -1.0460844 0.12372463
0.109159924 0.06810427 0.32856476 0.16979472

0.weight f4 [20, 1]
00000000: 5186 183f 9f5d f8bf f642 e8bf 0671 463f
00000010: eb25 103f 7259 553f 995c c0bf 04a2 1f3f
00000020: 52b8 2dc0 2cf4 bc3f 0a99 cfbf 81bd c83f
00000030: 564b f2bf 0a2f 6b3f 9ac9 933f 64de 593f
00000040: 965c b5bc dfd5 073e 8b23 94be 83b2 9a3c
0.5957995 -1.9403571 -1.8145435 0.7751621 0.5630786 0.8333961 -1.5028259 0.6235659
-2.714375 1.4762015 -1.6218579 1.5682832 -1.8929241 0.9186865 1.1545899 0.85104966
-0.022138875 0.13265179 -0.28933367 0.01888395

0.bias f4 [20]
00000000: 1f86 44be 0e77 213f 06d3 163f 39f2 7fbe
00000010: 8586 39be 5c57 e2bd 59f7 543f 34ff f6be
00000020: da5a c03f a37a 92bf 7139 9e3f 8d8b 9bbf
00000030: 01a6 b83f 4a42 36bf b258 65bf 4b50 59bf
00000040: 82b5 243e 507f 07be 9953 393f 6df9 9abc
-0.19191788 0.6307229 0.58915746 -0.24994744 -0.18117721 -0.11051819 0.8318992 -0.4824158
1.5027726 -1.1443676 1.236128 -1.2151963 1.442566 -0.711949 -0.89588463 -0.8488814
0.16084865 -0.1323216 0.72393185 -0.018917764

2.weight f4 [1, 20]
00000000: eaf0 16bf 36e6 edbf b4e0 d8bf 0937 3abf
00000010: 0595 debe 1d11 4f3f f57a ce3f 8242 3abf
00000020: 80d4 3740 db56 c7bf 6966 debf 4706 d5bf
00000030: 73ec 00c0 8c7e 78bf 2088 91bf 5763 fd3d
00000040: b447 d63d 407a 8b3d f07b 913e abde 2d3e
-0.58961356 -1.858588 -1.6943574 -0.72740227 -0.43473068 0.8088549 1.6131274 -0.7275773
2.872345 -1.5573381 -1.7375003 -1.6642541 -2.0144317 -0.97068095 -1.1369667 0.12372463
0.10462895 0.06810427 0.2841487 0.16979472

0.weight f4 [20, 1]
00000000: c692 263f a1a6 0bc0 ed3c 02c0 c1d1 573f
00000010: fc94 1a3f c97c 953f 7759 dbbf bef9 283f
00000020: 21c6 45c0 f370 c43f 0b61 ddbf f0ec d23f
00000030: a023 01c0 8006 753f e841 993f 64de 593f
00000040: 9f21 a6bc dfd5 073e e4e3 91be 83b2 9a3c
0.6506771 -2.1820452 -2.0349686 0.84304434 0.6038358 1.1678706 -1.7136678 0.66006076
-3.0902178 1.5346969 -1.729524 1.6478558 -2.0177994 0.95713043 1.1973238 0.85104966
-0.020279704 0.13265179 -0.2849418 0.01888395

0.bias f4 [20]
00000000: 91aa 5bbe 7b62 3a3f c9ca 2d3f e743 8ebe
00000010: e18a 4bbe 0041 21be 82d8 733f fa73 f5be
00000020: cadb db3f 18ee 94bf d2b5 aa3f 2044 9bbf
00000030: a71f c73f 28a4 38bf e6f1 68bf 4b50 59bf
00000040: afe6 1e3e 507f 07be c30b 353f 6df9 9abc
-0.21451785 0.7280652 0.6788755 -0.2778618 -0.19877197 -0.15747452 0.9525224 -0.47940046
1.7176449 -1.163516 1.3336737 -1.2130165 1.5556535 -0.7212548 -0.9099411 -0.8488814
0.15517686 -0.1323216 0.7072107 -0.018917764

2.weight f4 [1, 20]
00000000: 9287 26bf c27d 08c0 20a9 f9bf ed7a 4ebf
00000010: 25f0 fbbe 826c 933f ea2c ee3f 66b8 41bf
00000020: 0072 5440 4713 d0bf 737f f2bf 9052 debf
00000030: d7a7 0cc0 e0ae 81bf 655d 98bf 5763 fd3d
00000040: 4d0c c53d 407a 8b3d c75c 793e abde 2d3e
-0.65050614 -2.1326756 -1.9504738 -0.8065632 -0.49206653 1.1517489 1.8607457 -0.75671995
3.319458 -1.6255883 -1.8945144 -1.7368946 -2.1977441 -1.0131493 -1.1903502 0.12372463
0.09621487 0.06810427 0.24351798 0.16979472

0.weight f4 [20, 1]
00000000: d774 393f 2327 15c0 1eed 0ac0 2246 6f3f
00000010: 8c08 293f c1c8 c13f 7e26 eebf 278d 2f3f
00000020: 46e2 55c0 6939 ce3f 207e e5bf 877d db3f
00000030: 99da 05c0 757a 803f 186a a03f 64de 593f
00000040: 4fd5 e0bc dfd5 073e 0bef 9abe 83b2 9a3c
0.7244391 -2.3305137 -2.1707225 0.9346639 0.66028666 1.513939 -1.8605497 0.68574756
-3.3419356 1.611127 -1.7929115 1.7147683 -2.0914671 1.0037371 1.2532377 0.85104966
-0.027445463 0.13265179 -0.302605 0.01888395

0.bias f4 [20]
00000000: f583 71be 8cbe 4d3f f69a 3f3f 29f0 9bbe
00000010: 915f 5cbe 7999 53be d16c 813f dcde fcbe
00000020: 74a9 eb3f 2d34 95bf 4868 b33f d625 9ebf
00000030: d430 d13f fa5a 39bf 0b5f 69bf 4b50 59bf
00000040: cbd8 123e 507f 07be 3e52 2d3f 6df9 9abc
-0.23585494 0.80368876 0.74845827 -0.30456665 -0.2152083 -0.20664014 1.0111333 -0.49388778
1.8411088 -1.1656548 1.4016199 -1.2355297 1.6343026 -0.72404444 -0.9116065 -0.8488814
0.14340512 -0.1323216 0.67703617 -0.018917764

2.weight f4 [1, 20]
00000000: fdce 3abf 3446 13c0 b0e3 06c0 c6b6 68bf
00000010: 20aa 10bf b164 c03f 7910 0140 3eac 49bf
00000020: d56f 6640 5e67 d9bf b9b9 febf a249 e8bf
00000030: afca 13c0 b380 87bf 99a1 9fbf 5763 fd3d
00000040: 0cd4 a13d 407a 8b3d 6e15 383e abde 2d3e
-0.7297209 -2.3011599 -2.107647 -0.9090389 -0.5650959 1.5030729 2.0166304 -0.78778446
3.6005757 -1.698467 -1.9900428 -1.8147471 -2.3092458 -1.0586151 -1.2471191 0.12372463
0.07901773 0.06810427 0.17976925 0.16979472

0.weight f4 [20, 1]
00000000: bb0a 523f 1181 1ac0 d8d3 0fc0 bb00 873f
00000010: ac59 3c3f 2ef7 e83f c505 fdbf 2dbc 353f
00000020: 096e 60c0 fe35 d53f 8b5e eabf 66b2 e23f
00000030: 1baf 08c0 67ba 843f 10b3 a53f 64de 593f
00000040: 8f05 1dbd dfd5 073e 809f a6be 83b2 9a3c
0.82047623 -2.4141276 -2.247305 1.0547098 0.7357433 1.8200433 -1.9767386 0.7099026
-3.506716 1.6657102 -1.8310102 1.7710693 -2.1356876 1.0369385 1.294527 0.85104966
-0.03833538 0.13265179 -0.32543564 0.01888395

0.bias f4 [20]
00000000: aef8 84be f9f7 543f de3c 463f b7f1 aabe
00000010: c193 6ebe 207b 7ebe e304 853f 3d31 02bf
00000020: 77f5 fa3f fcd3 98bf 2a83 b73f 1561 a2bf
00000030: 3df3 d53f 4e2a 3ebf 9a49 6ebf 4b50 59bf
00000040: ee83 043e 507f 07be 4278 253f 6df9 9abc
-0.25970978 0.83190876 0.77436626 -0.3338754 -0.23298551 -0.24851656 1.0392116 -0.5085638
1.960616 -1.1939692 1.4336903 -1.2685877 1.6714855 -0.742833 -0.9308106 -0.8488814
0.12940952 -0.1323216 0.64636624 -0.018917764

2.weight f4 [1, 20]
00000000: 6ac4 54bf 15c3 18c0 f201 0cc0 c613 85bf
00000010: ed29 28bf a2cd e73f 1c44 0840 e144 51bf
00000020: 9318 7340 f156 e2bf 5d67 02c0 4ec9 f1bf
00000030: c057 17c0 a210 8dbf 9c97 a6bf 5763 fd3d
00000040: 5e8c 6a3d 407a 8b3d 4a43 cc3d abde 2d3e
-0.83112204 -2.3869069 -2.1876187 -1.0396659 -0.65688974 1.8109629 2.129157 -0.81745726
3.798375 -1.7682782 -2.0375588 -1.8889558 -2.3647308 -1.1020701 -1.3015018 0.12372463
0.05726277 0.06810427 0.09973772 0.16979472

0.weight f4 [20, 1]
00000000: b5b5 6c3f 4b02 1dc0 ff1e 12c0 29b4 973f
00000010: b899 513f df64 0640 0ef7 03c0 30c3 3b3f
00000020: 9325 67c0 a7d4 db3f 977d eebf e4b5 e93f
00000030: 6e13 0bc0 dbd3 883f 2e92 aa3f 64de 593f
00000040: 065f 41bd dfd5 073e 0b5c acbe 83b2 9a3c
0.9246476 -2.453265 -2.2831419 1.1851856 0.8187518 2.0999067 -2.061954 0.7334471
-3.6116683 1.7174271 -1.8632077 1.8258634 -2.173061 1.0689653 1.332586 0.85104966
-0.047209762 0.13265179 -0.33663973 0.01888395

0.bias f4 [20]
00000000: b1fe 96be 2f5a 5a3f 4832 4b3f 2a99 c1be
00000010: 199c 85be 8583 92be 5f2f 883f 11c3 04bf
00000020: 14fe 0240 467b 9bbf 5359 ba3f 2e4b a5bf
00000030: 223d d93f da8b 41bf a936 72bf 4b50 59bf
00000040: 3a65 f13d 507f 07be 1652 213f 6df9 9abc
-0.2949119 0.8529386 0.793736 -0.37812167 -0.26095656 -0.28615966 1.0639457 -0.5186015
2.0467577 -1.2146995 1.455851 -1.2913568 1.6971781 -0.7560402 -0.94614655 -0.8488814
0.117868856 -0.1323216 0.6301588 -0.018917764

2.weight f4 [1, 20]
00000000: e76f 71bf 7a40 1bc0 3a55 0ec0 9a7b 97bf
00000010: 3ebd 41bf 60ce 0540 a192 0d40 c9f3 57bf
00000020: 9d27 7b40 b02f eabf b6ae 04c0 8e20 fabf
00000030: 3301 1ac0 e5f2 91bf 7eb2 acbf 5763 fd3d
00000040: 7aca 133d 407a 8b3d 7a85 473c abde 2d3e
-0.94311374 -2.4258103 -2.2239518 -1.1834595 -0.75679386 2.0907211 2.2120745 -0.8435636
3.9242928 -1.8295803 -2.0731635 -1.9541185 -2.4063232 -1.140225 -1.3491971 0.12372463
0.03608177 0.06810427 0.012177819 0.16979472

0.weight f4 [20, 1]
00000000: 4919 853f 8143 1ec0 d43e 13c0 d13b aa3f
00000010: 096a 693f 6c64 1640 a4b1 08c0 0ae0 3f3f
00000020: f181 6cc0 254b e03f 6b8a f0bf 167a ee3f
00000030: d539 0cc0 ef9b 8b3f 1ad9 ad3f 64de 593f
00000040: 7e58 57bd dfd5 073e 3d7d a9be 83b2 9a3c
1.0398341 -2.47287 -2.3007097 1.3299505 0.9117742 2.3498793 -2.1358423 0.7495123
-3.695431 1.7522932 -1.8792242 1.8631008 -2.1910298 1.0906962 1.3581879 0.85104966
-0.052574627 0.13265179 -0.33103362 0.01888395

0.bias f4 [20]
00000000: 0c3c a8be 73f9 5d3f eed1 4e3f 4f2d d7be
00000010: 946e 93be bf4d a4be bda5 893f 3627 07bf
00000020: 2247 0540 2714 9ebf f973 bd3f 3b11 a8bf
00000030: 58f0 dc3f 8dc8 44bf a417 76bf 4b50 59bf
00000040: 2cab e23d 507f 07be caa8 223f 6df9 9abc
-0.32858312 0.86708754 0.8078908 -0.42026755 -0.28795302 -0.32090566 1.0753704 -0.52794206
2.0824666 -1.23499 1.4801017 -1.3130258 1.7260847 -0.76868516 -0.9612982 -0.8488814
0.11067805 -0.1323216 0.635388 -0.018917764

2.weight f4 [1, 20]
00000000: d143 88bf 525a 1cc0 525d 0fc0 8e64 abbf
00000010: 6f29 5dbf 88ba 1540 f3cf 1140 add6 5cbf
00000020: 0e23 8040 8cea efbf 8821 06c0 f61b 00c0
00000030: 93b2 1bc0 f883 95bf 2127 b1bf 5763 fd3d
00000040: f69d 8d3c 407a 8b3d dfee a2bd abde 2d3e
-1.0645696 -2.4430127 -2.2400708 -1.3390062 -0.8639135 2.33951 2.2783172 -0.8626507
4.004279 -1.8743453 -2.0957966 -2.0017066 -2.4327743 -1.1680899 -1.3840066 0.12372463
0.017287236 0.06810427 -0.07955717 0.16979472

0.weight f4 [20, 1]
00000000: d064 943f 1568 1fc0 031a 13c0 787d bd3f
00000010: c02b 813f 6345 2540 2524 0dc0 39cf 423f
00000020: 3ac9 70c0 687b e33f 65ec f0bf d8e1 f13f
00000030: c575 0cc0 9798 8d3f f933 b03f 64de 593f
00000040: a28d 5fbd dfd5 073e ba96 9ebe 83b2 9a3c
1.1593266 -2.4907277 -2.2984626 1.4803915 1.0091476 2.58236 -2.205331 0.76097447
-3.762282 1.7772036 -1.8822142 1.8897047 -2.194688 1.1062192 1.3765861 0.85104966
-0.05457843 0.13265179 -0.3097437 0.01888395

0.bias f4 [20]
00000000: 87a8 bcbe 1a2f 583f 6c08 573f dede f0be
00000010: 2315 a4be e1ee acbe de17 8c3f efcf 08bf
00000020: 01c4 0840 38e2 9fbf 5ff9 bc3f 9cfe a9bf
00000030: 8a59 dc3f 5a08 47bf 8bc2 78bf 4b50 59bf
00000040: e329 dd3d 507f 07be bcda 283f 6df9 9abc
-0.36847326 0.8444687 0.83997226 -0.47045034 -0.32047376 -0.33776 1.0944784 -0.5344228
2.1369631 -1.2490911 1.4763602 -1.3280826 1.7214825 -0.7774712 -0.9717185 -0.8488814
0.10799005 -0.1323216 0.6595876 -0.018917764

2.weight f4 [1, 20]
00000000: 1782 98bf 619f 1cc0 259c 0fc0 e827 c0bf
00000010: 3e91 79bf a15e 2440 0d22 1640 7b3c 60bf
00000020: 8d9c 8240 6be6 f3bf f6ab 05c0 0e3a 02c0
00000030: 422a 1bc0 cefe 97bf 3240 b4bf 5763 fd3d
00000040: 1632 393b 407a 8b3d 0b92 27be abde 2d3e
-1.19147 -2.4472277 -2.2439053 -1.5012178 -0.97487247 2.5682757 2.3458283 -0.87592286
4.08161 -1.9054693 -2.0886207 -2.0347934 -2.4244542 -1.1874635 -1.4082091 0.12372463
0.0028258613 0.06810427 -0.16364305 0.16979472
