q_relu_optim/ckpts/sgd/width10/seed325/ckpt_and_history.pt (torch, 13887 bytes, 33 tensors)

0.weight f4 [10, 1]
0	0x395036a4	0.00019856781
1	0xbc8943fb	-0.016756048
2	0xbf33fa2d	-0.7030361
3	0x3f466d52	0.7751056
4	0xbef18464	-0.4717132
5	0xbf587914	-0.8455975
6	0x3f3acd21	0.7296925
7	0xbf1f39a0	-0.62197304
8	0x3f7b2eaa	0.9811808
9	0x3ebd446c	0.36966264

0.bias f4 [10]
0	0x38af40c6	8.356715e-05
1	0x3b6f6aba	0.003653212
2	0x3e219113	0.15777998
3	0xbe54f007	-0.20794688
4	0x3e03549b	0.12825243
5	0x3ec3fd62	0.38279253
6	0xbeb54908	-0.3540728
7	0x3efa1e6e	0.4885134
8	0xbf5a902e	-0.8537625
9	0xbebc0ca5	-0.36728397

2.weight f4 [1, 10]
0	0x3db0835c	0.08618805
1	0xbe87c89e	-0.26520246
2	0xbe8139d6	-0.25239438
3	0xbe8176f0	-0.25286055
4	0x3de961cc	0.113956064
5	0x3e8f3fc0	0.27978325
6	0xbdcb6213	-0.099308155
7	0xbe8b2a32	-0.2718063
8	0xbce88148	-0.028381959
9	0x3e6e1ba9	0.23252739

0.weight f4 [10, 1]
0	0x3938ca2f	0.00017622927
1	0xbe84b7b0	-0.25921392
2	0xbf93a2b1	-1.1534024
3	0x3f7d3a2e	0.989169
4	0xbefb9e6b	-0.491443
5	0xbf4c7d4b	-0.7987868
6	0x3f69f083	0.91382617
7	0xbf8b9ee2	-1.0907862
8	0x3fae0bb9	1.3597327
9	0x3ebcd702	0.36882788

0.bias f4 [10]
0	0xb9501f1b	-0.00019848013
1	0x3d92af9c	0.07162401
2	0x3ea6f1c0	0.32606316
3	0xbe95d377	-0.29262897
4	0x3d5fdbb7	0.054652896
5	0x3ee2bb49	0.44283512
6	0xbe8a8bec	-0.27059877
7	0x3f524853	0.8214161
8	0xbf83b90a	-1.0290844
9	0xbebc7a5b	-0.368121

2.weight f4 [1, 10]
0	0x3db082bd	0.08618686
1	0xbec0837d	-0.37600318
2	0xbf7d0b10	-0.98845005
3	0xbf30d937	-0.69081444
4	0x3e0b402b	0.13598697
5	0x3e68a2e5	0.2271839
6	0xbf0215eb	-0.50814694
7	0xbf918331	-1.1368161
8	0xbf8cf0da	-1.1011002
9	0x3e6e1aeb	0.23252456

0.weight f4 [10, 1]
0	0x3938ca2f	0.00017622927
1	0xbea54aff	-0.3228378
2	0xbfa9e053	-1.3271583
3	0x3f8869aa	1.0657246
4	0xbf0ada9f	-0.5423984
5	0xbf992b13	-1.196627
6	0x3f78902d	0.97094995
7	0xbfb1f381	-1.3902436
8	0x3fdd3c93	1.7284111
9	0x3ebcd702	0.36882788

0.bias f4 [10]
0	0xb9501f1b	-0.00019848013
1	0x3dbbe49f	0.091744654
2	0x3ec23001	0.3792725
3	0xbe9ddc67	-0.30832216
4	0x3d8a398e	0.06749259
5	0x3f251b54	0.64494824
6	0xbe906542	-0.28202254
7	0x3f89c8ec	1.0764441
8	0xbfad1293	-1.3521293
9	0xbebc7a5b	-0.368121

2.weight f4 [1, 10]
0	0x3db082bd	0.08618686
1	0xbed9952d	-0.42496625
2	0xbf9977e1	-1.1989709
3	0xbf4ae7fd	-0.79260236
4	0x3e89fa3e	0.26948732
5	0x3f83c7ea	1.0295384
6	0xbf1a7702	-0.6033784
7	0xbfc8d7ac	-1.5690818
8	0xbfe1bdc3	-1.7636036
9	0x3e6e1aeb	0.23252456

0.weight f4 [10, 1]
0	0x3938ca2f	0.00017622927
1	0xbed68dfc	-0.419052
2	0xbfcda313	-1.6065391
3	0x3f8950b2	1.0727751
4	0xbf210468	-0.6289735
5	0xbffaa8d3	-1.9582771
6	0x3f79adc8	0.97530794
7	0xbfeb3a38	-1.8377142
8	0x40032ad2	2.0494885
9	0x3ebcd702	0.36882788

0.bias f4 [10]
0	0xb9501f1b	-0.00019848013
1	0x3e00fd5a	0.12596646
2	0x3ef807f5	0.4844357
3	0xbea9c8d6	-0.33161038
4	0x3d99ce1b	0.075100146
5	0x3f8a1130	1.0786495
6	0xbe9ad66c	-0.30241716
7	0x3fb59652	1.4186499
8	0xbfcfe2cd	-1.6241089
9	0xbebc7a5b	-0.368121

2.weight f4 [1, 10]
0	0x3db082bd	0.08618686
1	0xbf01ff16	-0.50779855
2	0xbfc39702	-1.5280459
3	0xbf4d836f	-0.80278677
4	0x3ed607e9	0.4180291
5	0x4002bbd3	2.0427139
6	0xbf1d2fa5	-0.61400825
7	0xc00a415f	-2.16024
8	0xc010d676	-2.2630897
9	0x3e6e1aeb	0.23252456

0.weight f4 [10, 1]
0	0x3938ca2f	0.00017622927
1	0xbf125131	-0.5715514
2	0xc00501b1	-2.0782282
3	0x3f8d8e09	1.1058971
4	0xbf4190a8	-0.7561135
5	0xc02b69c6	-2.678331
6	0x3f80157b	1.0006555
7	0xc0144d53	-2.3172195
8	0x40124d89	2.2859824
9	0x3ebcd702	0.36882788

0.bias f4 [10]
0	0xb9501f1b	-0.00019848013
1	0x3e388c2e	0.18022224
2	0x3f276abc	0.6539724
3	0xbeb25832	-0.34832913
4	0x3db68f5f	0.089140646
5	0x3fbe49ff	1.4866332
6	0xbea17bc0	-0.31539726
7	0x3fe0ea31	1.757147
8	0xbfe5eee8	-1.7963533
9	0xbebc7a5b	-0.368121

2.weight f4 [1, 10]
0	0x3db082bd	0.08618686
1	0xbf266a1d	-0.65005666
2	0xc003c098	-2.05863
3	0xbf591f8c	-0.8481376
4	0x3f17f2c0	0.5935478
5	0x403a3b26	2.9098601
6	0xbf27ebee	-0.65594375
7	0xc030922f	-2.7589223
8	0xc025fd37	-2.59358
9	0x3e6e1aeb	0.23252456

0.weight f4 [10, 1]
0	0x3938ca2f	0.00017622927
1	0xbf352a8e	-0.7076806
2	0xc020d9cd	-2.5132935
3	0x3f909645	1.1295859
4	0xbf7763a9	-0.96636444
5	0xc04ea1f1	-3.228634
6	0x3f8260e1	1.0185815
7	0xc029860b	-2.6488063
8	0x40197433	2.3977172
9	0x3ebcd702	0.36882788

0.bias f4 [10]
0	0xb9501f1b	-0.00019848013
1	0x3e686f85	0.22698791
2	0x3f4ee0df	0.80811876
3	0xbebe2745	-0.37139335
4	0x3dfa4faa	0.12222226
5	0x3fe4963f	1.7858351
6	0xbeab50d0	-0.33460093
7	0x3fff9b5a	1.9969285
8	0xbff19c11	-1.8875753
9	0xbebc7a5b	-0.368121

2.weight f4 [1, 10]
0	0x3db082bd	0.08618686
1	0xbf4822af	-0.7817792
2	0xc022167f	-2.532623
3	0xbf629d9e	-0.88521755
4	0x3f5922bc	0.84818625
5	0x4062d8f0	3.5444908
6	0xbf309a7e	-0.68985736
7	0xc04a9584	-3.1653757
8	0xc0302bd9	-2.7526762
9	0x3e6e1aeb	0.23252456

0.weight f4 [10, 1]
0	0x3938ca2f	0.00017622927
1	0xbf4c6ec8	-0.7985654
2	0xc033d026	-2.8095794
3	0x3f93a27a	1.1533959
4	0xbfa59ec3	-1.2939075
5	0xc06519f4	-3.579709
6	0x3f84a4a2	1.0362742
7	0xc036f360	-2.8586044
8	0x401c16d6	2.4388938
9	0x3ebcd702	0.36882788

0.bias f4 [10]
0	0xb9501f1b	-0.00019848013
1	0x3e88ac33	0.26693878
2	0x3f6fe4fa	0.93708766
3	0xbecab5e7	-0.39591905
4	0x3e2eec93	0.17082433
5	0x3ffe32c4	1.9859242
6	0xbeb67638	-0.3563707
7	0x40077a9e	2.116859
8	0xbff52faa	-1.9155171
9	0xbebc7a5b	-0.368121

2.weight f4 [1, 10]
0	0x3db082bd	0.08618686
1	0xbf5f72c1	-0.87284476
2	0xc036bfbe	-2.855453
3	0xbf6c7aa5	-0.9237464
4	0x3f9b2a13	1.2122215
5	0x407c6ea3	3.9442527
6	0xbf3989a8	-0.7247567
7	0xc0595b97	-3.3962152
8	0xc0339983	-2.8062446
9	0x3e6e1aeb	0.23252456

0.weight f4 [10, 1]
0	0x3938ca2f	0.00017622927
1	0xbf5d8bad	-0.86541253
2	0xc041ce0d	-3.0282013
3	0x3f9529c1	1.1653367
4	0xbfdf1e73	-1.7431167
5	0xc07308d3	-3.7974136
6	0x3f85d9b4	1.0457063
7	0xc04083c0	-3.0080414
8	0x401c7130	2.4444084
9	0x3ebcd702	0.36882788

0.bias f4 [10]
0	0xb9501f1b	-0.00019848013
1	0x3e965823	0.29364118
2	0x3f83648b	1.0265058
3	0xbece647c	-0.40311038
4	0x3e650b76	0.22367653
5	0x40063a4a	2.0973077
6	0xbeb94048	-0.36181855
7	0x400cf1ba	2.2022538
8	0xbff7698b	-1.9329084
9	0xbebc7a5b	-0.368121

2.weight f4 [1, 10]
0	0x3db082bd	0.08618686
1	0xbf704878	-0.9386058
2	0xc045920a	-3.0870385
3	0xbf70b3cb	-0.9402434
4	0x3fd7eeb3	1.686972
5	0x4085aa22	4.177018
6	0xbf3d605c	-0.7397516
7	0xc063883a	-3.5551896
8	0xc03492b3	-2.8214538
9	0x3e6e1aeb	0.23252456

0.weight f4 [10, 1]
0	0x3938ca2f	0.00017622927
1	0xbf6be022	-0.92138875
2	0xc04d972d	-3.212352
3	0x3f96c399	1.1778442
4	0xc0120e3a	-2.2821183
5	0xc07b8177	-3.929777
6	0x3f871c16	1.0555446
7	0xc04657d7	-3.0991113
8	0x401c84cc	2.4456053
9	0x3ebcd702	0.36882788

0.bias f4 [10]
0	0xb9501f1b	-0.00019848013
1	0x3e9ebaf6	0.31002015
2	0x3f8a65d4	1.0812325
3	0xbed13545	-0.40860954
4	0x3e948e5d	0.29014865
5	0x4009cd4f	2.153156
6	0xbebb775c	-0.366145
7	0x40107de8	2.2576847
8	0xbff70f1a	-1.9301484
9	0xbebc7a5b	-0.368121

2.weight f4 [1, 10]
0	0x3db082bd	0.08618686
1	0xbf7e00ba	-0.9921986
2	0xc05197fd	-3.2749016
3	0xbf74f2e7	-0.9568314
4	0x400fa3d1	2.2443736
5	0x4089d920	4.3077545
6	0xbf413905	-0.7547763
7	0xc06994d1	-3.649708
8	0xc0346c6a	-2.819117
9	0x3e6e1aeb	0.23252456

0.weight f4 [10, 1]
0	0x3938ca2f	0.00017622927
1	0xbf78e2b3	-0.97220916
2	0xc0585581	-3.3802187
3	0x3f985686	1.1901405
4	0xc035ab14	-2.8385668
5	0xc0801e10	-4.0036697
6	0x3f885861	1.0651971
7	0xc04a0fe5	-3.1572201
8	0x401bfd07	2.4373186
9	0x3ebcd702	0.36882788

0.bias f4 [10]
0	0xb9501f1b	-0.00019848013
1	0x3ea2e938	0.31818557
2	0x3f8de207	1.1084603
3	0xbed5133a	-0.4161623
4	0x3eb5fbf6	0.35543793
5	0x400d2b70	2.2057762
6	0xbebe9559	-0.37223318
7	0x4011e836	2.279798
8	0xbff6f88c	-1.92946
9	0xbebc7a5b	-0.368121

2.weight f4 [1, 10]
0	0x3db082bd	0.08618686
1	0xbf851065	-1.0395628
2	0xc05c2d71	-3.4402735
3	0xbf795bfd	-0.9740599
4	0x40340918	2.813055
5	0x408c6d38	4.3883324
6	0xbf4534a7	-0.77033466
7	0xc06cccbd	-3.6999962
8	0xc033d63b	-2.8099506
9	0x3e6e1aeb	0.23252456

0.weight f4 [10, 1]
0	0x3938ca2f	0.00017622927
1	0xbf824ae7	-1.0179108
2	0xc06209b7	-3.531843
3	0x3f9a282d	1.2043511
4	0xc0540c08	-3.3132343
5	0xc081a0e9	-4.0508924
6	0x3f89c882	1.0764315
7	0xc04c4316	-3.1915946
8	0x401b8d14	2.4304857
9	0x3ebcd702	0.36882788

0.bias f4 [10]
0	0xb9501f1b	-0.00019848013
1	0x3ea7d244	0.32777607
2	0x3f91dbc1	1.1395189
3	0xbed7d909	-0.42157772
4	0x3ecfce7b	0.4058722
5	0x400e69eb	2.2252147
6	0xbec0c9d5	-0.37653986
7	0x4013738b	2.3039272
8	0xbff590c4	-1.9184804
9	0xbebc7a5b	-0.368121

2.weight f4 [1, 10]
0	0x3db082bd	0.08618686
1	0xbf8ab74c	-1.0837188
2	0xc06602ef	-3.593929
3	0xbf7e22c0	-0.99271774
4	0x4052e4ea	3.2952218
5	0x408dd7cb	4.432592
6	0xbf49819d	-0.787134
7	0xc06f1527	-3.735666
8	0xc032e22c	-2.7950544
9	0x3e6e1aeb	0.23252456
