q_relu_optim/ckpts/sgd/width20/seed308/ckpt_and_history.pt (torch, 15999 bytes, 33 tensors)

0.weight f4 [20, 1]
000000 08 1e e0 be 08 ed 9e bc d6 c9 02 3d b0 ee 12 3f
       -0.43772912 -0.019400135 0.031930767 0.5739546
000010 56 6e 20 3e b1 4a 37 3f 25 49 09 bf e1 f2 f5 be
       0.1566709 0.71598345 -0.53627235 -0.48036864
000020 82 3f 44 bf 37 b2 4f bf 97 f3 4d 3f d6 22 0b 3c
       -0.76659405 -0.8113131 0.80449814 0.008492192
000030 eb 00 73 bf d9 65 1a bf d9 eb 97 3e a1 f1 16 bf
       -0.94923276 -0.6031166 0.29672125 -0.58962446
000040 59 4a b4 3e 6b af 43 bf 9a 56 78 bf c1 3b f5 be
       0.35212973 -0.7643954 -0.97007143 -0.4789715

0.bias f4 [20]
000000 59 4e 18 3c ed bc 16 3a 9d 09 b3 ba df 9b 50 bd
       0.009296023 0.0005750198 -0.0013659481 -0.0509299
000010 f3 15 5c bc e1 44 8d bd 0e 69 71 3d 2f ac 5f 3d
       -0.0134329675 -0.06897903 0.05893808 0.054607566
000020 78 de b5 3d cb d5 fa 3d 56 48 07 be a7 30 42 ba
       0.08880323 0.12247809 -0.13211188 -0.00074077625
000030 5d d7 4f 3e a9 4d 15 3e 32 5a 97 bd 5f f6 3e 3e
       0.20296998 0.14580406 -0.0739025 0.1864867
000040 84 38 18 be 72 7a af 3e 08 a6 02 3f 95 47 82 3e
       -0.14865309 0.34273106 0.51034594 0.25445238

2.weight f4 [1, 20]
000000 bd 09 ec bc a9 83 27 be 93 bb 44 bd 2b 0f ab bd
       -0.028813237 -0.16358818 -0.048030447 -0.083525024
000010 77 08 ba 3d eb 69 b2 bd 81 e4 44 3e 93 ef ce 3d
       0.09083646 -0.087116085 0.19227792 0.10104289
000020 4f 40 18 3e 50 3e de 3d 7f f8 b4 bc d0 39 b4 3d
       0.14868282 0.10851729 -0.022091148 0.08800089
000030 ad 50 ba 3d 67 1c e1 bd 33 1d 07 be b2 96 ee bc
       0.09097419 -0.109917454 -0.13194732 -0.029124591
000040 64 57 64 bd 5a 98 34 3d f1 94 50 be a7 5f 00 be
       -0.055747405 0.044090606 -0.20369317 -0.12536488

0.weight f4 [20, 1]
000000 b6 21 e0 be 22 4a 04 be be 34 76 3d 8e c1 18 3f
       -0.4377572 -0.12918904 0.060108893 0.5967034
000010 01 9a 49 3e 44 2e 3b 3f 75 d0 11 bf 3b c6 ff be
       0.19687654 0.7311747 -0.56958705 -0.49955925
000020 ca 9e 4b bf 97 fc 55 bf 61 0c 4c 3f b8 fd ec 3c
       -0.7953917 -0.83588547 0.7970639 0.028929576
000030 e7 01 77 bf 13 43 4e bf b7 70 d1 3e 03 8a 40 bf
       -0.9648728 -0.805711 0.40906307 -0.7521059
000040 ad 26 e7 3e a6 d8 6f bf 12 a4 b3 bf d9 51 36 bf
       0.45146695 -0.93689954 -1.4034445 -0.7121864

0.bias f4 [20]
000000 9b 70 4c 38 cf 42 23 3d e2 8e 9e bc ef c9 41 be
       4.8742262e-05 0.039858636 -0.019355241 -0.18924688
000010 cc 64 b9 bc 3e 11 6d be cd cc 8f 3d 44 09 7b 3d
       -0.022631072 -0.23151109 0.070214845 0.061288133
000020 ee c1 c7 3d 2f 9f d0 3d d4 05 81 be 84 db e4 3c
       0.09753786 0.10186612 -0.2519976 0.027936704
000030 72 7e f1 3d c0 4b 80 3e 3c c0 05 be 70 e6 6e 3e
       0.11791696 0.25057793 -0.13061613 0.23330092
000040 9d 4e 13 be b2 20 94 3e 13 69 df 3e dc dd 62 3e
       -0.14385457 0.28931195 0.43634853 0.22154945

2.weight f4 [1, 20]
000000 10 2f e3 bc d4 ad 57 be 5a 59 92 bd 6a c1 84 be
       -0.027732402 -0.21062404 -0.07145949 -0.25928813
000010 90 40 19 3e 12 95 90 be 29 60 8c 3e dc a4 30 3e
       0.14966035 -0.28238732 0.27417114 0.17250389
000020 db 24 86 3e f3 5f 5f 3e 39 be 47 be e1 13 c1 3d
       0.26199993 0.21813945 -0.19506158 0.0942762
000030 5f 36 d6 3d eb c8 14 bf 42 8a a6 be 94 a8 f9 be
       0.10459589 -0.58119076 -0.32527357 -0.48761427
000040 50 03 91 be c8 ce 02 bf 5b 89 7f bf 02 ae 06 bf
       -0.2832284 -0.51096773 -0.9981896 -0.52609265

0.weight f4 [20, 1]
000000 b6 21 e0 be 4f 22 17 be 59 d6 83 3d ff f7 1c 3f
       -0.4377572 -0.14759181 0.06437368 0.6131591
000010 fe e7 81 3e 89 d7 3f 3f ed a8 2b bf c0 93 11 bf
       0.25372308 0.74938256 -0.67054635 -0.56866074
000020 61 dc 66 bf 7c 6d 6e bf c8 94 4f 3f d1 e4 02 3d
       -0.9018002 -0.9313581 0.810864 0.031956498
000030 4c 41 84 bf e3 2c 5c bf 27 5d db 3e e4 58 4c bf
       -1.0332427 -0.8600599 0.42844507 -0.79823136
000040 72 f4 ef 3e b8 66 7c bf 89 9e bf bf 4b e6 42 bf
       0.46866184 -0.98594236 -1.4970256 -0.7613265

0.bias f4 [20]
000000 9b 70 4c 38 bb eb 34 3d 62 23 a6 bc 83 03 3e be
       4.8742262e-05 0.044170123 -0.020280544 -0.18556027
000010 2a 3e eb bc fc ae 67 be f1 37 ad 3d f0 69 93 3d
       -0.028716166 -0.22625345 0.084579356 0.0719794
000020 de cf e9 3d 06 fe f0 3d d6 78 79 be 72 5f f0 3c
       0.11416601 0.11767201 -0.24362502 0.029342387
000030 a4 1a 05 3e 1d c6 82 3e 6e 94 07 be c1 3a 72 3e
       0.12998444 0.25541773 -0.13240215 0.23655225
000040 35 e5 12 be 88 a1 95 3e 91 60 e3 3e ac 53 67 3e
       -0.14345248 0.292248 0.44409612 0.22590512

2.weight f4 [1, 20]
000000 10 2f e3 bc 2d e8 63 be 1a 60 97 bd 7c 7e 94 be
       -0.027732402 -0.22256537 -0.07391377 -0.2900275
000010 51 b6 5e 3e c3 25 a4 be cc 38 e6 3e 81 c1 a5 3e
       0.21749236 -0.3206006 0.44965208 0.32374194
000020 c4 96 00 3f d1 d4 ef 3e 8b 4d 74 be e6 29 c0 3d
       0.5023005 0.46842054 -0.23857705 0.093829915
000030 50 8b c6 3e d1 97 27 bf 71 35 b0 be c9 5d 0e bf
       0.38778162 -0.6546603 -0.34415773 -0.55611855
000040 46 3d 9c be 2b 9e 18 bf 69 25 90 bf dd 4e 17 bf
       -0.30515498 -0.59616345 -1.1261417 -0.5910471

0.weight f4 [20, 1]
000000 b6 21 e0 be 69 0b 25 be c5 22 8b 3d 8f 50 20 3f
       -0.4377572 -0.16117634 0.06793741 0.6262292
000010 59 17 a6 3e 89 8c 43 3f f1 72 50 bf c8 d9 2c bf
       0.32439688 0.76386315 -0.81425387 -0.6751981
000020 ea ad 88 bf d3 70 8b bf 49 55 52 3f ba 08 09 3d
       -1.0678074 -1.0893806 0.82161385 0.033455588
000030 c3 2f 96 bf 32 9e 66 bf 04 94 e3 3e ad 3b 55 bf
       -1.1733326 -0.90085137 0.44448864 -0.83294183
000040 8f 16 f7 3e 46 05 83 bf c4 95 c8 bf 9c 4d 4c bf
       0.48259398 -1.0235984 -1.5670705 -0.7980592

0.bias f4 [20]
000000 9b 70 4c 38 3b 6a 40 3d 2d cc aa bc 2d aa 3f be
       4.8742262e-05 0.04697631 -0.020849312 -0.1871726
000010 7b 9c 1f bd 10 01 69 be ea 38 d4 3d b5 c6 af 3d
       -0.03896759 -0.22754312 0.10362418 0.08582822
000020 c0 d7 0a 3e be 52 0d 3e 19 5f 79 be 73 04 fd 3c
       0.13558865 0.13801095 -0.24352683 0.03088591
000030 0d c3 17 3e bc 80 86 3e 28 f6 09 be 01 c4 78 3e
       0.148205 0.26270092 -0.13472807 0.2429352
000040 76 29 15 be 2a bd 98 3e d9 15 ea 3e 32 53 6e 3e
       -0.14566597 0.2983182 0.45719793 0.23273924

2.weight f4 [1, 20]
000000 10 2f e3 bc 6e 5e 6d be 60 3d 9b bd 5b 11 a1 be
       -0.027732402 -0.23180553 -0.07580066 -0.31458554
000010 22 b9 96 3e 80 d1 b3 be 3d 94 25 3f c0 57 fa 3e
       0.2943812 -0.35120773 0.6467932 0.48895073
000020 74 8f 43 3f 74 a3 3c 3f 0c 15 8c be 85 b7 be 3d
       0.7639077 0.7368691 -0.27359807 0.09312347
000030 91 58 2e 3f 6e 63 35 bf 99 c9 b7 be 15 2c 1b bf
       0.6810389 -0.7085484 -0.35895994 -0.6061414
000040 19 21 a5 be a3 70 28 bf 7e 27 9c bf ef 84 23 bf
       -0.32251814 -0.6579687 -1.2199552 -0.63874716

0.weight f4 [20, 1]
000000 b6 21 e0 be 10 7a 34 be 6a 52 90 3d 8e c0 22 3f
       -0.4377572 -0.17624688 0.07046969 0.63575065
000010 1b 41 d2 3e 94 34 46 3f 22 f6 7a bf 49 60 4d bf
       0.41065297 0.7742398 -0.9803182 -0.80225044
000020 da 1d a2 bf 2a 2b a4 bf d3 4b 54 3f 74 42 15 3d
       -1.266536 -1.2825673 0.829282 0.036440328
000030 16 94 ad bf e7 b3 72 bf 00 70 e9 3e 3b 9f 5f bf
       -1.3560817 -0.9480576 0.45593262 -0.8735234
000040 77 48 fc 3e 63 b2 88 bf 8c 00 d3 bf eb 30 57 bf
       0.49274036 -1.0679439 -1.6484542 -0.8405902

0.bias f4 [20]
000000 9b 70 4c 38 fc 80 4c 3d e0 77 aa bc e1 ab 3e be
       4.8742262e-05 0.049927697 -0.020809114 -0.18620254
000010 e6 8f 3a bd 23 42 68 be 62 70 f8 3d 25 43 cb 3d
       -0.04554739 -0.22681479 0.1213081 0.09924916
000020 55 14 21 3e 4b fe 22 3e d1 9b 78 be 54 f1 ff 3c
       0.15730412 0.15917318 -0.24278189 0.031243004
000030 40 49 2c 3e 06 5e 8a 3e e6 7f 09 be d0 19 7f 3e
       0.16824818 0.2702486 -0.13427696 0.2491219
000040 be 32 14 be 26 14 9c 3e 06 96 f0 3e ea 45 75 3e
       -0.14472482 0.30484122 0.4698946 0.23952451

2.weight f4 [1, 20]
000000 10 2f e3 bc 9d 7b 78 be 6d d2 9c bd fb 4b a8 be
       -0.027732402 -0.24265905 -0.07657323 -0.32870468
000010 1e 04 c4 3e 48 f4 bc be 1e 18 59 3f ce 97 27 3f
       0.3828439 -0.36905122 0.84802425 0.6546601
000020 39 4b 83 3f 83 60 80 3f c0 f2 96 be 33 b8 bd 3d
       1.0257331 1.0029453 -0.2948208 0.09263649
000030 3f 02 77 3f 48 da 44 bf 93 9f bb be 2f 77 29 bf
       0.964878 -0.7689557 -0.36645183 -0.66197485
000040 a9 eb a9 be d0 fe 39 bf 75 9a a9 bf 15 38 31 bf
       -0.33187607 -0.7265444 -1.3250262 -0.692262

0.weight f4 [20, 1]
000000 b6 21 e0 be bb f6 44 be 36 e8 98 3d 01 4a 27 3f
       -0.4377572 -0.19234745 0.07466166 0.65347296
000010 88 eb f9 3e 78 4e 4b 3f f9 82 92 bf 29 07 6e bf
       0.4881251 0.7941661 -1.144622 -0.92979676
000020 73 b9 bb bf 8b 4b bd bf fa 66 58 3f 6c 1f 18 3d
       -1.466597 -1.4788679 0.8453213 0.03713934
000030 82 ff c5 bf f2 0f 80 bf 67 97 f3 3e e3 38 6b bf
       -1.54686 -1.0004866 0.47576448 -0.9188368
000040 9e ba 02 3f e6 20 8f bf 22 91 de bf 64 43 63 bf
       0.51066005 -1.1181915 -1.7388041 -0.88774705

0.bias f4 [20]
000000 9b 70 4c 38 55 b0 5d 3d eb 2c aa bc d9 be 3c be
       4.8742262e-05 0.05412324 -0.020773372 -0.18432178
000010 49 5e 71 bd c1 b1 65 be 71 6a 0c 3e 83 5f e4 3d
       -0.058927808 -0.22431089 0.13712479 0.1115103
000020 96 25 34 3e b7 b3 35 3e 86 3c 75 be 0d 23 f2 3c
       0.17592463 0.17744337 -0.23948869 0.02955773
000030 b9 33 3e 3e b7 26 90 3e 91 9c 08 be d4 6f 84 3e
       0.18574418 0.28154537 -0.13340975 0.25866568
000040 13 f4 12 be e5 f9 a0 3e a6 95 fa 3e b3 b8 7f 3e
       -0.1435092 0.31440654 0.48942298 0.24972801

2.weight f4 [1, 20]
000000 10 2f e3 bc 38 a0 82 be 41 e3 a1 bd 0b ac b6 be
       -0.027732402 -0.25512862 -0.07904673 -0.35678133
000010 80 b0 eb 3e 9d b8 ce be 8a 78 84 3f c7 99 4e 3f
       0.46033096 -0.40375224 1.0349286 0.80703396
000020 51 12 a2 3f e1 79 9f 3f ab d5 aa be cb 0d ba 3d
       1.266184 1.245907 -0.3336614 0.09084662
000030 99 34 9c 3f f4 e2 55 bf 64 d4 c4 be e3 25 39 bf
       1.2203552 -0.8354943 -0.3844329 -0.72323436
000040 7d 67 b4 be 71 26 4d bf f2 68 b8 bf fc 52 40 bf
       -0.35235205 -0.8013678 -1.4407027 -0.75126624

0.weight f4 [20, 1]
000000 b6 21 e0 be c6 f9 51 be e6 99 9d 3d 7c dd 29 3f
       -0.4377572 -0.20505437 0.076953694 0.66353583
000010 3f dd 0f 3f cb 37 4e 3f d8 57 a5 bf 8b be 85 bf
       0.5619697 0.80553883 -1.2917433 -1.0448774
000020 7a d8 d2 bf 5b 17 d4 bf 8f c9 5a 3f ff 4a 1e 3d
       -1.6472313 -1.6569628 0.85463804 0.03864574
000030 ca 71 dc bf 20 7a 85 bf 31 3d f9 3e 10 9e 74 bf
       -1.7222226 -1.0427895 0.48679498 -0.95553684
000040 bc 4c 05 3f cb 56 94 bf b0 e7 e7 bf ec fa 6c bf
       0.5207021 -1.1588987 -1.811758 -0.92570376

0.bias f4 [20]
000000 9b 70 4c 38 a0 23 68 3d 5d ac b1 bc c0 26 3e be
       4.8742262e-05 0.0566746 -0.021688635 -0.1856947
000010 5b cd 7c bd 9a dd 66 be 7a 35 16 3e ea 2f f3 3d
       -0.06171928 -0.22545472 0.14668837 0.11874373
000020 c3 a2 3f 3e 61 b4 40 3e 2f f7 74 be 4c 75 f5 3c
       0.18714432 0.18818809 -0.23922418 0.029963158
000030 d2 7f 48 3e a6 ff 93 3e d4 cc 0b be c5 bf 87 3e
       0.1958001 0.28905982 -0.13652354 0.26513496
000040 e7 43 15 be 93 ca a4 3e dd 9e 00 3f 92 73 83 3e
       -0.14576684 0.32185802 0.50242406 0.2567411

2.weight f4 [1, 20]
000000 10 2f e3 bc 6a c1 87 be 5b a2 a3 bd 30 d2 bd be
       -0.027732402 -0.2651475 -0.07989951 -0.37074423
000010 f5 bf 07 3f e6 b7 d7 be 9d 1f 99 3f 33 15 70 3f
       0.5302728 -0.4213249 1.1962773 0.9378235
000020 6d 78 bc 3f 1b 10 ba 3f c3 68 b5 be 08 63 b8 3d
       1.4724251 1.4536165 -0.3543149 0.09003264
000030 38 ed b7 3f a4 2d 63 bf 89 c6 c8 be fe 59 45 bf
       1.4369268 -0.8874152 -0.3921397 -0.7709044
000040 9b 3e b9 be fe fd 5b bf d0 f5 c3 bf 98 1e 4c bf
       -0.36180577 -0.85934436 -1.5309391 -0.7973418

0.weight f4 [20, 1]
000000 b6 21 e0 be b7 b3 5c be 75 46 a1 3d 96 e0 2b 3f
       -0.4377572 -0.21552931 0.07874767 0.67139566
000010 f8 f2 1e 3f 29 84 50 3f 06 cd b4 bf ad e1 91 bf
       0.6208949 0.8145166 -1.4125068 -1.1396996
000020 a8 e7 e5 bf c8 ec e6 bf 39 b0 5c 3f f5 47 21 3d
       -1.7961321 -1.804101 0.86206394 0.039375264
000030 ea 1c ef bf 9d 0c 8a bf 12 90 fd 3e 28 98 7c bf
       -1.8680699 -1.0785099 0.4952398 -0.9866967
000040 f7 43 07 3f 60 cb 98 bf 40 cc ef bf 15 38 75 bf
       0.5283808 -1.1937065 -1.8734207 -0.957887

0.bias f4 [20]
000000 9b 70 4c 38 b1 0c 6e 3d dd 55 b4 bc 63 81 3d be
       4.8742262e-05 0.058117572 -0.022013599 -0.18506388
000010 87 53 8c bd 8b 79 65 be f3 95 1e 3e f8 25 00 3e
       -0.06851869 -0.22409646 0.15486889 0.12514484
000020 6a f5 49 3e 40 ef 4a 3e 79 9b 72 be 0b 8e ea 3c
       0.19722524 0.19817829 -0.2369212 0.028632184
000030 1c 99 52 3e f6 be 95 3e 65 2a 0d be b1 19 89 3e
       0.20566219 0.29247254 -0.13785703 0.26777413
000040 e2 07 16 be 9d 4a a6 3e 12 19 02 3f ce d6 84 3e
       -0.14651445 0.324788 0.50819504 0.25945133

2.weight f4 [1, 20]
000000 10 2f e3 bc b9 07 8c be f3 37 a4 bd b5 25 c2 be
       -0.027732402 -0.27349642 -0.08018484 -0.37919393
000010 62 b2 15 3f 4d 42 dd be dc c6 a9 3f d4 7e 85 3f
       0.58475316 -0.43214646 1.3263812 1.042933
000020 56 ad d1 3f 39 61 cf 3f 1d 36 bc be 00 36 b5 3d
       1.6381023 1.6201545 -0.36760035 0.0884819
000030 c3 0a ce 3f 2f 04 6e bf 7f cc ca be df 47 4f bf
       1.6097034 -0.92975134 -0.39609143 -0.8096904
000040 6b f5 bb be 6f 07 68 bf 11 60 cd bf f6 bd 55 bf
       -0.36710677 -0.9063634 -1.6044942 -0.8349298

0.weight f4 [20, 1]
000000 b6 21 e0 be eb f1 65 be 95 d3 a7 3d 58 7d 2f 3f
       -0.4377572 -0.22455566 0.08194653 0.68550634
000010 92 c3 27 3f 8c 93 54 3f 9c c8 c0 bf be 50 9b bf
       0.6553279 0.8303764 -1.5061221 -1.2134016
000020 82 b9 f4 bf 9e 97 f5 bf f1 12 60 3f fd 42 1d 3d
       -1.9119112 -1.9186895 0.875289 0.038393963
000030 a0 b7 fd bf c8 0b 8e bf 87 bf 02 3f 16 cb 81 bf
       -1.9821663 -1.1097345 0.510735 -1.0140102
000040 20 e6 0a 3f ab be 9c bf 64 b5 f6 bf 8b 61 7c bf
       0.5425739 -1.2245687 -1.9274106 -0.9858634

0.bias f4 [20]
000000 9b 70 4c 38 83 fd 77 3d 12 18 b6 bc 5b d1 3e be
       4.8742262e-05 0.060544502 -0.022228274 -0.1863455
000010 91 46 98 bd e6 56 67 be bb e2 27 3e ef 38 07 3e
       -0.074353345 -0.22591743 0.16395085 0.13205312
000020 51 12 55 3e 99 c7 55 3e 07 c6 73 be 1f b1 e6 3c
       0.20807768 0.20876922 -0.2380601 0.02816063
000030 ea c4 5c 3e 71 57 99 3e 91 f0 0d be ee 0d 8c 3e
       0.21559492 0.29949525 -0.138613 0.27354378
000040 da 82 16 be 10 28 a9 3e fd 1b 05 3f 79 2d 88 3e
       -0.14698353 0.33038378 0.5199583 0.26597193

2.weight f4 [1, 20]
000000 10 2f e3 bc 8d ec 8f be 31 97 a7 bd 56 38 cc be
       -0.027732402 -0.2811016 -0.08183134 -0.3988673
000010 de c0 1c 3f 71 bd e9 be 5e 97 b6 3f d0 d3 8f 3f
       0.6123179 -0.45652345 1.4264944 1.1236515
000020 6b f5 e1 3f 03 ba df 3f 1b 49 ca be 2f 14 b1 3d
       1.7653021 1.7478641 -0.395089 0.08646428
000030 f9 f2 de 3f d1 ba 77 bf 62 20 d1 be 18 2a 58 bf
       1.7417899 -0.96769434 -0.4084502 -0.8443923
000040 35 3a c3 be d8 c5 72 bf cf cf d5 bf 5c 5e 5e bf
       -0.38130346 -0.94833136 -1.6704043 -0.8686273

0.weight f4 [20, 1]
000000 b6 21 e0 be 1c 42 6d be a3 27 ac 3d 80 fb 31 3f
       -0.4377572 -0.2316975 0.084059976 0.69524384
000010 a9 4f 2e 3f d6 6e 57 3f 13 96 c9 bf ab 40 a2 bf
       0.680903 0.841535 -1.5748924 -1.2675985
000020 de 9f ff bf 9d 31 00 c0 4d 7c 62 3f a2 10 1b 3d
       -1.9970663 -2.0030282 0.8847092 0.03785766
000030 25 3e 04 c0 12 42 91 bf a3 60 05 3f 48 99 84 bf
       -2.066293 -1.1348288 0.5210058 -1.0359278
000040 30 4d 0d 3f 66 ea 9f bf 84 40 fc bf 65 11 81 bf
       0.55195904 -1.2493408 -1.9707189 -1.0083433

0.bias f4 [20]
000000 9b 70 4c 38 06 33 7e 3d 02 57 b1 bc c1 54 3a be
       4.8742262e-05 0.06206038 -0.021647934 -0.18196394
000010 20 19 ae bd ad b9 61 be db 97 2c 3e e8 ee 0a 3e
       -0.08500886 -0.22043486 0.16854803 0.13567698
000020 e5 e1 5a 3e 56 8d 5b 3e 48 46 6e be 25 16 db 3c
       0.21375234 0.21440634 -0.23268998 0.026743958
000030 38 83 62 3e 52 3c 9b 3e eb 6c 0a be 72 b3 8d 3e
       0.22120368 0.30319458 -0.13518111 0.27675968
000040 73 29 13 be 57 c4 aa 3e 80 c2 06 3f ed f6 89 3e
       -0.1437128 0.3335292 0.52640533 0.26946202

2.weight f4 [1, 20]
000000 10 2f e3 bc 47 01 93 be 99 92 a8 bd 93 f2 d0 be
       -0.027732402 -0.28711912 -0.08231086 -0.4081007
000010 37 9d 21 3f 46 bc ef be 03 ea bf 3f 9d 55 97 3f
       0.63130516 -0.4682333 1.499329 1.1823002
000020 6e c9 ed 3f df 97 eb 3f f6 6c d1 be 7c f1 ac 3d
       1.8577096 1.8405722 -0.40903443 0.08444497
000030 23 33 eb 3f 29 52 7f bf 45 97 d3 be 5c 19 5f bf
       1.8374981 -0.9973474 -0.41326347 -0.8714807
000040 07 56 c6 be c9 24 7b bf 3a 67 dc bf ea 1c 65 bf
       -0.3873751 -0.98103005 -1.7219002 -0.89497244

0.weight f4 [20, 1]
000000 b6 21 e0 be 79 73 72 be 85 1a ab 3d 78 15 31 3f
       -0.4377572 -0.23676862 0.083546676 0.69173384
000010 60 82 36 3f 4a 5b 56 3f 57 cd cf bf fb 27 a7 bf
       0.71292686 0.83733046 -1.623454 -1.3059076
000020 18 aa 03 c0 f8 02 04 c0 b6 70 61 3f d1 31 21 3d
       -2.0572567 -2.0626812 0.8806261 0.03935415
000030 6c 0e 08 c0 4c 84 93 bf eb 99 04 3f 6b 94 86 bf
       -2.1258802 -1.1524749 0.5179736 -1.0514044
000040 cb 84 0c 3f 41 25 a2 bf a6 13 00 c0 ab 18 83 bf
       0.54890126 -1.2667619 -2.0011992 -1.0241903

0.bias f4 [20]
000000 9b 70 4c 38 c2 eb 81 3d 44 95 cd bc 3e b5 4b be
       4.8742262e-05 0.06343795 -0.02509559 -0.19893357
000010 75 e3 77 bd 89 d3 75 be f2 cc 2e 3e ab ac 0c 3e
       -0.060519654 -0.24006476 0.17070368 0.13737743
000020 41 9e 5d 3e 5a 43 5e 3e c9 b8 7f be f2 c6 f3 3c
       0.216424 0.2170538 -0.24972834 0.02975795
000030 63 38 65 3e 19 bb 9d 3e 1e 52 1c be d4 c9 8f 3e
       0.22384791 0.30806807 -0.152657 0.2808367
000040 99 f3 23 be 7e 25 ad 3e df e7 08 3f 4e 2d 8c 3e
       -0.16010894 0.33817667 0.5347881 0.27378315

2.weight f4 [1, 20]
000000 10 2f e3 bc d4 3e 95 be 34 2d a6 bd d4 e0 ce be
       -0.027732402 -0.29149497 -0.081140906 -0.40405905
000010 51 0b 27 3f 78 82 ed be b6 74 c6 3f 41 99 9c 3f
       0.6525164 -0.46388602 1.5504367 1.2234269
000020 8e 14 f6 3f e6 e8 f3 3f c2 fc cf be 5e 8c ad 3d
       1.9225023 1.905545 -0.40622526 0.084740385
000030 83 c6 f3 3f 48 66 82 bf e7 e4 d0 be 6a 19 64 bf
       1.9044956 -1.0187464 -0.4079964 -0.8910128
000040 33 05 c4 be 15 96 80 bf fe 28 e1 bf 27 fb 69 bf
       -0.38285217 -1.0045801 -1.7590635 -0.91398853
