dis/dis03/code/ckpts/adam/width40/seed308/ckpt_and_history.pt (torch, 18111 bytes, 33 tensors)

0.weight f4 [40, 1]
0.78837955 -0.41730067 -0.52612203 -0.78291476 0.8510459 -0.8378267 -0.043535262 -0.9369724
0.106942385 -0.25116357 -0.6735335 0.62925303 0.7519613 -0.008307686 0.4972687 0.0076119956
-0.64436686 0.61844826 -0.8571573 0.83124197 -0.7924876 -0.7938746 0.78647375 -0.21721491
-0.43873137 -0.23059735 -0.89593375 -0.20232186 -0.10511649 -0.52574915 -0.08300793 -0.101905845
0.93408525 -0.19635603 -0.09595816 -0.4257463 0.36250588 -0.2038559 -0.650501 -0.055842236
00000000: 3ed3 493f 6fa8 d5be efaf 06bf 1a6d 48bf
00000010: 25de 593f d07b 56bf 0852 32bd 6cdd 6fbf
00000020: 9c04 db3d 8398 80be b16c 2cbf ba16 213f
00000030: 8980 403f f61c 08bc 019a fe3e 0c6e f93b
00000040: 3af5 24bf a052 1e3f a96e 5bbf 46cc 543f
00000050: 78e0 4abf 5e3b 4bbf 5856 493f 966d 5ebe
00000060: 66a1 e0be b621 6cbe ea5b 65bf 762d 4fbe
00000070: 5047 d7bd 7f97 06bf 1000 aabd 03b4 d0bd
00000080: 3620 6f3f 8e11 49be b685 c4bd 6bfb d9be
00000090: 5f9a b93e 9abf 50be 3c87 26bf d4ba 64bd

0.bias f4 [40]
0.019268459 -0.007419563 -0.0012390725 0.09285639 -0.059100963 0.1089223 0.02992812 0.14014485
-0.002910059 0.02747345 0.18602504 -0.18757272 -0.19598028 0.027967848 -0.1839611 -0.029183138
0.22644126 -0.2022419 0.34338194 -0.29637492 0.3291795 0.32117394 -0.3172272 0.09920498
0.2657636 0.09976485 0.4800079 0.08800258 0.032412972 0.31671333 0.09141084 0.039383806
-0.7433697 0.15495405 0.07885101 0.35573158 -0.3406896 0.17259859 0.5815744 0.054432385
00000000: e3d8 9d3c ce1f f3bb 6068 a2ba 7e2b be3d
00000010: da13 72bd a812 df3d d12b f53c 2282 0f3e
00000020: b0b6 3ebb 0010 e13c 597d 3e3e 1013 40be
00000030: 0eaf 48be d41c e53c 4c60 3cbe 7a11 efbc
00000040: 38e0 673e 8018 4fbe c2cf af3e 74be 97be
00000050: 378a a83e e970 a43e 9b6b a2be fb2b cb3d
00000060: 2b12 883e 8451 cc3d 98c3 f53e b23a b43d
00000070: 77c3 043d 4028 a23e 9b35 bb3d ea50 213d
00000080: 7a4d 3ebf 46ac 1e3e a37c a13d 7322 b63e
00000090: de6e aebe afbd 303e 0fe2 143f 7ef4 5e3d

2.weight f4 [1, 40]
-0.05640138 0.13806514 0.058870085 -0.091859475 -0.12017724 -0.123971544 -0.1703094 0.13019495
0.07536995 0.08498857 -0.114307374 -0.0674486 0.063759044 -0.03293628 0.058175117 0.10252356
0.13305059 -0.04087377 -0.1261024 -0.02112177 -0.16543283 -0.016293315 -0.094772086 0.015945656
-0.0322312 -0.00037208758 0.119432375 0.047710277 0.13391566 -0.014712913 -0.15831129 -0.010491012
-0.013923263 -0.15378895 -0.02519797 -0.10388903 -0.0028115325 0.042277582 -0.09077171 -0.034663256
00000000: 2205 67bd f360 0d3e c221 713d d220 bcbd
00000010: 7c1f f6bd cbe4 fdbd 9665 2ebe d351 053e
00000020: 8f5b 9a3d 7d0e ae3d fc19 eabd 7e22 8abd
00000030: 1a94 823d 31e8 06bd 0849 6e3d dff7 d13d
00000040: 6a3e 083e 416b 27bd fd20 01be 9007 adbc
00000050: 3967 29be 8f79 85bc de17 c2bd 77a0 823c
00000060: dd04 04bd c014 c3b9 f698 f43d da6b 433d
00000070: 3021 093e 6e0e 71bc 5b1c 22be 7ee2 2bbc
00000080: 661e 64bc da7a 1dbe f96b cebc c6c3 d4bd
00000090: b041 38bb 422b 2d3d 85e6 b9bd 0ffb 0dbd

0.weight f4 [40, 1]
0.92109954 -0.51738834 -0.6261875 -1.9082133 1.3332056 -1.7884103 -0.15697496 -5.297954
0.048214696 -0.36271024 -2.0015602 0.9166082 1.1354271 -0.10403092 0.41779086 -0.092497714
-2.61188 1.0936434 -2.2801466 1.1982512 -2.1891484 -2.2199068 0.657931 -0.42876866
-1.5412632 -0.54656625 -3.4030561 -0.39067158 -0.18829723 -1.8285557 -0.19286442 -0.4022337
1.9861823 -1.2026839 -0.3591265 -1.5985715 0.28373712 -0.14389518 -1.8795623 -0.15335612
00000000: 2ecd 6b3f 9073 04bf d34d 20bf 5540 f4bf
00000010: 7ba6 aa3f a1ea e4bf 0bbe 20be d788 a9c0
00000020: c67c 453d 28b5 b9be 9019 00c0 d6a6 6a3f
00000030: ad55 913f 2a0e d5bd afe8 d53e 716f bdbd
00000040: 0b29 27c0 82fc 8b3f eced 11c0 4c60 993f
00000050: 021b 0cc0 f412 0ec0 2b6e 283f 9187 dbbe
00000060: 1d48 c5bf c4eb 0bbf accb 59c0 1b06 c8be
00000070: fdd0 40be 1d0e eabf 407e 45be 93f1 cdbe
00000080: 393b fe3f 8cf1 99bf 6edf b7be fe9d ccbf
00000090: fe45 913e 4259 13be 7f95 f0bf 6309 1dbe

0.bias f4 [40]
-0.18786359 -0.10752916 -0.10134817 0.5868787 -0.8174959 0.70275736 -0.026863774 0.5402528
-0.067513436 -0.08734733 0.61524904 -0.5669248 -0.23031493 -0.053639866 -0.46135032 -0.12929283
1.5276529 -0.671506 0.70084906 -0.73559237 0.67232794 0.6830502 -0.41287038 -0.04573037
1.0671276 -0.056419887 1.7101024 -0.09417886 -0.10228815 0.7192976 -0.018207794 -0.043377988
-1.5155295 0.46659678 -0.06268773 1.1069417 -0.41928035 0.06941962 1.3045399 -0.020236343
00000000: 505f 40be 4038 dcbd a18f cfbd af3d 163f
00000010: 6947 51bf e8e7 333f 6b11 dcbc 024e 0a3f
00000020: 7c44 8abd 28e3 b2bd f680 1d3f fc21 11bf
00000030: add7 6bbe 7ab5 5bbd 1c36 ecbe 5765 04be
00000040: 218a c33f d1e7 2bbf d86a 333f c84f 3cbf
00000050: af1d 2c3f 61dc 2e3f bf63 d3be c54f 3bbd
00000060: a397 883f 8a18 67bd a3e4 da3f d9e0 c0bd
00000070: 737c d1bd e323 383f 8328 95bc 1ead 31bd
00000080: dffc c1bf c6e5 ee3e 6d62 80bd 44b0 8d3f
00000090: eaab d6be e02b 8e3d 2afb a63f b0c6 a5bc

2.weight f4 [1, 40]
0.25689858 0.037974216 -0.04123027 -1.4675298 0.574658 -1.5790273 -0.08799351 3.6306865
0.02554148 -0.022932839 -1.471793 0.20357089 0.38906547 0.06123777 -0.2624755 0.0024162505
3.4336624 0.40460882 -1.49224 0.3819807 -1.5138876 -1.3321651 0.04235722 -0.07679763
-1.8405274 -0.16635773 3.7503557 -0.12453712 -0.00038614095 -1.201657 -0.046762384 -0.017449388
-5.8066597 -0.9936293 -0.028622732 -1.9344705 -0.12308458 0.0073127206 -1.9169888 0.023419043
00000000: 3688 833e da8a 1b3d 12e1 28bd 04d8 bbbf
00000010: c91c 133f 911d cabf f135 b4bd 2b5d 6840
00000020: 5e3c d13c a6dd bbbc b763 bcbf e374 503e
00000030: 9733 c73e 75d4 7a3d 3063 86be f559 1e3b
00000040: 20c1 5b40 e328 cf3e b801 bfbf f992 c33e
00000050: 12c7 c1bf 6384 aabf c47e 2d3d 1348 9dbd
00000060: 6796 ebbf ae59 2abe d405 7040 510d ffbd
00000070: f672 cab9 e6cf 99bf ea89 3fbd 05f2 8ebc
00000080: 28d0 b9c0 7d5e 7ebf 387a eabc bb9c f7bf
00000090: c513 fcbd 8c9f ef3b e45f f5bf 4bd9 bf3c

0.weight f4 [40, 1]
0.87480587 -0.51738834 -0.6261875 -1.998394 1.3305581 -1.9420626 -0.15697496 -5.5256014
0.048214696 -0.36271024 -2.095775 0.7943252 1.2806925 -0.10403092 0.41779086 -0.092497714
-2.709175 1.0320089 -2.3721485 1.1360583 -2.279145 -2.305054 0.582103 -0.42876866
-1.6961946 -0.54656625 -3.6542878 -0.39067158 -0.18829723 -1.9709253 -0.19286442 -0.4022337
2.0132198 -1.3203325 -0.3591265 -1.7536699 0.28373712 -0.32355422 -2.0346735 -0.15335612
00000000: 47f3 5f3f 9073 04bf d34d 20bf 60cb ffbf
00000010: ba4f aa3f 8295 f8bf 0bbe 20be bad1 b0c0
00000020: c67c 453d 28b5 b9be 2d21 06c0 e558 4b3f
00000030: bbed a33f 2a0e d5bd afe8 d53e 716f bdbd
00000040: 2063 2dc0 de18 843f 48d1 17c0 5c6a 913f
00000050: 83dd 11c0 0186 13c0 b404 153f 9187 dbbe
00000060: e81c d9bf c4eb 0bbf dadf 69c0 1b06 c8be
00000070: fdd0 40be 4847 fcbf 407e 45be 93f1 cdbe
00000080: 98d8 0040 a800 a9bf 6edf b7be 4178 e0bf
00000090: fe45 913e e6a8 a5be 1738 02c0 6309 1dbe

0.bias f4 [40]
-0.18019389 -0.10752916 -0.10134817 0.60829335 -0.8242883 0.7664641 -0.026863774 0.56940675
-0.067513436 -0.08734733 0.63533854 -0.88141817 -0.2646024 -0.053639866 -0.46135032 -0.12929283
1.6154895 -0.65484667 0.72343796 -0.71601766 0.6960856 0.7037108 -0.68387836 -0.04573037
1.1864526 -0.056419887 1.8400674 -0.09417886 -0.10228815 0.7774235 -0.018207794 -0.043377988
-1.5669386 0.51878875 -0.06268773 1.2269826 -0.41928035 -0.009569423 1.4255407 -0.020236343
00000000: bf84 38be 4038 dcbd a18f cfbd 1db9 1b3f
00000010: 8f04 53bf fe36 443f 6b11 dcbc a4c4 113f
00000020: 7c44 8abd 28e3 b2bd 8ca5 223f 9fa4 61bf
00000030: f779 87be 7ab5 5bbd 1c36 ecbe 5765 04be
00000040: 5cc8 ce3f 08a4 27bf 3b33 393f ef4c 37bf
00000050: aa32 323f 6426 343f a712 2fbf c54f 3bbd
00000060: aedd 973f 8a18 67bd 5487 eb3f d9e0 c0bd
00000070: 737c d1bd 3a05 473f 8328 95bc 1ead 31bd
00000080: 7291 c8bf 57cf 043f 6d62 80bd c40d 9d3f
00000090: eaab d6be 12c9 1cbc 1e78 b63f b0c6 a5bc

2.weight f4 [1, 40]
0.26134095 0.037974216 -0.04123027 -1.3854414 0.25321907 -1.6397419 -0.08799351 3.4509852
0.02554148 -0.022932839 -1.4010175 0.47232038 0.5151642 0.06123777 -0.2624755 0.0024162505
3.5442133 0.08799957 -1.4501857 0.09536982 -1.4633282 -1.2837828 0.24650082 -0.07679763
-1.9831157 -0.16635773 4.037287 -0.12453712 -0.00038614095 -1.2645779 -0.046762384 -0.017449388
-5.021316 -0.9641502 -0.028622732 -2.083669 -0.12308458 0.02805772 -2.090991 0.023419043
00000000: 7bce 853e da8a 1b3d 12e1 28bd 2556 b1bf
00000010: eea5 813e 10e3 d1bf f135 b4bd f1dc 5c40
00000020: 5e3c d13c a6dd bbbc 8b54 b3bf fad3 f13e
00000030: cde1 033f 75d4 7a3d 3063 86be f559 1e3b
00000040: 64d4 6240 1e39 b43d af9f b9bf 4151 c33d
00000050: 574e bbbf ff52 a4bf b66a 7c3e 1348 9dbd
00000060: bcd6 fdbf ae59 2abe 7531 8140 510d ffbd
00000070: f672 cab9 b0dd a1bf ea89 3fbd 05f2 8ebc
00000080: 9fae a0c0 8cd2 76bf 387a eabc d55a 05c0
00000090: c513 fcbd 4ed9 e53c ccd2 05c0 4bd9 bf3c

0.weight f4 [40, 1]
0.68168724 -0.51738834 -0.6261875 -2.0653095 1.1320528 -2.054911 -0.15697496 -5.729406
0.048214696 -0.36271024 -2.1670537 0.7943252 1.3943325 -0.10403092 0.41779086 -0.092497714
-2.817863 0.7781023 -2.4482782 0.88173413 -2.349275 -2.375979 0.582103 -0.42876866
-1.7809086 -0.54656625 -3.728844 -0.39067158 -0.18829723 -2.0525696 -0.19286442 -0.4022337
2.091738 -1.4004498 -0.3591265 -1.8397996 0.28373712 -0.32355422 -2.1217926 -0.15335612
00000000: 0e83 2e3f 9073 04bf d34d 20bf 082e 04c0
00000010: 1be7 903f a983 03c0 0bbe 20be 4b57 b7c0
00000020: c67c 453d 28b5 b9be 02b1 0ac0 e558 4b3f
00000030: 7d79 b23f 2a0e d5bd afe8 d53e 716f bdbd
00000040: de57 34c0 b631 473f 97b0 1cc0 54b9 613f
00000050: 865a 16c0 0a10 18c0 b404 153f 9187 dbbe
00000060: d0f4 e3bf c4eb 0bbf 61a5 6ec0 1b06 c8be
00000070: fdd0 40be 4d5d 03c0 407e 45be 93f1 cdbe
00000080: 09df 0540 f041 b3bf 6edf b7be 8e7e ebbf
00000090: fe45 913e e6a8 a5be 73cb 07c0 6309 1dbe

0.bias f4 [40]
-0.13904056 -0.10752916 -0.10134817 0.6332724 -0.8932351 0.81283164 -0.026863774 0.5998605
-0.067513436 -0.08734733 0.65915227 -0.88141817 -0.28120458 -0.053639866 -0.46135032 -0.12929283
1.6874064 -0.9536163 0.7473904 -1.1587013 0.7228582 0.724595 -0.68387836 -0.04573037
1.2463818 -0.056419887 1.8722839 -0.09417886 -0.10228815 0.8272215 -0.018207794 -0.043377988
-1.630392 0.5519504 -0.06268773 1.2874029 -0.41928035 -0.009569423 1.4861215 -0.020236343
00000000: a660 0ebe 4038 dcbd a18f cfbd 241e 223f
00000010: 0eab 64bf bc15 503f 6b11 dcbc 7590 193f
00000020: 7c44 8abd 28e3 b2bd 34be 283f 9fa4 61bf
00000030: 0cfa 8fbe 7ab5 5bbd 1c36 ecbe 5765 04be
00000040: effc d73f 3320 74bf fa54 3f3f 5350 94bf
00000050: 3c0d 393f 0f7f 393f a712 2fbf c54f 3bbd
00000060: 7089 9f3f 8a18 67bd 00a7 ef3f d9e0 c0bd
00000070: 737c d1bd cac4 533f 8328 95bc 1ead 31bd
00000080: afb0 d0bf 9f4c 0d3f 6d62 80bd 9ec9 a43f
00000090: eaab d6be 12c9 1cbc 3b39 be3f b0c6 a5bc

2.weight f4 [1, 40]
0.16349058 0.037974216 -0.04123027 -1.308865 -0.07351197 -1.6630245 -0.08799351 3.2928233
0.02554148 -0.022932839 -1.3346934 0.47232038 0.5969417 0.06123777 -0.2624755 0.0024162505
3.6497166 0.25502053 -1.4100192 0.4170182 -1.4156581 -1.2377542 0.24650082 -0.07679763
-2.005545 -0.16635773 4.0756407 -0.12453712 -0.00038614095 -1.2884798 -0.046762384 -0.017449388
-4.6413274 -0.90860385 -0.028622732 -2.11148 -0.12308458 0.02805772 -2.1403096 0.023419043
00000000: 136a 273e da8a 1b3d 12e1 28bd e388 a7bf
00000010: 728d 96bd fddd d4bf f135 b4bd 9ebd 5240
00000020: 5e3c d13c a6dd bbbc 3cd7 aabf fad3 f13e
00000030: 2cd1 183f 75d4 7a3d 3063 86be f559 1e3b
00000040: f594 6940 0d92 823e 827b b4bf 6983 d53e
00000050: 4934 b5bf bb6e 9ebf b66a 7c3e 1348 9dbd
00000060: d95a 00c0 ae59 2abe a66b 8240 510d ffbd
00000070: f672 cab9 e8ec a4bf ea89 3fbd 05f2 8ebc
00000080: c185 94c0 439a 68bf 387a eabc 7d22 07c0
00000090: c513 fcbd 4ed9 e53c d5fa 08c0 4bd9 bf3c

0.weight f4 [40, 1]
0.1836338 -0.51738834 -0.6261875 -2.1392303 1.0571244 -2.1125064 -0.15697496 -5.959053
0.048214696 -0.36271024 -2.233633 0.7943252 1.4346089 -0.10403092 0.41779086 -0.092497714
-2.8721764 0.7781023 -2.519043 0.88173413 -2.4203043 -2.44238 0.582103 -0.42876866
-1.8199306 -0.54656625 -3.743151 -0.39067158 -0.18829723 -2.1453571 -0.19286442 -0.4022337
2.2069213 -1.448334 -0.3591265 -1.8795457 0.28373712 -0.32355422 -2.162912 -0.15335612
00000000: 800a 3c3e 9073 04bf d34d 20bf 26e9 08c0
00000010: da4f 873f 4e33 07c0 0bbe 20be 90b0 bec0
00000020: c67c 453d 28b5 b9be d8f3 0ec0 e558 4b3f
00000030: 44a1 b73f 2a0e d5bd afe8 d53e 716f bdbd
00000040: bdd1 37c0 b631 473f 0038 21c0 54b9 613f
00000050: 44e6 1ac0 f44f 1cc0 b404 153f 9187 dbbe
00000060: 7cf3 e8bf c4eb 0bbf c98f 6fc0 1b06 c8be
00000070: fdd0 40be 884d 09c0 407e 45be 93f1 cdbe
00000080: 333e 0d40 0263 b9bf 6edf b7be f494 f0bf
00000090: fe45 913e e6a8 a5be 266d 0ac0 6309 1dbe

0.bias f4 [40]
-0.14927527 -0.10752916 -0.10134817 0.6482321 -1.0934252 0.85123926 -0.026863774 0.62859166
-0.067513436 -0.08734733 0.67868316 -0.88141817 -0.2969657 -0.053639866 -0.46135032 -0.12929283
1.7225977 -0.9536163 0.7676964 -1.1587013 0.7430517 0.74139875 -0.68387836 -0.04573037
1.2798377 -0.056419887 1.8793583 -0.09417886 -0.10228815 0.842332 -0.018207794 -0.043377988
-1.7157764 0.56450766 -0.06268773 1.3217078 -0.41928035 -0.009569423 1.5205078 -0.020236343
00000000: 9edb 18be 4038 dcbd a18f cfbd 8af2 253f
00000010: 5bf5 8bbf d1ea 593f 6b11 dcbc 62eb 203f
00000020: 7c44 8abd 28e3 b2bd 2ebe 2d3f 9fa4 61bf
00000030: e30b 98be 7ab5 5bbd 1c36 ecbe 5765 04be
00000040: 157e dc3f 3320 74bf c087 443f 5350 94bf
00000050: a338 3e3f 4fcc 3d3f a712 2fbf c54f 3bbd
00000060: b9d1 a33f 8a18 67bd d08e f03f d9e0 c0bd
00000070: 737c d1bd 12a3 573f 8328 95bc 1ead 31bd
00000080: 909e dbbf 9383 103f 6d62 80bd b92d a93f
00000090: eaab d6be 12c9 1cbc 00a0 c23f b0c6 a5bc

2.weight f4 [1, 40]
-0.004448485 0.037974216 -0.04123027 -1.238571 0.33594355 -1.6494259 -0.08799351 3.1822045
0.02554148 -0.022932839 -1.274011 0.47232038 0.60387576 0.06123777 -0.2624755 0.0024162505
3.6669192 0.25502053 -1.3729042 0.4170182 -1.3723 -1.1944673 0.24650082 -0.07679763
-1.9709533 -0.16635773 4.0422845 -0.12453712 -0.00038614095 -1.2762185 -0.046762384 -0.017449388
-4.414038 -0.82213175 -0.028622732 -2.0814333 -0.12308458 0.02805772 -2.1287045 0.023419043
00000000: 99c4 91bb da8a 1b3d 12e1 28bd 7f89 9ebf
00000010: cb00 ac3e 6320 d3bf f135 b4bd 3da9 4b40
00000020: 5e3c d13c a6dd bbbc cb12 a3bf fad3 f13e
00000030: 9a97 1a3f 75d4 7a3d 3063 86be f559 1e3b
00000040: ceae 6a40 0d92 823e 53bb afbf 6983 d53e
00000050: 87a7 afbf 4ee4 98bf b66a 7c3e 1348 9dbd
00000060: 3348 fcbf ae59 2abe 655a 8140 510d ffbd
00000070: f672 cab9 215b a3bf ea89 3fbd 05f2 8ebc
00000080: cd3f 8dc0 3a77 52bf 387a eabc 3436 05c0
00000090: c513 fcbd 4ed9 e53c b23c 08c0 4bd9 bf3c

0.weight f4 [40, 1]
0.1470851 -0.51738834 -0.6261875 -2.206431 1.0571244 -2.1890001 -0.15697496 -6.1880045
0.048214696 -0.36271024 -2.305124 0.7943252 1.4578226 -0.10403092 0.41779086 -0.092497714
-2.9073663 0.7781023 -2.5983016 0.88173413 -2.4938893 -2.5105553 0.582103 -0.42876866
-1.8570598 -0.54656625 -3.7648942 -0.39067158 -0.18829723 -2.2000105 -0.19286442 -0.4022337
2.3052447 -1.4930537 -0.3591265 -1.918926 0.28373712 -0.32355422 -2.197636 -0.15335612
00000000: 7a9d 163e 9073 04bf d34d 20bf 2a36 0dc0
00000010: da4f 873f 9418 0cc0 0bbe 20be 2204 c6c0
00000020: c67c 453d 28b5 b9be 2787 13c0 e558 4b3f
00000030: ee99 ba3f 2a0e d5bd afe8 d53e 716f bdbd
00000040: 4a12 3ac0 b631 473f 934a 26c0 54b9 613f
00000050: e29b 1fc0 f0ac 20c0 b404 153f 9187 dbbe
00000060: 23b4 edbf c4eb 0bbf 07f4 70c0 1b06 c8be
00000070: fdd0 40be f9cc 0cc0 407e 45be 93f1 cdbe
00000080: 2189 1340 621c bfbf 6edf b7be 5e9f f5bf
00000090: fe45 913e e6a8 a5be 11a6 0cc0 6309 1dbe

0.bias f4 [40]
-0.20290238 -0.10752916 -0.10134817 0.66936547 -1.0934252 0.8796513 -0.026863774 0.643861
-0.067513436 -0.08734733 0.6992993 -0.88141817 -0.30142522 -0.053639866 -0.46135032 -0.12929283
1.7436177 -0.9536163 0.7882911 -1.1587013 0.76604384 0.7613778 -0.68387836 -0.04573037
1.3025433 -0.056419887 1.8830531 -0.09417886 -0.10228815 0.8718325 -0.018207794 -0.043377988
-1.7885107 0.57135636 -0.06268773 1.3447181 -0.41928035 -0.009569423 1.5461494 -0.020236343
00000000: a4c5 4fbe 4038 dcbd a18f cfbd 895b 2b3f
00000010: 5bf5 8bbf d430 613f 6b11 dcbc 13d4 243f
00000020: 7c44 8abd 28e3 b2bd 4705 333f 9fa4 61bf
00000030: 6854 9abe 7ab5 5bbd 1c36 ecbe 5765 04be
00000040: dd2e df3f 3320 74bf 72cd 493f 5350 94bf
00000050: 731b 443f a8e9 423f a712 2fbf c54f 3bbd
00000060: bdb9 a63f 8a18 67bd e207 f13f d9e0 c0bd
00000070: 737c d1bd 6a30 5f3f 8328 95bc 1ead 31bd
00000080: ebed e4bf 6944 123f 6d62 80bd b91f ac3f
00000090: eaab d6be 12c9 1cbc 39e8 c53f b0c6 a5bc

2.weight f4 [1, 40]
0.033264305 0.037974216 -0.04123027 -1.1855391 0.33594355 -1.6413457 -0.08799351 3.0945032
0.02554148 -0.022932839 -1.2295833 0.47232038 0.60627514 0.06123777 -0.2624755 0.0024162505
3.6536167 0.25502053 -1.3507154 0.4170182 -1.344556 -1.1664463 0.24650082 -0.07679763
-1.9317733 -0.16635773 4.0091014 -0.12453712 -0.00038614095 -1.2676505 -0.046762384 -0.017449388
-4.111606 -0.74186784 -0.028622732 -2.0463133 -0.12308458 0.02805772 -2.1100137 0.023419043
00000000: 2740 083d da8a 1b3d 12e1 28bd bfbf 97bf
00000010: cb00 ac3e 9e17 d2bf f135 b4bd 570c 4640
00000020: 5e3c d13c a6dd bbbc fc62 9dbf fad3 f13e
00000030: d934 1b3f 75d4 7a3d 3063 86be f559 1e3b
00000040: dbd4 6940 0d92 823e 3ee4 acbf 6983 d53e
00000050: 691a acbf 1d4e 95bf b66a 7c3e 1348 9dbd
00000060: 5944 f7bf ae59 2abe 8f4a 8040 510d ffbd
00000070: f672 cab9 5f42 a2bf ea89 3fbd 05f2 8ebc
00000080: 4792 83c0 0deb 3dbf 387a eabc ccf6 02c0
00000090: c513 fcbd 4ed9 e53c 770a 07c0 4bd9 bf3c

0.weight f4 [40, 1]
0.1470851 -0.51738834 -0.6261875 -2.263329 1.0571244 -2.2690992 -0.15697496 -6.3782353
0.048214696 -0.36271024 -2.3644109 0.7943252 1.4667897 -0.10403092 0.41779086 -0.092497714
-2.9368596 0.7781023 -2.654715 0.88173413 -2.5702972 -2.5682633 0.582103 -0.42876866
-1.8986806 -0.54656625 -3.7817004 -0.39067158 -0.18829723 -2.2346609 -0.19286442 -0.4022337
2.417079 -1.500396 -0.3591265 -1.9600351 0.28373712 -0.32355422 -2.2451265 -0.15335612
00000000: 7a9d 163e 9073 04bf d34d 20bf 62da 10c0
00000010: da4f 873f ec38 11c0 0bbe 20be 811a ccc0
00000020: c67c 453d 28b5 b9be 8252 17c0 e558 4b3f
00000030: c4bf bb3f 2a0e d5bd afe8 d53e 716f bdbd
00000040: 82f5 3bc0 b631 473f dae6 29c0 54b9 613f
00000050: c07f 24c0 6d5e 24c0 b404 153f 9187 dbbe
00000060: f707 f3bf c4eb 0bbf 6107 72c0 1b06 c8be
00000070: fdd0 40be af04 0fc0 407e 45be 93f1 cdbe
00000080: 6cb1 1a40 fa0c c0bf 6edf b7be 6ee2 fabf
00000090: fe45 913e e6a8 a5be 27b0 0fc0 6309 1dbe

0.bias f4 [40]
-0.20290238 -0.10752916 -0.10134817 0.69271004 -1.0934252 0.9012867 -0.026863774 0.66750133
-0.067513436 -0.08734733 0.7235859 -0.88141817 -0.2936498 -0.053639866 -0.46135032 -0.12929283
1.7586755 -0.9536163 0.8186368 -1.1587013 0.78720707 0.78449553 -0.68387836 -0.04573037
1.3267634 -0.056419887 1.892152 -0.09417886 -0.10228815 0.9029429 -0.018207794 -0.043377988
-1.8827367 0.5778788 -0.06268773 1.3704394 -0.41928035 -0.009569423 1.5701932 -0.020236343
00000000: a4c5 4fbe 4038 dcbd a18f cfbd 7255 313f
00000010: 5bf5 8bbf baba 663f 6b11 dcbc 5ee1 2a3f
00000020: 7c44 8abd 28e3 b2bd ed3c 393f 9fa4 61bf
00000030: 4459 96be 7ab5 5bbd 1c36 ecbe 5765 04be
00000040: 471c e13f 3320 74bf 2e92 513f 5350 94bf
00000050: 6786 493f b3d4 483f a712 2fbf c54f 3bbd
00000060: 62d3 a93f 8a18 67bd 0932 f23f d9e0 c0bd
00000070: 737c d1bd 4427 673f 8328 95bc 1ead 31bd
00000080: 84fd f0bf ddef 133f 6d62 80bd 8f6a af3f
00000090: eaab d6be 12c9 1cbc 17fc c83f b0c6 a5bc

2.weight f4 [1, 40]
0.033264305 0.037974216 -0.04123027 -1.1299192 0.33594355 -1.6226944 -0.08799351 2.9727247
0.02554148 -0.022932839 -1.1827801 0.47232038 0.59818816 0.06123777 -0.2624755 0.0024162505
3.6212707 0.25502053 -1.3270721 0.4170182 -1.3147864 -1.136026 0.24650082 -0.07679763
-1.8885057 -0.16635773 3.9777906 -0.12453712 -0.00038614095 -1.2481192 -0.046762384 -0.017449388
-3.9805846 -0.6455162 -0.028622732 -2.0074792 -0.12308458 0.02805772 -2.0888054 0.023419043
00000000: 2740 083d da8a 1b3d 12e1 28bd 31a1 90bf
00000010: cb00 ac3e 73b4 cfbf f135 b4bd 1f41 3e40
00000020: 5e3c d13c a6dd bbbc 5765 97bf fad3 f13e
00000030: dc22 193f 75d4 7a3d 3063 86be f559 1e3b
00000040: e6c2 6740 0d92 823e 80dd a9bf 6983 d53e
00000050: ec4a a8bf 4d69 91bf b66a 7c3e 1348 9dbd
00000060: 8eba f1bf ae59 2abe 1f94 7e40 510d ffbd
00000070: f672 cab9 5fc2 9fbf ea89 3fbd 05f2 8ebc
00000080: e6c1 7ec0 8d40 25bf 387a eabc 8a7a 00c0
00000090: c513 fcbd 4ed9 e53c fdae 05c0 4bd9 bf3c

0.weight f4 [40, 1]
0.1470851 -0.51738834 -0.6261875 -2.3195357 1.0571244 -2.345052 -0.15697496 -6.5596395
0.048214696 -0.36271024 -2.42379 0.7943252 1.4868672 -0.10403092 0.41779086 -0.092497714
-2.9591196 0.7781023 -2.7234619 0.88173413 -2.6363518 -2.6244648 0.582103 -0.42876866
-1.9310889 -0.54656625 -3.7986574 -0.39067158 -0.18829723 -2.32164 -0.19286442 -0.4022337
2.5232394 -1.5450319 -0.3591265 -1.9942539 0.28373712 -0.32355422 -2.2802787 -0.15335612
00000000: 7a9d 163e 9073 04bf d34d 20bf 4673 14c0
00000010: da4f 873f 5515 16c0 0bbe 20be 91e8 d1c0
00000020: c67c 453d 28b5 b9be 601f 1bc0 e558 4b3f
00000030: aa51 be3f 2a0e d5bd afe8 d53e 716f bdbd
00000040: 3762 3dc0 b631 473f 334d 2ec0 54b9 613f
00000050: fdb9 28c0 3bf7 27c0 b404 153f 9187 dbbe
00000060: ec2d f7bf c4eb 0bbf 341d 73c0 1b06 c8be
00000070: fdd0 40be c095 14c0 407e 45be 93f1 cdbe
00000080: c17c 2140 9bc3 c5bf 6edf b7be b643 ffbf
00000090: fe45 913e e6a8 a5be 16f0 11c0 6309 1dbe

0.bias f4 [40]
-0.20290238 -0.10752916 -0.10134817 0.7118108 -1.0934252 0.93715376 -0.026863774 0.6883314
-0.067513436 -0.08734733 0.74368596 -0.88141817 -0.3093114 -0.053639866 -0.46135032 -0.12929283
1.7743909 -0.9536163 0.84014773 -1.1587013 0.8093593 0.80470794 -0.68387836 -0.04573037
1.3502103 -0.056419887 1.8983564 -0.09417886 -0.10228815 0.92484444 -0.018207794 -0.043377988
-1.9503194 0.57011724 -0.06268773 1.3946668 -0.41928035 -0.009569423 1.5951613 -0.020236343
00000000: a4c5 4fbe 4038 dcbd a18f cfbd 3c39 363f
00000010: 5bf5 8bbf 4fe9 6f3f 6b11 dcbc 7d36 303f
00000020: 7c44 8abd 28e3 b2bd 3462 3e3f 9fa4 61bf
00000030: 105e 9ebe 7ab5 5bbd 1c36 ecbe 5765 04be
00000040: 3e1f e33f 3320 74bf ec13 573f 5350 94bf
00000050: 2c32 4f3f 5701 4e3f a712 2fbf c54f 3bbd
00000060: b1d3 ac3f 8a18 67bd 58fd f23f d9e0 c0bd
00000070: 737c d1bd 9bc2 6c3f 8328 95bc 1ead 31bd
00000080: 11a4 f9bf 34f3 113f 6d62 80bd 7184 b23f
00000090: eaab d6be 12c9 1cbc 3f2e cc3f b0c6 a5bc

2.weight f4 [1, 40]
0.033264305 0.037974216 -0.04123027 -1.0779303 0.33594355 -1.6312397 -0.08799351 2.8651874
0.02554148 -0.022932839 -1.1391988 0.47232038 0.6057294 0.06123777 -0.2624755 0.0024162505
3.588398 0.25502053 -1.3055004 0.4170182 -1.2867106 -1.1074191 0.24650082 -0.07679763
-1.845649 -0.16635773 3.9450793 -0.12453712 -0.00038614095 -1.2562193 -0.046762384 -0.017449388
-3.7944226 -0.5696283 -0.028622732 -1.9688886 -0.12308458 0.02805772 -2.066828 0.023419043
00000000: 2740 083d da8a 1b3d 12e1 28bd 9ff9 89bf
00000010: cb00 ac3e 76cc d0bf f135 b4bd 3b5f 3740
00000020: 5e3c d13c a6dd bbbc 44d1 91bf fad3 f13e
00000030: 1511 1b3f 75d4 7a3d 3063 86be f559 1e3b
00000040: 50a8 6540 0d92 823e a31a a7bf 6983 d53e
00000050: efb2 a4bf e9bf 8dbf b66a 7c3e 1348 9dbd
00000060: 3a3e ecbf ae59 2abe 2e7c 7c40 510d ffbd
00000070: f672 cab9 cbcb a0bf ea89 3fbd 05f2 8ebc
00000080: d2d7 72c0 29d3 11bf 387a eabc 8b04 fcbf
00000090: c513 fcbd 4ed9 e53c e946 04c0 4bd9 bf3c

0.weight f4 [40, 1]
0.1470851 -0.51738834 -0.6261875 -2.3796089 1.0571244 -2.4130788 -0.15697496 -6.764549
0.048214696 -0.36271024 -2.4880147 0.7943252 1.523967 -0.10403092 0.41779086 -0.092497714
-2.9922457 0.7781023 -2.8021433 0.88173413 -2.7079964 -2.6885362 0.582103 -0.42876866
-1.9563571 -0.54656625 -3.8154843 -0.39067158 -0.18829723 -2.3773234 -0.19286442 -0.4022337
2.6115177 -1.5115218 -0.3591265 -2.02088 0.28373712 -0.32355422 -2.307618 -0.15335612
00000000: 7a9d 163e 9073 04bf d34d 20bf 834b 18c0
00000010: da4f 873f e26f 1ac0 0bbe 20be 2f77 d8c0
00000020: c67c 453d 28b5 b9be a23b 1fc0 e558 4b3f
00000030: 5a11 c33f 2a0e d5bd afe8 d53e 716f bdbd
00000040: f480 3fc0 b631 473f 5156 33c0 54b9 613f
00000050: d04f 2dc0 fa10 2cc0 b404 153f 9187 dbbe
00000060: e969 fabf c4eb 0bbf e530 74c0 1b06 c8be
00000070: fdd0 40be 1126 18c0 407e 45be 93f1 cdbe
00000080: 1b23 2740 8c79 c1bf 6edf b7be 1956 01c0
00000090: fe45 913e e6a8 a5be 03b0 13c0 6309 1dbe

0.bias f4 [40]
-0.20290238 -0.10752916 -0.10134817 0.7269319 -1.0934252 0.964328 -0.026863774 0.7116324
-0.067513436 -0.08734733 0.76007915 -0.88141817 -0.30340984 -0.053639866 -0.46135032 -0.12929283
1.7920552 -0.9536163 0.8569935 -1.1587013 0.8285175 0.8202535 -0.68387836 -0.04573037
1.3711995 -0.056419887 1.9120739 -0.09417886 -0.10228815 0.9476063 -0.018207794 -0.043377988
-2.0317998 0.5610407 -0.06268773 1.416735 -0.41928035 -0.009569423 1.618169 -0.020236343
00000000: a4c5 4fbe 4038 dcbd a18f cfbd 3618 3a3f
00000010: 5bf5 8bbf 33de 763f 6b11 dcbc 8a2d 363f
00000020: 7c44 8abd 28e3 b2bd 8c94 423f 9fa4 61bf
00000030: 8958 9bbe 7ab5 5bbd 1c36 ecbe 5765 04be
00000040: 1162 e53f 3320 74bf ed63 5b3f 5350 94bf
00000050: b919 543f 22fc 513f a712 2fbf c54f 3bbd
00000060: 7783 af3f 8a18 67bd d6be f43f d9e0 c0bd
00000070: 737c d1bd 5496 723f 8328 95bc 1ead 31bd
00000080: 0209 02c0 5da0 0f3f 6d62 80bd 9357 b53f
00000090: eaab d6be 12c9 1cbc 2920 cf3f b0c6 a5bc

2.weight f4 [1, 40]
0.033264305 0.037974216 -0.04123027 -1.0300783 0.33594355 -1.6244308 -0.08799351 2.7839515
0.02554148 -0.022932839 -1.0998042 0.47232038 0.6239955 0.06123777 -0.2624755 0.0024162505
3.5669763 0.25502053 -1.2879175 0.4170182 -1.2628018 -1.0823052 0.24650082 -0.07679763
-1.7938553 -0.16635773 3.9243157 -0.12453712 -0.00038614095 -1.2477254 -0.046762384 -0.017449388
-3.6939487 -0.45900825 -0.028622732 -1.9212893 -0.12308458 0.02805772 -2.0356538 0.023419043
00000000: 2740 083d da8a 1b3d 12e1 28bd 9bd9 83bf
00000010: cb00 ac3e 59ed cfbf f135 b4bd 432c 3240
00000020: 5e3c d13c a6dd bbbc 62c6 8cbf fad3 f13e
00000030: 2bbe 1f3f 75d4 7a3d 3063 86be f559 1e3b
00000040: 5749 6440 0d92 823e 7bda a4bf 6983 d53e
00000050: 7da3 a1bf fa88 8abf b66a 7c3e 1348 9dbd
00000060: 0d9d e5bf ae59 2abe fd27 7b40 510d ffbd
00000070: f672 cab9 77b5 9fbf ea89 3fbd 05f2 8ebc
00000080: a869 6cc0 2103 ebbe 387a eabc cfec f5bf
00000090: c513 fcbd 4ed9 e53c 2748 02c0 4bd9 bf3c

0.weight f4 [40, 1]
0.1470851 -0.51738834 -0.6261875 -2.4364724 1.0571244 -2.4839866 -0.15697496 -6.9758797
0.048214696 -0.36271024 -2.5472474 0.7943252 1.5426487 -0.10403092 0.41779086 -0.092497714
-3.0158377 0.7781023 -2.8796432 0.88173413 -2.7791138 -2.7465363 0.582103 -0.42876866
-1.9919628 -0.54656625 -3.8279383 -0.39067158 -0.18829723 -2.4372175 -0.19286442 -0.4022337
2.7114885 -1.469213 -0.3591265 -2.057503 0.28373712 -0.32355422 -2.346026 -0.15335612
00000000: 7a9d 163e 9073 04bf d34d 20bf 2aef 1bc0
00000010: da4f 873f a3f9 1ec0 0bbe 20be 683a dfc0
00000020: c67c 453d 28b5 b9be 1a06 23c0 e558 4b3f
00000030: 8375 c53f 2a0e d5bd afe8 d53e 716f bdbd
00000040: 7c03 41c0 b631 473f 134c 38c0 54b9 613f
00000050: 00dd 31c0 40c7 2fc0 b404 153f 9187 dbbe
00000060: a3f8 febf c4eb 0bbf f1fc 74c0 1b06 c8be
00000070: fdd0 40be 5ffb 1bc0 407e 45be 93f1 cdbe
00000080: 0789 2d40 2c0f bcbf 6edf b7be 21ae 03c0
00000090: fe45 913e e6a8 a5be 4a25 16c0 6309 1dbe

0.bias f4 [40]
-0.20290238 -0.10752916 -0.10134817 0.74120647 -1.0934252 0.9924282 -0.026863774 0.7322137
-0.067513436 -0.08734733 0.7768382 -0.88141817 -0.313529 -0.053639866 -0.46135032 -0.12929283
1.8056273 -0.9536163 0.8731258 -1.1587013 0.8465123 0.83730763 -0.68387836 -0.04573037
1.3909489 -0.056419887 1.9250144 -0.09417886 -0.10228815 0.97154313 -0.018207794 -0.043377988
-2.104165 0.54572237 -0.06268773 1.4377006 -0.41928035 -0.009569423 1.6399121 -0.020236343
00000000: a4c5 4fbe 4038 dcbd a18f cfbd b5bf 3d3f
00000010: 5bf5 8bbf c60f 7e3f 6b11 dcbc 5b72 3b3f
00000020: 7c44 8abd 28e3 b2bd dede 463f 9fa4 61bf
00000030: e086 a0be 7ab5 5bbd 1c36 ecbe 5765 04be
00000040: cc1e e73f 3320 74bf 2c85 5f3f 5350 94bf
00000050: 08b5 583f cb59 563f a712 2fbf c54f 3bbd
00000060: 9d0a b23f 8a18 67bd df66 f63f d9e0 c0bd
00000070: 737c d1bd 0db7 783f 8328 95bc 1ead 31bd
00000080: a4aa 06c0 76b4 0b3f 6d62 80bd 9306 b83f
00000090: eaab d6be 12c9 1cbc a4e8 d13f b0c6 a5bc

2.weight f4 [1, 40]
0.033264305 0.037974216 -0.04123027 -0.9859393 0.33594355 -1.6232278 -0.08799351 2.7084858
0.02554148 -0.022932839 -1.0640103 0.47232038 0.6290333 0.06123777 -0.2624755 0.0024162505
3.5360568 0.25502053 -1.2729299 0.4170182 -1.2422174 -1.0598888 0.24650082 -0.07679763
-1.7569882 -0.16635773 3.8985026 -0.12453712 -0.00038614095 -1.2444241 -0.046762384 -0.017449388
-3.5756001 -0.3610221 -0.028622732 -1.8884747 -0.12308458 0.02805772 -2.0179956 0.023419043
00000000: 2740 083d da8a 1b3d 12e1 28bd 8566 7cbf
00000010: cb00 ac3e eec5 cfbf f135 b4bd d557 2d40
00000020: 5e3c d13c a6dd bbbc 7d31 88bf fad3 f13e
00000030: 5408 213f 75d4 7a3d 3063 86be f559 1e3b
00000040: c14e 6240 0d92 823e 5eef a2bf 6983 d53e
00000050: fb00 9fbf 70aa 87bf b66a 7c3e 1348 9dbd
00000060: fde4 e0bf ae59 2abe 1181 7940 510d ffbd
00000070: f672 cab9 4a49 9fbf ea89 3fbd 05f2 8ebc
00000080: a2d6 64c0 e4d7 b8be 387a eabc 8ab9 f1bf
00000090: c513 fcbd 4ed9 e53c d726 01c0 4bd9 bf3c

0.weight f4 [40, 1]
0.1470851 -0.51738834 -0.6261875 -2.4799592 1.0571244 -2.5363433 -0.15697496 -7.179645
0.048214696 -0.36271024 -2.5989478 0.7943252 1.5588797 -0.10403092 0.41779086 -0.092497714
-3.0413268 0.7781023 -2.9391248 0.88173413 -2.8371997 -2.7983518 0.582103 -0.42876866
-2.0253832 -0.54656625 -3.850915 -0.39067158 -0.18829723 -2.5107985 -0.19286442 -0.4022337
2.8110929 -1.5110205 -0.3591265 -2.0897703 0.28373712 -0.32355422 -2.3778663 -0.15335612
00000000: 7a9d 163e 9073 04bf d34d 20bf a7b7 1ec0
00000010: da4f 873f 7353 22c0 0bbe 20be a7bf e5c0
00000020: c67c 453d 28b5 b9be 2955 26c0 e558 4b3f
00000030: 5f89 c73f 2a0e d5bd afe8 d53e 716f bdbd
00000040: 19a5 42c0 b631 473f 9f1a 3cc0 54b9 613f
00000050: ae94 35c0 3218 33c0 b404 153f 9187 dbbe
00000060: e19f 01c0 c4eb 0bbf 6475 76c0 1b06 c8be
00000070: fdd0 40be ecb0 20c0 407e 45be 93f1 cdbe
00000080: f2e8 3340 1f69 c1bf 6edf b7be ccbe 05c0
00000090: fe45 913e e6a8 a5be f62e 18c0 6309 1dbe

0.bias f4 [40]
-0.20290238 -0.10752916 -0.10134817 0.75664026 -1.0934252 1.0204594 -0.026863774 0.74678457
-0.067513436 -0.08734733 0.79244536 -0.88141817 -0.32554543 -0.053639866 -0.46135032 -0.12929283
1.8218995 -0.9536163 0.89316136 -1.1587013 0.8661435 0.8531072 -0.68387836 -0.04573037
1.408885 -0.056419887 1.9359428 -0.09417886 -0.10228815 0.9824125 -0.018207794 -0.043377988
-2.152978 0.4668904 -0.06268773 1.457765 -0.41928035 -0.009569423 1.6617084 -0.020236343
00000000: a4c5 4fbe 4038 dcbd a18f cfbd 2db3 413f
00000010: 5bf5 8bbf 6a9e 823f 6b11 dcbc 462d 3f3f
00000020: 7c44 8abd 28e3 b2bd b3dd 4a3f 9fa4 61bf
00000030: e4ad a6be 7ab5 5bbd 1c36 ecbe 5765 04be
00000040: 0134 e93f 3320 74bf 39a6 643f 5350 94bf
00000050: 95bb 5d3f 3c65 5a3f a712 2fbf c54f 3bbd
00000060: 5856 b43f 8a18 67bd f9cc f73f d9e0 c0bd
00000070: 737c d1bd 637f 7b3f 8328 95bc 1ead 31bd
00000080: 64ca 09c0 420c ef3e 6d62 80bd 0b98 ba3f
00000090: eaab d6be 12c9 1cbc dcb2 d43f b0c6 a5bc

2.weight f4 [1, 40]
0.033264305 0.037974216 -0.04123027 -0.9460882 0.33594355 -1.6212163 -0.08799351 2.6517675
0.02554148 -0.022932839 -1.0321475 0.47232038 0.63525367 0.06123777 -0.2624755 0.0024162505
3.5132904 0.25502053 -1.2603476 0.4170182 -1.2245888 -1.0401616 0.24650082 -0.07679763
-1.7216088 -0.16635773 3.8793118 -0.12453712 -0.00038614095 -1.2397443 -0.046762384 -0.017449388
-3.3770883 -0.2639048 -0.028622732 -1.8568197 -0.12308458 0.02805772 -2.0004182 0.023419043
00000000: 2740 083d da8a 1b3d 12e1 28bd d632 72bf
00000010: cb00 ac3e 0484 cfbf f135 b4bd 8fb6 2940
00000020: 5e3c d13c a6dd bbbc 691d 84bf fad3 f13e
00000030: fc9f 223f 75d4 7a3d 3063 86be f559 1e3b
00000040: c0d9 6040 0d92 823e 1253 a1bf 6983 d53e
00000050: 53bf 9cbf 0424 85bf b66a 7c3e 1348 9dbd
00000060: ad5d dcbf ae59 2abe a546 7840 510d ffbd
00000070: f672 cab9 f1af 9ebf ea89 3fbd 05f2 8ebc
00000080: 3722 58c0 881e 87be 387a eabc 45ac edbf
00000090: c513 fcbd 4ed9 e53c da06 00c0 4bd9 bf3c
