q_relu_optim/ckpts/sgd_momentum/width10/seed766/ckpt_and_history.pt (torch, 13887 bytes, 33 tensors)

0.weight f4 [10, 1]
0	0x3f1c5e56	0.61081445
1	0x3f41fd41	0.7577706
2	0x3f62b70f	0.88560575
3	0xbf243280	-0.64139557
4	0x3f602013	0.8754894
5	0xbe2f8f64	-0.17144543
6	0xbea65de4	-0.32493508
7	0xbd5080f5	-0.050904233
8	0x3f10d7a2	0.5657903
9	0x3f1dba72	0.6161262

0.bias f4 [10]
0	0xbc883794	-0.016628064
1	0xbd8cfe20	-0.06884408
2	0xbe5eedc0	-0.21770382
3	0x3e63ded5	0.22252972
4	0xbebc0bc7	-0.36727735
5	0x3dc505af	0.09620225
6	0x3e64a6da	0.22329274
7	0x3d1d0ebb	0.038344126
8	0xbf0c377b	-0.54772156
9	0xbf18e22f	-0.5972013

2.weight f4 [1, 10]
0	0x3df114da	0.11771555
1	0x3e03d963	0.12875895
2	0x3e8ba134	0.27271426
3	0x3c782a4d	0.015146804
4	0x3d948644	0.07252172
5	0xbe77f876	-0.24215874
6	0xbe8eb4c1	-0.2787228
7	0xbe0fbe4e	-0.14037439
8	0x3e8b292c	0.2717985
9	0x3e778bd1	0.2417443

0.weight f4 [10, 1]
0	0x3f1faff7	0.62377876
1	0x3f43c2a2	0.7646886
2	0x3f697aac	0.9120281
3	0xbf73b89f	-0.95203584
4	0x40312594	2.7679186
5	0xbebe1061	-0.3712187
6	0xc00b4f6a	-2.176722
7	0xbe146497	-0.14491497
8	0x3f0b15e9	0.5433031
9	0x3f1782d6	0.59184015

0.bias f4 [10]
0	0xbdab9232	-0.08377494
1	0xbdd0e64e	-0.10200177
2	0xbdfa602b	-0.12225374
3	0x3e0b5166	0.1360527
4	0xbf473a8b	-0.77823704
5	0x3db6bbc0	0.08922529
6	0x3fd2ed9f	1.6478766
7	0x3d2054ec	0.039143488
8	0xbf120b23	-0.57048243
9	0xbf1f2cf5	-0.62177974

2.weight f4 [1, 10]
0	0x3e84c0e6	0.2592842
1	0x3ea1b4ff	0.31583402
2	0x3ec23fb2	0.3793922
3	0x3f035f0e	0.51316917
4	0xbfb90512	-1.4454672
5	0x3d2a4904	0.04157354
6	0xbfb21d4a	-1.3915188
7	0xb8d3ec91	-0.00010105328
8	0x3e8ad4d9	0.27115515
9	0x3e76cf9e	0.24102637

0.weight f4 [10, 1]
0	0x3f296505	0.6616977
1	0x3f4f7167	0.81032413
2	0x3f77b62f	0.96762365
3	0xc065feef	-3.593685
4	0x4069913f	3.64949
5	0xbf83b07b	-1.0288233
6	0xc042c7e7	-3.043451
7	0xbeaa9ba1	-0.3332186
8	0x3f0b15e9	0.5433031
9	0x3f1782d6	0.59184015

0.bias f4 [10]
0	0xbd8b03e4	-0.067878515
1	0xbdaa657e	-0.08320139
2	0xbdcb5250	-0.09927809
3	0x3ebb5d94	0.36594832
4	0xbf7450af	-0.95435613
5	0x3dce40b7	0.10070937
6	0x401acf9c	2.4189215
7	0x3d06b506	0.03288748
8	0xbf120b23	-0.57048243
9	0xbf1f2cf5	-0.62177974

2.weight f4 [1, 10]
0	0x3e8ef62c	0.2792219
1	0x3eaeffaa	0.3417943
2	0x3ed10ba1	0.40829185
3	0x40594132	3.3946042
4	0xbfd8f3a9	-1.6949359
5	0x3f6e933d	0.9319342
6	0xbfe4a4d9	-1.7862808
7	0x3e94e865	0.29083553
8	0x3e8ad4d9	0.27115515
9	0x3e76cf9e	0.24102637

0.weight f4 [10, 1]
0	0x3f143c46	0.5790447
1	0x3f358710	0.70909214
2	0x3f58c589	0.84676415
3	0xc0808a94	-4.0169163
4	0x40815dc5	4.0426965
5	0xbf929605	-1.1452032
6	0xc0617bc8	-3.52318
7	0xbebd40a0	-0.36963367
8	0x3f0b15e9	0.5433031
9	0x3f1782d6	0.59184015

0.bias f4 [10]
0	0xbd66cf07	-0.05634978
1	0xbd8d5cc3	-0.069024585
2	0xbda8c55e	-0.0824077
3	0x3ec1ea8e	0.37874264
4	0xbf853f53	-1.040995
5	0x3dd90937	0.10597461
6	0x4036df39	2.8573744
7	0x3d0c823c	0.03430389
8	0xbf120b23	-0.57048243
9	0xbf1f2cf5	-0.62177974

2.weight f4 [1, 10]
0	0x3e2fad5e	0.17155978
1	0x3e571307	0.21003352
2	0x3e807149	0.2508643
3	0x406b0487	3.6721513
4	0xbfd251cc	-1.6431212
5	0x3f81aa5e	1.0130117
6	0xbfe59cba	-1.7938454
7	0x3ea29586	0.31754702
8	0x3e8ad4d9	0.27115515
9	0x3e76cf9e	0.24102637

0.weight f4 [10, 1]
0	0x3ef7ce06	0.4839937
1	0x3f17bb21	0.5926991
2	0x3f3530fd	0.70777875
3	0xc084ec7e	-4.1538687
4	0x4087e2d3	4.2464385
5	0xbf977065	-1.1831175
6	0xc0730baf	-3.797588
7	0xbec35b70	-0.381557
8	0x3f0b15e9	0.5433031
9	0x3f1782d6	0.59184015

0.bias f4 [10]
0	0xbd650fa4	-0.05592312
1	0xbd8c8392	-0.068610325
2	0xbda78e8b	-0.08181485
3	0x3ed3c3f5	0.4136044
4	0xbf85c4a7	-1.0450639
5	0x3df136f7	0.11778062
6	0x40438e9d	3.0555794
7	0x3d1a9168	0.037736326
8	0xbf120b23	-0.57048243
9	0xbf1f2cf5	-0.62177974

2.weight f4 [1, 10]
0	0x3dec9180	0.115511894
1	0x3e10b3e0	0.14131117
2	0x3e2ce892	0.16885594
3	0x4067bf26	3.6210418
4	0xbfcf1c11	-1.618044
5	0x3f7ffecb	0.9999816
6	0xbfe184a0	-1.7618599
7	0x3ea0b351	0.31386808
8	0x3e8ad4d9	0.27115515
9	0x3e76cf9e	0.24102637

0.weight f4 [10, 1]
0	0x3ec969c6	0.3933851
1	0x3ef6a54b	0.48172984
2	0x3f1344e3	0.5752699
3	0xc0892718	-4.286022
4	0x408a5db7	4.32394
5	0xbf9c2137	-1.2197636
6	0xc078d686	-3.8880935
7	0xbec93999	-0.39301756
8	0x3f0b15e9	0.5433031
9	0x3f1782d6	0.59184015

0.bias f4 [10]
0	0xbd41dc27	-0.047329094
1	0xbd6d9649	-0.05800465
2	0xbd8dc395	-0.0692207
3	0x3ec3efbe	0.38268846
4	0xbf9366c3	-1.1515735
5	0x3de3f860	0.11131358
6	0x404e8a11	3.227177
7	0x3d131316	0.035906874
8	0xbf120b23	-0.57048243
9	0xbf1f2cf5	-0.62177974

2.weight f4 [1, 10]
0	0x3da6a2d3	0.08136525
1	0x3dcbf361	0.0995853
2	0x3df3a95b	0.11897536
3	0x4061b9f2	3.5269742
4	0xbfc687b1	-1.551016
5	0x3f7991ac	0.974879
6	0xbfd03f14	-1.626925
7	0x3e9ce11f	0.30640504
8	0x3e8ad4d9	0.27115515
9	0x3e76cf9e	0.24102637

0.weight f4 [10, 1]
0	0x3ea4b115	0.32166353
1	0x3ec9a924	0.39386857
2	0x3ef0d2d1	0.4703584
3	0xc08d3ebd	-4.4139085
4	0x408ca552	4.3951807
5	0xbfa0a9b9	-1.2551795
6	0xc080d10f	-4.02552
7	0xbeceff77	-0.4042928
8	0x3f0b15e9	0.5433031
9	0x3f1782d6	0.59184015

0.bias f4 [10]
0	0xbd1296b9	-0.03578827
1	0xbd34967b	-0.04408882
2	0xbd57947e	-0.052631848
3	0x3eda9de8	0.42698598
4	0xbf8dc5bd	-1.107597
5	0x3dfc595c	0.123217314
6	0x40532351	3.2990305
7	0x3d23327f	0.03984308
8	0xbf120b23	-0.57048243
9	0xbf1f2cf5	-0.62177974

2.weight f4 [1, 10]
0	0x3da52504	0.08063701
1	0x3dca3c02	0.09874727
2	0x3df18ddd	0.117946364
3	0x405c97c7	3.4467638
4	0xbfc5e1e2	-1.5459559
5	0x3f7438e8	0.9539933
6	0xbfd8c207	-1.6934212
7	0x3e99a0c7	0.30005476
8	0x3e8ad4d9	0.27115515
9	0x3e76cf9e	0.24102637

0.weight f4 [10, 1]
0	0x3e83657f	0.25663373
1	0x3ea0e9a2	0.31428248
2	0x3ec02a41	0.37532237
3	0xc090e894	-4.528391
4	0x408e570f	4.4481273
5	0xbfa4bf66	-1.287091
6	0xc083454d	-4.1022096
7	0xbed41e26	-0.4142925
8	0x3f0b15e9	0.5433031
9	0x3f1782d6	0.59184015

0.bias f4 [10]
0	0xbcebf29b	-0.028802207
1	0xbd109329	-0.035296593
2	0xbd2c592e	-0.042077236
3	0x3eda8d32	0.42685848
4	0xbf8ef6fb	-1.1169122
5	0x3df97469	0.121804066
6	0x40545603	3.3177497
7	0x3d227f7a	0.039672352
8	0xbf120b23	-0.57048243
9	0xbf1f2cf5	-0.62177974

2.weight f4 [1, 10]
0	0x3d40b0be	0.047043554
1	0x3d6bb48b	0.057545226
2	0x3d8cffdb	0.06884738
3	0x40568ff1	3.3525355
4	0xbfc69318	-1.551364
5	0x3f6dd0af	0.9289655
6	0xbfd24faf	-1.6430568
7	0x3e95bfe7	0.29247972
8	0x3e8ad4d9	0.27115515
9	0x3e76cf9e	0.24102637

0.weight f4 [10, 1]
0	0x3e5f64c4	0.21815783
1	0x3e88c96a	0.26716167
2	0x3ea359d2	0.31904465
3	0xc0945be8	-4.636219
4	0x408e50b9	4.447354
5	0xbfa895be	-1.3170698
6	0xc084cb24	-4.1497974
7	0xbed8f99b	-0.42377934
8	0x3f0b15e9	0.5433031
9	0x3f1782d6	0.59184015

0.bias f4 [10]
0	0xbcc8de48	-0.024520054
1	0xbcf5aa78	-0.029988512
2	0xbd13945d	-0.036030162
3	0x3ed9b3ca	0.4251998
4	0xbf91ff69	-1.140607
5	0x3df78422	0.12085749
6	0x4055c273	3.3399932
7	0x3d202e11	0.039106432
8	0xbf120b23	-0.57048243
9	0xbf1f2cf5	-0.62177974

2.weight f4 [1, 10]
0	0x3d5081b6	0.050904952
1	0x3d7f3c79	0.06231353
2	0x3d9874df	0.074441664
3	0x4051c965	3.2779171
4	0xbfc0ea55	-1.5071512
5	0x3f68ca20	0.9093342
6	0xbfd4caa1	-1.6624337
7	0x3e92b618	0.28654552
8	0x3e8ad4d9	0.27115515
9	0x3e76cf9e	0.24102637

0.weight f4 [10, 1]
0	0x3e340543	0.17580132
1	0x3e5c7542	0.21529105
2	0x3e83a5b8	0.2571237
3	0xc0981991	-4.753121
4	0x408de23b	4.433866
5	0xbfacc38d	-1.3497177
6	0xc0839927	-4.1124454
7	0xbede3c8d	-0.43405572
8	0x3f0b15e9	0.5433031
9	0x3f1782d6	0.59184015

0.bias f4 [10]
0	0xbca71ae7	-0.02039857
1	0xbcccaa5b	-0.024983576
2	0xbcf499d0	-0.0298585
3	0x3ee90023	0.45507917
4	0xbf96692e	-1.1750848
5	0x3e042a21	0.12906696
6	0x4058edca	3.3895135
7	0x3d2a445b	0.041569095
8	0xbf120b23	-0.57048243
9	0xbf1f2cf5	-0.62177974

2.weight f4 [1, 10]
0	0x3d1270b3	0.03575201
1	0x3d33301e	0.04374706
2	0x3d55f277	0.052233186
3	0x404ba471	3.1819117
4	0xbfbba8c0	-1.4660873
5	0x3f6237f7	0.88366646
6	0xbfce6d73	-1.6127151
7	0x3e8ec20e	0.27882427
8	0x3e8ad4d9	0.27115515
9	0x3e76cf9e	0.24102637

0.weight f4 [10, 1]
0	0x3e1b11af	0.15143465
1	0x3e3de9df	0.18546246
2	0x3e62cb42	0.22147849
3	0xc09b649f	-4.856033
4	0x408ffcbc	4.4996014
5	0xbfb06b89	-1.3782817
6	0xc084cb57	-4.1498218
7	0xbee2e1b9	-0.44312838
8	0x3f0b15e9	0.5433031
9	0x3f1782d6	0.59184015

0.bias f4 [10]
0	0xbcb63a2b	-0.022244534
1	0xbcde024b	-0.027100703
2	0xbd054799	-0.032538984
3	0x3eed696e	0.463695
4	0xbf922a34	-1.1419129
5	0x3e072cf9	0.1320075
6	0x40596c6d	3.3972428
7	0x3d2db73a	0.042411067
8	0xbf120b23	-0.57048243
9	0xbf1f2cf5	-0.62177974

2.weight f4 [1, 10]
0	0x3d11de3d	0.035612334
1	0x3d32945f	0.04359853
2	0x3d554e1b	0.05207644
3	0x4048413b	3.1289814
4	0xbfc3249b	-1.5245546
5	0x3f5eac44	0.86981606
6	0xbfd045b2	-1.6271269
7	0x3e8ca67b	0.27470765
8	0x3e8ad4d9	0.27115515
9	0x3e76cf9e	0.24102637
