dis/dis03/code/ckpts/sgd/width20/seed818/ckpt_and_history.pt (torch, 15999 bytes, 33 tensors)

0.weight f4 [20, 1]
-0.4390015 -0.8795212 0.73488843 -0.6160562 -0.70572805 0.1814903 0.8110189 0.63238525
-0.41776887 0.3421356 -0.58041626 -0.18215267 -0.09156878 -0.6937169 0.7119369 0.7103229
-0.35038006 0.87895304 0.65732837 0.41897392
00000000: cec4 e0be 4d28 61bf a621 3c3f dcb5 1dbf
00000010: 98aa 34bf 98d8 393e ef9e 4f3f 00e4 213f
00000020: cde5 d5be 662c af3e 2996 14bf 3b86 3abe
00000030: 6a88 bbbd 6e97 31bf 7f41 363f b9d7 353f
00000040: 0465 b3be 1103 613f ac46 283f c083 d63e

0.bias f4 [20]
0.08189288 0.1716698 -0.15616778 0.15613803 0.22224042 -0.065025486 -0.29236823 -0.23256227
0.15760097 -0.15436509 0.29921725 0.11137367 0.063730694 0.48337254 -0.5765973 -0.5784375
0.295913 -0.7506567 -0.6184284 -0.41406024
00000000: 74b7 a73d 35ca 2f3e 72ea 1fbe a6e2 1f3e
00000010: fe92 633e 152c 85bd 4ab1 95be ce24 6ebe
00000020: 2662 213e e211 1ebe 0133 993e e117 e43d
00000030: 3d85 823d 9b7c f73e e19b 13bf 7b14 14bf
00000040: e981 973e 0a2b 40bf 5351 1ebf b4ff d3be

2.weight f4 [1, 20]
-0.09522177 0.15702316 -0.06146415 -0.035262365 0.18127805 0.03603469 -0.041771345 0.093952775
-0.042335887 -0.18822545 0.11865891 -0.09614337 -0.013842169 0.12979563 0.12683731 0.18266143
-0.07042578 0.021884711 -0.18970671 0.13086447
00000000: a203 c3bd aeca 203e d5c1 7bbd 456f 10bd
00000010: f4a0 393e 1c99 133d 6e18 2bbd 506a c03d
00000020: 6568 2dbd 2cbe 40be 7103 f33d d1e6 c4bd
00000030: 44ca 62bc 25e9 043e a4e1 013e 990b 3b3e
00000040: 643b 90bd 9147 b33c 7a42 42be 5601 063e

0.weight f4 [20, 1]
-0.6583564 -0.9059851 0.7965032 -0.8572227 -0.7330288 0.18683009 0.92336214 0.66421217
-0.62979525 0.47477484 -0.71479803 -0.32429457 -0.13996178 -0.8502229 0.6464976 0.64652854
-0.58680165 1.1226231 1.025612 0.41700438
00000000: 0c8a 28bf a4ee 67bf a2e7 4b3f f272 5bbf
00000010: c7a7 3bbf 6350 3f3e 7661 6c3f cf09 2a3f
00000020: 433a 21bf b015 f33e 01fd 36bf f009 a6be
00000030: 2452 0fbe 35a8 59bf de80 253f e582 253f
00000040: a238 16bf 1db2 8f3f 4147 833f 9981 d53e

0.bias f4 [20]
0.18924098 0.09863824 -0.23717748 0.24678469 0.079533175 -0.05568758 -0.2746449 -0.19764808
0.18116671 -0.14171694 0.20554371 0.24488473 0.10558533 0.6407349 -0.64480525 -0.64500326
0.44250035 -0.85496897 -0.7825889 -0.41603503
00000000: 63c8 413e d802 ca3d a7de 72be 20b5 7c3e
00000010: 4ae2 a23d a918 64bd 429e 8cbe 4264 4abe
00000020: c483 393e 3f1e 11be 0d7a 523e 10c3 7a3e
00000030: 1f3d d83d 3407 243f f511 25bf ef1e 25bf
00000040: 688f e23e 3fdf 5abf bf57 48bf 8b02 d5be

2.weight f4 [1, 20]
-0.5271213 0.22822165 -0.36057496 -0.62597424 0.17036505 -0.047159992 -0.43126804 -0.18963148
-0.48074773 -0.37055486 -0.37512216 -0.35567433 -0.13492337 -0.65648 0.10231779 0.16789797
-0.5741171 -0.8085432 -0.9390049 0.1308352
00000000: 6cf1 06bf f0b2 693e 489d b8be d93f 20bf
00000010: 2d74 2e3e d62a 41bd 2acf dcbe c12e 42be
00000020: 9124 f6be 5eb9 bdbe 0310 c0be f21a b6be
00000030: 5a29 0abe 130f 28bf fd8b d13d 72ed 2b3e
00000040: 57f9 12bf b0fc 4ebf a062 70bf aaf9 053e

0.weight f4 [20, 1]
-0.6918664 -1.0033052 0.8439658 -0.89735454 -0.8077146 0.19384526 0.9797232 0.6914954
-0.66046935 0.520344 -0.7395756 -0.36388773 -0.15468977 -0.9196284 0.6464976 0.64652854
-0.64972115 1.3408209 1.2728995 0.41700438
00000000: 281e 31bf 4e6c 80bf 250e 583f 07b9 65bf
00000010: 62c6 4ebf 5f7f 463e 24cf 7a3f d805 313f
00000020: 8514 29bf 4435 053f d454 3dbf 7e4f babe
00000030: ff66 1ebe c46c 6bbf de80 253f e582 253f
00000040: 2054 26bf 05a0 ab3f 5fee a23f 9981 d53e

0.bias f4 [20]
0.19157346 0.12743688 -0.2332463 0.24876231 0.102662094 -0.05381621 -0.2708229 -0.19175328
0.18305601 -0.14333557 0.20531912 0.29117253 0.12379678 0.73543656 -0.64480525 -0.64500326
0.5195538 -1.0709865 -1.0164566 -0.41603503
00000000: d52b 443e d07e 023e 1ed8 6ebe 8cbb 7e3e
00000010: 8140 d23d 636e 5cbd 4da9 8abe f95a 44be
00000020: 0973 3b3e 8fc6 12be 2d3f 523e 9114 953e
00000030: 2b89 fd3d 9245 3c3f f511 25bf ef1e 25bf
00000040: 7a01 053f 1616 89bf 401b 82bf 8b02 d5be

2.weight f4 [1, 20]
-0.56765544 0.49399891 -0.44948357 -0.67880094 0.38482475 -0.06832159 -0.5341955 -0.2646654
-0.5195436 -0.42222956 -0.4192601 -0.41672605 -0.16130371 -0.81710863 0.10231779 0.16789797
-0.68469685 -1.2659259 -1.3656433 0.1308352
00000000: de51 11bf 6ded fc3e b622 e6be e6c5 2dbf
00000010: c007 c53e 31ec 8bbd 09c1 08bf 3982 87be
00000020: cf00 05bf 792e d8be 43a9 d6be 1e5d d5be
00000030: cd2c 25be 082e 51bf fd8b d13d 72ed 2b3e
00000040: 4b48 2fbf dc09 a2bf 66cd aebf aaf9 053e

0.weight f4 [20, 1]
-0.68810326 -1.1814548 0.85009825 -0.8930092 -0.9475457 0.19473958 0.98703897 0.694956
-0.6571562 0.5265089 -0.73727554 -0.38804802 -0.16402492 -0.9664179 0.6464976 0.64652854
-0.68919605 1.482197 1.4244312 0.41700438
00000000: 8927 30bf e939 97bf 0aa0 593f 409c 64bf
00000010: 5b92 72bf d069 473e 96ae 7c3f a3e8 313f
00000020: 643b 28bf 4ac9 063f 17be 3cbf 3bae c6be
00000030: 26f6 27be 2a67 77bf de80 253f e582 253f
00000040: 276f 30bf a2b8 bd3f c353 b63f 9981 d53e

0.bias f4 [20]
0.18999667 0.1438541 -0.23844925 0.24615267 0.115316145 -0.05443995 -0.27705878 -0.19443752
0.18110569 -0.14886749 0.20208557 0.31024247 0.13120419 0.7737551 -0.64480525 -0.64500326
0.5512182 -1.19609 -1.1494445 -0.41603503
00000000: 7d8e 423e 7d4e 133e 0a2c 74be 720f 7c3e
00000010: df2a ec3d 6dfc 5ebd a6da 8dbe a11a 47be
00000020: c573 393e b870 18be 85ef 4e3e 1ad8 9e3e
00000030: 645a 063e d014 463f f511 25bf ef1e 25bf
00000040: a31c 0d3f 7a19 99bf ff20 93bf 8b02 d5be

2.weight f4 [1, 20]
-0.5611759 0.7978113 -0.45808846 -0.6704843 0.62892777 -0.07083586 -0.54400915 -0.27330607
-0.51340103 -0.4254925 -0.41265526 -0.44362643 -0.17298004 -0.88863623 0.10231779 0.16789797
-0.7336502 -1.5104629 -1.5991839 0.1308352
00000000: 39a9 0fbf 5d3d 4c3f 928a eabe dca4 2bbf
00000010: 6901 213f 6412 91bd 2f44 0bbf c6ee 8bbe
00000020: 406e 03bf 27da d9be 8d47 d3be 0123 e3be
00000030: ae21 31be aa7d 63bf fd8b d13d 72ed 2b3e
00000040: 80d0 3bbf d956 c1bf 0fb2 ccbf aaf9 053e

0.weight f4 [20, 1]
-0.7023455 -1.4115773 0.8581457 -0.9100366 -1.1294098 0.19602554 0.9966738 0.69991285
-0.6700844 0.5340255 -0.7477126 -0.3997823 -0.16848412 -0.9893826 0.6464976 0.64652854
-0.70810425 1.5534723 1.4995457 0.41700438
00000000: eacc 33bf 91ae b4bf 70af 5b3f 29f8 68bf
00000010: 8090 90bf ebba 483e 0426 7f3f 7d2d 333f
00000020: a78a 2bbf e5b5 083f 186a 3fbf 44b0 ccbe
00000030: 1a87 2cbe 2e48 7dbf de80 253f e582 253f
00000040: 5246 35bf 2ed8 c63f 1df1 bf3f 9981 d53e

0.bias f4 [20]
0.18491791 0.18199961 -0.22877665 0.239918 0.1456823 -0.052424915 -0.2654249 -0.186979
0.17677805 -0.14204656 0.19831038 0.32921198 0.13872299 0.81213015 -0.64480525 -0.64500326
0.583137 -1.2558167 -1.2126064 -0.41603503
00000000: 1f5b 3d3e 1b5e 3a3e 6d44 6abe 10ad 753e
00000010: be2d 153e 82bb 56bd c6e5 87be 6c77 3fbe
00000020: 4e05 353e a774 11be e011 4b3e 798e a83e
00000030: 660d 0e3e c3e7 4f3f f511 25bf ef1e 25bf
00000040: 7748 153f 9abe a0bf b036 9bbf 8b02 d5be

2.weight f4 [1, 20]
-0.57567245 1.1150364 -0.4628152 -0.6893615 0.88303006 -0.072366595 -0.5493286 -0.27849394
-0.5272651 -0.42659563 -0.42842293 -0.45996374 -0.18011314 -0.93272495 0.10231779 0.16789797
-0.7635295 -1.6253394 -1.7097791 0.1308352
00000000: 455f 13bf 83b9 8e3f 1df6 ecbe ff79 30bf
00000010: 420e 623f f034 94bd cda0 0cbf c296 8ebe
00000020: d8fa 06bf be6a dabe 405a dbbe 5e80 ebbe
00000030: 946f 38be 10c7 6ebf fd8b d13d 72ed 2b3e
00000040: ab76 43bf 1f0b d0bf 0bda dabf aaf9 053e

0.weight f4 [20, 1]
-0.7373041 -1.6753856 0.8685718 -0.95197266 -1.3385721 0.19761768 1.0089846 0.70605785
-0.70218307 0.5440633 -0.7742814 -0.41142073 -0.1730684 -1.0127182 0.6464976 0.64652854
-0.7275925 1.5863667 1.5343213 0.41700438
00000000: f6bf 3cbf 0973 d6bf b95a 5e3f 7bb4 73bf
00000010: 5556 abbf 4a5c 4a3e 6826 813f 35c0 343f
00000020: 45c2 33bf bc47 0b3f 4e37 46bf bda5 d2be
00000030: d838 31be c0a0 81bf de80 253f e582 253f
00000040: 8143 3abf 100e cb3f a464 c43f 9981 d53e

0.bias f4 [20]
0.1980255 0.19210304 -0.23820719 0.25573966 0.15370928 -0.053759914 -0.27698195 -0.19227444
0.18865739 -0.15119056 0.2074963 0.33346918 0.14030395 0.8203618 -0.64480525 -0.64500326
0.5897967 -1.2858142 -1.2438453 -0.41603503
00000000: 32c7 4a3e a9b6 443e 96ec 73be 4ff0 823e
00000010: f765 1d3e 5b33 5cbd 94d0 8dbe 97e3 44be
00000020: 672f 413e b3d1 1abe e979 543e 79bc aa3e
00000030: d7ab 0f3e 3b03 523f f511 25bf ef1e 25bf
00000040: ebfc 163f 8f95 a4bf 5336 9fbf 8b02 d5be

2.weight f4 [1, 20]
-0.62085634 1.4346665 -0.4809196 -0.74786955 1.1385776 -0.07694079 -0.57019347 -0.2945588
-0.57037115 -0.43615392 -0.47645614 -0.46574932 -0.18276614 -0.9502077 0.10231779 0.16789797
-0.7745708 -1.6790696 -1.7616445 0.1308352
00000000: 71f0 1ebf 27a3 b73f 183b f6be 6174 3fbf
00000010: e9bc 913f 2293 9dbd 33f8 11bf 69d0 96be
00000020: d803 12bf 914f dfbe 0ff2 f3be b276 eebe
00000030: 0c27 3bbe d040 73bf fd8b d13d 72ed 2b3e
00000040: 464a 46bf c1eb d6bf 917d e1bf aaf9 053e

0.weight f4 [20, 1]
-0.79223317 -1.9447188 0.88529 -1.0183628 -1.5524888 0.20024888 1.0288209 0.71615386
-0.7527538 0.55973166 -0.81712276 -0.42204824 -0.17721397 -1.0337036 0.6464976 0.64652854
-0.74509144 1.5967377 1.5451528 0.41700438
00000000: cbcf 4abf 8cec f8bf 5ea2 623f b659 82bf
00000010: f4b7 c6bf 0b0e 4d3e 67b0 833f dc55 373f
00000020: 79b4 40bf 934a 0f3f f52e 51bf b516 d8be
00000030: 9477 35be 6650 84bf de80 253f e582 253f
00000040: 50be 3ebf e761 cc3f 91c7 c53f 9981 d53e

0.bias f4 [20]
0.21202512 0.21646205 -0.23914436 0.27263668 0.17267603 -0.053875566 -0.27815744 -0.19276966
0.2014412 -0.1515563 0.21853843 0.34389368 0.14436807 0.8416763 -0.64480525 -0.64500326
0.60711616 -1.3005047 -1.259288 -0.41603503
00000000: 1d1d 593e 3aa8 5d3e 42e2 74be 0997 8b3e
00000010: fcd1 303e a0ac 5cbd a76a 8ebe 6965 45be
00000020: 9a46 4e3e 9331 1bbe 8ac8 5f3e d512 b03e
00000030: 39d5 133e 1978 573f f511 25bf ef1e 25bf
00000040: f76b 1b3f f076 a6bf 5930 a1bf 8b02 d5be

2.weight f4 [1, 20]
-0.6883768 1.743385 -0.5050811 -0.8349153 1.3851329 -0.08289999 -0.5981107 -0.31556076
-0.6346206 -0.4494636 -0.54689485 -0.47497234 -0.18684335 -0.97582424 0.10231779 0.16789797
-0.7916033 -1.6995429 -1.7814041 0.1308352
00000000: 7639 30bf 3d27 df3f ff4c 01bf 02bd 55bf
00000010: 094c b13f 78c7 a9bd c81d 19bf 2e91 a1be
00000020: 7f76 22bf 1820 e6be 4d01 0cbf 932f f3be
00000030: dd53 3fbe 9ecf 79bf fd8b d13d 72ed 2b3e
00000040: 84a6 4abf 9f8a d9bf 0d05 e4bf aaf9 053e

0.weight f4 [20, 1]
-0.8498549 -2.2053318 0.90063065 -1.0884763 -1.759623 0.2027199 1.0470182 0.72558254
-0.80594534 0.5734453 -0.8635587 -0.42918766 -0.18007112 -1.0484781 0.6464976 0.64652854
-0.75720054 1.6006075 1.5492059 0.41700438
00000000: 1790 59bf 2824 0dc0 bb8f 663f 3153 8bbf
00000010: 543b e1bf ce95 4f3e b104 863f c7bf 393f
00000020: 6f52 4ebf 50cd 123f 2f12 5dbf 7cbe dbbe
00000030: 9064 38be 8834 86bf de80 253f e582 253f
00000040: e5d7 41bf b5e0 cc3f 614c c63f 9981 d53e

0.bias f4 [20]
0.22414018 0.23873061 -0.23729041 0.28718558 0.1903838 -0.053528987 -0.27592272 -0.19154623
0.2126169 -0.15075761 0.22805329 0.35220876 0.14754431 0.858027 -0.64480525 -0.64500326
0.62057483 -1.3051589 -1.2641655 -0.41603503
00000000: 0185 653e cc75 743e 42fc 72be fd09 933e
00000010: f9f3 423e 3641 5bbd be45 8dbe b224 44be
00000020: 3fb8 593e 3460 1abe cd86 693e b554 b43e
00000030: db15 173e a8a7 5b3f f511 25bf ef1e 25bf
00000040: fedd 1e3f 720f a7bf 2dd0 a1bf 8b02 d5be

2.weight f4 [1, 20]
-0.75667846 2.0315678 -0.5244333 -0.92258656 1.6151323 -0.087732755 -0.620425 -0.33256838
-0.6994722 -0.45980397 -0.6169496 -0.4799033 -0.1891078 -0.9907287 0.10231779 0.16789797
-0.8010292 -1.7062353 -1.7878433 0.1308352
00000000: aeb5 41bf 3505 0240 4341 06bf a22e 6cbf
00000010: a8bc ce3f 3bad b3bd 2cd4 1ebf 6746 aabe
00000020: 9c10 33bf 6d6b ebbe 69f0 1dbf e3b5 f5be
00000030: 7aa5 41be 65a0 7dbf fd8b d13d 72ed 2b3e
00000040: 4010 4dbf eb65 dabf 0dd8 e4bf aaf9 053e

0.weight f4 [20, 1]
-0.9087439 -2.4452012 0.9125548 -1.1604563 -1.9503818 0.20467962 1.0611901 0.73302245
-0.86039895 0.5841365 -0.9121485 -0.43875688 -0.183795 -1.0674844 0.6464976 0.64652854
-0.77293396 1.5984643 1.5469646 0.41700438
00000000: 71a3 68bf 2d7e 1cc0 319d 693f d589 94bf
00000010: 1ca6 f9bf 8997 513e 14d5 873f 5ca7 3b3f
00000020: 1b43 5cbf f889 153f 9082 69bf bea4 e0be
00000030: c234 3cbe 54a3 88bf de80 253f e582 253f
00000040: 00df 45bf 7a9a cc3f f002 c63f 9981 d53e

0.bias f4 [20]
0.24008209 0.25971064 -0.2453714 0.30651563 0.20693363 -0.054791696 -0.2853177 -0.19644915
0.22749843 -0.1579984 0.24079765 0.35429168 0.1483801 0.86258537 -0.64480525 -0.64500326
0.6241768 -1.3126082 -1.27197 -0.41603503
00000000: 14d8 753e cbf8 843e a442 7bbe 9eef 9c3e
00000010: 69e6 533e 426d 60bd 2915 92be f729 49be
00000020: 59f5 683e 55ca 21be a993 763e b865 b53e
00000030: f4f0 173e 65d2 5c3f f511 25bf ef1e 25bf
00000040: 0dca 1f3f 8c03 a8bf eacf a2bf 8b02 d5be

2.weight f4 [1, 20]
-0.8260673 2.2911997 -0.54143304 -1.0113426 1.8222488 -0.092015475 -0.64003074 -0.34761178
-0.76522887 -0.46870565 -0.68710953 -0.48236382 -0.19032866 -0.9994725 0.10231779 0.16789797
-0.80607206 -1.7094295 -1.7908976 0.1308352
00000000: 2679 53bf 04a3 1240 5b9b 0abf ad73 81bf
00000010: 733f e93f 9c72 bcbd 0ed9 23bf 2cfa b1be
00000020: 0ae6 43bf 30fa efbe 69e6 2fbf 64f8 f6be
00000030: 84e5 42be 6edd 7fbf fd8b d13d 72ed 2b3e
00000040: bd5a 4ebf 96ce dabf 223c e5bf aaf9 053e

0.weight f4 [20, 1]
-0.9648512 -2.6461535 0.93086696 -1.2291465 -2.110188 0.20776205 1.0828183 0.744705
-0.9123866 0.6001306 -0.95912796 -0.44035897 -0.18429342 -1.0700679 0.6464976 0.64652854
-0.77518886 1.5947968 1.5437751 0.41700438
00000000: 7d00 77bf 945a 29c0 4c4d 6e3f ac54 9dbf
00000010: 520d 07c0 93bf 543e ca99 8a3f fda4 3e3f
00000020: 2b92 69bf 29a2 193f 6989 75bf bb76 e1be
00000030: 6ab7 3cbe fcf7 88bf de80 253f e582 253f
00000040: c772 46bf 4d22 cc3f 6c9a c53f 9981 d53e

0.bias f4 [20]
0.25187436 0.28010973 -0.23862419 0.32130846 0.2235508 -0.05358189 -0.27748975 -0.19187707
0.23851767 -0.15254496 0.25072604 0.36500633 0.15271707 0.88501143 -0.64480525 -0.64500326
0.6423931 -1.3125763 -1.2711428 -0.41603503
00000000: adf5 803e 8b6a 8f3e e659 74be 8b82 a43e
00000010: 80ea 643e af78 5bbd 2313 8ebe 6c7b 44be
00000020: fa3d 743e bf34 1cbe 2a5f 803e 1ce2 ba3e
00000030: dd61 1c3e 1c90 623f f511 25bf ef1e 25bf
00000040: e073 243f 8002 a8bf cfb4 a2bf 8b02 d5be

2.weight f4 [1, 20]
-0.89020133 2.5061934 -0.5622933 -1.0931474 1.9937166 -0.09711386 -0.66413784 -0.36561117
-0.82591695 -0.4803312 -0.7512137 -0.48462152 -0.19143116 -1.0073342 0.10231779 0.16789797
-0.8106354 -1.7054487 -1.7870077 0.1308352
00000000: 3ce4 63bf 7965 2040 74f2 0fbf 41ec 8bbf
00000010: 1b32 ff3f a2e3 c6bd f004 2abf 6331 bbbe
00000020: 4b6f 53bf f9ed f5be 8b4f 40bf 5020 f8be
00000030: 8806 44be 54f0 80bf fd8b d13d 72ed 2b3e
00000040: cd85 4fbf 254c dabf abbc e4bf aaf9 053e

0.weight f4 [20, 1]
-1.0132949 -2.8123114 0.93817675 -1.2888031 -2.2423959 0.2089703 1.0915288 0.74933106
-0.957432 0.6066443 -1.0003154 -0.44721496 -0.18706645 -1.0844661 0.6464976 0.64652854
-0.7868298 1.5900929 1.5392784 0.41700438
00000000: a6b3 81bf e9fc 33c0 5a2c 703f 80f7 a4bf
00000010: 6a83 0fc0 4ffc 553e 37b7 8b3f 29d4 3f3f
00000020: 431a 75bf 0a4d 1b3f 560a 80bf 5cf9 e4be
00000030: 598e 3fbe c9cf 8abf de80 253f e582 253f
00000040: ae6d 49bf 2a88 cb3f 1307 c53f 9981 d53e

0.bias f4 [20]
0.26229057 0.29081318 -0.24630469 0.33373442 0.23198259 -0.054877892 -0.2863585 -0.1966568
0.2479113 -0.15928367 0.25917792 0.36252576 0.15162379 0.8790247 -0.64480525 -0.64500326
0.63790125 -1.3102474 -1.2681801 -0.41603503
00000000: f34a 863e 77e5 943e 4c37 7cbe 3ddf aa3e
00000010: d88c 6d3e a4c7 60bd 959d 92be 6660 49be
00000020: 76dc 7d3e 421b 23be f8b2 843e fa9c b93e
00000030: 4443 1b3e c307 613f f511 25bf ef1e 25bf
00000040: 7f4d 233f 30b6 a7bf ba53 a2bf 8b02 d5be

2.weight f4 [1, 20]
-0.9449737 2.681801 -0.5705332 -1.1628824 2.133743 -0.099386215 -0.6735727 -0.37348816
-0.87769914 -0.48387346 -0.8055159 -0.48166436 -0.19036524 -1.00259 0.10231779 0.16789797
-0.8060666 -1.6987208 -1.7804534 0.1308352
00000000: cce9 71bf a1a2 2b40 770e 12bf 55d9 94bf
00000010: 3f8f 0840 008b cbbd 436f 2cbf d739 bfbe
00000020: e4b0 60bf 43be f7be 4a36 4ebf b69c f6be
00000030: 1bef 42be de54 80bf fd8b d13d 72ed 2b3e
00000040: 615a 4ebf af6f d9bf e6e5 e3bf aaf9 053e
