q_relu_optim/ckpts/sgd/width40/seed216/ckpt_and_history.pt (torch, 18111 bytes, 33 tensors)

0.weight f4 [40, 1]
-0.29505312 0.4062739 -0.8818201 0.03883803 -0.21389103 0.5131677 0.35223836 -0.5662461
0.9361389 -0.84892815 0.038437407 0.53104305 -0.91745013 -0.7729858 -0.3504721 -0.7224492
-0.7666988 0.7241598 0.65405077 -0.8411656 0.40679646 -0.83040464 -0.3426302 0.28738225
-0.33164093 0.65637004 0.82153565 -0.26435646 0.53063935 0.29958552 0.47647804 0.45803547
-0.33471876 -0.46887577 0.81244886 -0.30282286 0.5152808 0.8687465 0.2758138 -0.38640907
00000000: 3411 97be 2203 d03e f6be 61bf a014 1f3d
00000010: 4006 5bbe f55e 033f 9658 b43e 81f5 10bf
00000020: cda6 6f3f 5b53 59bf 8b70 1d3d 70f2 073f
00000030: 03de 6abf 66e2 45bf 1471 b3be 6ef2 38bf
00000040: 5f46 44bf 8962 393f df6f 273f a156 57bf
00000050: a047 d03e 6695 54bf 3a6d afbe c423 933e
00000060: d7cc a9be de07 283f 2950 523f bb59 87be
00000070: fbd7 073f 4663 993e eef4 f33e a083 ea3e
00000080: 4260 abbe 7c10 f0be a6fc 4f3f 990b 9bbe
00000090: 71e9 033f 2c66 5e3f 7737 8d3e 69d7 c5be

0.bias f4 [40]
0.0006973809 -0.024351295 0.058915142 -0.0041718585 0.031265277 -0.090832025 -0.06390393 0.10454569
-0.20579158 0.20000046 -0.010641937 -0.15306655 0.2691543 0.2402436 0.10885724 0.24041086
0.26715484 -0.28398332 -0.25851798 0.33377662 -0.1679409 0.34577268 0.14443348 -0.12345619
0.1441039 -0.29138067 -0.3922635 0.13761446 -0.33013916 -0.18994886 -0.30198094 -0.29492468
0.22176677 0.31003976 -0.58907557 0.22283871 -0.39045125 -0.6721694 -0.2252792 0.3502058
00000000: 71d0 363a 5e7c c7bc 0151 713d 16b4 88bb
00000010: 0510 003d 2406 babd 10e0 82bd 0d1c d63d
00000020: 07bb 52be eccc 4c3e 855b 2ebc 7abd 1cbe
00000030: 98ce 893e 6b02 763e 8bf0 de3d 442e 763e
00000040: 85c8 883e 4366 91be 785c 84be c5e4 aa3e
00000050: b3f8 2bbe 1e09 b13e 5fe6 133e 99d6 fcbd
00000060: f98f 133e d92f 95be c3d6 c8be ceea 0c3e
00000070: 0008 a9be f481 42be 3f9d 9abe 5e00 97be
00000080: d416 633e 88bd 9e3e a8cd 16bf d52f 643e
00000090: 3ae9 c7be 4b13 2cbf 97af 66be 2d4e b33e

2.weight f4 [1, 40]
0.10836458 -0.022261523 -0.08817147 0.0844878 0.11881091 0.06929078 -0.14983363 -0.09598117
-0.14709711 0.083170116 0.04524517 -0.06320376 -0.13663915 0.038755227 0.088707305 -0.12055634
-0.1292785 -0.08296313 -0.10649562 -0.11805814 -0.10910204 -0.0025966854 -0.13137074 0.00020555378
-0.022651337 0.12969272 0.09269466 0.02561227 -0.058384907 0.025578871 0.08928414 0.025154842
-0.03851439 0.14347662 -0.06284603 0.1117639 -0.11733957 -0.080849394 -0.02016181 0.0742057
00000000: 40ee dd3d cc5d b6bc 3e93 b4bd f107 ad3d
00000010: 2253 f33d 53e8 8d3d fd6d 19be c791 c4bd
00000020: a0a0 16be 1855 aa3d 0053 393d f970 81bd
00000030: 22eb 0bbe cdbd 1e3d 2dac b53d 3ee6 f6bd
00000040: 9561 04be 93e8 a9bd 601a dabd 77c8 f1bd
00000050: e470 dfbd 272d 2abb 0d86 06be ec89 5739
00000060: 4c8f b9bc 2bce 043e b3d6 bd3d d3d0 d13c
00000070: 0325 6fbd c88a d13c 9ada b63d 8711 ce3c
00000080: 44c1 1dbd 89eb 123e 6bb5 80bd 79e4 e43d
00000090: ba4f f0bd 5e94 a5bd 612a a5bc 28f9 973d

0.weight f4 [40, 1]
-0.3214986 0.43539867 -0.88040733 0.083268784 -0.24451339 0.5980761 0.37895593 -0.63019025
0.96286887 -0.85129374 0.064550444 0.55417484 -1.0531173 -0.82804054 -0.37527537 -0.84474313
-0.9013269 0.7791723 0.7114313 -0.9925222 0.45426738 -0.9356835 -0.4424583 0.30308488
-0.38487005 0.7191421 0.8893015 -0.26499265 0.6425497 0.3401043 0.56018794 0.47517815
-0.44379798 -0.5356836 1.0264928 -0.35482576 0.70627373 1.1302894 0.36131516 -0.36393204
00000000: 779b a4be 93ec de3e 6062 61bf d388 aa3d
00000010: b861 7abe 841b 193f 8306 c23e 2654 21bf
00000020: 937e 763f 63ee 59bf 0633 843d 67de 0d3f
00000030: 8ccc 86bf 77fa 53bf 1824 c0be 1641 58bf
00000040: 5cbd 66bf d677 473f 5d20 363f ef15 7ebf
00000050: bc95 e83e f488 6fbf e589 e2be f12d 9b3e
00000060: b00d c5be b219 383f 43a9 633f 1ead 87be
00000070: 237e 243f 2722 ae3e 7a68 0f3f 8d4a f33e
00000080: 7d39 e3be 8f22 09bf 1e64 833f b9ab b5be
00000090: 5bce 343f 53ad 903f 4dfe b83e 4d55 babe

0.bias f4 [40]
0.039765995 -0.05438008 0.0015270229 -0.010557556 0.030158978 -0.07462013 -0.115081765 0.18999985
-0.29000562 0.1715446 -0.00806391 -0.16694291 0.3176628 0.24803877 0.046483573 0.25493667
0.27198076 -0.23472258 -0.21433489 0.29938784 -0.13711505 0.280797 0.13377546 -0.091516204
0.115791604 -0.3925975 -0.48446435 0.13978443 -0.48782858 -0.18522097 -0.30568638 -0.35984915
0.34002203 0.29103285 -0.7792552 0.19266564 -0.5364759 -0.8581098 -0.27423158 0.36689457
00000000: abe1 223d a6bd 5ebd 6326 c83a 99f9 2cbc
00000010: f60f f73c 70d2 98bd fdaf ebbd 528f 423e
00000020: 9e7b 94be 63a9 2f3e 7d1e 04bc 15f3 2abe
00000030: b3a4 a23e e0fd 7d3e 8f65 3e3d 0f87 823e
00000040: 1041 8b3e 1e5b 70be 9b7a 5bbe 5d49 993e
00000050: e367 0cbe a0c4 8f3e 6ffc 083e d96c bbbd
00000060: 2624 ed3d 8a02 c9be b60b f8be a623 0f3e
00000070: abc4 f9be 91aa 3dbe ed82 9cbe 263e b8be
00000080: 5e17 ae3e 4202 953e 457d 47bf 244a 453e
00000090: 7c56 09bf 15ad 5bbf 1568 8cbe 9bd9 bb3e

2.weight f4 [1, 40]
0.17199464 0.16855094 -0.042632163 0.11072714 0.167422 0.31137818 -0.22407316 -0.33233255
-0.33898836 0.020678027 0.06755472 -0.1840935 -0.559719 -0.3054551 0.12711123 -0.46103784
-0.4928758 -0.25428036 -0.26248845 -0.5183714 -0.20727657 -0.38066828 -0.30366865 -0.051296547
-0.17663354 0.41376287 0.45215368 0.040739574 -0.5124835 0.15722865 0.31044012 -0.24302089
-0.3886596 0.2762033 -0.8094807 0.18483704 -0.6170202 -0.9003976 -0.28113174 0.042199627
00000000: 5d1f 303e 9e98 2c3e 109f 2ebd e9c4 e23d
00000010: ac70 2b3e f66c 9f3e 6f73 65be 7e27 aabe
00000020: e28f adbe f764 a93c 215a 8a3d 0283 3cbe
00000030: bf49 0fbf 9c64 9cbe 7229 023e 270d ecbe
00000040: 385a fcbe 0931 82be e364 86be fdb3 04bf
00000050: 4f40 54be f4e6 c2be 757a 9bbe 541c 52bd
00000060: 6cdf 34be bad8 d33e b080 e73e 8ade 263d
00000070: 1e32 03bf 8c00 213e 02f2 9e3e 78da 78be
00000080: 64fe c6be 856a 8d3e 213a 4fbf ec45 3d3e
00000090: 09f5 1dbf 7580 66bf 80f0 8fbe 84d9 2c3d

0.weight f4 [40, 1]
-0.38755232 0.4767336 -0.88040733 0.107053645 -0.30574962 0.6708458 0.41809517 -0.6572894
1.0262209 -0.89717585 0.07925763 0.58902276 -1.0987397 -0.85314345 -0.43024197 -0.8822538
-0.94142306 0.82750577 0.760109 -1.0348089 0.4915507 -0.96686596 -0.4669683 0.31470066
-0.3993162 1.047707 1.2642016 -0.33827972 0.8552914 0.47536877 0.80990195 0.5888759
-0.580376 -0.8007608 1.3629341 -0.5314977 0.95724106 1.5041684 0.47854617 -0.36654016
00000000: 426d c6be 6d16 f43e 6062 61bf f13e db3d
00000010: 378b 9cbe 8dbc 2b3f 9210 d63e 1e44 28bf
00000020: 355b 833f 51ad 65bf d351 a23d 32ca 163f
00000030: 81a3 8cbf 9c67 5abf ad48 dcbe 63db 61bf
00000040: 1a01 71bf 6bd7 533f 8196 423f 9e74 84bf
00000050: 89ac fb3e 8784 77bf 7816 efbe 7220 a13e
00000060: 2c73 ccbe 431b 863f 5cd1 a13f 0033 adbe
00000070: 61f4 5a3f 8963 f33e bc55 4f3f 92c0 163f
00000080: 8693 14bf a9fe 4cbf a074 ae3f 3c10 08bf
00000090: c00d 753f 9788 c03f 0104 f53e 27ab bbbe

0.bias f4 [40]
0.04805361 -0.057758156 8.577848e-05 -0.012616919 0.037879534 -0.08095048 -0.12845017 0.1983837
-0.31310594 0.111422546 -0.009386075 -0.17936738 0.3317575 0.25775635 0.053454652 0.2665196
0.28436458 -0.25182876 -0.23202407 0.31249472 -0.15029325 0.29219761 0.14091493 -0.09511968
0.120634586 -0.56710315 -0.6848035 0.18494815 -0.64888334 -0.25752062 -0.43842876 -0.44649845
0.4399381 0.43661553 -1.034956 0.28966466 -0.72651786 -1.1411523 -0.36329406 0.36487988
00000000: ddd3 443d d193 6cbd f9e3 b338 32b7 4ebc
00000010: 9227 1b3d 5ec9 a5bd 7188 03be 1925 4b3e
00000020: 6c4f a0be 8131 e43d 0dc8 19bc 15ac 37be
00000030: 1edc a93e a4f8 833e 44f3 5a3d 4275 883e
00000040: 3c98 913e b3ef 80be b897 6dbe 4fff 9f3e
00000050: 79e6 19be ed9a 953e 014c 103e 1bce c2bd
00000060: 440f f73d ac2d 11bf 484f 2fbf 0c63 3d3e
00000070: 381d 26bf bed9 83be bc79 e0be 729b e4be
00000080: 913f e13e 128c df3e 7079 84bf ed4e 943e
00000090: 13fd 39bf 4711 92bf ae01 babe 89d1 ba3e

2.weight f4 [1, 40]
0.27744532 0.25723737 -0.04260768 0.1282142 0.24920666 0.4336911 -0.2886326 -0.38457978
-0.5027102 0.2522081 0.08097897 -0.27831507 -0.647034 -0.37401298 0.24701338 -0.5310823
-0.5676097 -0.38675514 -0.38347512 -0.60066015 -0.28457284 -0.45815587 -0.34040946 -0.10279887
-0.20852429 0.9541093 1.1110737 0.24565874 -0.87265503 0.4068574 0.7294952 -0.4990979
-0.6024922 0.7305012 -1.3841698 0.48607466 -1.0169808 -1.5338817 -0.48312238 0.056380875
00000000: 500d 8e3e 9eb4 833e 6485 2ebd 954a 033e
00000010: 0830 7f3e c30c de3e a7c7 93be a4e7 c4be
00000020: 9eb1 00bf 6c21 813e 4dd8 a53d 507f 8ebe
00000030: 05a4 25bf a17e bfbe 13f1 7c3e 02f5 07bf
00000040: df4e 11bf c504 c6be da56 c4be ddc4 19bf
00000050: 88b3 91be 6893 eabe 264a aebe 3788 d2bd
00000060: 6487 55be 8240 743f aa37 8e3f f78d 7b3e
00000070: 5266 5fbf 9d4f d03e 33c0 3a3f c389 ffbe
00000080: ee3c 1abf 2002 3b3f 7a2c b1bf c7de f83e
00000090: 6d2c 82bf 3c56 c4bf d15b f7be a2ef 663d

0.weight f4 [40, 1]
-0.4828211 0.5304109 -0.88040733 0.13194865 -0.3896075 0.75946057 0.4882768 -0.71221656
1.1543001 -1.0059763 0.095145375 0.66028094 -1.1911887 -0.90777016 -0.51852447 -0.9580797
-1.0224639 0.92666686 0.85728127 -1.1206723 0.56222993 -1.0334393 -0.51501954 0.34284934
-0.4293603 1.4107393 1.689512 -0.45669535 1.0598806 0.63190144 1.0880076 0.7089919
-0.6951418 -1.1355302 1.6881325 -0.75409055 1.1945682 1.8638065 0.5921007 -0.36997348
00000000: 5434 f7be 02c9 073f 6062 61bf 8c1d 073e
00000010: a27a c7be 026c 423f 6bff f93e d353 36bf
00000020: 1bc0 933f d5c3 80bf 94db c23d 2c08 293f
00000030: df78 98bf a063 68bf 05be 04bf b644 75bf
00000040: 19e0 82bf 0a3a 6d3f c976 5b3f 3172 8fbf
00000050: 4dee 0f3f bd47 84bf 52d8 03bf f389 af3e
00000060: 1dd5 dbbe 1b93 b43f ee41 d83f f9d3 e9be
00000070: 2baa 873f 4bc4 213f d543 8b3f 7e80 353f
00000080: d0f4 31bf 0e59 91bf ba14 d83f 140c 41bf
00000090: 9ce7 983f 3691 ee3f e993 173f 2a6d bdbe

0.bias f4 [40]
0.061252292 -0.069259 8.577848e-05 -0.017422304 0.049456976 -0.099079095 -0.15126397 0.22403257
-0.3585571 0.12675577 -0.012463597 -0.20513415 0.3745611 0.2858973 0.06575541 0.30117276
0.32135233 -0.2879269 -0.2665225 0.352592 -0.17453174 0.32516056 0.16165882 -0.106756695
0.13510926 -0.7805755 -0.9353467 0.2499258 -0.8012104 -0.34968284 -0.60199 -0.53606266
0.53641963 0.62094635 -1.2761036 0.41234758 -0.90290433 -1.4089192 -0.4475834 0.36122206
00000000: afe3 7a3d aad7 8dbd f9e3 b338 38b9 8ebc
00000010: 6693 4a3d fbe9 cabd f1e4 1abe cb68 653e
00000020: cc94 b7be 44cc 013e 1d34 4cbc b00e 52be
00000030: 79c6 bf3e 2261 923e c6aa 863d 5133 9a3e
00000040: 4b88 a43e 286b 93be a375 88be f086 b43e
00000050: 73b8 32be 727b a63e e489 253e 41a3 dabd
00000060: 155a 0a3e ccd3 47bf e272 6fbf 8dec 7f3e
00000070: 201c 4dbf a109 b3be 041c 1abf 673b 09bf
00000080: cc52 093f 57f6 1e3f 5d57 a3bf 391f d33e
00000090: bd24 67bf 7757 b4bf a729 e5be 19f2 b83e

2.weight f4 [1, 40]
0.40120322 0.34753776 -0.04260768 0.14907816 0.34804213 0.5613481 -0.38972756 -0.4825794
-0.74725115 0.5233124 0.096306704 -0.418488 -0.81088984 -0.5003597 0.3819955 -0.66273344
-0.708094 -0.5835911 -0.56479913 -0.75492716 -0.40246215 -0.6015774 -0.41049698 -0.1768714
-0.26788735 1.4406892 1.6959379 0.42620465 -1.1707451 0.6261392 1.1051717 -0.70125544
-0.7723322 1.1695125 -1.8591326 0.7775335 -1.3518473 -2.0580943 -0.649789 0.061945815
00000000: 826a cd3e 78f0 b13e 6485 2ebd f2a7 183e
00000010: 9432 b23e 82b4 0f3f 5f8a c7be a614 f7be
00000020: da4b 3fbf cdf7 053f 733c c53d 0f44 d6be
00000030: 7a96 4fbf 9317 00bf ea94 c33e e6a8 29bf
00000040: a645 35bf 3a66 15bf ad96 10bf e842 41bf
00000050: 850f cebe fa00 1abf a92c d2be c71d 35be
00000060: 8828 89be 8168 b83f 7e14 d93f 7f37 da3e
00000070: fada 95bf a94a 203f 4476 8d3f 7a85 33bf
00000080: 90b7 45bf 96b2 953f 0ff8 edbf 6f0c 473f
00000090: 5509 adbf d1b7 03c0 9258 26bf e5ba 7d3d

0.weight f4 [40, 1]
-0.6215329 0.62219495 -0.88040733 0.16898605 -0.5087037 0.90528655 0.5570445 -0.7693864
1.2890452 -1.2029289 0.119305745 0.7358954 -1.2872055 -0.9677422 -0.6531015 -1.0365287
-1.106252 1.0321919 0.9589979 -1.2102282 0.6340457 -1.1052822 -0.563253 0.37565216
-0.46124512 1.648196 1.9696493 -0.54279643 1.1921599 0.7353874 1.2702425 0.78943056
-0.7633859 -1.3694147 1.8983728 -0.9095673 1.3468637 2.0961914 0.6656422 -0.3794839
00000000: c81c 1fbf 2b48 1f3f 6062 61bf ae0a 2d3e
00000010: 683a 02bf dcc0 673f 789a 0e3f 82f6 44bf
00000020: 6fff a43f 93f9 99bf 9256 f43d a463 3c3f
00000030: 26c3 a4bf f4bd 77bf a931 27bf f9ac 84bf
00000040: aa99 8dbf dd1e 843f e380 753f c2e8 9abf
00000050: d250 223f e379 8dbf 5931 10bf 7b55 c03e
00000060: 5228 ecbe 16f8 d23f 781d fc3f b5f4 0abf
00000070: b298 983f 5942 3c3f 4e97 a23f 1f18 4a3f
00000080: 426d 43bf fb48 afbf e1fd f23f 67d9 68bf
00000090: 0866 ac3f 0028 0640 8767 2a3f b74b c2be

0.bias f4 [40]
0.08416662 -0.084066756 8.577848e-05 -0.023245865 0.068992145 -0.12273581 -0.17893921 0.2506548
-0.41323668 0.16029112 -0.016325612 -0.23597278 0.4193149 0.31532055 0.08810241 0.33747575
0.36019975 -0.33096614 -0.30751446 0.39402312 -0.20344463 0.35998556 0.18342343 -0.12026157
0.15022323 -0.91586536 -1.0945079 0.29981494 -0.9006929 -0.40862322 -0.70583653 -0.5953785
0.59594315 0.7563592 -1.4339336 0.50236654 -1.0178517 -1.5840225 -0.50270367 0.3516248
00000000: 8d5f ac3d 312b acbd f9e3 b338 1d6e bebc
00000010: c14b 8d3d ea5c fbbd d73b 37be d355 803e
00000020: c293 d3be 5b23 243e 4abd 85bc d9a2 71be
00000030: 71b0 d63e b271 a13e 096f b43d 9fc9 ac3e
00000040: 1a6c b83e 6574 a9be 8972 9dbe 66bd c93e
00000050: ca53 50be 0750 b83e 5ad3 3b3e b34b f6bd
00000060: 1ed4 193e 2776 6abf d618 8cbf 5881 993e
00000070: cf93 66bf 1037 d1be b4b1 34bf ba6a 18bf
00000080: bb8f 183f c2a0 413f 238b b7bf 189b 003f
00000090: f748 82bf 40c1 cabf 30b1 00bf 2a08 b43e

2.weight f4 [1, 40]
0.5628304 0.4770647 -0.04260768 0.18263833 0.47949287 0.748163 -0.48132554 -0.5733383
-0.96195084 0.84684503 0.12026555 -0.5412079 -0.9626955 -0.6155503 0.55351156 -0.7848711
-0.83844316 -0.75578177 -0.7243765 -0.89772457 -0.50745314 -0.73284405 -0.47638142 -0.24016641
-0.32250163 1.7376378 2.0512347 0.5417096 -1.3545071 0.75891256 1.3341124 -0.8235621
-0.87014025 1.4585732 -2.1517787 0.96950835 -1.5591985 -2.3812325 -0.7524143 0.06879503
00000000: a715 103f d341 f43e 6485 2ebd 8b05 3b3e
00000010: 1780 f53e 9c87 3f3f 4d70 f6be 4dc6 12bf
00000020: 6942 76bf d6ca 583f c94d f63d 9a8c 0abf
00000030: 3673 76bf b494 1dbf efb2 0d3f 50ed 48bf
00000040: 36a4 56bf ea7a 41bf bd70 39bf 47d1 65bf
00000050: 73e8 01bf ab9b 3bbf 44e8 f3be 2fee 75be
00000060: ef1e a5be ea6a de3f 6e47 0340 7bad 0a3f
00000070: 7d60 adbf 1848 423f 32c4 aa3f f7d4 52bf
00000080: 83c1 5ebf 87b2 ba3f beb6 09c0 b331 783f
00000090: d193 c7bf 1d66 18c0 399e 40bf 69e4 8c3d

0.weight f4 [40, 1]
-0.80049235 0.74072504 -0.88040733 0.21278156 -0.66038424 1.0895596 0.6119355 -0.81045425
1.3993638 -1.4822803 0.14833099 0.79802763 -1.3561488 -1.0121717 -0.8306883 -1.0926335
-1.1661903 1.1189331 1.0420449 -1.2744675 0.69209063 -1.1580436 -0.5971692 0.40339905
-0.48439723 1.790022 2.1371894 -0.6011603 1.2568572 0.7973972 1.3791691 0.8425187
-0.8021229 -1.5255544 2.0355573 -1.0133518 1.4207821 2.2096376 0.7136075 -0.38348776
00000000: 11ed 4cbf 28a0 3d3f 6062 61bf 69e3 593e
00000010: f10e 29bf b076 8b3f cea7 1c3f ee79 4fbf
00000020: 5a1e b33f 5cbb bdbf 14e4 173e 8a4b 4c3f
00000030: 4996 adbf d88e 81bf fda7 54bf 6adb 8bbf
00000040: b945 95bf 3339 8f3f ba61 853f c021 a3bf
00000050: da2c 313f c63a 94bf 15e0 18bf 528a ce3e
00000060: ea02 f8be 711f e53f b6c7 0840 a4e5 19bf
00000070: b2e0 a03f 3922 4c3f 9d88 b03f 4eaf 573f
00000080: ed57 4dbf 5e45 c3bf 9246 0240 83b5 81bf
00000090: 30dc b53f b46a 0d40 fbae 363f 8258 c4be

0.bias f4 [40]
0.10115827 -0.09438522 8.577848e-05 -0.027014839 0.08337809 -0.13862911 -0.19948345 0.26958025
-0.4561322 0.1867507 -0.018778399 -0.26013792 0.45108584 0.33588684 0.10484791 0.36358342
0.3880653 -0.36486763 -0.3396486 0.42389196 -0.22556707 0.3844501 0.19909136 -0.13148691
0.16096604 -1.0003238 -1.1942283 0.32632145 -0.9595147 -0.44553795 -0.7706675 -0.6134475
0.629852 0.8282846 -1.4822718 0.550169 -1.0861944 -1.6878154 -0.51967376 0.34818313
00000000: 112c cf3d 0a4d c1bd f9e3 b338 394e ddbc
00000010: 22c2 aa3d caf4 0dbe 6445 4cbe 6c06 8a3e
00000020: 298a e9be 933b 3f3e 28d5 99bc cc30 85be
00000030: b9f4 e63e 5cf9 ab3e 80ba d63d 9b27 ba3e
00000040: 7fb0 c63e eecf babe 6ce6 adbe 5e08 d93e
00000050: 0efb 66be a5d6 c43e 9bde 4b3e 81a4 06be
00000060: 48d4 243e 9c0a 80bf 79dc 98bf 9b13 a73e
00000070: c1a2 75bf 8d1d e4be 774a 45bf e50a 1dbf
00000080: fb3d 213f 760a 543f 15bb bdbf e0d7 0c3f
00000090: 6b08 8bbf 560a d8bf 5709 05bf 0f45 b23e

2.weight f4 [1, 40]
0.7571321 0.6241174 -0.04260768 0.22369534 0.63921577 0.9632536 -0.550036 -0.6339196
-1.1202837 1.2139351 0.14906676 -0.6315666 -1.0640504 -0.6917019 0.756285 -0.8664855
-0.92554873 -0.8825051 -0.8422091 -0.99300826 -0.5854836 -0.81983054 -0.52075446 -0.28613123
-0.35880888 1.9126072 2.2602704 0.6125041 -1.4489326 0.83693814 1.4689481 -0.8862655
-0.92457515 1.637483 -2.30265 1.0883368 -1.6659304 -2.5472755 -0.8053438 0.07620266
00000000: 69d3 413f 28c6 1f3f 6485 2ebd 6410 653e
00000010: a5a3 233f ca97 763f 29cf 0cbf 8e48 22bf
00000020: 7565 8fbf 3a62 9b3f f5a4 183e 59ae 21bf
00000030: ce32 88bf 6013 31bf e59b 413f fed1 5dbf
00000040: c3f0 6cbf dbeb 61bf 049b 57bf ca35 7ebf
00000050: 41e2 15bf 6ae0 51bf 2a50 05bf cb7f 92be
00000060: ccb5 b7be 50d0 f43f 45a8 1040 12cd 1c3f
00000070: a076 b9bf 9441 563f 7e06 bc3f 4ce2 62bf
00000080: f5b0 6cbf 0b99 d13f 9e5e 13c0 9f4e 8b3f
00000090: 353d d5bf 9006 23c0 032b 4ebf 2410 9c3d

0.weight f4 [40, 1]
-0.9901142 0.86086273 -0.88040733 0.25505987 -0.8200942 1.2741697 0.66037995 -0.8440377
1.4989687 -1.7912806 0.17659107 0.85421705 -1.4125167 -1.0490072 -1.0208853 -1.1385137
-1.2151929 1.1975187 1.1168494 -1.3270789 0.74390596 -1.201642 -0.6246525 0.42910174
-0.50344455 1.864701 2.2450533 -0.64087987 1.2971209 0.83961993 1.4506627 0.87553847
-0.8267996 -1.6313033 2.1202579 -1.0836221 1.4670613 2.280421 0.7432558 -0.38527033
00000000: 2078 7dbf 8061 5c3f 6062 61bf 3597 823e
00000010: b2f1 51bf fe17 a33f a90e 293f db12 58bf
00000020: 35de bf3f af48 e5bf 4ad4 343e f8ad 5a3f
00000030: 59cd b4bf de45 86bf 5fac 82bf d1ba 91bf
00000040: 718b 9bbf 4b48 993f ecf4 8e3f b9dd a9bf
00000050: 9f70 3e3f 68cf 99bf 3ae9 1fbf 39b3 db3e
00000060: bee1 00bf 86ae ee3f f4ae 0f40 b410 24bf
00000070: 0f08 a63f 55f1 563f 51af b93f 4a23 603f
00000080: 23a9 53bf 8cce d0bf 4eb2 0740 21b4 8abf
00000090: aac8 bb3f 6bf2 1140 0346 3e3f 2742 c5be

0.bias f4 [40]
0.12387327 -0.10975568 8.577848e-05 -0.03240682 0.1024463 -0.1623363 -0.21025908 0.2808812
-0.4769679 0.22372928 -0.022467963 -0.2718876 0.4700537 0.34822837 0.12751827 0.37902883
0.4045627 -0.38111153 -0.3554282 0.4415938 -0.23673747 0.3990754 0.2083681 -0.1365397
0.1673645 -1.0715295 -1.2429842 0.3406521 -0.9914697 -0.45947483 -0.7998004 -0.62359655
0.65320766 0.86703813 -1.5099516 0.5759496 -1.1229242 -1.7439963 -0.5293255 0.3481669
00000000: 45b1 fd3d 96c7 e0bd f9e3 b338 04bd 04bd
00000010: 5ecf d13d 7d3b 26be 284e 57be a9cf 8f3e
00000020: 2335 f4be 4a19 653e bc0e b8bc da34 8bbe
00000030: e1aa f03e fd4a b23e 2694 023e 1110 c23e
00000040: d822 cf3e 0d21 c3be affa b5be 9518 e23e
00000050: 4f6b 72be 9c53 cc3e 725e 553e 10d1 0bbe
00000060: 9961 2b3e e127 89bf 1b1a 9fbf f469 ae3e
00000070: f5d0 7dbf 4940 ebbe b8bf 4cbf 06a4 1fbf
00000080: 9e38 273f 36f6 5d3f 1846 c1bf 6f71 133f
00000090: fbbb 8fbf 453b dfbf e081 07bf ef42 b23e

2.weight f4 [1, 40]
0.9573254 0.7636925 -0.04260768 0.26436445 0.8047183 1.1691414 -0.6062524 -0.67994267
-1.2485718 1.5800558 0.17732744 -0.7047155 -1.141065 -0.74918646 0.96331036 -0.92853343
-0.99177206 -0.9850643 -0.9377568 -1.0653833 -0.6489919 -0.885597 -0.554663 -0.3230425
-0.38631746 2.017089 2.3846076 0.65773964 -1.5037488 0.8833361 1.5491846 -0.92376906
-0.9599784 1.7522947 -2.3932335 1.1645993 -1.7279228 -2.6436653 -0.83710057 0.086357005
00000000: 4713 753f 5a81 433f 6485 2ebd c75a 873e
00000010: 0502 4e3f 6da6 953f 5b33 1bbf b910 2ebf
00000020: 33d1 9fbf 453f ca3f 5395 353e 3c68 34bf
00000030: 6b0e 92bf afca 3fbf 829b 763f 5eb4 6dbf
00000040: c6e4 7dbf 2d2d 7cbf d410 70bf 7b5e 88bf
00000050: 5524 26bf 7cb6 62bf 65fe 0dbf d465 a5be
00000060: 67cb c5be fc17 0140 699d 1840 a061 283f
00000070: d77a c0bf 5122 623f ae4b c63f 217c 6cbf
00000080: 25c1 75bf 314b e03f bd2a 19c0 9711 953f
00000090: 932c ddbf d031 29c0 394c 56bf f1db b03d

0.weight f4 [40, 1]
-1.1644793 0.95960784 -0.88040733 0.28891432 -0.9664742 1.4250004 0.70111316 -0.86923665
1.5831858 -2.0812776 0.19934279 0.9017906 -1.4547994 -1.0768636 -1.1966851 -1.172915
-1.2519424 1.2640194 1.1800898 -1.366568 0.787596 -1.2345418 -0.64515996 0.45100236
-0.51778156 1.917001 2.3012333 -0.668604 1.3212332 0.8690154 1.5045171 0.89629245
-0.84428614 -1.7048635 2.1738489 -1.1325096 1.4947673 2.3228123 0.7620073 -0.38665783
00000000: a80d 95bf dca8 753f 6062 61bf 94ec 933e
00000010: da6a 77bf 6a66 b63f 277c 333f 4b86 5ebf
00000020: d5a5 ca3f a733 05c0 8420 4c3e c0db 663f
00000030: de36 babf abd6 89bf fa2c 99bf 1422 96bf
00000040: a63f a0bf 63cb a13f 2f0d 973f b3eb aebf
00000050: e49f 493f 7705 9ebf 3429 25bf c8e9 e63e
00000060: 558d 04bf 4a60 f53f 6847 1340 a229 2bbf
00000070: 2b1e a93f cb77 5e3f 0494 c03f 6c73 653f
00000080: 2323 58bf f838 dabf 5720 0b40 13f6 90bf
00000090: 8954 bf3f f5a8 1440 e912 433f 04f8 c5be

0.bias f4 [40]
0.14079314 -0.11827369 8.577848e-05 -0.03555027 0.11680559 -0.17561041 -0.22119956 0.28969726
-0.49945104 0.25187042 -0.02454783 -0.2845087 0.48484978 0.35794327 0.14456128 0.3910694
0.41742316 -0.3987754 -0.37228692 0.4554091 -0.2484419 0.41055846 0.21556015 -0.14229871
0.17237414 -1.1134211 -1.3008618 0.35130355 -1.0108644 -0.4660619 -0.80700094 -0.63284653
0.67231715 0.8958381 -1.5340743 0.5950904 -1.1452053 -1.7780936 -0.5377582 0.34931937
00000000: 142c 103e 7a39 f2bd f9e3 b338 299d 11bd
00000010: c537 ef3d 37d3 33be 2382 62be 3353 943e
00000020: 0cb8 ffbe 29f5 803e 8818 c9bc 20ab 91be
00000030: 3b3e f83e 5744 b73e df07 143e 403a c83e
00000040: 7db8 d53e 4a2c ccbe 649c bebe 622b e93e
00000050: 8e67 7ebe b834 d23e cdbb 5c3e c1b6 11be
00000060: d982 303e 9584 8ebf a482 a6bf 0fde b33e
00000070: 0164 81bf aa9f eebe 9d97 4ebf 3b02 22bf
00000080: fa1c 2c3f a555 653f 8c5c c4bf d857 183f
00000090: 1696 92bf 9298 e3bf 85aa 09bf fdd9 b23e

2.weight f4 [1, 40]
1.1380913 0.87337613 -0.04260768 0.2970619 0.95459884 1.331692 -0.65311944 -0.713871
-1.3548727 1.9050409 0.19993632 -0.7652921 -1.1978446 -0.7913708 1.1493654 -0.9742968
-1.0406188 -1.0699823 -1.0169665 -1.1187288 -0.7017648 -0.9339133 -0.57976466 -0.3534539
-0.40655768 2.0850482 2.4645393 0.6894061 -1.5361072 0.9135135 1.6013258 -0.9487576
-0.986718 1.8328714 -2.4536426 1.2181238 -1.7645258 -2.7005603 -0.85827816 0.09750033
00000000: faac 913f 9495 5f3f 6485 2ebd 7f18 983e
00000010: 9760 743f e274 aa3f d632 27bf 40c0 36bf
00000020: 786c adbf 61d8 f33f 1bbc 4c3e 2fea 43bf
00000030: f952 99bf 4797 4abf 681e 933f 846b 79bf
00000040: ff32 85bf 2ef5 88bf f52b 82bf 8132 8fbf
00000050: dca6 33bf f114 6fbf 756b 14bf e9f7 b4be
00000060: 5428 d0be 6e71 0540 03bb 1d40 eb7c 303f
00000070: 299f c4bf 05dc 693f 3ef8 cc3f c7e1 72bf
00000080: 8d99 7cbf 889b ea3f 7b08 1dc0 7beb 9b3f
00000090: fbdb e1bf fbd5 2cc0 1eb8 5bbf 41ae c73d

0.weight f4 [40, 1]
-1.3034674 1.0332315 -0.88040733 0.31384525 -1.0829862 1.5371487 0.7310905 -0.88813686
1.6455399 -2.314872 0.21613708 0.93701726 -1.4865125 -1.0978575 -1.3371897 -1.1987039
-1.2794882 1.313286 1.2268705 -1.3961886 0.8198354 -1.259304 -0.6604879 0.46732938
-0.52855486 1.9602828 2.3548036 -0.689543 1.3352029 0.89298236 1.5465263 0.91085374
-0.86213195 -1.7604736 2.210797 -1.1694623 1.5108147 2.3473754 0.7749358 -0.38850737
00000000: 05d8 a6bf ee40 843f 6062 61bf 53b0 a03e
00000010: 4b9f 8abf 4ac1 c43f bf28 3b3f f05c 63bf
00000020: 0da1 d23f dd26 14c0 0a53 5d3e 5de0 6f3f
00000030: 0b46 bebf 9886 8cbf 0829 abbf 216f 99bf
00000040: 45c6 a3bf c119 a83f 180a 9d3f 4fb6 b2bf
00000050: bce0 513f e030 a1bf bc15 29bf cc45 ef3e
00000060: 5f4f 07bf 8cea fa3f 1ab5 1640 e485 30bf
00000070: eee7 aa3f 7e9a 643f 93f4 c53f b62d 693f
00000080: aeb4 5cbf 3357 e1bf b37d 0d40 f1b0 95bf
00000090: 6062 c13f 663b 1640 3162 463f 70ea c6be

0.bias f4 [40]
0.15168853 -0.12832046 8.577848e-05 -0.03896435 0.12594552 -0.19089913 -0.22872622 0.29440248
-0.5149168 0.2696698 -0.02684409 -0.29325473 0.49274537 0.36315432 0.1555691 0.39749068
0.4242812 -0.4109589 -0.3839472 0.46278158 -0.25653607 0.41671085 0.21938275 -0.1462584
0.17505333 -1.145822 -1.3328027 0.35840964 -1.0226215 -0.4720869 -0.81755036 -0.6386587
0.6840632 0.9147765 -1.5500816 0.60767925 -1.1587051 -1.7987612 -0.5433501 0.35055035
00000000: 3d54 1b3e 7066 03be f9e3 b338 1599 1fbd
00000010: ddf7 003e 107b 43be 3537 6abe ecbb 963e
00000020: 96d1 03bf 2912 8a3e 23e8 dbbc 7c25 96be
00000030: 1f49 fc3e 5def b93e 824d 1f3e e683 cb3e
00000040: 633b d93e 3469 d2be ba94 c4be b5f1 ec3e
00000050: b258 83be 205b d53e dfa5 603e c3c4 15be
00000060: 2e41 333e 4caa 92bf 4799 aabf 7881 b73e
00000070: 43e5 82bf 60b5 f1be fb4a 51bf 237f 23bf
00000080: c41e 2f3f cb2e 6a3f 1369 c6bf de90 1b3f
00000090: 7350 94bf cf3d e6bf fe18 0bbf 567b b33e

2.weight f4 [1, 40]
1.2807841 0.95381945 -0.04260768 0.32133374 1.0730909 1.4512056 -0.6868194 -0.7382422
-1.4310254 2.1592665 0.21667583 -0.8086718 -1.2386353 -0.82158047 1.2958739 -1.0071828
-1.0757209 -1.1307819 -1.0737263 -1.1570433 -0.7396341 -0.96854097 -0.5978459 -0.37516192
-0.42107844 2.1396601 2.5283885 0.7128058 -1.5546974 0.9382346 1.6441044 -0.9655209
-1.0090687 1.8925146 -2.494182 1.257748 -1.7855521 -2.7332518 -0.87248904 0.109067224
00000000: bcf0 a33f 832d 743f 6485 2ebd db85 a43e
00000010: 0b5b 893f 1bc1 b93f 65d3 2fbf 71fd 3cbf
00000020: d72b b7bf 6c31 0a40 45e0 5d3e 1d05 4fbf
00000030: 9a8b 9ebf 1953 52bf 32df a53f 5eeb 80bf
00000040: 39b1 89bf 76bd 90bf dd6f 89bf ff19 94bf
00000050: a958 3dbf 4df2 77bf 6e0c 19bf 3915 c0be
00000060: 9897 d7be 31f0 0840 1ed1 2140 717a 363f
00000070: 5300 c7bf 2530 703f 0372 d23f 612c 77bf
00000080: 2a29 81bf eb3d f23f aea0 1fc0 e3fd a03f
00000090: f98c e4bf 99ed 2ec0 715b 5fbf a35e df3d

0.weight f4 [40, 1]
-1.4068018 1.0860878 -0.88040733 0.33160394 -1.1695224 1.6175194 0.7545549 -0.90055585
1.6944766 -2.4894786 0.2281195 0.9646741 -1.5073457 -1.1116973 -1.4417906 -1.2156435
-1.2975806 1.3519564 1.2635902 -1.4156518 0.8451216 -1.2756107 -0.67053485 0.48016655
-0.53564173 1.98779 2.3843675 -0.7070864 1.3470293 0.9090185 1.5745834 0.9234114
-0.87166005 -1.8068035 2.2429848 -1.2002505 1.5243961 2.3681629 0.78622115 -0.39150292
00000000: 1512 b4bf ed04 8b3f 6062 61bf fec7 a93e
00000010: e9b2 95bf e00a cf3f 832a 413f d48a 66bf
00000020: 9ce4 d83f 9e53 1fc0 2998 693e e2f4 763f
00000030: b4f0 c0bf 194c 8ebf 988c b8bf 359a 9bbf
00000040: 1f17 a6bf e80c ad3f 53bd a13f 1434 b5bf
00000050: e459 583f 3647 a3bf 2ca8 2bbf 64d8 f53e
00000060: d11f 09bf e76f fe3f 7a99 1840 9d03 35bf
00000070: 756b ac3f 70b5 683f f38b c93f b164 6c3f
00000080: 1d25 5fbf 5645 e7bf 108d 0f40 cfa1 99bf
00000090: 691f c33f fb8f 1740 ca45 493f 1273 c8be

0.bias f4 [40]
0.1573759 -0.13200651 8.577848e-05 -0.040310863 0.13083577 -0.1966238 -0.23273343 0.29992723
-0.5232762 0.27888778 -0.027728435 -0.2979727 0.5020139 0.36930293 0.16138786 0.40502888
0.4323319 -0.41757205 -0.39020202 0.47144148 -0.26083928 0.42395982 0.22385727 -0.14847021
0.17820458 -1.169794 -1.3635188 0.3654001 -1.0299082 -0.47793832 -0.8278823 -0.6448742
0.6867847 0.9337824 -1.5664815 0.62030965 -1.1670704 -1.8115759 -0.5490496 0.35339934
00000000: 2627 213e b72c 07be f9e3 b338 011d 25bd
00000010: d0f9 053e c057 49be ac51 6ebe 1090 993e
00000020: 6ef5 05bf 61ca 8e3e be26 e3bc e18f 98be
00000030: fc83 003f 4615 bd3e dc42 253e f25f cf3e
00000040: 9b5a dd3e 01cc d5be 8fc8 c7be c760 f13e
00000050: ba8c 85be 4311 d93e d73a 653e 9308 18be
00000060: 437b 363e cfbb 95bf c987 aebf b915 bb3e
00000070: 08d4 83bf 55b4 f4be 18f0 53bf 7a16 25bf
00000080: 1fd1 2f3f 5d0c 6f3f 7782 c8bf 9dcc 1e3f
00000090: 9062 95bf b8e1 e7bf 848e 0cbf c2f0 b43e

2.weight f4 [1, 40]
1.3862115 1.0100579 -0.04260768 0.33840552 1.1607074 1.5348634 -0.71206075 -0.75509363
-1.4879683 2.346182 0.22843394 -0.8411027 -1.2668383 -0.8424199 1.4039795 -1.0299267
-1.0999987 -1.1762402 -1.1161739 -1.1835349 -0.7679739 -0.99244213 -0.61037505 -0.39136788
-0.43110988 2.1748953 2.5687099 0.7329524 -1.5683031 0.9550994 1.6732898 -0.9804388
-1.0183493 1.9439337 -2.5302458 1.2919049 -1.8009291 -2.7571797 -0.8851328 0.12757787
00000000: 616f b13f 9449 813f 6485 2ebd 7d43 ad3e
00000010: 0f92 943f 6776 c43f 9d49 36bf d14d 41bf
00000020: bf75 bebf d927 1640 96ea 693e 8252 57bf
00000030: c227 a2bf d5a8 57bf 9ab5 b33f a3d4 83bf
00000040: c2cc 8cbf 0a8f 96bf c9de 8ebf 127e 97bf
00000050: f099 44bf b010 7ebf 8a41 1cbf 5f61 c8be
00000060: 6fba dcbe 7c31 0b40 be65 2440 c5a2 3b3f
00000070: 28be c8bf 6581 743f 5c2e d63f 0afe 7abf
00000080: 4559 82bf d2d2 f83f 8cef 21c0 245d a53f
00000090: d884 e6bf a275 30c0 1098 62bf c6a3 023e

0.weight f4 [40, 1]
-1.4798349 1.1245534 -0.88040733 0.34446102 -1.2306612 1.6759627 0.7704093 -0.90976375
1.7275907 -2.6133263 0.23679987 0.98339313 -1.5227942 -1.1219784 -1.5157996 -1.2282017
-1.3109951 1.3781338 1.2884306 -1.4300809 0.86221755 -1.2877204 -0.67797226 0.4888741
-0.54090023 2.0084093 2.4100523 -0.7198775 1.3538976 0.92419606 1.6011777 0.9337843
-0.8764632 -1.840708 2.2698276 -1.2227846 1.5322857 2.3802428 0.79560304 -0.39515343
00000000: 3b6b bdbf 5ef1 8f3f 6062 61bf 325d b03e
00000010: 4e86 9dbf f285 d63f 8b39 453f 47e6 68bf
00000020: b121 dd3f bd40 27c0 aa7b 723e a7bf 7b3f
00000030: ecea c2bf fd9c 8fbf b905 c2bf b735 9dbf
00000040: b0ce a7bf b066 b03f 4beb a43f e40c b7bf
00000050: 4aba 5c3f 06d4 a4bf 978f 2dbf b54d fa3e
00000060: 7078 0abf c789 0040 4c3e 1a40 e449 38bf
00000070: 844c ad3f 1d98 6c3f 64f3 cc3f 7d0c 6f3f
00000080: e45f 60bf 529c ebbf db44 1140 3584 9cbf
00000090: f021 c43f e655 1840 a4ac 4b3f 8d51 cabe

0.bias f4 [40]
0.1585931 -0.13954112 8.577848e-05 -0.043009065 0.13186465 -0.20808978 -0.23517726 0.30521613
-0.52844435 0.28007776 -0.02954572 -0.30089733 0.5108852 0.37520367 0.16245306 0.4122416
0.44003534 -0.42166385 -0.3940737 0.4797294 -0.26349083 0.43091086 0.22813119 -0.14984792
0.18122365 -1.186002 -1.3783767 0.37105495 -1.03593 -0.47910616 -0.82992333 -0.6516441
0.6915729 0.9487896 -1.5838395 0.6302831 -1.1739802 -1.8221645 -0.55513185 0.35673496
00000000: 3b66 223e dee3 0ebe f9e3 b338 462a 30bd
00000010: 8707 073e 7d15 55be 4fd2 70be 4a45 9c3e
00000020: 2148 07bf 5a66 8f3e de09 f2bc 370f 9abe
00000030: 5fc9 023f b21a c03e 185a 263e 5511 d33e
00000040: 504c e13e 53e4 d7be 07c4 c9be 189f f53e
00000050: 45e8 86be 59a0 dc3e 399b 693e bc71 19be
00000060: b192 393e eace 97bf a66e b0bf eafa bd3e
00000070: 5b99 84bf 674d f5be db75 54bf 26d2 26bf
00000080: ec0a 313f e0e3 723f 41bb cabf 3c5a 213f
00000090: fc44 96bf b03c e9bf 1f1d 0ebf f7a5 b63e

2.weight f4 [1, 40]
1.4602927 1.0510434 -0.04260768 0.35089013 1.2223011 1.5958731 -0.72866815 -0.7680197
-1.5254167 2.4771411 0.23702686 -0.8624289 -1.2884724 -0.858376 1.4798775 -1.0473752
-1.118622 -1.2061309 -1.1440866 -1.2038513 -0.7866149 -1.0107492 -0.620001 -0.4020212
-0.4387967 2.199814 2.5971735 0.7478961 -1.5769053 0.9688634 1.6971068 -0.99367344
-1.0251265 1.9821088 -2.5622578 1.3172646 -1.8106487 -2.7723038 -0.8963537 0.14669546
00000000: dfea ba3f 9788 863f 6485 2ebd dfa7 b33e
00000010: 5d74 9c3f 9245 cc3f ff89 3abf f09c 44bf
00000020: db40 c3bf 7b89 1e40 2bb7 723e 24c8 5cbf
00000030: aaec a4bf 88be 5bbf a06c bd3f 6410 86bf
00000040: 012f 8fbf 7f62 9abf 6e71 92bf cd17 9abf
00000050: 985f 49bf 3b60 81bf 63b8 1ebf b9d5 cdbe
00000060: f6a9 e0be c1c9 0c40 1738 2640 1e76 3f3f
00000070: 08d8 c9bf 6f07 783f cc3a d93f 6261 7ebf
00000080: 5837 83bf beb5 fd3f 08fc 23c0 209c a83f
00000090: 56c3 e7bf 6d6d 31c0 7077 65bf 5637 163e
