q_relu_optim/ckpts/sgd_momentum/width20/seed209/ckpt_and_history.pt (torch, 15999 bytes, 33 tensors)

0.weight f4 [20, 1]
0	0x3e41f573	0.18941288
1	0x3f68531d	0.9075182
2	0xbf635431	-0.8880034
3	0x3f51762a	0.8182093
4	0xbf52b495	-0.82306796
5	0x3f73af3d	0.9518927
6	0xbf65ecd0	-0.8981447
7	0x3f545619	0.82943875
8	0x3f762413	0.96148795
9	0x3f0078ec	0.5018451
10	0x3ed95ff8	0.4245603
11	0x3edcb8a7	0.4310963
12	0x3f2235e7	0.633635
13	0x3f7e87f3	0.9942619
14	0xbef7a46e	-0.48367637
15	0xbf1d9544	-0.61555886
16	0x3f4f6e7d	0.81027967
17	0xbf1bdb9c	-0.6088197
18	0x3f624020	0.88379097
19	0x3e5d5f22	0.21618322

0.bias f4 [20]
0	0xbbe7bcb5	-0.007072056
1	0xbda5092b	-0.08058389
2	0x3da770e1	0.08175827
3	0xbe058b73	-0.13041477
4	0x3e8b2fcb	0.271849
5	0xbea964fb	-0.33084854
6	0x3ea792ad	0.32729092
7	0xbea9e5b1	-0.33183053
8	0xbeec04e7	-0.4609749
9	0xbe80127d	-0.25014105
10	0xbe5fcb22	-0.21854833
11	0xbe76d948	-0.24106324
12	0xbebdf36f	-0.37099788
13	0xbf1ea7f8	-0.6197505
14	0x3e9a8473	0.30179176
15	0x3ed0ddaa	0.40794116
16	0xbf0e3645	-0.5555156
17	0x3ee5fec4	0.44920933
18	0xbf396b49	-0.7242933
19	0xbe4daf11	-0.20086314

2.weight f4 [1, 20]
0	0x3cbeb1ef	0.023278205
1	0x3d8cda5b	0.068775855
2	0xbe414d3f	-0.18877123
3	0x3d5efac5	0.05443837
4	0x3d485f71	0.048919145
5	0xbe3a1393	-0.1817153
6	0xbc7ad976	-0.015310636
7	0x3c398924	0.011324201
8	0xbe170364	-0.14747387
9	0x3e24cbcf	0.16093372
10	0x3e64343a	0.22285548
11	0xbe60877b	-0.21926682
12	0x3d9ec6d1	0.07752765
13	0xbd26e1dc	-0.04074274
14	0x3e55dba2	0.20884565
15	0xbdddb3f4	-0.10825339
16	0xbe535f66	-0.2064186
17	0x3cbc4b11	0.022985013
18	0xbc60a616	-0.013711473
19	0xbe041946	-0.12900266

0.weight f4 [20, 1]
0	0x3f0754f6	0.52864015
1	0x401c8c05	2.446046
2	0xbfb0ef6c	-1.3823066
3	0x400a30eb	2.1592357
4	0xbfa092b9	-1.2544776
5	0x401ba25d	2.4317849
6	0xbfbba2eb	-1.4659094
7	0x3feb4d29	1.8382922
8	0x401bf197	2.4366205
9	0x3ff73452	1.9312842
10	0x3ff001e9	1.8750583
11	0x3fa4b2e2	1.2867091
12	0x400d6725	2.2094204
13	0x4009bfd3	2.152333
14	0xc0385ab9	-2.8805373
15	0xbf9f50ae	-1.2446496
16	0x40105f72	2.2558255
17	0xbf8e6859	-1.1125594
18	0x40056302	2.084168
19	0x3f466892	0.7750331

0.bias f4 [20]
0	0xbd96487d	-0.07338045
1	0xbeadde8e	-0.33958858
2	0x3f075918	0.5287032
3	0xbe997c7f	-0.29977795
4	0x3ef54a5c	0.47908294
5	0xbf44275d	-0.76622564
6	0x3f0f94fb	0.560867
7	0xbf1439f0	-0.57900906
8	0xbf44a412	-0.7681285
9	0xbf90c4ce	-1.131006
10	0xbf8287a7	-1.0197648
11	0xbf659a77	-0.8968882
12	0xbfa5943c	-1.2935863
13	0xbfd0420e	-1.6270158
14	0x3fbc18ec	1.4695106
15	0x3f7e88d2	0.9942752
16	0xbfc93a4d	-1.5720917
17	0x3f639b57	0.88908905
18	0xbfccb2fd	-1.5992123
19	0xbf0a3e07	-0.54000896

2.weight f4 [1, 20]
0	0x3eecaa92	0.46223885
1	0x40086e79	2.1317427
2	0xbf84c6a6	-1.0373123
3	0x3ff0266d	1.8761727
4	0xbf67d5d9	-0.9056068
5	0xc008d253	-2.1378372
6	0xbf8babe1	-1.0911828
7	0xbfc9de45	-1.5770956
8	0xc0081013	-2.125981
9	0x3ff7f7a4	1.9372449
10	0x3fed2e10	1.8529682
11	0xbfafb165	-1.3726012
12	0x400ca9a6	2.1978545
13	0xc010b01e	-2.2607493
14	0x40372ea4	2.8622217
15	0xbf93b778	-1.1540365
16	0xc0172d2b	-2.3621318
17	0xbf80ca48	-1.0061731
18	0xc00cec44	-2.2019205
19	0xbf531766	-0.8245758

0.weight f4 [20, 1]
0	0x3f2ef56d	0.6834324
1	0x404b726b	3.1788585
2	0xbfa4a59e	-1.2863042
3	0x403335a8	2.80015
4	0xbf95c58b	-1.170091
5	0x403b5f23	2.9276817
6	0xbfaeb66f	-1.3649424
7	0x400a10c1	2.1572726
8	0x403bf27e	2.9366755
9	0x4001c95f	2.0279157
10	0x3ffb3b90	1.9627552
11	0x3facf1d9	1.3511306
12	0x4014664a	2.3187432
13	0x40129643	2.2904212
14	0xc061c36c	-3.5275526
15	0xbfb738e3	-1.4314235
16	0x4017a48b	2.369418
17	0xbfa33047	-1.2749108
18	0x400aab8d	2.1667206
19	0x3f5081e6	0.8144821

0.bias f4 [20]
0	0xbddfb95e	-0.10924028
1	0xbeba489d	-0.36383525
2	0x3f0698e0	0.5257702
3	0xbeb501b8	-0.35352874
4	0x3ef4d026	0.47815055
5	0xbf68c812	-0.90930283
6	0x3f0ec926	0.5577568
7	0xbf4eedc4	-0.8083155
8	0xbf643463	-0.89142436
9	0xbf9c4a47	-1.2210168
10	0xbf8d7e39	-1.1054145
11	0xbf70aca0	-0.94013405
12	0xbfb2b7b3	-1.396231
13	0xbfd0d78a	-1.6315777
14	0x3fe00f94	1.7504754
15	0x3f90fa4b	1.1326383
16	0xbfd24a88	-1.6428995
17	0x3f8164ea	1.0108922
18	0xbfd91194	-1.695849
19	0xbf109c86	-0.56488836

2.weight f4 [1, 20]
0	0x3f11a3b0	0.5689039
1	0x4027fb45	2.6247113
2	0xbf5d723b	-0.86502427
3	0x4013f6de	2.3119426
4	0xbf402cb9	-0.7506824
5	0xc01b5f67	-2.427698
6	0xbf68a7e7	-0.908812
7	0xbfe5e9f4	-1.7962022
8	0xc01ac733	-2.4184082
9	0x3ff191db	1.8872637
10	0x3fe2c6f2	1.7716963
11	0xbfad9aed	-1.3562905
12	0x40091ee3	2.1425102
13	0xc00f2748	-2.2367725
14	0x405fa781	3.4945986
15	0xbfaae635	-1.3351504
16	0xc0158d91	-2.3367655
17	0xbf95d174	-1.1704545
18	0xc00eaf06	-2.2294326
19	0xbf509e0e	-0.8149117

0.weight f4 [20, 1]
0	0x3f3ee706	0.74571264
1	0x405c7a93	3.4449813
2	0xbfa0f746	-1.2575462
3	0x4041927b	3.0245655
4	0xbf9293e1	-1.1451379
5	0x4048c301	3.136902
6	0xbfaad973	-1.334761
7	0x4012d901	2.2944949
8	0x40493e25	3.144418
9	0x4002498e	2.0357394
10	0x3ff7bae9	1.9353915
11	0x3fafdec4	1.3739858
12	0x4013d159	2.3096526
13	0x4015a9b5	2.338483
14	0xc0728810	-3.7895546
15	0xbfc4aff9	-1.5366203
16	0x4019f9a8	2.4058628
17	0xbfaed72f	-1.3659419
18	0x400e7812	2.2260785
19	0x3f533615	0.825044

0.bias f4 [20]
0	0xbe279a97	-0.16367565
1	0xbecf5d12	-0.40500695
2	0x3efdaf15	0.4954764
3	0xbed45550	-0.41471338
4	0x3ee74667	0.451709
5	0xbf76fc9e	-0.96479213
6	0x3f069bce	0.5258149
7	0xbf62257d	-0.8833845
8	0xbf761950	-0.96132374
9	0xbf9c03d4	-1.2188668
10	0xbf93ebcf	-1.1556338
11	0xbf7d25db	-0.9888589
12	0xbfb62671	-1.4230481
13	0xbfd75d5f	-1.682537
14	0x3ff2cebb	1.8969339
15	0x3f9abb19	1.2088348
16	0xbfdd8af0	-1.7308025
17	0x3f8a1556	1.0787761
18	0xbfe0c74e	-1.7560823
19	0xbf1937c8	-0.5985074

2.weight f4 [1, 20]
0	0x3f1532fc	0.5828092
1	0x40281e5e	2.6268535
2	0xbf470a81	-0.777504
3	0x401386c2	2.3051
4	0xbf2c1b79	-0.6722942
5	0xc019787d	-2.397979
6	0xbf50f5dd	-0.8162516
7	0xbfe3009d	-1.7734562
8	0xc01931cb	-2.3936641
9	0x3fdc595c	1.721477
10	0x3fccdc80	1.6004791
11	0xbfa89d97	-1.3173093
12	0x3ffa34d2	1.954737
13	0xc00b1113	-2.1729171
14	0x406c705f	3.6943586
15	0xbfb135d5	-1.3844553
16	0xc0115c26	-2.2712493
17	0xbf9bb5fa	-1.216491
18	0xc00e0912	-2.2193036
19	0xbf4aaa60	-0.7916622

0.weight f4 [20, 1]
0	0x3f545f65	0.8295806
1	0x406c5b21	3.693062
2	0xbfa10dde	-1.2582357
3	0x404f638e	3.2404513
4	0xbf92a95e	-1.1457937
5	0x405101fc	3.265746
6	0xbfaaf33b	-1.3355478
7	0x4018c542	2.3870397
8	0x4051b6ec	3.2767897
9	0x4003a1e5	2.0567563
10	0x3ffa0c27	1.9534959
11	0x3fb474a7	1.40981
12	0x40158804	2.3364267
13	0x401979e1	2.398064
14	0xc07adb3f	-3.9196317
15	0xbfcc16a2	-1.5944407
16	0x401df03a	2.4677873
17	0xbfb58bd7	-1.4183301
18	0x40118cd9	2.2742217
19	0x3f515ed9	0.8178535

0.bias f4 [20]
0	0xbe257f29	-0.16161789
1	0xbec47f7d	-0.38378516
2	0x3f0111ff	0.50418085
3	0xbec0d6e7	-0.37663957
4	0x3eeae8d6	0.45880765
5	0xbf82a35d	-1.0206105
6	0x3f08e48a	0.5347372
7	0xbf70b034	-0.94018865
8	0xbf80c95f	-1.0061454
9	0xbf9c6eb1	-1.222128
10	0xbf94959a	-1.1608155
11	0xbf7daa37	-0.9908785
12	0xbfb5cc9e	-1.4203069
13	0xbfd7afa2	-1.6850474
14	0x3ffc47a1	1.970936
15	0x3fa10a9e	1.2581365
16	0xbfddf338	-1.733985
17	0x3f8f6216	1.1201808
18	0xbfe222c7	-1.7666863
19	0xbf22a2f2	-0.63529885

2.weight f4 [1, 20]
0	0x3f1e22b4	0.617717
1	0x4029c3e2	2.6525807
2	0xbf43e54f	-0.7652177
3	0x4014795d	2.3199074
4	0xbf297fcd	-0.66210634
5	0xc013a6e6	-2.3070617
6	0xbf4db077	-0.8034739
7	0xbfdb3f83	-1.7128757
8	0xc0138425	-2.3049405
9	0x3fcc4a39	1.5960151
10	0x3fbe0706	1.4845893
11	0xbfa277aa	-1.2692769
12	0x3fe7ef51	1.8119909
13	0xc006218a	-2.095797
14	0x406fa822	3.744637
15	0xbfafbdb3	-1.3729767
16	0xc00c20d9	-2.1895049
17	0xbf9a9816	-1.2077663
18	0xc00aca88	-2.1686115
19	0xbf4592df	-0.7717723

0.weight f4 [20, 1]
0	0x3f6779c8	0.904202
1	0x407528df	3.8306196
2	0xbfa20ff2	-1.2661116
3	0x40575ebb	3.365157
4	0xbf93946b	-1.1529669
5	0x40586512	3.3811688
6	0xbfac104c	-1.3442473
7	0x401e1ef3	2.470639
8	0x4058f51d	3.3899605
9	0x40052fa8	2.0810337
10	0x3ffcee79	1.9760276
11	0x3fb84532	1.4396117
12	0x40174c8e	2.3640475
13	0x401cb76e	2.4486957
14	0xc0803f97	-4.0077624
15	0xbfd0c8b5	-1.6311251
16	0x40212e1d	2.5184395
17	0xbfb9bb8a	-1.4510357
18	0x40148c0e	2.3210483
19	0x3f55a2f8	0.83451796

0.bias f4 [20]
0	0xbe368fae	-0.17828247
1	0xbed8936d	-0.42299977
2	0x3f017a43	0.5057718
3	0xbebaf8be	-0.365179
4	0x3eeb0973	0.45905647
5	0xbf856d9b	-1.0424074
6	0x3f090817	0.5352797
7	0xbf7ae18b	-0.980004
8	0xbf85313c	-1.040565
9	0xbf9f5208	-1.2446909
10	0xbf974114	-1.1816735
11	0xbf816680	-1.0109406
12	0xbfb8ee9f	-1.4447821
13	0xbfdba54d	-1.7159821
14	0x40019d40	2.0252228
15	0x3fa3e37b	1.2803797
16	0xbfe2842e	-1.7696588
17	0x3f91cbfe	1.1390378
18	0xbfe57fbd	-1.7929608
19	0xbf2507cc	-0.6446502

2.weight f4 [1, 20]
0	0x3f26cf83	0.6516039
1	0x4025d77f	2.5912778
2	0xbf42cd08	-0.760941
3	0x40111a3a	2.2672257
4	0xbf28c09a	-0.65918887
5	0xc00ea844	-2.22902
6	0xbf4c9863	-0.79920024
7	0xbfd49cea	-1.6610386
8	0xc00ec2aa	-2.2306314
9	0x3fc0d29f	1.5064276
10	0x3fb382c4	1.4024282
11	0xbf9dd4fe	-1.2330625
12	0x3fdaff85	1.7109228
13	0xc00277b5	-2.0385563
14	0x406f8969	3.7427619
15	0xbfa94a49	-1.3225795
16	0xc008368b	-2.128329
17	0xbf95057b	-1.1642298
18	0xc0086a69	-2.1314948
19	0xbf42420d	-0.75882035

0.weight f4 [20, 1]
0	0x3f7b0d3d	0.98067075
1	0x407c8574	3.9456453
2	0xbfa687cd	-1.3010193
3	0x405daa37	3.463514
4	0xbf975950	-1.1824131
5	0x405ee776	3.4828773
6	0xbfb09db1	-1.3798124
7	0x40234afc	2.5514517
8	0x405fa026	3.4941497
9	0x40079733	2.1186035
10	0x4000c40b	2.0119655
11	0x3fbc742d	1.4722954
12	0x401a549b	2.411414
13	0x401ff258	2.4991665
14	0xc081d299	-4.0569577
15	0xbfd6184c	-1.6726165
16	0x4024d092	2.5752301
17	0xbfbe6db4	-1.4877229
18	0x40178664	2.3675776
19	0x3f59db43	0.8510019

0.bias f4 [20]
0	0xbe322641	-0.17397405
1	0xbedef024	-0.43542588
2	0x3efe63c6	0.49685496
3	0xbec684e6	-0.38773268
4	0x3ee8189d	0.45331278
5	0xbf89767a	-1.0739281
6	0x3f075e10	0.52877903
7	0xbf814566	-1.0099304
8	0xbf8816cf	-1.0631961
9	0xbfa1cbe2	-1.2640345
10	0xbf9950e6	-1.1977813
11	0xbf83f380	-1.0308685
12	0xbfbab4a4	-1.4586377
13	0xbfe07ff0	-1.7539043
14	0x4003f138	2.0615978
15	0x3fa4d66e	1.2877939
16	0xbfe6d5f2	-1.8034041
17	0x3f92938c	1.1451278
18	0xbfec7d65	-1.8475767
19	0xbf2a1498	-0.66437674

2.weight f4 [1, 20]
0	0x3f28c493	0.6592495
1	0x401d4db7	2.4578683
2	0xbf4b380f	-0.79382414
3	0x4009cde3	2.1531913
4	0xbf30a8f5	-0.6900781
5	0xc005920e	-2.0870395
6	0xbf5599bb	-0.834377
7	0xbfc79fac	-1.5595603
8	0xc005b8de	-2.0894084
9	0x3fb41885	1.4069983
10	0x3fa7d8f5	1.3113085
11	0xbf9785e6	-1.1837738
12	0x3fcc8cad	1.5980431
13	0xbffad5a3	-1.9596447
14	0x406be7fe	3.6860347
15	0xbfa039a6	-1.2517593
16	0xc002db58	-2.0446377
17	0xbf8d2394	-1.1026483
18	0xc0066e43	-2.1004798
19	0xbf3f973b	-0.74840134

0.weight f4 [20, 1]
0	0x3f87800e	1.0585954
1	0x40820d5c	4.064131
2	0xbfa79561	-1.3092462
3	0x406420eb	3.5645092
4	0xbf984a05	-1.1897589
5	0x40650e5b	3.5790012
6	0xbfb1cf25	-1.389134
7	0x40278c88	2.6179523
8	0x406584b1	3.5862238
9	0x400a8c43	2.164811
10	0x40037100	2.053772
11	0x3fbf66ee	1.4953287
12	0x401d9793	2.4623764
13	0x402283b3	2.5392883
14	0xc084a9bc	-4.1457195
15	0xbfd70d31	-1.6800901
16	0x4027574d	2.6147034
17	0xbfbf3b6c	-1.4940009
18	0x401b6c2f	2.428478
19	0x3f5f7673	0.87290114

0.bias f4 [20]
0	0xbe51f456	-0.20503363
1	0xbed6e9fa	-0.41975385
2	0x3f027050	0.50952625
3	0xbec90c58	-0.3926723
4	0x3eed78e1	0.46381286
5	0xbf8d2284	-1.1026158
6	0x3f0a666f	0.5406255
7	0xbf862b7f	-1.0482024
8	0xbf8d826c	-1.1055427
9	0xbfa57b8c	-1.2928329
10	0xbf9d0319	-1.226657
11	0xbf873b39	-1.0564948
12	0xbfbf3fbd	-1.4941326
13	0xbfe5913d	-1.7934948
14	0x40060ed6	2.0946555
15	0x3fa84467	1.3145875
16	0xbfec8e92	-1.8481009
17	0x3f95a04c	1.1689544
18	0xbfee9ef2	-1.8642256
19	0xbf2b88ba	-0.67005503

2.weight f4 [1, 20]
0	0x3f3999ce	0.7250031
1	0x401f96ab	2.493571
2	0xbf4d1b2f	-0.80119604
3	0x400ba0f9	2.1817
4	0xbf328e80	-0.6974869
5	0xc006548f	-2.098911
6	0xbf57ae87	-0.8425068
7	0xbfc84648	-1.5646448
8	0xc0067f7c	-2.101531
9	0x3fb4630e	1.4092729
10	0x3fa85646	1.3151329
11	0xbf966ec4	-1.1752553
12	0x3fccf3ba	1.601188
13	0xbff94f52	-1.9477332
14	0x406d9e4e	3.7127872
15	0xbf9bcf90	-1.2172718
16	0xc001fc28	-2.0310154
17	0xbf894c65	-1.0726439
18	0xc006cbd7	-2.1061914
19	0xbf402ddc	-0.75069976

0.weight f4 [20, 1]
0	0x3f918bb5	1.137076
1	0x40846598	4.1374016
2	0xbfaa4f8b	-1.3305525
3	0x4068145f	3.6262434
4	0xbf9a278a	-1.2043316
5	0x4069f7a7	3.6557405
6	0xbfb4ad71	-1.411543
7	0x402b608f	2.6777685
8	0x406a6f2f	3.663036
9	0x400d3547	2.2063768
10	0x4005e785	2.0922558
11	0x3fc36343	1.5264667
12	0x40208d18	2.5086117
13	0x4025ccf6	2.5906348
14	0xc085ce65	-4.1814446
15	0xbfd8bf9c	-1.6933475
16	0x402aceb7	2.6688669
17	0xbfc0b7ec	-1.5056129
18	0x401da1f0	2.4630089
19	0x3f64019c	0.89064956

0.bias f4 [20]
0	0xbe600ab8	-0.21879089
1	0xbed49860	-0.41522503
2	0x3f02908d	0.51001817
3	0xbece846b	-0.40335402
4	0x3ef2f05d	0.47449008
5	0xbf8fdabf	-1.1238631
6	0x3f0a7ff7	0.5410151
7	0xbf88f8b9	-1.0700904
8	0xbf903cd3	-1.1268562
9	0xbfa767b2	-1.307852
10	0xbf9edb79	-1.2410728
11	0xbf89e0f9	-1.0771781
12	0xbfc1b55b	-1.513347
13	0xbfe9fd82	-1.828049
14	0x4007cd20	2.1218948
15	0x3fa8858d	1.3165756
16	0xbff10ef4	-1.8832688
17	0x3f95d5e2	1.1705897
18	0xbff63104	-1.9233708
19	0xbf2f4951	-0.68471247

2.weight f4 [1, 20]
0	0x3f425d8e	0.75924003
1	0x401b1993	2.423436
2	0xbf51543a	-0.81769145
3	0x4007824d	2.117328
4	0xbf36998e	-0.71328056
5	0xc001feee	-2.0311847
6	0xbf5c3615	-0.8602002
7	0xbfc18c9f	-1.5121039
8	0xc0022ab5	-2.0338566
9	0x3fae8482	1.3634188
10	0x3fa3079e	1.27367
11	0xbf9387e4	-1.1525846
12	0x3fc64e86	1.5492713
13	0xbff4cdfd	-1.9125363
14	0x40699c8e	3.6501803
15	0xbf922023	-1.1416057
16	0xbfff1bb4	-1.9930329
17	0xbf80d024	-1.006352
18	0xc005ee0d	-2.0926545
19	0xbf3efb0b	-0.7460181

0.weight f4 [20, 1]
0	0x3f9b0803	1.211182
1	0x40867492	4.20173
2	0xbfac1c6a	-1.3446171
3	0x406bcc52	3.6843457
4	0xbf9c3adc	-1.2205462
5	0x406f1672	3.735745
6	0xbfb7ea26	-1.4368331
7	0x402edc7f	2.732208
8	0x406f8f7c	3.7431326
9	0x400fca9f	2.246742
10	0x40085244	2.130021
11	0x3fc72edc	1.5561175
12	0x40239356	2.5558677
13	0x4028f4b1	2.6399348
14	0xc087929d	-4.236647
15	0xbfdabc66	-1.7088745
16	0x402e1979	2.7203047
17	0xbfc2782b	-1.5192922
18	0x4021d720	2.5287552
19	0x3f687bda	0.9081398

0.bias f4 [20]
0	0xbe74b294	-0.23896247
1	0xbee09aa4	-0.4386798
2	0x3f088a12	0.5333568
3	0xbed0fae2	-0.40816408
4	0x3ef872b4	0.48525012
5	0xbf91d08d	-1.139177
6	0x3f09cd43	0.5382883
7	0xbf8c0495	-1.0938898
8	0xbf9233e5	-1.1422087
9	0xbfab3a57	-1.3377179
10	0xbfa265d0	-1.2687321
11	0xbf8c161a	-1.0944245
12	0xbfc5c9b6	-1.5452182
13	0xbfed9cd3	-1.8563484
14	0x400916e2	2.1420217
15	0x3faa92f0	1.3326092
16	0xbff4d3e0	-1.9127159
17	0x3f979f89	1.1845561
18	0xbffa43db	-1.9551958
19	0xbf342abf	-0.70377725

2.weight f4 [1, 20]
0	0x3f4b4029	0.79394776
1	0x401870ae	2.3818774
2	0xbf56a671	-0.8384772
3	0x400525c4	2.08043
4	0xbf3ba81f	-0.7330341
5	0xbfff994e	-1.996866
6	0xbf61ed78	-0.88252974
7	0xbfbc96c0	-1.4733505
8	0xbffff343	-1.9996113
9	0x3fab7546	1.3395164
10	0x3fa05a5b	1.2527574
11	0xbf910a86	-1.1331336
12	0x3fc2e13b	1.5224985
13	0xbff0ee66	-1.8822753
14	0x4067e206	3.6231704
15	0xbf8caef2	-1.0990889
16	0xbffaec29	-1.960332
17	0xbf7829e4	-0.9693892
18	0xc006435c	-2.0978613
19	0xbf3f7e6d	-0.74802285

0.weight f4 [20, 1]
0	0x3fa4e1f4	1.2881455
1	0x408892fb	4.267942
2	0xbfaf21fe	-1.3682249
3	0x406f7675	3.741605
4	0xbf9eeabc	-1.2415385
5	0x40734c59	3.801535
6	0xbfbb5252	-1.4634497
7	0x4032215c	2.783286
8	0x4073c6b6	3.8090034
9	0x4012a0f6	2.2910743
10	0x400af503	2.1712043
11	0x3fcb2c31	1.5872861
12	0x4026a7e0	2.6039963
13	0x402c4334	2.6916018
14	0xc08937d1	-4.2880635
15	0xbfdd2852	-1.727793
16	0x4031852f	2.773754
17	0xbfc38e5d	-1.5277821
18	0x40250af1	2.5787928
19	0x3f6da95c	0.92836547

0.bias f4 [20]
0	0xbe7a63ab	-0.24452083
1	0xbee43091	-0.44568303
2	0x3f0a7947	0.54091305
3	0xbed72f43	-0.42028245
4	0x3efb586d	0.490909
5	0xbf94633e	-1.1592786
6	0x3f0ac592	0.5420772
7	0xbf8eab93	-1.114611
8	0xbf94c7df	-1.1623496
9	0xbfae2e06	-1.3607795
10	0xbfa5346f	-1.2906626
11	0xbf8ece78	-1.1156759
12	0xbfc9afac	-1.5756736
13	0xbff2287a	-1.8918602
14	0x400a47ae	2.160625
15	0x3fab0a5f	1.336254
16	0xbff9a084	-1.950211
17	0x3f995f25	1.1982161
18	0xc0013ab9	-2.0192091
19	0xbf3938d1	-0.7235232

2.weight f4 [1, 20]
0	0x3f52332e	0.82109344
1	0x4016800d	2.3515656
2	0xbf5c6493	-0.86090964
3	0x40035b6f	2.0524557
4	0xbf411157	-0.75417084
5	0xbff8032f	-1.9375972
6	0xbf685a06	-0.90762365
7	0xbfb61202	-1.4224246
8	0xbff85db8	-1.9403601
9	0x3fa76972	1.3079054
10	0x3f9cbeb8	1.2245703
11	0xbf8e633f	-1.1124038
12	0x3fbe4c62	1.486706
13	0xbfecd278	-1.850173
14	0x406537f8	3.581541
15	0xbf86816c	-1.0508246
16	0xbff67bc9	-1.9256526
17	0xbf6d6e8e	-0.9274682
18	0xc006e27f	-2.1075742
19	0xbf4077b3	-0.75182647
