dis/dis03/code/ckpts/adam/width10/seed836/ckpt_and_history.pt (torch, 13887 bytes, 33 tensors)

0.weight f4 [10, 1]
0	0xbebe2107	-0.37134573
1	0x3f6606dc	0.89854217
2	0x3f3fff34	0.74998784
3	0xbf427834	-0.75964665
4	0xbf79d8ba	-0.97596323
5	0xbe0efa7f	-0.13962744
6	0xbf60d171	-0.8781958
7	0x3f21d602	0.63217175
8	0xbf138d12	-0.5763713
9	0x3edf8bfc	0.43661487

0.bias f4 [10]
0	0xbc36bbdd	-0.0111531885
1	0xbe2bec7d	-0.16789432
2	0xbdd220f2	-0.1026019
3	0x3e337820	0.17526293
4	0x3e93f980	0.2890129
5	0x3db595bc	0.0886645
6	0x3ee49faf	0.4465308
7	0xbebaa7dd	-0.36456195
8	0x3ec15080	0.3775673
9	0xbed71794	-0.42010176

2.weight f4 [1, 10]
0	0x3e31723a	0.1732873
1	0x3e281b45	0.16416653
2	0xbe5cff80	-0.2158184
3	0x3dcd36fa	0.100202516
4	0x3e412d8e	0.18865034
5	0xbd71474e	-0.058905892
6	0x3d2db3a1	0.042407636
7	0xbe3956aa	-0.18099466
8	0x3e5ad283	0.21369366
9	0x3e1237d6	0.14279112

0.weight f4 [10, 1]
0	0xbef161db	-0.4714497
1	0x404f91de	3.243278
2	0x4034a836	2.8227668
3	0xbf790c4b	-0.9728438
4	0xbfa28d72	-1.2699416
5	0xbfce399f	-1.6111335
6	0xc0747dc6	-3.8201766
7	0x4013b185	2.30771
8	0xc0263231	-2.5968134
9	0x3e9aa205	0.30201736

0.bias f4 [10]
0	0xbde3ddf2	-0.11126317
1	0xbfe3c32b	-1.7793936
2	0x3c445ecb	0.011985491
3	0xbd18d554	-0.03731282
4	0xbbda17d3	-0.006655672
5	0x3fb794a1	1.4342233
6	0x3fa9c9ee	1.3264749
7	0xbfe156e2	-1.760464
8	0x3f631ac9	0.88712746
9	0xbf0dbad1	-0.55363184

2.weight f4 [1, 10]
0	0x3d95e04a	0.0731817
1	0x40a2c209	5.086186
2	0xbfd8e896	-1.694598
3	0xbe073ba4	-0.13206345
4	0xbdbfbef2	-0.09362592
5	0x3ffdd9ee	1.9832132
6	0xc0181702	-2.3764043
7	0xc0ff46a3	-7.9773726
8	0xbfaa047a	-1.3282616
9	0x3d02641d	0.031833757

0.weight f4 [10, 1]
0	0xbef161db	-0.4714497
1	0x40572f54	3.3622637
2	0x403ed9d6	2.9820457
3	0xbf790c4b	-0.9728438
4	0xbfa28d72	-1.2699416
5	0xbfe3917b	-1.7778772
6	0xc07cbb5b	-3.9489353
7	0x401a25bb	2.408553
8	0xc02abf3e	-2.6679225
9	0x3e9aa205	0.30201736

0.bias f4 [10]
0	0xbde3ddf2	-0.11126317
1	0xbfe85dda	-1.8153641
2	0x3d383f03	0.044981968
3	0xbd18d554	-0.03731282
4	0xbbda17d3	-0.006655672
5	0x3fc9aac8	1.5755243
6	0x3fbc855f	1.4728202
7	0xbfed5ad9	-1.854335
8	0x3f79956d	0.9749363
9	0xbf0dbad1	-0.55363184

2.weight f4 [1, 10]
0	0x3d95e04a	0.0731817
1	0x40a598ea	5.1749163
2	0xbfdc5918	-1.7214689
3	0xbe073ba4	-0.13206345
4	0xbdbfbef2	-0.09362592
5	0x400395e2	2.0560231
6	0xc01a078f	-2.4067113
7	0xc0f9ebe1	-7.810044
8	0xbf9652c7	-1.1744012
9	0x3d02641d	0.031833757

0.weight f4 [10, 1]
0	0xbef161db	-0.4714497
1	0x405af88d	3.4214203
2	0x40429fef	3.0410116
3	0xbf790c4b	-0.9728438
4	0xbfa28d72	-1.2699416
5	0xbfef2273	-1.8682388
6	0xc0871cdb	-4.2222724
7	0x4020b345	2.5109417
8	0xc0353478	-2.8313274
9	0x3e9aa205	0.30201736

0.bias f4 [10]
0	0xbde3ddf2	-0.11126317
1	0xbfec7852	-1.8474219
2	0x3d58ee87	0.052961852
3	0xbd18d554	-0.03731282
4	0xbbda17d3	-0.006655672
5	0x3fd8b698	1.6930723
6	0x3fc3a744	1.528542
7	0xbff4dbb8	-1.9129553
8	0x3f7b7a48	0.9823346
9	0xbf0dbad1	-0.55363184

2.weight f4 [1, 10]
0	0x3d95e04a	0.0731817
1	0x40a404e6	5.125598
2	0xbfd54321	-1.6661111
3	0xbe073ba4	-0.13206345
4	0xbdbfbef2	-0.09362592
5	0x400650c5	2.0986798
6	0xc01c2f64	-2.4403925
7	0xc0f29a8b	-7.581365
8	0xbf86f848	-1.054452
9	0x3d02641d	0.031833757

0.weight f4 [10, 1]
0	0xbef161db	-0.4714497
1	0x406065f5	3.506223
2	0x4047451d	3.1135933
3	0xbf790c4b	-0.9728438
4	0xbfa28d72	-1.2699416
5	0xbffc39bb	-1.9705118
6	0xc08b789f	-4.3584743
7	0x40263353	2.5968826
8	0xc0361081	-2.8447573
9	0x3e9aa205	0.30201736

0.bias f4 [10]
0	0xbde3ddf2	-0.11126317
1	0xbfef3bb5	-1.8690096
2	0x3db6de21	0.089290865
3	0xbd18d554	-0.03731282
4	0xbbda17d3	-0.006655672
5	0x3fe4097e	1.7815397
6	0x3fcf3b2e	1.6189935
7	0xbffdd994	-1.9832025
8	0x3f81f6d6	1.0153453
9	0xbf0dbad1	-0.55363184

2.weight f4 [1, 10]
0	0x3d95e04a	0.0731817
1	0x40a36f43	5.1073318
2	0xbfd29cd2	-1.6454108
3	0xbe073ba4	-0.13206345
4	0xbdbfbef2	-0.09362592
5	0x40082b4f	2.1276433
6	0xc01d8cbd	-2.461715
7	0xc0e8b23d	-7.2717576
8	0xbf6c5f5d	-0.9233301
9	0x3d02641d	0.031833757

0.weight f4 [10, 1]
0	0xbef161db	-0.4714497
1	0x406335c4	3.5501566
2	0x4048cde3	3.1375663
3	0xbf790c4b	-0.9728438
4	0xbfa28d72	-1.2699416
5	0xc003a570	-2.0569725
6	0xc09087a9	-4.51656
7	0x402bec0b	2.686282
8	0xc0331f20	-2.7987747
9	0x3e9aa205	0.30201736

0.bias f4 [10]
0	0xbde3ddf2	-0.11126317
1	0xbff4a837	-1.9113835
2	0x3dc9035b	0.09815093
3	0xbd18d554	-0.03731282
4	0xbbda17d3	-0.006655672
5	0x3feb4143	1.8379291
6	0x3fd6d2e2	1.6783106
7	0xc0050513	-2.0784347
8	0x3f80b981	1.0056611
9	0xbf0dbad1	-0.55363184

2.weight f4 [1, 10]
0	0x3d95e04a	0.0731817
1	0x409f96b8	4.9871483
2	0xbfc95337	-1.572852
3	0xbe073ba4	-0.13206345
4	0xbdbfbef2	-0.09362592
5	0x4006181b	2.0952213
6	0xc01bd830	-2.43507
7	0xc0e0b128	-7.0216255
8	0xbf391ca5	-0.72309333
9	0x3d02641d	0.031833757

0.weight f4 [10, 1]
0	0xbef161db	-0.4714497
1	0x4066fb3c	3.6090841
2	0x404b4707	3.1762102
3	0xbf790c4b	-0.9728438
4	0xbfa28d72	-1.2699416
5	0xc0075114	-2.1143236
6	0xc0981fa5	-4.753863
7	0x4032614f	2.7871892
8	0xc03309b0	-2.7974663
9	0x3e9aa205	0.30201736

0.bias f4 [10]
0	0xbde3ddf2	-0.11126317
1	0xbff73a02	-1.9314578
2	0x3dfb103f	0.12258958
3	0xbd18d554	-0.03731282
4	0xbbda17d3	-0.006655672
5	0x3ff44956	1.908488
6	0x3fdc5db3	1.7216095
7	0xc0085b63	-2.1305778
8	0x3f771f92	0.9653255
9	0xbf0dbad1	-0.55363184

2.weight f4 [1, 10]
0	0x3d95e04a	0.0731817
1	0x409d79d4	4.9211216
2	0xbfc36be1	-1.5267297
3	0xbe073ba4	-0.13206345
4	0xbdbfbef2	-0.09362592
5	0x4006794b	2.1011531
6	0xc01d5b7f	-2.4587095
7	0xc0db2746	-6.848544
8	0xbf14724b	-0.579869
9	0x3d02641d	0.031833757

0.weight f4 [10, 1]
0	0xbef161db	-0.4714497
1	0x406ab269	3.6671393
2	0x4049c84b	3.15285
3	0xbf790c4b	-0.9728438
4	0xbfa28d72	-1.2699416
5	0xc00ad0c0	-2.168991
6	0xc09df37d	-4.9359727
7	0x4037d37c	2.872283
8	0xc0291f9d	-2.6425545
9	0x3e9aa205	0.30201736

0.bias f4 [10]
0	0xbde3ddf2	-0.11126317
1	0xbffaafa7	-1.9584855
2	0x3e1aaa27	0.1510397
3	0xbd18d554	-0.03731282
4	0xbbda17d3	-0.006655672
5	0x3ffa95e1	1.957699
6	0x3fe51b83	1.7899021
7	0xc00cf58f	-2.2024877
8	0x3f6be09f	0.9213962
9	0xbf0dbad1	-0.55363184

2.weight f4 [1, 10]
0	0x3d95e04a	0.0731817
1	0x409a872b	4.829
2	0xbfb94504	-1.4474187
3	0xbe073ba4	-0.13206345
4	0xbdbfbef2	-0.09362592
5	0x4005031d	2.078315
6	0xc020b1e0	-2.5108566
7	0xc0d399e1	-6.612534
8	0xbeec78d0	-0.46185923
9	0x3d02641d	0.031833757

0.weight f4 [10, 1]
0	0xbef161db	-0.4714497
1	0x406dce52	3.7157178
2	0x404ca8af	3.1977956
3	0xbf790c4b	-0.9728438
4	0xbfa28d72	-1.2699416
5	0xc00ef187	-2.2334917
6	0xc0a29768	-5.080982
7	0x403d9fcb	2.962878
8	0xc00f0193	-2.234471
9	0x3e9aa205	0.30201736

0.bias f4 [10]
0	0xbde3ddf2	-0.11126317
1	0xbffe559d	-1.9869877
2	0x3e288545	0.16457088
3	0xbd18d554	-0.03731282
4	0xbbda17d3	-0.006655672
5	0x400165d5	2.0218403
6	0x3fed0bd1	1.8519231
7	0xc0111ee4	-2.2675104
8	0x3f4a137f	0.78936
9	0xbf0dbad1	-0.55363184

2.weight f4 [1, 10]
0	0x3d95e04a	0.0731817
1	0x40987934	4.7647953
2	0xbfb4ee43	-1.4135212
3	0xbe073ba4	-0.13206345
4	0xbdbfbef2	-0.09362592
5	0x400581c2	2.0860448
6	0xc0215e2f	-2.5213735
7	0xc0cd9c48	-6.4253273
8	0xbe859b49	-0.26095036
9	0x3d02641d	0.031833757

0.weight f4 [10, 1]
0	0xbef161db	-0.4714497
1	0x40726065	3.7871335
2	0x404edd9a	3.2322755
3	0xbf790c4b	-0.9728438
4	0xbfa28d72	-1.2699416
5	0xc013378f	-2.300266
6	0xc0a63712	-5.1942225
7	0x4043b608	3.0579853
8	0xbfb2be6b	-1.3964361
9	0x3e9aa205	0.30201736

0.bias f4 [10]
0	0xbde3ddf2	-0.11126317
1	0xc000541d	-2.0051339
2	0x3e2b373d	0.1672029
3	0xbd18d554	-0.03731282
4	0xbbda17d3	-0.006655672
5	0x400595ec	2.0872755
6	0x3ff53e81	1.91597
7	0xc0150023	-2.3281333
8	0x3ef2bfe6	0.47412032
9	0xbf0dbad1	-0.55363184

2.weight f4 [1, 10]
0	0x3d95e04a	0.0731817
1	0x409752ae	4.7288427
2	0xbfb0e131	-1.3818723
3	0xbe073ba4	-0.13206345
4	0xbdbfbef2	-0.09362592
5	0x40070f4b	2.1103084
6	0xc0223040	-2.534195
7	0xc0c939f4	-6.2883244
8	0xbd3e4928	-0.046456486
9	0x3d02641d	0.031833757

0.weight f4 [10, 1]
0	0xbef161db	-0.4714497
1	0x4072c648	3.7933521
2	0x40462903	3.0962532
3	0xbf790c4b	-0.9728438
4	0xbfa28d72	-1.2699416
5	0xc0163136	-2.3467536
6	0xc0c19997	-6.0499988
7	0x4047675f	3.1156843
8	0xc10e0fef	-8.87889
9	0x3e9aa205	0.30201736

0.bias f4 [10]
0	0xbde3ddf2	-0.11126317
1	0xc002d872	-2.0444608
2	0x3e8230be	0.25427812
3	0xbd18d554	-0.03731282
4	0xbbda17d3	-0.006655672
5	0x4006e5b2	2.1077695
6	0x3ff8630b	1.9405226
7	0xc0185d72	-2.3807034
8	0x3f6f817c	0.9355695
9	0xbf0dbad1	-0.55363184

2.weight f4 [1, 10]
0	0x3d95e04a	0.0731817
1	0x409397bb	4.612272
2	0xbfa18675	-1.2619158
3	0xbe073ba4	-0.13206345
4	0xbdbfbef2	-0.09362592
5	0x4006e858	2.1079311
6	0xc040dcb0	-3.0134697
7	0xc0c7c96c	-6.2433376
8	0x40098890	2.14896
9	0x3d02641d	0.031833757
