q_relu_optim/ckpts/adam/width10/seed871/ckpt_and_history.pt (torch, 13887 bytes, 33 tensors)

0.weight f4 [10, 1]
00000000: ec85 2abf 0817 51bc e840 7d3f 18bf a53e
00000010: ef02 613e 1c59 013f ba86 40bf 5fbc 263f
00000020: cc04 183f 66ea 0cbf
-0.666106 -0.012761839 0.98927164 0.32372355 0.21973775 0.50526595 -0.75205576 0.6513118
0.5938232 -0.55045164

0.bias f4 [10]
00000000: 743c 5f3d a4c9 acbc 2259 4abe 4801 abbd
00000010: 245c e1bd 4a3b 7dbe 2e03 f23e 95a9 e6be
00000020: e634 d6be 37d2 163f
0.054501012 -0.021092243 -0.19760564 -0.08349854 -0.110039026 -0.24729648 0.4726805 -0.45051256
-0.41837233 0.5891451

2.weight f4 [1, 10]
00000000: e513 3f3e 9a69 403e 7bd1 31be f62b 22bd
00000010: 02f0 153e 344e 52be e9ed d63d ddf9 42bd
00000020: cbf6 4abe fe30 90bd
0.18659933 0.18790284 -0.17365067 -0.039592706 0.14642337 -0.20537645 0.104945965 -0.04760157
-0.19820707 -0.070405945

0.weight f4 [10, 1]
00000000: 7c8f 4bbf 4f29 e7bd 4e91 b83f 27b0 2f3e
00000010: 7928 2240 ea6a 9b3f 2516 89c0 4bd0 ce3f
00000020: 5591 bd3f a8ed 5dc0
-0.79515815 -0.11287176 1.4419343 0.1715704 2.5337203 1.2142003 -4.283953 1.6157316
1.4809977 -3.4676304

0.bias f4 [10]
00000000: 5cb6 b4bd cc38 f8bd 4f85 8fbf 0ec8 aabe
00000010: ea53 babf d6a1 71bf 35b1 c03f 8f32 91bf
00000020: 19cd 8fbf d7ed e53f
-0.08823845 -0.12120208 -1.1212558 -0.33355755 -1.4556859 -0.9438757 1.5054079 -1.1343554
-1.1234466 1.7963208

2.weight f4 [1, 10]
00000000: a76b 4e3d 9dcf b33d 3c22 e0bf 2b38 4fbc
00000010: ce57 8a40 aff5 18c0 910e 48c0 b18e 96c0
00000020: 9d80 92c0 0f9e 2240
0.050395634 0.087798335 -1.7510448 -0.012647669 4.3232183 -2.3899953 -3.125889 -4.7049184
-4.5782 2.5408971

0.weight f4 [10, 1]
00000000: 7c8f 4bbf 4f29 e7bd 8bff c13f 27b0 2f3e
00000010: ec8c 2840 ebf3 a43f ce77 8fc0 b164 e43f
00000020: deee c73f a9a5 75c0
-0.79515815 -0.11287176 1.515611 0.1715704 2.6336012 1.2886938 -4.4833746 1.7843229
1.5619771 -3.838236

0.bias f4 [10]
00000000: 5cb6 b4bd cc38 f8bd 16db 97bf 0ec8 aabe
00000010: 6222 c4bf fcfd 80bf d1fb d23f 3c35 a0bf
00000020: d5a9 98bf e337 f73f
-0.08823845 -0.12120208 -1.1863735 -0.33355755 -1.5322993 -1.007751 1.6483098 -1.2516246
-1.1926829 1.931393

2.weight f4 [1, 10]
00000000: a76b 4e3d 9dcf b33d 639b b5bf 2b38 4fbc
00000010: 191e 8d40 7df7 f1bf 0941 4cc0 1bb2 a1c0
00000020: c88a 88c0 bcf6 2b40
0.050395634 0.087798335 -1.4188045 -0.012647669 4.409924 -1.8903652 -3.1914694 -5.0529914
-4.266941 2.6869345

0.weight f4 [10, 1]
00000000: 7c8f 4bbf 4f29 e7bd d275 cb3f 27b0 2f3e
00000010: a82b 2d40 e894 ae3f 26ca 94c0 2209 f63f
00000020: 5dfa d23f 857d 80c0
-0.79515815 -0.11287176 1.5895331 0.1715704 2.7057896 1.3639193 -4.6496763 1.9221537
1.6482655 -4.015322

0.bias f4 [10]
00000000: 5cb6 b4bd cc38 f8bd f0ad 9ebf 0ec8 aabe
00000010: 22ec cabf 91b7 87bf a134 da3f f290 abbf
00000020: 2216 a0bf e236 0040
-0.08823845 -0.12120208 -1.2396832 -0.33355755 -1.5853312 -1.0602895 1.7047311 -1.3403609
-1.2506754 2.0033498

2.weight f4 [1, 10]
00000000: a76b 4e3d 9dcf b33d 939c 92bf 2b38 4fbc
00000010: 0c28 8c40 3b92 b6bf b63f 48c0 5f46 a7c0
00000020: 6efc 7fc0 8bca 2a40
0.050395634 0.087798335 -1.1454033 -0.012647669 4.3798885 -1.4263376 -3.1288886 -5.22734
-3.999782 2.6686122

0.weight f4 [10, 1]
00000000: 7c8f 4bbf 4f29 e7bd 2ac9 d53f 27b0 2f3e
00000010: 10b1 3140 36b0 b83f 52ae 99c0 127c 0240
00000020: 7b0d de3f d4e9 83c0
-0.79515815 -0.11287176 1.6702015 0.1715704 2.776432 1.4428775 -4.8025293 2.0388227
1.7347864 -4.1222935

0.bias f4 [10]
00000000: 5cb6 b4bd cc38 f8bd 585f a7bf 0ec8 aabe
00000010: 13db cfbf 9c66 90bf a8c2 e23f 0872 b7bf
00000020: 2981 abbf 871e 0340
-0.08823845 -0.12120208 -1.3075972 -0.33355755 -1.6238731 -1.1281314 1.7715654 -1.4331675
-1.3398792 2.0487382

2.weight f4 [1, 10]
00000000: a76b 4e3d 9dcf b33d 7001 7bbf 2b38 4fbc
00000010: 8c2c 8940 c442 8bbf 4e48 46c0 8943 a9c0
00000020: 7319 75c0 73dd 2540
0.050395634 0.087798335 -0.9804907 -0.012647669 4.286688 -1.087975 -3.0981631 -5.289494
-3.8296783 2.5916412

0.weight f4 [10, 1]
00000000: 7c8f 4bbf 4f29 e7bd 6be6 de3f 27b0 2f3e
00000010: 54e9 3540 ca27 c13f 0442 9ec0 63d3 0840
00000020: 9f96 e83f 8378 86c0
-0.79515815 -0.11287176 1.7414068 0.1715704 2.8423662 1.5090268 -4.9455585 2.137902
1.8170966 -4.202211

0.bias f4 [10]
00000000: 5cb6 b4bd cc38 f8bd ea3c afbf 0ec8 aabe
00000010: cdf7 d4bf 1a57 98bf b88a e63f 1ccc bfbf
00000020: 7470 b5bf 5be0 0640
-0.08823845 -0.12120208 -1.3690464 -0.33355755 -1.6638123 -1.1901581 1.8011084 -1.4984164
-1.4174943 2.1074436

2.weight f4 [1, 10]
00000000: a76b 4e3d 9dcf b33d 48e4 64bf 2b38 4fbc
00000010: c999 8740 6538 60bf c1f8 3ec0 41c6 a9c0
00000020: 983c 70c0 06e7 2040
0.050395634 0.087798335 -0.8941083 -0.012647669 4.2375226 -0.8758605 -2.9839327 -5.305451
-3.7536983 2.5141006

0.weight f4 [10, 1]
00000000: 7c8f 4bbf 4f29 e7bd 6b5a e83f 27b0 2f3e
00000010: f7dd 3940 8f18 ca3f c015 a2c0 db82 0e40
00000020: de04 f53f d6d1 8ac0
-0.79515815 -0.11287176 1.8152593 0.1715704 2.9041727 1.5788745 -5.065155 2.2267368
1.914211 -4.3381147

0.bias f4 [10]
00000000: 5cb6 b4bd cc38 f8bd 14e8 b5bf 0ec8 aabe
00000010: 067f dabf e526 9ebf 4fb6 ec3f b66b c7bf
00000020: d52c bdbf d20f 0a40
-0.08823845 -0.12120208 -1.421145 -0.33355755 -1.7070014 -1.235562 1.8493136 -1.5579746
-1.4779307 2.1572156

2.weight f4 [1, 10]
00000000: a76b 4e3d 9dcf b33d ecd9 4abf 2b38 4fbc
00000010: cc76 8540 98df 2abf 95be 3ac0 49f0 a7c0
00000020: 949c 6ac0 4577 1e40
0.050395634 0.087798335 -0.7923877 -0.012647669 4.1707516 -0.66747427 -2.9178822 -5.2480817
-3.6658068 2.4760296

0.weight f4 [10, 1]
00000000: 7c8f 4bbf 4f29 e7bd 6f9d f13f 27b0 2f3e
00000010: f92f 3e40 40a6 d13f 7ff6 a5c0 535b 1340
00000020: 383f 0040 d9ef 8cc0
-0.79515815 -0.11287176 1.887617 0.1715704 2.971678 1.637886 -5.18634 2.302449
2.0038586 -4.4042783

0.bias f4 [10]
00000000: 5cb6 b4bd cc38 f8bd 68d4 bdbf 0ec8 aabe
00000010: bbc3 debf 8a28 a5bf 6138 f33f d68d cfbf
00000020: 788b c7bf 79d3 0d40
-0.08823845 -0.12120208 -1.4830446 -0.33355755 -1.7403482 -1.2902997 1.900158 -1.621516
-1.5589437 2.2160323

2.weight f4 [1, 10]
00000000: a76b 4e3d 9dcf b33d 1b91 2ebf 2b38 4fbc
00000010: 0da1 8240 9bc6 ecbe 030d 37c0 4766 a3c0
00000020: 1ef7 65c0 bfae 1a40
0.050395634 0.087798335 -0.68190163 -0.012647669 4.0821595 -0.46245274 -2.8601692 -5.106235
-3.5932078 2.4169157

0.weight f4 [10, 1]
00000000: 7c8f 4bbf 4f29 e7bd 7f63 f93f 27b0 2f3e
00000010: 9252 4240 5c2e d73f e367 a6c0 bb31 1840
00000020: e2cf 0540 97fd 90c0
-0.79515815 -0.11287176 1.9483489 0.1715704 3.0362897 1.6811023 -5.2001815 2.3780353
2.0908132 -4.530956

0.bias f4 [10]
00000000: 5cb6 b4bd cc38 f8bd a6e8 c4bf 0ec8 aabe
00000010: 71bc e4bf c6ff a9bf 6a0d fc3f 06f1 d5bf
00000020: 9935 d0bf 3573 1040
-0.08823845 -0.12120208 -1.5383499 -0.33355755 -1.7870008 -1.3281181 1.9691594 -1.671418
-1.6266357 2.2570317

2.weight f4 [1, 10]
00000000: a76b 4e3d 9dcf b33d 21a1 17bf 2b38 4fbc
00000010: e456 8140 e250 9bbe 19f2 31c0 207d 9fc0
00000020: 41ee 62c0 dbb4 1840
0.050395634 0.087798335 -0.5923024 -0.012647669 4.041857 -0.30335146 -2.7804015 -4.984024
-3.5457919 2.3860385

0.weight f4 [10, 1]
00000000: 7c8f 4bbf 4f29 e7bd a846 0140 27b0 2f3e
00000010: 4f38 4640 3d14 dc3f 7795 acc0 d766 1c40
00000020: 4286 0b40 8255 93c0
-0.79515815 -0.11287176 2.0199375 0.1715704 3.0971868 1.7193676 -5.393245 2.4437768
2.1800694 -4.604188

0.bias f4 [10]
00000000: 5cb6 b4bd cc38 f8bd a9c9 c8bf 0ec8 aabe
00000010: 9415 e8bf bdf8 aabf 518e 0040 161f dcbf
00000020: 010f d7bf 7c3e 1240
-0.08823845 -0.12120208 -1.5686542 -0.33355755 -1.8131585 -1.3357159 2.0086863 -1.7196987
-1.6801454 2.2850637

2.weight f4 [1, 10]
00000000: a76b 4e3d 9dcf b33d ecf1 09bf 2b38 4fbc
00000010: b474 7e40 e332 52be b91d 2fc0 07d9 9bc0
00000020: d149 62c0 4691 1240
0.050395634 0.087798335 -0.5388477 -0.012647669 3.975873 -0.20527224 -2.7361891 -4.8702426
-3.5357554 2.2901168

0.weight f4 [10, 1]
00000000: 7c8f 4bbf 4f29 e7bd 51e5 0440 27b0 2f3e
00000010: 0d06 4a40 bae9 d93f 9d10 afc0 8e5c 2140
00000020: 0f1d 1140 dfb0 97c0
-0.79515815 -0.11287176 2.0764964 0.1715704 3.1566193 1.7024453 -5.470778 2.521274
2.2673986 -4.7403407

0.bias f4 [10]
00000000: 5cb6 b4bd cc38 f8bd ea1c d1bf 0ec8 aabe
00000010: f6b7 ebbf 5b8a acbf c259 0340 f0a2 e3bf
00000020: 3fa7 e2bf a0e9 1440
-0.08823845 -0.12120208 -1.6336949 -0.33355755 -1.8415515 -1.3479723 2.0523534 -1.77841
-1.770729 2.3267593

2.weight f4 [1, 10]
00000000: a76b 4e3d 9dcf b33d f6f2 f1be 2b38 4fbc
00000010: 094b 7540 cb75 f9bd 2537 2cc0 a089 96c0
00000020: f571 61c0 aa8d 1240
0.050395634 0.087798335 -0.47255677 -0.012647669 3.8327048 -0.1218067 -2.6908658 -4.7043
-3.5225804 2.2898965
