dis/dis03/code/ckpts/adam/width20/seed272/ckpt_and_history.pt (torch, 15999 bytes, 33 tensors)

0.weight f4 [20, 1]
000000 84 79 75 be c0 a7 65 3f 88 ca 2f bf 16 0e 27 bd
       -0.23972136 0.8970909 -0.68668413 -0.040784918
000010 06 ad ed be 24 57 a1 3e 0a f7 4a bc 84 27 6d 3f
       -0.4642107 0.31511796 -0.012388 0.9263842
000020 40 14 e4 3e d6 bb 01 bf f0 88 80 3e 13 85 68 bf
       0.445467 -0.5067724 0.25104475 -0.90828055
000030 e1 11 96 3e 2a 95 00 3f 17 84 19 bf f0 be 74 bf
       0.29310516 0.50227606 -0.5996718 -0.9560385
000040 46 be 04 3f ff fb bf 3d 0e 9c 79 3f 5a 9b 7f bf
       0.51852834 0.09374236 0.97503746 -0.9984642

0.bias f4 [20]
000000 ad b9 dd 3c 55 1f 90 bd db 77 92 3d fd 04 f3 3c
       0.027066076 -0.07037226 0.07151767 0.029665465
000010 e1 8d e7 3d 05 7d 4b bd 06 8e b3 bc 0a b8 a0 be
       0.11306358 -0.049679775 -0.021918308 -0.3139041
000020 36 0c 35 be c6 04 65 3e e9 ea 17 be 94 ab ce 3e
       -0.1768044 0.22365102 -0.14835705 0.4036528
000030 7c 9c 3e be 8c c1 a7 be a3 7e bf 3e 0b 52 1f 3f
       -0.18614382 -0.32764852 0.37401304 0.6223456
000040 ee c6 b2 be da 93 de bd 89 3a 4a bf 23 94 60 3f
       -0.34917396 -0.10868044 -0.7899557 0.8772604

2.weight f4 [1, 20]
000000 0d d4 3e be b2 ff d1 bd 4e ec 21 3e e2 d4 84 bd
       -0.18635578 -0.10253848 0.158128 -0.06485917
000010 ff 2d b3 bd 64 af 56 be 96 61 c8 3d 66 07 42 3e
       -0.087490074 -0.20965344 0.09784238 0.18948135
000020 d4 43 01 3d f0 13 f0 bc 3c 8b 25 3e 4c ad 37 3e
       0.031558827 -0.029306382 0.16166395 0.17937201
000030 5e 0c 17 3c 02 47 cc 3d 1e c1 00 3c d3 1c 2b 3d
       0.009219257 0.09974481 0.007858543 0.041775536
000040 ca 4f 70 be 10 5b 2f 3d ff e7 52 be d0 25 bb 3d
       -0.23467937 0.042811453 -0.20596312 0.091380715

0.weight f4 [20, 1]
000000 39 ec d6 bf 68 81 cb 3f 10 0b 5d bf 4f bf 93 be
       -1.679084 1.5898867 -0.86345005 -0.28856894
000010 10 ab 02 c0 4a 11 af 3f 53 65 e6 bd 21 42 28 40
       -2.0416908 1.3677151 -0.11249795 2.6290362
000020 21 b0 91 3f 78 c0 df bf db bc 9e 3d ce 88 14 c0
       1.1381875 -1.7480612 0.07750865 -2.32085
000030 a0 f5 83 3f 43 c9 a0 3e 40 86 e0 bf 44 75 39 c0
       1.0309334 0.3140355 -1.754097 -2.8977823
000040 3a e2 9f 3f e0 a6 d0 bb e2 ee ef 3f 70 7e 1e c0
       1.2490914 -0.0063675493 1.8744776 -2.4764671

0.bias f4 [20]
000000 bb c1 17 3f 2a e5 1b bf 5b ba f8 bd 6b 52 ca bb
       0.59279984 -0.6089655 -0.121449195 -0.006174376
000010 5b a1 38 3f de 83 05 bf ec e9 f9 bd e3 8c c0 bf
       0.7212121 -0.5215434 -0.1220282 -1.5042995
000020 23 d5 61 bf f4 a7 61 3f 63 2f 9f be 3e ae 51 3f
       -0.88215846 0.881469 -0.3109084 0.819065
000030 97 73 4d bf 74 99 02 bf 04 7a 62 3f 1d 1b 85 3f
       -0.802545 -0.510154 0.8846743 1.0398899
000040 cf 81 72 bf 20 cd 55 be 07 36 a7 bf 98 3d a0 3f
       -0.9472932 -0.2087903 -1.3063363 1.2518797

2.weight f4 [1, 20]
000000 aa a9 94 bf f7 ca 4d bf 27 b8 16 bc 58 10 e2 bb
       -1.1614277 -0.80387825 -0.009199179 -0.006898921
000010 42 6d 97 bf 7f ce 9d bf 99 73 14 bb 62 b7 a6 40
       -1.1830218 -1.2328643 -0.002265191 5.2098856
000020 09 3b 26 c0 f5 07 83 3f 61 40 bc bb 58 ac 7c bf
       -2.5973532 1.0236803 -0.0057449793 -0.98700476
000030 02 ce 52 c0 aa f5 c3 bd 27 d4 69 3f b8 ca a3 bf
       -3.2938237 -0.09568341 0.91339344 -1.279624
000040 35 3f 75 c0 5f b1 6a bd 09 9f 91 c0 3c 41 91 3f
       -3.8319829 -0.05729806 -4.5506635 1.1348033

0.weight f4 [20, 1]
000000 4b f8 e9 bf 82 28 dc 3f 10 0b 5d bf 4f bf 93 be
       -1.8278898 1.7199862 -0.86345005 -0.28856894
000010 95 ed 0d c0 ee 72 c2 3f 53 65 e6 bd 23 6c 2e 40
       -2.2176259 1.5191324 -0.11249795 2.7253501
000020 47 3f 9c 3f 2e 96 f4 bf db bc 9e 3d 25 92 1d c0
       1.2206811 -1.9108331 0.07750865 -2.462045
000030 8b fc 8e 3f 43 c9 a0 3e a2 7a f1 bf a2 d1 47 c0
       1.117082 0.3140355 -1.886555 -3.12217
000040 c7 e8 ab 3f e0 a6 d0 bb 90 aa fe 3f c8 af 2c c0
       1.3430413 -0.0063675493 1.9895802 -2.6982288

0.bias f4 [20]
000000 0d f4 2d 3f 90 8e 29 bf 5b ba f8 bd 6b 52 ca bb
       0.67950517 -0.6623316 -0.121449195 -0.006174376
000010 d0 b9 51 3f 47 a9 15 bf ec e9 f9 bd 0d be c4 bf
       0.8192415 -0.5846142 -0.1220282 -1.5370499
000020 d8 99 75 bf 2e 72 6c 3f 63 2f 9f be bd d0 67 3f
       -0.9593787 0.92361724 -0.3109084 0.90552884
000030 74 80 60 bf 74 99 02 bf cb e2 68 3f c6 31 94 3f
       -0.87696004 -0.510154 0.9097106 1.157769
000040 16 b6 82 bf 20 cd 55 be bf 34 b3 bf 5d ae a8 3f
       -1.0211818 -0.2087903 -1.4000472 1.3178211

2.weight f4 [1, 20]
000000 01 4b 61 bf 00 21 56 bf 27 b8 16 bc 58 10 e2 bb
       -0.8800507 -0.83644104 -0.009199179 -0.006898921
000010 e4 af 82 bf ac 2c 9b bf 99 73 14 bb 63 2c a7 40
       -1.0209928 -1.2123008 -0.002265191 5.2241683
000020 78 c7 08 c0 40 5b 5c 3f 61 40 bc bb ab b2 64 bf
       -2.1371746 0.86076736 -0.0057449793 -0.89335126
000030 d0 46 2b c0 aa f5 c3 bd 67 5c 40 3f b1 b0 a7 bf
       -2.676197 -0.09568341 0.75140995 -1.3100797
000040 88 78 60 c0 5f b1 6a bd 29 7c 97 c0 d8 2d 91 3f
       -3.5073566 -0.05729806 -4.7339063 1.1342115

0.weight f4 [20, 1]
000000 5d ff fd bf 59 b3 eb 3f 10 0b 5d bf 4f bf 93 be
       -1.9843556 1.8414108 -0.86345005 -0.28856894
000010 10 58 1c c0 54 7d d4 3f 53 65 e6 bd 6d ed 32 40
       -2.442875 1.6600747 -0.11249795 2.7957413
000020 e8 de a6 3f 96 a1 f9 bf db bc 9e 3d 08 a2 2a c0
       1.3036776 -1.9502437 0.07750865 -2.6661396
000030 bc 98 99 3f 43 c9 a0 3e e4 82 f0 bf 82 a5 5c c0
       1.1999736 0.3140355 -1.8789945 -3.4476018
000040 2a 37 b5 3f e0 a6 d0 bb d6 6b 05 40 c8 7a 35 c0
       1.415746 -0.0063675493 2.0847068 -2.835619

0.bias f4 [20]
000000 23 90 29 3f 1c bf 31 bf 5b ba f8 bd 6b 52 ca bb
       0.6623556 -0.69432235 -0.121449195 -0.006174376
000010 95 d2 53 3f b6 58 1f bf ec e9 f9 bd 95 de c9 bf
       0.827432 -0.6224474 -0.1220282 -1.5771052
000020 d1 be 82 bf 77 c8 7b 3f 63 2f 9f be 87 b2 66 3f
       -1.0214483 0.9835276 -0.3109084 0.9011616
000030 3e d6 70 bf 74 99 02 bf 76 41 72 3f 27 7b 98 3f
       -0.9407691 -0.510154 0.94631135 1.1912583
000040 71 a4 8d bf 20 cd 55 be d6 d8 bc bf ed e2 b6 3f
       -1.1065809 -0.2087903 -1.4753673 1.4288002

2.weight f4 [1, 20]
000000 6a 06 1c bf 03 86 62 bf 27 b8 16 bc 58 10 e2 bb
       -0.6094729 -0.88485736 -0.009199179 -0.006898921
000010 85 6b 59 bf 72 73 9c bf 99 73 14 bb e7 93 a6 40
       -0.84929687 -1.2222731 -0.002265191 5.2055545
000020 3f c4 e5 bf 82 1b 3f 3f 61 40 bc bb 15 c6 45 bf
       -1.7950515 0.7465135 -0.0057449793 -0.77255374
000030 49 7f 0d c0 aa f5 c3 bd 2a 2d 21 3f d5 8b a7 bf
       -2.2108939 -0.09568341 0.6295954 -1.3089548
000040 96 9c 50 c0 5f b1 6a bd ee 84 9a c0 80 66 96 3f
       -3.2595572 -0.05729806 -4.828727 1.175003

0.weight f4 [20, 1]
000000 e8 b4 f9 bf f2 33 f8 3f 10 0b 5d bf 4f bf 93 be
       -1.9508333 1.9390852 -0.86345005 -0.28856894
000010 aa 20 24 c0 cd 52 e3 3f 53 65 e6 bd e3 ed 36 40
       -2.5644937 1.7759644 -0.11249795 2.8582695
000020 68 09 b2 3f 8f 98 f9 bf db bc 9e 3d 57 d4 30 c0
       1.390912 -1.9499682 0.07750865 -2.7629602
000030 ce a3 a4 3f 43 c9 a0 3e 8a b8 e6 bf 5a 65 6c c0
       1.2862489 0.3140355 -1.8025067 -3.693686
000040 4d 81 c1 3f e0 a6 d0 bb 12 31 0b 40 0b 19 40 c0
       1.5117584 -0.0063675493 2.17487 -3.0015285

0.bias f4 [20]
000000 fd 73 2a 3f e5 37 3e bf 5b ba f8 bd 6b 52 ca bb
       0.66583234 -0.7430404 -0.121449195 -0.006174376
000010 21 74 62 3f 6c 37 2d bf ec e9 f9 bd e7 62 ce bf
       0.8845845 -0.6766269 -0.1220282 -1.6123933
000020 44 58 8b bf 4f c7 7b 3f 63 2f 9f be b8 3d 74 3f
       -1.0886312 0.98350996 -0.3109084 0.95406675
000030 30 56 81 bf 74 99 02 bf 40 28 69 3f 6a 0c a6 3f
       -1.0104427 -0.510154 0.9107704 1.2972538
000040 43 c7 96 bf 20 cd 55 be 9a 7a c5 bf 37 60 c0 3f
       -1.177956 -0.2087903 -1.542804 1.5029362

2.weight f4 [1, 20]
000000 e9 fe da be 12 3c 65 bf 27 b8 16 bc 58 10 e2 bb
       -0.42772606 -0.89544785 -0.009199179 -0.006898921
000010 72 f1 43 bf 05 89 99 bf 99 73 14 bb cf 73 a4 40
       -0.7654029 -1.199494 -0.002265191 5.139137
000020 78 15 c2 bf d7 55 1b 3f 61 40 bc bb 8a 13 3a bf
       -1.5162802 0.60677856 -0.0057449793 -0.72686064
000030 a8 b3 e8 bf aa f5 c3 bd e7 ed f1 3e 41 97 b1 bf
       -1.8179827 -0.09568341 0.47251818 -1.3874284
000040 ad 93 43 c0 5f b1 6a bd cf a3 9b c0 57 db 98 3f
       -3.0558884 -0.05729806 -4.863746 1.1941937

0.weight f4 [20, 1]
000000 80 f2 cf bf b7 b5 01 40 10 0b 5d bf 4f bf 93 be
       -1.624588 2.026716 -0.86345005 -0.28856894
000010 1c 71 28 c0 b4 de f0 3f 53 65 e6 bd 6e 4b 3b 40
       -2.6319036 1.8817964 -0.11249795 2.9264789
000020 54 6e bd 3f 14 15 ef bf db bc 9e 3d a3 75 34 c0
       1.4799294 -1.8678308 0.07750865 -2.81968
000030 b4 53 b0 3f 43 c9 a0 3e 8d f1 c8 bf 2a cc 7d c0
       1.3775544 0.3140355 -1.5698715 -3.9655862
000040 8b 42 ce 3f e0 a6 d0 bb f0 76 10 40 94 21 4c c0
       1.6114057 -0.0063675493 2.2572594 -3.1895494

0.bias f4 [20]
000000 84 57 0a 3f 84 bf 45 bf 5b ba f8 bd 6b 52 ca bb
       0.5403979 -0.77245355 -0.121449195 -0.006174376
000010 35 c9 65 3f ac 5d 36 bf ec e9 f9 bd d9 f9 d3 bf
       0.8976014 -0.7123668 -0.1220282 -1.6560622
000020 35 3e 94 bf 57 dc 6c 3f 63 2f 9f be d3 cc 76 3f
       -1.1581484 0.9252371 -0.3109084 0.96406287
000030 24 fd 89 bf 74 99 02 bf 43 ff 45 3f af bc b0 3f
       -1.0780377 -0.510154 0.77342623 1.3807582
000040 a9 56 a0 bf 20 cd 55 be 87 1e ce bf 54 37 ca 3f
       -1.2526447 -0.2087903 -1.6103066 1.5798135

2.weight f4 [1, 20]
000000 f4 11 52 be c6 13 64 bf 27 b8 16 bc 58 10 e2 bb
       -0.20514661 -0.8909267 -0.009199179 -0.006898921
000010 19 12 28 bf bb 61 95 bf 99 73 14 bb c9 12 a3 40
       -0.65652615 -1.167045 -0.002265191 5.096043
000020 a2 9a a2 bf 63 c8 eb 3e 61 40 bc bb e0 f1 26 bf
       -1.270344 0.4605132 -0.0057449793 -0.6521282
000030 c1 d6 bc bf aa f5 c3 bd 71 61 95 3e 66 75 ba bf
       -1.4753038 -0.09568341 0.29175904 -1.4567077
000040 3d 83 38 c0 5f b1 6a bd df 11 9b c0 c3 85 9e 3f
       -2.8830101 -0.05729806 -4.8459315 1.2384571

0.weight f4 [20, 1]
000000 9c b1 fe c0 69 bb 08 40 10 0b 5d bf 4f bf 93 be
       -7.959181 2.1364386 -0.86345005 -0.28856894
000010 60 ef 46 c0 a0 5c 00 40 53 65 e6 bd fc cb 40 40
       -3.1083603 2.0056534 -0.11249795 3.0124502
000020 c0 80 c7 3f 32 18 d4 bf db bc 9e 3d 29 6a 54 c0
       1.5586166 -1.6569884 0.07750865 -3.3189795
000030 80 9b ba 3f 43 c9 a0 3e 35 db 82 bf 04 23 98 c0
       1.4578705 0.3140355 -1.0223147 -4.7542744
000040 1e 59 d9 3f e0 a6 d0 bb 65 eb 14 40 6a b0 57 c0
       1.6980321 -0.0063675493 2.3268673 -3.3701425

0.bias f4 [20]
000000 01 96 57 3f f2 4f 4c bf 5b ba f8 bd 6b 52 ca bb
       0.8421326 -0.79809487 -0.121449195 -0.006174376
000010 92 4d 72 3f 79 3b 3e bf ec e9 f9 bd 85 20 d8 bf
       0.9464961 -0.743095 -0.1220282 -1.6884924
000020 aa 69 9d bf fd 33 50 3f 63 2f 9f be 40 76 81 3f
       -1.2297871 0.8132933 -0.3109084 1.0114212
000030 32 e9 92 bf 74 99 02 bf 38 c9 00 3f ba 63 bb 3f
       -1.1477416 -0.510154 0.50307035 1.4639809
000040 5a b6 aa bf 20 cd 55 be c9 5b d5 bf 22 e0 d3 3f
       -1.3336899 -0.2087903 -1.6668636 1.6552775

2.weight f4 [1, 20]
000000 28 fe 1a 40 8f f4 71 bf 27 b8 16 bc 58 10 e2 bb
       2.4217625 -0.9451379 -0.009199179 -0.006898921
000010 d2 5a 63 bf 0e ba 99 bf 99 73 14 bb 2a 20 a4 40
       -0.88810456 -1.2009904 -0.002265191 5.1289263
000020 ea 47 96 bf b4 60 a3 3e 61 40 bc bb ff 2b 69 bf
       -1.1740696 0.31909716 -0.0057449793 -0.9108276
000030 0e ed a6 bf aa f5 c3 bd 75 44 e8 3d 32 cb ed bf
       -1.3041093 -0.09568341 0.11341182 -1.8577635
000040 86 3c 36 c0 5f b1 6a bd dd 3d 9a c0 9d 54 a6 3f
       -2.847444 -0.05729806 -4.8200517 1.2994572

0.weight f4 [20, 1]
000000 58 66 03 c1 b7 75 01 40 10 0b 5d bf 4f bf 93 be
       -8.212486 2.0228097 -0.86345005 -0.28856894
000010 88 cf 59 c0 ed cd f3 3f 53 65 e6 bd 08 34 3f 40
       -3.4032917 1.9047219 -0.11249795 2.9875507
000020 9a ec d2 3f 16 c9 fc bf db bc 9e 3d 05 7b 67 c0
       1.6478455 -1.9748867 0.07750865 -3.6168835
000030 19 c3 c5 3f 43 c9 a0 3e 03 42 a0 bf 3e 59 9a c0
       1.5450164 0.3140355 -1.2520145 -4.823394
000040 da ea e5 3f e0 a6 d0 bb de d2 19 40 b4 fa 6d c0
       1.7962296 -0.0063675493 2.4034953 -3.7184267

0.bias f4 [20]
000000 ea d2 5d 3f 55 3c 52 bf 5b ba f8 bd 6b 52 ca bb
       0.86649954 -0.8212331 -0.121449195 -0.006174376
000010 d6 9b 81 3f 01 f5 45 bf ec e9 f9 bd a9 5b db bf
       1.0125682 -0.7732697 -0.1220282 -1.7137347
000020 fe 22 a5 bf 20 38 75 3f 63 2f 9f be 72 fb 89 3f
       -1.2901304 0.95788765 -0.3109084 1.077986
000030 0e cf 9a bf 74 99 02 bf b6 52 1b 3f 6d 40 cb 3f
       -1.2094438 -0.510154 0.6067308 1.5879036
000040 5b 45 b3 bf 20 cd 55 be d5 e0 d9 bf 4b fc e8 3f
       -1.4005541 -0.2087903 -1.7021738 1.8201994

2.weight f4 [1, 20]
000000 09 52 16 40 a3 cf 1d bf 27 b8 16 bc 58 10 e2 bb
       2.348757 -0.61644953 -0.009199179 -0.006898921
000010 1c 2e 86 bf 43 4b 5a bf 99 73 14 bb b1 5f 9a 40
       -1.0482821 -0.8527109 -0.002265191 4.824181
000020 26 4d 93 bf d9 27 15 3f 61 40 bc bb 64 d4 89 bf
       -1.1507919 0.5826393 -0.0057449793 -1.0767941
000030 ca 22 9c bf aa f5 c3 bd 9d 73 8a 3e 02 dd 00 c0
       -1.2198117 -0.09568341 0.2704133 -2.0134892
000040 62 9b 39 c0 5f b1 6a bd 27 dc 98 c0 e2 d4 d3 3f
       -2.9001088 -0.05729806 -4.776874 1.6549342

0.weight f4 [20, 1]
000000 6d 9f 07 c1 3f 3e ee 3f 10 0b 5d bf 4f bf 93 be
       -8.476422 1.8612746 -0.86345005 -0.28856894
000010 37 b0 67 c0 ed 6a e3 3f 53 65 e6 bd b1 f8 3d 40
       -3.6201303 1.7767006 -0.11249795 2.968304
000020 07 59 de 3f 0c 8f 06 c0 db bc 9e 3d eb dc 75 c0
       1.7370919 -2.102481 0.07750865 -3.8416088
000030 d1 d8 d0 3f 43 c9 a0 3e ba 40 96 bf 25 74 9b c0
       1.6316167 0.3140355 -1.1738503 -4.857928
000040 dd a8 f2 3f e0 a6 d0 bb b4 c6 1e 40 e5 d0 7c c0
       1.8957783 -0.0063675493 2.4808779 -3.95025

0.bias f4 [20]
000000 c6 95 64 3f a5 be 44 bf 5b ba f8 bd 6b 52 ca bb
       0.89291036 -0.768534 -0.121449195 -0.006174376
000010 a3 43 8b 3f 4b d8 3a bf ec e9 f9 bd 65 54 dc bf
       1.0880016 -0.72986287 -0.1220282 -1.7213255
000020 1b 0c ad bf 4d b1 86 3f 63 2f 9f be 52 90 93 3f
       -1.3519319 1.0522858 -0.3109084 1.1528418
000030 04 d9 a2 bf 74 99 02 bf fb 02 17 3f 8e 23 d3 3f
       -1.2722478 -0.510154 0.5898892 1.6495225
000040 3c 37 bc bf 20 cd 55 be 23 1f e0 bf 06 38 fa 3f
       -1.4704356 -0.2087903 -1.7509502 1.9548347

2.weight f4 [1, 20]
000000 df b2 11 40 4c 17 6f be 27 b8 16 bc 58 10 e2 bb
       2.2765424 -0.23348731 -0.009199179 -0.006898921
000010 fe 1d 97 bf a8 5c db be 99 73 14 bb ce bf 8e 40
       -1.1806028 -0.4284413 -0.002265191 4.4609137
000020 50 cf 84 bf a8 c9 2f 3f 61 40 bc bb a5 98 9c bf
       -1.0375767 0.6866708 -0.0057449793 -1.2234083
000030 a3 a1 85 bf aa f5 c3 bd 82 8d 58 3e 13 a8 02 c0
       -1.0439953 -0.09568341 0.21147731 -2.0415084
000040 d6 29 38 c0 5f b1 6a bd ee ea 96 c0 c5 d8 f3 3f
       -2.8775535 -0.05729806 -4.716178 1.9050528

0.weight f4 [20, 1]
000000 3f 2c 0b c1 82 d5 c5 3f 10 0b 5d bf 4f bf 93 be
       -8.698302 1.5455782 -0.86345005 -0.28856894
000010 df 12 81 c0 52 ff ca 3f 53 65 e6 bd dc 84 3e 40
       -4.0335536 1.5859168 -0.11249795 2.976859
000020 2e 41 e8 3f 0a ec 16 c0 db bc 9e 3d 7d 2d 88 c0
       1.8144891 -2.3581567 0.07750865 -4.255553
000030 dc 9f da 3f 43 c9 a0 3e d9 70 8f bf 1a b0 90 c0
       1.7080035 0.3140355 -1.1206313 -4.521497
000040 f0 ad fe 3f e0 a6 d0 bb 31 d6 23 40 9e 99 88 c0
       1.9896832 -0.0063675493 2.5599482 -4.268752

0.bias f4 [20]
000000 d0 9e 6a 3f 70 67 4c bf 5b ba f8 bd 6b 52 ca bb
       0.9164858 -0.79845333 -0.121449195 -0.006174376
000010 26 ab 9b 3f a8 a4 2f bf ec e9 f9 bd 4e f9 df bf
       1.2161605 -0.6861062 -0.1220282 -1.7497957
000020 c2 08 b6 bf 96 84 95 3f 63 2f 9f be ac 47 a4 3f
       -1.4221423 1.1681087 -0.3109084 1.2834373
000030 74 85 ab bf 74 99 02 bf 6f 02 0f 3f da dd df 3f
       -1.3400102 -0.510154 0.5586309 1.7489579
000040 8d 7a c5 bf 20 cd 55 be 7c c8 e6 bf 72 ec 06 40
       -1.5428025 -0.2087903 -1.8029933 2.1081815

2.weight f4 [1, 20]
000000 e1 28 0e 40 a4 ed a0 3d 27 b8 16 bc 58 10 e2 bb
       2.221245 0.07857826 -0.009199179 -0.006898921
000010 3a e0 c8 bf c1 7b 63 bd 99 73 14 bb 18 78 87 40
       -1.5693429 -0.055537943 -0.002265191 4.23341
000020 96 56 80 bf 22 f5 6a 3f 61 40 bc bb 19 05 d0 bf
       -1.0026424 0.91780293 -0.0057449793 -1.6251556
000030 6c a2 74 bf aa f5 c3 bd 87 27 78 3e d7 b6 f1 bf
       -0.95560336 -0.09568341 0.24233828 -1.8883923
000040 97 21 3b c0 5f b1 6a bd a9 e4 96 c0 60 63 10 40
       -2.9239252 -0.05729806 -4.7154126 2.2560654

0.weight f4 [20, 1]
000000 a8 6a 0d c1 56 da ad 3f 10 0b 5d bf 4f bf 93 be
       -8.838539 1.3582256 -0.86345005 -0.28856894
000010 9b 07 86 c0 fd 34 aa 3f 53 65 e6 bd 82 85 40 40
       -4.1884284 1.3297421 -0.11249795 3.0081487
000020 94 31 f1 3f ec b2 1a c0 db bc 9e 3d d0 2b 8d c0
       1.8843255 -2.4171705 0.07750865 -4.411598
000030 9c 18 e3 3f 43 c9 a0 3e 03 e9 67 bf be cc 8b c0
       1.7741885 0.3140355 -0.9058992 -4.368743
000040 23 89 04 40 e0 a6 d0 bb 32 6e 28 40 b9 0c 8c c0
       2.0708702 -0.0063675493 2.6317258 -4.376553

0.bias f4 [20]
000000 ee 4c 73 3f bb d9 5a bf 5b ba f8 bd 6b 52 ca bb
       0.9503926 -0.8548848 -0.121449195 -0.006174376
000010 1f 09 a4 3f e4 be 54 bf ec e9 f9 bd ab 16 e1 bf
       1.2815284 -0.83103776 -0.1220282 -1.7585043
000020 ae f7 bd bf 04 56 99 3f 63 2f 9f be 65 c4 ac 3f
       -1.4841211 1.1979375 -0.3109084 1.3497435
000030 97 3e b3 bf 74 99 02 bf 66 db e0 3e d3 4f de 3f
       -1.4003476 -0.510154 0.43917388 1.736811
000040 38 4a cf bf 20 cd 55 be ad d2 ed bf 17 73 0a 40
       -1.6194525 -0.2087903 -1.8579918 2.1632745

2.weight f4 [1, 20]
000000 0a da 0a 40 5e 80 6a 3d 27 b8 16 bc 58 10 e2 bb
       2.169558 0.057251327 -0.009199179 -0.006898921
000010 80 72 d8 bf 37 f4 7c 3d 99 73 14 bb 1e 77 7f 40
       -1.6909943 0.06175634 -0.002265191 3.9916453
000020 b4 b4 5a bf d8 4d 6e 3f 61 40 bc bb 99 b3 e0 bf
       -0.8543198 0.9308753 -0.0057449793 -1.7554809
000030 54 e7 41 bf aa f5 c3 bd d6 66 cc 3d 02 3a dc bf
       -0.75743604 -0.09568341 0.09980552 -1.7205203
000040 54 4f 36 c0 5f b1 6a bd fb 56 94 c0 b3 3a 16 40
       -2.8485918 -0.05729806 -4.6356177 2.3473327
