dis/dis03/code/ckpts/sgd/width40/seed479/ckpt_and_history.pt (torch, 18111 bytes, 33 tensors)

0.weight f4 [40, 1]
00000000: fe0f 79bf 427a eabe 72e4 df3a 53d4 333e
00000010: 047a 133f 3737 33bf 066f f8bd 23a9 77bf
00000020: efeb 28be 6db4 023f 8997 f4be 51c0 d43d
00000030: 9ece 66bf cf59 513e 874c 0c3d 93d2 31be
00000040: a7a0 7ebf 48a9 2d3c 8b9e 2d3e 4b4e 923e
00000050: 3fc3 fbbd e979 9b3c 3b54 d43e d7ad 403e
00000060: 69b6 0b3f b9a2 04bf e602 60bf 9e99 413f
00000070: fdc3 033f f89f 3b3f 2713 8e3e 4f6b 603f
00000080: 090f 9bbe 1385 46bf 548a a2be c994 413f
00000090: 98b5 76bc 5628 02bf ca03 b53d ae42 6e3f
-0.9729003 -0.457964 0.0017081632 0.17561464 0.57608056 -0.70006126 -0.12130551 -0.9674246
-0.16496252 0.5105656 -0.47771862 0.10388244 -0.9015902 0.20444416 0.03425267 -0.17365484
-0.99463886 0.010599442 0.1695501 0.28575358 -0.122930996 0.01897903 0.41470513 0.18816315
0.5457521 -0.51810795 -0.8750442 0.75625026 0.5147093 0.7329097 0.27748987 0.8766374
-0.30284908 -0.77546805 -0.3174616 0.75617653 -0.015057944 -0.508428 0.08838613 0.93070495

0.bias f4 [40]
00000000: ea19 823b 1d1b 013d 8fc1 2ab9 6db0 d1bc
00000010: c864 b8bd 569d fb3d b88c b03c 06b9 563e
00000020: f1bb 1d3d 80fc 05be 7d94 193e 1515 11bd
00000030: c1b2 a83e dc2e a6bd 42a0 84bc cf08 b03d
00000040: 259e fc3e 96ab d3bb 2b2a cfbd 4b6b 30be
00000050: 74e4 a13d 15c5 4bbc d449 8dbe f611 01be
00000060: 098a c1be 1d7c b93e fef1 1d3f 10e5 11bf
00000070: 6456 c9be e2a5 14bf 4093 61be 1104 32bf
00000080: c8c1 7d3e 0577 2c3f b64c 903e 418b 2dbf
00000090: 2007 633c 4335 fa3e fe25 afbd dbb3 6cbf
0.0039703744 0.031519998 -0.0001628457 -0.025596822 -0.090035975 0.12285869 0.021551475 0.20969018
0.038509313 -0.13084602 0.1499805 -0.035420496 0.32948878 -0.081144065 -0.016189698 0.0859543
0.49339405 -0.0064596636 -0.10115465 -0.17228429 0.07904902 -0.012437125 -0.2759539 -0.12604508
-0.37800625 0.36227503 0.61697376 -0.56990147 -0.39323723 -0.5806562 -0.22028828 -0.69537455
0.24780953 0.6736911 0.28183526 -0.6779061 0.013856679 0.4886876 -0.08552168 -0.9246194

2.weight f4 [1, 40]
00000000: f70b acba 7614 8d3d fe38 a03d 4ca9 c83d
00000010: 6227 673d ad2f 16be cf60 bf3d 9be0 373c
00000020: 5e00 993d 7f3e e3bd f06e 703c 820d f13d
00000030: 9cac afbc d420 d9bc 9e9e 3fbd bc61 2cbd
00000040: 7702 56bd 353b 0a3e 563a 6e3d ab25 023e
00000050: e083 1abe f8f4 98bc 5ef6 0fbe 0188 a53d
00000060: 9833 1ebe f3fd de3d 7508 90bd 70cd df3d
00000070: adfd 14be 648b 0fbd 7f3f 843d ca58 f9bd
00000080: 2bf8 9f3d 3773 0bbe 384a e83d 6f10 983d
00000090: 63a4 123e aa72 06be 9f0e 093e 0716 bbbd
-0.0013126124 0.06888668 0.078233704 0.09797916 0.056434043 -0.14666624 0.09344637 0.011222984
0.07470773 -0.110959046 0.014674887 0.117701545 -0.021444611 -0.026504911 -0.04678213 -0.042085394
-0.052248444 0.13499148 0.058161102 0.12709682 -0.15089369 -0.018671498 -0.14058825 0.08082581
-0.15449369 0.10888281 -0.07032863 0.10927856 -0.14549895 -0.035045043 0.064574234 -0.12175138
0.07811006 -0.1361817 0.11342281 0.074250095 0.14320521 -0.13129678 0.13384484 -0.09135061

0.weight f4 [40, 1]
00000000: fe0f 79bf 515e f2be ab6b 33bc aa47 313e
00000010: 355c 133f 2503 52bf 4972 0ebe 7477 84bf
00000020: 0569 39be 3438 3b3f 3cb7 07bf bdc9 c93d
00000030: 44c3 84bf f86e 943e 5630 a93d b19f 65be
00000040: 0f38 96bf d12c c83b 2d84 423e 4558 a73e
00000050: 59a9 1cbe 7d4c ff3c 9bf8 0a3f 3a53 613e
00000060: a3ef 343f 32fd 2ebf c724 64bf 8af4 4c3f
00000070: 2dd9 2f3f 958c 653f 77c3 7f3e e1e3 8e3f
00000080: 1daa 9abe 7e6e 5dbf 3948 abbe 74f2 373f
00000090: cf64 1cbd 8b39 18bf a94b b23d b2e0 8f3f
-0.9729003 -0.47337583 -0.010950963 0.17312494 0.5756257 -0.8203605 -0.13910784 -1.0348954
-0.18106468 0.73132634 -0.5301397 0.09852932 -1.037209 0.28990912 0.082611725 -0.22424199
-1.1735858 0.006108858 0.18995734 0.32684532 -0.15298976 0.031164402 0.5428559 0.22004405
0.70678157 -0.68355095 -0.8911862 0.80060637 0.6869076 0.89667636 0.24976908 1.1163293
-0.3020791 -0.8649672 -0.3345354 0.7185433 -0.038182076 -0.59462804 0.08705837 1.1240447

0.bias f4 [40]
00000000: 7993 6c3b df59 693d f761 ef3c d032 a4bc
00000010: 9ffa 7cbd 7ed8 743e 2dfd 863c afd5 993e
00000020: bb7a b13c dcdf 5abe 05ab 1d3e aaa4 3ebc
00000030: 5f86 9a3e d153 adbd f078 c4bc 28fa 853d
00000040: 9381 ae3e c254 d3bb e627 d4bd d9c7 36be
00000050: f71f f63d 5004 c9bc def2 dabe 8b1b f6bd
00000060: 488a 0ebf 31df be3e 4520 323f f66f 21bf
00000070: c584 0abf f7f9 34bf 1b16 7fbe 1b55 61bf
00000080: 0a32 a63e 03d4 2c3f 07ac ba3e 3f76 37bf
00000090: 8821 8d3d 0f93 ed3e 2ce3 b1bd 27da 62bf
0.0036098643 0.056970473 0.029221518 -0.02004376 -0.06176245 0.2391071 0.016478145 0.3004584
0.021664968 -0.21374458 0.1539727 -0.011635939 0.30180642 -0.08463252 -0.023983449 0.06541854
0.34083232 -0.006449313 -0.103591725 -0.17849673 0.120178156 -0.02453819 -0.42763418 -0.12016972
-0.5567975 0.37279657 0.6958049 -0.63061464 -0.5410884 -0.70693916 -0.24910776 -0.88020486
0.32460052 0.67511004 0.3645937 -0.71664804 0.06891161 0.4640126 -0.08685908 -0.88614124

2.weight f4 [1, 40]
00000000: 7ea1 7137 9d8f 153e ee22 a93d f584 bb3d
00000010: 6c16 eb3c eeba fdbe e7db ea3d f1ed d9be
00000020: a206 ce3d a5a6 0ebf 274a 6ebe 1f54 d93d
00000030: 5097 fdbe d242 54be bae8 b6bd a91b 0cbe
00000040: ae42 03bf 00da 093e fa64 d83d 81d7 543e
00000050: e845 48be 4335 19bd 9b0f ffbe 6753 093e
00000060: 801c 20bf 29fb ee3e 54db bdbe b4b4 c8be
00000070: 989f 1abf 11c4 27bf 9e0c 633d fe42 62bf
00000080: 2c5c 633e e326 d1be fbbd 8d3e eb09 823d
00000090: 08ff 223e 4c33 98be e10b 093e be3c 14bf
1.440232e-05 0.14605565 0.082586154 0.09156219 0.028697215 -0.4955668 0.11467724 -0.42564347
0.10059859 -0.5572303 -0.23270474 0.10611748 -0.49529505 -0.20728615 -0.08931108 -0.13682427
-0.5127362 0.13462067 0.10566135 0.20785333 -0.19557917 -0.03740431 -0.49816594 0.13410722
-0.6254349 0.46675995 -0.37081397 -0.39200366 -0.6039977 -0.6553355 0.055431955 -0.8838347
0.2220313 -0.4084998 0.27684006 0.06349548 0.15917599 -0.29726636 0.13383438 -0.57905185

0.weight f4 [40, 1]
00000000: fe0f 79bf b2cc 07bf 1455 29bc 93aa 513e
00000010: e773 1a3f 6009 63bf ba9d 33be 920c 8cbf
00000020: 1438 5cbe f843 4d3f f3f1 0fbf 52d4 063e
00000030: c272 8dbf c2e3 a13e 1ef6 bf3d 526d 78be
00000040: 284a 9fbf d12c c83b 8e10 ac3e ee48 193f
00000050: 89c8 41be f836 1c3d 887d 233f 3209 cc3e
00000060: b5de 533f e067 a3bf a1aa 77bf 8f51 623f
00000070: 05ad 4d3f fc6c 833f 77c3 7f3e e813 a53f
00000080: 650a 9abe 3272 72bf b176 aabe 74f2 373f
00000090: 1b94 17bd 3a60 27bf a94b b23d 4f8f 9f3f
-0.9729003 -0.53046715 -0.010335226 0.20475225 0.603331 -0.8868618 -0.17540637 -1.0941336
-0.21505767 0.8018184 -0.5622856 0.13166931 -1.1050646 0.31619078 0.09373115 -0.24260452
-1.2444506 0.006108858 0.3360638 0.59876907 -0.18924154 0.03813836 0.6386342 0.39850765
0.827617 -1.2766075 -0.96744734 0.884057 0.8034213 1.0267634 0.24976908 1.28967
-0.30086055 -0.947055 -0.3329368 0.7185433 -0.03700648 -0.65381205 0.08705837 1.2465609

0.bias f4 [40]
00000000: 4ac1 8b3b bcd8 863d 5ef6 f93c 92d2 cbbc
00000010: 8d27 97bd 2305 853e fbee b33c 9712 a43e
00000020: 2bb7 dc3c f352 71be 03a8 283e 17ff 82bc
00000030: 34d7 a53e dd5f bebd 1723 e1bc 6a8b 913d
00000040: e5a0 ba3e c254 d3bb 734a 3bbe 80bf a6be
00000050: 993b 173e 1cfa f7bc 729e 01bf 5f24 5ebe
00000060: 85f2 27bf 8aa2 323f 994c 433f c635 33bf
00000070: de29 23bf 995e 50bf 1b16 7fbe 32ea 82bf
00000080: a138 a73e 1e1d 3f3f a114 bc3e 3f76 37bf
00000090: c31d 923d 26e6 033f 2ce3 b1bd 4ea4 7cbf
0.004264985 0.065843076 0.030512985 -0.024880681 -0.073805906 0.25980482 0.02196454 0.32045433
0.02694281 -0.23566799 0.16470341 -0.015990777 0.3239075 -0.09295628 -0.027482552 0.07106669
0.36450878 -0.006449313 -0.18290119 -0.32567978 0.14768828 -0.030270629 -0.50632393 -0.21693562
-0.6560443 0.69779265 0.76288754 -0.70003927 -0.6373576 -0.81394345 -0.24910776 -1.0227721
0.32660392 0.74653804 0.3673449 -0.71664804 0.07134583 0.51523054 -0.08685908 -0.9868821

2.weight f4 [1, 40]
00000000: 8afe ef3a 4771 903e 943b a73d aaf4 113e
00000010: 4e4b 433e 5c36 1bbf c6fd 203e c670 10bf
00000020: 68f0 1d3e 40c9 25bf 2c88 9bbe 6cc6 0b3e
00000030: ec72 22bf 7501 79be a098 cbbd 341d 2bbe
00000040: 9b88 2bbf 00da 093e 35c6 a93e daf3 1a3f
00000050: 5ed4 73be 2ebd 3fbd 399e 28bf 26ae cc3e
00000060: 2c7a 55bf c7a9 a73f 507d 1cbf 3807 1fbf
00000070: ba76 4ebf 7bb6 6abf 9e0c 633d 0fff 9abf
00000080: 25f1 623e 276a 24bf 9b4b 8d3e eb09 823d
00000090: a53d 213e a089 eabe e10b 093e 0ece 66bf
0.0018310111 0.28211424 0.081656605 0.14253488 0.19071695 -0.6062982 0.15721807 -0.5642208
0.15423739 -0.6476021 -0.30377328 0.1364991 -0.63456607 -0.24316962 -0.0994122 -0.16710359
-0.6700532 0.13462067 0.33159032 0.6052834 -0.2381148 -0.046811275 -0.6586643 0.39976615
-0.83389544 1.3098687 -0.6112871 -0.6212039 -0.8064991 -0.91684693 0.055431955 -1.2109088
0.22162302 -0.64224476 0.27596745 0.06349548 0.15746172 -0.45808125 0.13383438 -0.90158165

0.weight f4 [40, 1]
00000000: fe0f 79bf a814 1ebf e498 cabb fa54 843e
00000010: 91bf 303f 12bf 85bf 526b 61be 259e 9fbf
00000020: 5e46 85be 8358 693f 93df 24bf d27a 383e
00000030: e020 a3bf b004 b73e 4909 e23d 057e 92be
00000040: 6562 b6bf d12c c83b 36e8 103f e20b 823f
00000050: 0af4 73be 375e 363d acfa 3a3f 1fbe 2c3f
00000060: 14b1 713f e673 01c0 c833 8ebf 6ae5 793f
00000070: ba99 6a3f 0628 943f 77c3 7f3e c8ff ba3f
00000080: d4e3 94be 053b 8cbf dbf2 a3be 74f2 373f
00000090: e30a eebc 7748 42bf a94b b23d 238d b03f
-0.9729003 -0.6175027 -0.0061827768 0.25846082 0.6904231 -1.0448935 -0.22013596 -1.2470137
-0.26030248 0.91150683 -0.6440365 0.18015602 -1.2744408 0.35745764 0.11036927 -0.2861177
-1.4248778 0.006108858 0.56604326 1.0159876 -0.23823562 0.044523444 0.73038745 0.674776
0.94410825 -2.0226989 -1.1109552 0.97615683 0.9164082 1.1574714 0.24976908 1.4609308
-0.2908007 -1.0955511 -0.32021222 0.7185433 -0.029057926 -0.7589182 0.08705837 1.3793072

0.bias f4 [40]
00000000: 16cb d23b f1d7 9a3d 215e ce3c b1f7 02bd
00000010: 9e6d aebd e58e a43e cf59 e13c d122 c53e
00000020: c700 043d f140 90be 0773 4b3e 6229 b8bc
00000030: 9d06 c93e 8498 e2bd de01 0bbd be38 b43d
00000040: b809 e13e c254 d3bb 2e22 a2be 1595 11bf
00000050: 9b6f 3d3e d04d 0dbd 48d4 10bf a539 c1be
00000060: 5335 3bbf a93d 903f 877b 5c3f 606c 41bf
00000070: eeb4 35bf 4863 65bf 1b16 7fbe 00d2 90bf
00000080: 35a0 9f3e 4162 593f 90a9 b23e 3f76 37bf
00000090: f731 7a3d fc9b 163f 2ce3 b1bd a6ac 88bf
0.006432901 0.07560719 0.025191369 -0.0319745 -0.085170016 0.3214027 0.027508644 0.38503125
0.032227304 -0.28174546 0.19868098 -0.02248067 0.39262858 -0.11064246 -0.033937328 0.08799885
0.43952727 -0.006449313 -0.31666702 -0.56868106 0.18499605 -0.034498036 -0.56573915 -0.37739292
-0.7312824 1.1268817 0.8612599 -0.7555599 -0.709792 -0.89604616 -0.24910776 -1.1314087
0.31176916 0.8491555 0.3489499 -0.71664804 0.061082806 0.58831763 -0.08685908 -1.0677688

2.weight f4 [1, 40]
00000000: 1976 933b 7c88 d93e f994 a03d a360 593e
00000010: 7d7c c63e 31fa 56bf f64f 533e 1403 59bf
00000020: ea71 5a3e c20c 4abf d94b e6be df6f 3b3e
00000030: f727 6cbf e210 99be b1c7 edbd 038a 6cbe
00000040: 1f41 7ebf 00da 093e 4c32 1e3f 9615 8f3f
00000050: 595a 98be d5e4 5fbd a1eb 49bf 128e 3d3f
00000060: f049 80bf bee8 0d40 7822 68bf 5954 4cbf
00000070: be4e 78bf 6cef 8fbf 9e0c 633d e276 bcbf
00000080: 336a 3b3e 07a2 6ebf b22a 6e3e eb09 823d
00000090: c318 193e 368f 28bf e10b 093e e75e 93bf
0.0045001623 0.42486942 0.07840914 0.2122827 0.38766852 -0.8397551 0.20635971 -0.8477032
0.21332517 -0.78925717 -0.44979742 0.18304394 -0.9224848 -0.29895693 -0.11610354 -0.23099522
-0.99318117 0.13462067 0.61795497 1.1178463 -0.2975643 -0.05466159 -0.78875166 0.7404491
-1.0022564 2.2173305 -0.90677595 -0.79816204 -0.9699515 -1.1244941 0.055431955 -1.472378
0.1830223 -0.93215984 0.23258474 0.06349548 0.14950852 -0.6584352 0.13383438 -1.1513337

0.weight f4 [40, 1]
00000000: e50f 79bf 8d82 43bf a76d d8bb 8f56 a93e
00000010: 89d3 543f 46b3 9bbf 3a76 93be 7031 b6bf
00000020: 74db a9be 7dea 863f 69be 3cbf 4b8a 763e
00000030: 1183 bbbf 35c3 d23e 5920 063e 75a8 aabe
00000040: 50bf d0bf d12c c83b 5309 3f3f 59bf ab3f
00000050: 9aa3 8ebe f40a 4d3d d4c1 4f3f 81fb 633f
00000060: 2314 863f 99b7 24c0 c886 9ebf 1cd8 873f
00000070: c81b 823f ae27 a33f 77c3 7f3e 0f92 ce3f
00000080: e481 95be b5eb 9cbf 01b6 a4be 74f2 373f
00000090: 64b2 f4bc 92d1 59bf a94b b23d 5b39 c03f
-0.9728988 -0.7637108 -0.0066048685 0.3307385 0.8313528 -1.2164085 -0.28801137 -1.4233837
-0.33175242 1.054031 -0.7372804 0.24076192 -1.4649373 0.41164556 0.13098277 -0.33331648
-1.6308384 0.006108858 0.746236 1.341777 -0.27859193 0.050059274 0.81155133 0.8905564
1.0474895 -2.573706 -1.2384882 1.0612826 1.0164728 1.2746484 0.24976908 1.6138324
-0.2920066 -1.2259432 -0.32170108 0.7185433 -0.02987022 -0.85085404 0.08705837 1.5017503

0.bias f4 [40]
00000000: 108d 443c 9aa6 bf3d 0b4f 983c c80f 26bd
00000010: f40e d1bd d986 cb3e 2955 103d a9c3 ed3e
00000020: bc8d 263d f819 aebe 7774 763e 5ec9 f0bc
00000030: 37bf f43e 88ea 07be 15a9 2dbd 29ce de3d
00000040: 003f 083f c254 d3bb 4b47 d4be 27d3 3ebf
00000050: 7ebd 5c3e e31d 1bbd 0725 1dbf f040 fdbe
00000060: 56d3 4abf 1a98 b63f a326 753f e0a8 4dbf
00000070: dbd2 44bf 76d5 76bf 1b16 7fbe b73d 9cbf
00000080: 2a95 973e 2db2 723f 0a79 a83e 3f76 37bf
00000090: 749e 463d ff73 283f 2ce3 b1bd d182 91bf
0.011996523 0.093579486 0.018592378 -0.040542394 -0.1020793 0.39751318 0.035237465 0.4643834
0.040662512 -0.34004188 0.24067865 -0.029392894 0.47802135 -0.1327306 -0.042397577 0.10879166
0.5322113 -0.006449313 -0.41460642 -0.7454094 0.2155666 -0.0378703 -0.61384624 -0.49463606
-0.79228723 1.4265168 0.9576208 -0.8033581 -0.7688424 -0.96419466 -0.24910776 -1.2206334
0.2960599 0.94803125 0.32904845 -0.71664804 0.048490956 0.65801996 -0.08685908 -1.1368047

2.weight f4 [1, 40]
00000000: c6e1 293c 24c0 1e3f 368d 9b3d 7586 973e
00000010: 78d0 1a3f bbb9 88bf 8e66 8e3e 541a 8fbf
00000020: c80d 983e bc48 77bf b6ed 16bf 9a71 783e
00000030: ff89 99bf 557d bcbe 2306 0dbe da4c 96be
00000040: dcb3 a6bf 00da 093e ac38 543f 0d9e bf3f
00000050: 2491 b1be d3d5 7abd 7363 65bf 6efd 7d3f
00000060: a007 92bf f3a7 3640 4b25 91bf abab 70bf
00000070: 155f 8dbf 739b a5bf 9e0c 633d 0fdc d7bf
00000080: de5d 213e 3303 94bf 53d8 503e eb09 823d
00000090: 7c46 133e c355 50bf e10b 093e 4e10 adbf
0.01036877 0.62011933 0.07595293 0.2959477 0.6047435 -1.068168 0.27812618 -1.117991
0.29698014 -0.9659536 -0.5895647 0.24262086 -1.1995238 -0.3681437 -0.13771872 -0.29355508
-1.3023639 0.13462067 0.82898974 1.4970108 -0.34681046 -0.061239075 -0.8960487 0.9921483
-1.1408577 2.8540008 -1.1339506 -0.94011945 -1.1044642 -1.2938064 0.055431955 -1.6864032
0.15758464 -1.1563476 0.20395021 0.06349548 0.14382356 -0.8138086 0.13383438 -1.3520601

0.weight f4 [40, 1]
00000000: a5d6 78bf d093 7dbf 6a89 2bbc 3931 d73e
00000010: 1983 823f ece2 aabf e03c c6be f02c c6bf
00000020: 8aaa e0be 9099 983f 8397 4dbf 7254 a03e
00000030: 229f ccbf f9c1 ed3e f32d 1a3e 2e54 bbbe
00000040: 305b e3bf d12c c83b 198a 563f 50f6 c03f
00000050: 9c66 97be 862d 5b3d da99 5e3f 7d0b 803f
00000060: d08a 8f3f a76e 3bc0 716a a5bf 11b0 8e3f
00000070: 4e46 8b3f de07 ad3f 77c3 7f3e e378 dc3f
00000080: 288b 9dbe 37f2 a3bf d248 aebe 74f2 373f
00000090: b05f 18bd 08c3 63bf a94b b23d aa09 ca3f
-0.9720252 -0.9905367 -0.010469774 0.4202974 1.0196258 -1.3350501 -0.3871832 -1.5482464
-0.4388011 1.1921864 -0.80309314 0.31314427 -1.5986063 0.46437052 0.1505659 -0.36587662
-1.7762203 0.006108858 0.8380447 1.5075169 -0.29570472 0.05351021 0.8695351 1.0003506
1.1214237 -2.9286287 -1.2923108 1.1147481 1.088083 1.3518026 0.24976908 1.7224392
-0.3077023 -1.2808293 -0.34039932 0.7185433 -0.03720063 -0.8896947 0.08705837 1.5784199

0.bias f4 [40]
00000000: fe7a b33d 264f f93d dea1 583c 067a 59bd
00000010: 3edc 03be aa8b e63e 4342 433d dc4c 053f
00000020: 3fc7 5c3d dba2 c6be 5857 8a3e b115 22bd
00000030: a3bc 093f 30ba 1abe e884 48bd 4cbe fc3d
00000040: 84f3 183f c254 d3bb e7ca efbe 55aa 57bf
00000050: cfde 6e3e 66fc 24bd dfb3 23bf 711e 0fbf
00000060: 9b27 53bf eab9 cd3f 0c73 823f bf4e 57bf
00000070: 27e1 4cbf 3b56 81bf 1b16 7fbe e48c a2bf
00000080: 34f6 8e3e 235d 813f ea26 9e3e 3f76 37bf
00000090: 2ec3 1c3d 82a8 333f 2ce3 b1bd fb78 98bf
0.08763693 0.121732995 0.013222186 -0.053094886 -0.12876984 0.4502843 0.047670614 0.52070403
0.053900953 -0.38796124 0.27019763 -0.039571468 0.5380346 -0.15110087 -0.048954874 0.12340984
0.59746575 -0.006449313 -0.4683449 -0.8424428 0.23327182 -0.04027977 -0.63946337 -0.55905825
-0.8248231 1.6072361 1.019136 -0.8410453 -0.80031055 -1.010444 -0.24910776 -1.2699246
0.27922213 1.0106548 0.30889064 -0.71664804 0.038272075 0.70179 -0.08685908 -1.191192

2.weight f4 [1, 40]
00000000: 74d4 9d3d 910a 633f 7135 993d 07b6 c93e
00000010: f4c4 583f b9b7 9bbf 64f1 c23e 4c45 a5bf
00000020: dd07 d43e b776 90bf 3be7 2dbf ab30 a13e
00000030: 855f b0bf fcfa dcbe 1ade 21be 741d abbe
00000040: 331c c0bf 00da 093e b2dd 6f3f 8b79 d83f
00000050: ab75 bdbe 9326 86bd 0b0e 77bf df7d 8f3f
00000060: a06d 9dbf d715 5040 5183 9ebf c0d6 83bf
00000070: 806e 98bf d173 b3bf 9e0c 633d 2667 e9bf
00000080: 5010 213e 8a3b a1bf 6adf 4f3e eb09 823d
00000090: 7b02 113e 7bad 62bf e10b 093e ae58 bdbf
0.07706538 0.88688 0.07480896 0.39396688 0.84675527 -1.2165443 0.3807479 -1.2911773
0.4141225 -1.1286229 -0.67930955 0.31482443 -1.377915 -0.43160236 -0.15807381 -0.33420908
-1.5008606 0.13462067 0.93697655 1.6912092 -0.37003836 -0.06550326 -0.965058 1.1210288
-1.229908 3.251333 -1.2383825 -1.0299911 -1.1908722 -1.4019719 0.055431955 -1.8234603
0.15728879 -1.2596295 0.2030007 0.06349548 0.14161102 -0.8854596 0.13383438 -1.4792688

0.weight f4 [40, 1]
00000000: 7fab 83bf 2fa7 a4bf 412e 53bc 7254 053f
00000010: a489 9e3f d9c1 b5bf 3f3c 03bf bcc1 d1bf
00000020: ef72 13bf cbad a83f 4bc5 59bf a12c c93e
00000030: aff6 d8bf 4a30 033f be15 2c3e 0a46 c7be
00000040: 70cf f0bf d12c c83b cdc9 623f 7205 cc3f
00000050: e083 9dbe 902a 633d 1d50 683f 5960 873f
00000060: 98c0 953f e5c8 4ac0 ec7d aabf 68b6 923f
00000070: 2b4a 913f abb8 b33f 77c3 7f3e 94d8 e53f
00000080: 5ca7 9ebe 7024 a9bf aeb0 afbe 74f2 373f
00000090: 8f3c 28bd bb0a 6bbf a94b b23d 7ed0 cf3f
-1.0286711 -1.286352 -0.012889446 0.5208198 1.2385755 -1.4199783 -0.51263803 -1.6387248
-0.5759725 1.3178037 -0.8506667 0.39291862 -1.6950282 0.5124556 0.16805169 -0.38920623
-1.8813305 0.006108858 0.88589174 1.5939162 -0.30764675 0.055460513 0.90747243 1.0576278
1.16994 -3.1685116 -1.3319678 1.1461916 1.1350759 1.4040731 0.24976908 1.7956719
-0.3098706 -1.3214245 -0.34314483 0.7185433 -0.04107338 -0.9181325 0.08705837 1.6235502

0.bias f4 [40]
00000000: bd36 093e dc13 2c3e 3288 403c 9e61 8ebd
00000010: 330f 29be a273 f43e 667f 893d 86af 0c3f
00000020: 9c1d 9a3d da01 d9be 781c 923e 1cb6 56bd
00000030: ca9d 113f 18cc 28be da1f 5dbd 1e03 063e
00000040: 0389 213f c254 d3bb acba 01bf fa63 69bf
00000050: 0a8b 783e b29a 2cbd d2a0 27bf 3cde 1abf
00000060: 6f1a 58bf c98d dc3f c489 863f 7fa5 5ebf
00000070: 8daa 51bf baab 84bf 1b16 7fbe c000 a6bf
00000080: 7776 8f3e 497b 853f 0ae4 9e3e 3f76 37bf
00000090: a9ca 183d c87a 393f 2ce3 b1bd c5bd 9dbf
0.13399787 0.16804451 0.0117512215 -0.06952213 -0.16509704 0.4774447 0.067137524 0.5495533
0.07525179 -0.42384225 0.28537345 -0.052419767 0.5688139 -0.16484106 -0.053985454 0.13087127
0.6309969 -0.006449313 -0.50675464 -0.9116818 0.24271789 -0.042139716 -0.6547977 -0.6049535
-0.84415334 1.7230769 1.0510793 -0.86971277 -0.81900865 -1.0364907 -0.24910776 -1.2968979
0.2802007 1.0428249 0.31033355 -0.71664804 0.037302647 0.72452974 -0.08685908 -1.2323538

2.weight f4 [1, 40]
00000000: 4b32 b83e 7a30 9b3f 05aa 983d 3132 003f
00000010: 6738 8d3f 6055 a8bf d465 023f 62e8 b3bf
00000020: c726 0f3f 199d a2bf 3416 3dbf a32f ca3e
00000030: 8d7b bfbf b43d f9be 9a45 34be c6f1 b8be
00000040: 98e6 d0bf 00da 093e f67a 7f3f e484 e63f
00000050: e2ae c4be abab 8bbd 9e1a 81bf a4cf 983f
00000060: e69e a4bf a4cf 6040 2c97 a6bf 1b06 8bbf
00000070: ec68 9fbf d821 bcbf 9e0c 633d 9274 f4bf
00000080: 778e 273e 5339 a9bf f4e8 563e eb09 823d
00000090: 9816 113e 99c4 6dbf e10b 093e 7685 c7bf
0.3597587 1.2124169 0.07454304 0.50076586 1.1032838 -1.3151054 0.5093663 -1.4055293
0.55918545 -1.2704192 -0.73862004 0.3948947 -1.495958 -0.48679888 -0.17604676 -0.36121958
-1.6320372 0.13462067 0.99797 1.8009305 -0.38414675 -0.068198524 -1.0086248 1.1938367
-1.2860992 3.5126734 -1.3014884 -1.0861238 -1.2453895 -1.4697828 0.055431955 -1.9098074
0.1636294 -1.3220619 0.20987302 0.06349548 0.14168775 -0.9287811 0.13383438 -1.5587604

0.weight f4 [40, 1]
00000000: c552 93bf 188e d0bf 8999 61bc c0b2 1c3f
00000010: 7971 b83f 2792 bdbf 67e7 27bf 5620 dabf
00000020: 28cd 3bbf de44 b93f 5090 62bf 16e6 ed3e
00000030: 43dd e1bf 21ea 0f3f fe5b 3e3e 90db cfbe
00000040: 9786 fabf d12c c83b 49d9 683f 217c d13f
00000050: 1304 a2be 0a5b 693d 8ac9 6e3f 72ff 8a3f
00000060: bde2 993f 7c3e 55c0 cb4c aebf a0ce 953f
00000070: 3b4b 953f 0d91 b83f 77c3 7f3e 9510 ec3f
00000080: d97d 9fbe 3703 adbf 5dc6 b0be 74f2 373f
00000090: 23d0 2ebd 3a79 70bf a94b b23d b347 d43f
-1.1509634 -1.6293364 -0.013769516 0.6121025 1.4409629 -1.4810227 -0.65587467 -1.7041118
-0.7335992 1.4474142 -0.88501453 0.46464604 -1.7645649 0.5621663 0.1858978 -0.405972
-1.9572324 0.006108858 0.9095655 1.6366006 -0.31643733 0.056971587 0.93276274 1.0859206
1.202232 -3.3319387 -1.3617185 1.1703682 1.1663584 1.4419266 0.24976908 1.844256
-0.31150702 -1.3516606 -0.3452634 0.7185433 -0.042678963 -0.9393498 0.08705837 1.6584381

0.bias f4 [40]
00000000: 6fe3 133e 19cb 523e 6402 4c3c c535 a4bd
00000010: d828 41be 959a fe3e 1ad2 a93d ca1a 123f
00000020: 2e23 be3d 2fa2 eabe bace 973e 1c7a 79bd
00000030: fb62 173f 8049 36be c026 71bd e496 0b3e
00000040: 19d4 273f c254 d3bb 8901 08bf 8abb 74bf
00000050: 51fc 803e 0e36 31bd 01e4 2abf 2563 22bf
00000060: 2b40 5cbf 989e e63f 1c86 8a3f e43e 63bf
00000070: 0bae 55bf e0de 86bf 1b16 7fbe 8ef9 a8bf
00000080: a812 903e 7a87 893f a4b4 9f3e 3f76 37bf
00000090: 8503 1e3d fb2c 3f3f 2ce3 b1bd c701 a1bf
0.14442228 0.20585288 0.012451742 -0.08018068 -0.18863237 0.49727312 0.08292027 0.57072127
0.09284054 -0.4582686 0.29649907 -0.06090747 0.5913541 -0.17801476 -0.058874846 0.13631779
0.6555801 -0.006449313 -0.5312734 -0.9559866 0.25192502 -0.04326444 -0.66754156 -0.6343253
-0.8603541 1.8017149 1.0822177 -0.8876784 -0.83468693 -1.0536766 -0.24910776 -1.3201158
0.28139234 1.0744469 0.31192505 -0.71664804 0.038577575 0.7467801 -0.08685908 -1.2578667

2.weight f4 [1, 40]
00000000: 6c90 213f a08b c93f 8e9b 983d ec6e 183f
00000010: 07e8 a93f c243 b1bf 6d8c 273f a33a bebf
00000020: 35ca 383f d2f3 b4bf cdcc 47bf 4fdc ee3e
00000030: 2b27 cabf a7e0 0abf 5208 47be 70bc c2be
00000040: 50bf dcbf 00da 093e d8e9 833f 0107 ee3f
00000050: debb cabe 3086 8fbd 2bfb 84bf 15cb 9d3f
00000060: a49e a9bf 5220 6c40 e645 adbf 4702 90bf
00000070: 8742 a4bf 572a c2bf 9e0c 633d c721 fcbf
00000080: f50c 2d3e 9fd7 afbf aee2 5c3e eb09 823d
00000090: 105e 113e 15f5 76bf e10b 093e 3795 cebf
0.63110995 1.5745735 0.07451545 0.59544253 1.3273934 -1.3848803 0.6544865 -1.4861645
0.72183543 -1.4136908 -0.78046876 0.46652457 -1.5793203 -0.5424904 -0.19436768 -0.3803439
-1.7245884 0.13462067 1.0305738 1.8595887 -0.39596456 -0.07008016 -1.038915 1.2327601
-1.3251538 3.6894727 -1.3536956 -1.1250695 -1.2832803 -1.5169171 0.055431955 -1.9697808
0.16899474 -1.3737677 0.21570846 0.06349548 0.14196038 -0.96467716 0.13383438 -1.6139287

0.weight f4 [40, 1]
00000000: 385d a5bf f3aa fabf 763e 74bc ad16 2f3f
00000010: d601 cd3f 1d2d c4bf edcf 4abf d739 e1bf
00000020: 515a 62bf c7ee c83f c304 6abf a454 053f
00000030: 9b67 e9bf e6f1 1b3f 588a 4f3e 1a1d d7be
00000040: 9d61 01c0 d12c c83b 02b6 6c3f 7af8 d43f
00000050: 0ac8 a5be dd4c 6d3d 4f3d 733f 074f 8d3f
00000060: bdb8 9c3f a860 5cc0 4f69 b1bf 25c8 973f
00000070: 0707 983f 9922 bc3f 77c3 7f3e 284a f03f
00000080: a829 a1be 1e2b b0bf 6dd6 b2be 74f2 373f
00000090: 62b4 37bd ecf2 74bf a94b b23d 801c d73f
-1.2919073 -1.958342 -0.01490747 0.68393975 1.6016185 -1.5326267 -0.7922352 -1.7595776
-0.8841906 1.5697869 -0.91413516 0.52082276 -1.8234743 0.6091598 0.20267618 -0.4201439
-2.0215828 0.006108858 0.9246522 1.6638329 -0.3237918 0.05793463 0.95015424 1.1039742
1.2243878 -3.4433994 -1.3860263 1.1857954 1.1877145 1.4698058 0.24976908 1.8772631
-0.31477094 -1.3763158 -0.3492922 0.7185433 -0.04484976 -0.9568317 0.08705837 1.6805573

0.bias f4 [40]
00000000: 4c2f 233e 8935 773e f940 593c 3d49 b2bd
00000010: a7ad 50be a080 023f 2220 c83d fc88 153f
00000020: b361 df3d 9d1f fdbe 3069 9b3e 91f9 87bd
00000030: a608 1b3f 6874 44be a0b6 82bd 241b 0f3e
00000040: 57cf 2b3f c254 d3bb f8b5 0bbf 2e6a 7bbf
00000050: 5b05 843e f530 34bd dc99 2cbf 14d1 26bf
00000060: 5571 5ebf c522 ed3f c53c 8d3f 1c44 66bf
00000070: c9d6 57bf 03a9 87bf 1b16 7fbe b497 aabf
00000080: 6f69 903e 8649 8c3f 433d a03e 3f76 37bf
00000090: bcf3 233d e9fe 423f 2ce3 b1bd a42c a3bf
0.15936011 0.24141516 0.01326012 -0.08705375 -0.20378743 0.50977516 0.09771754 0.58412147
0.109073065 -0.49438182 0.3035369 -0.06639398 0.6056007 -0.1918503 -0.06382489 0.13975197
0.6711325 -0.006449313 -0.5457454 -0.9820889 0.25785336 -0.043992 -0.6742227 -0.6516278
-0.8689168 1.8526236 1.103417 -0.89947677 -0.8431211 -1.0598453 -0.24910776 -1.3327546
0.2820544 1.0959938 0.3129674 -0.71664804 0.040027365 0.7617021 -0.08685908 -1.2747998

2.weight f4 [1, 40]
00000000: 3624 5d3f 4639 f53f 90ea 983d e942 2b3f
00000010: 3106 c03f 4e9c b8bf 21ce 4a3f 0eb1 c6bf
00000020: 002e 603f 0f31 c6bf 8696 50bf 7fbd 053f
00000030: 69e9 d2bf c843 18bf 7fc7 58be 77ca cabe
00000040: 1777 e6bf 00da 093e 9676 863f 789d f23f
00000050: 8e4e cfbe 9af5 91bd d56f 87bf 6bd6 a03f
00000060: 58c9 acbf f3bf 7340 5d47 b2bf 2a27 93bf
00000070: dd54 a7bf def8 c5bf 9e0c 633d 427f 00c0
00000080: 875f 343e c5cd b4bf 4fee 643e eb09 823d
00000090: fd12 123e 45d9 7dbf e10b 093e 7009 d3bf
0.8638338 1.9158103 0.07466614 0.6689897 1.500189 -1.44227 0.7922078 -1.5522783
0.8757019 -1.5483721 -0.8147968 0.52242273 -1.6477481 -0.59478426 -0.21169852 -0.39607593
-1.8005093 0.13462067 1.050494 1.8954306 -0.4048962 -0.07126923 -1.0581003 1.2565435
-1.3498945 3.8085907 -1.3928028 -1.1496327 -1.3072773 -1.5466573 0.055431955 -2.0077672
0.17614566 -1.4125296 0.22356533 0.06349548 0.14265056 -0.9915965 0.13383438 -1.6487255

0.weight f4 [40, 1]
00000000: 711e b6bf 7259 0fc0 5822 85bc 6770 3c3f
00000010: eaff db3f 2425 c9bf da91 68bf 2e94 e6bf
00000020: 29a2 81bf d552 d63f 15a3 6fbf ddbf 0f3f
00000030: c115 efbf 923c 263f 9127 5e3e 2592 dcbe
00000040: 4e7c 04c0 d12c c83b 1e07 703f d3f8 d73f
00000050: d1a4 a8be 4c50 6f3d 2104 763f 4a4c 8f3f
00000060: 3c7e 9e3f 6a19 62c0 d9ef b3bf 13cc 983f
00000070: 9dbc 993f cb2b be3f 77c3 7f3e 83ea f23f
00000080: 44c1 a2be c4bd b2bf 71d4 b4be 74f2 373f
00000090: 790c 42bd d084 78bf a94b b23d 2a91 d83f
-1.422804 -2.2398343 -0.016251728 0.7360901 1.7187474 -1.571446 -0.9084755 -1.8013971
-1.0127612 1.6744028 -0.9360822 0.56152135 -1.8678514 0.6493617 0.21694781 -0.4308025
-2.070087 0.006108858 0.9376086 1.687281 -0.32938245 0.058426186 0.9610005 1.1195157
1.2382274 -3.5328012 -1.4057571 1.1937279 1.2010685 1.4857115 0.24976908 1.8977817
-0.31788075 -1.3964162 -0.3531833 0.7185433 -0.047375176 -0.97077656 0.08705837 1.69193

0.bias f4 [40]
00000000: 0307 2f3e fd45 893e bfda 6d3c 5104 bdbd
00000010: 5ea3 5cbe c6e2 043f 4794 de3d ed18 183f
00000020: e543 f83d b907 06bf e819 9e3e 2d36 90bd
00000030: 4fc1 1d3f ecec 4fbe a7e7 8abd 66b9 113e
00000040: 50c8 2e3f c254 d3bb 7ab9 0ebf 0b69 80bf
00000050: b2b1 853e a920 37bd 1817 2ebf 8266 2abf
00000060: 9457 60bf f82c f13f 2095 8e3f 2b3c 69bf
00000070: 78b2 59bf e9ba 88bf 1b16 7fbe 5904 acbf
00000080: 63df 913e 91a3 8d3f 3a21 a23e 3f76 37bf
00000090: 8cbe 2d3d c7f2 443f 2ce3 b1bd 7a4d a5bf
0.17092519 0.2681121 0.014517485 -0.09229339 -0.21546695 0.5190853 0.108681254 0.59413034
0.12122325 -0.52355534 0.3087914 -0.07041583 0.6162309 -0.20305222 -0.067824654 0.1423088
0.682744 -0.006449313 -0.55751765 -1.0032057 0.26112133 -0.04470888 -0.6800399 -0.66562665
-0.87633634 1.8841848 1.1139259 -0.91107434 -0.85037947 -1.068204 -0.24910776 -1.3438827
0.28490743 1.1065542 0.31665975 -0.71664804 0.042418048 0.7693295 -0.08685908 -1.2914269

2.weight f4 [1, 40]
00000000: 6a84 863f dc1b 0d40 5dab 993d 2ed7 383f
00000010: aee9 cf3f d620 bebf 9ec6 683f 7a08 cdbf
00000020: 0ece 803f ddb4 d4bf 152d 57bf e515 103f
00000030: 3a7b d9bf 3887 23bf 14c9 67be 4fd7 d0be
00000040: 00c0 edbf 00da 093e e699 883f 0e76 f63f
00000050: b467 d2be e598 93bd e610 89bf bf63 a33f
00000060: dde2 aebf bfa3 7940 d9a7 b5bf 8b44 95bf
00000070: 775e a9bf 7c81 c8bf 9e0c 633d 241c 02c0
00000080: 6d8b 3e3e db26 b8bf 362c 703e eb09 823d
00000090: cc56 133e f13f 81bf e10b 093e 6408 d6bf
1.050916 2.2048254 0.07503388 0.7220334 1.6243188 -1.4853771 0.90928066 -1.6018212
1.0062883 -1.6617695 -0.84053165 0.5628341 -1.6990731 -0.638782 -0.22635299 -0.40789267
-1.8574219 0.13462067 1.0671966 1.9254777 -0.41094744 -0.07206897 -1.0708282 1.2764815
-1.3662983 3.9006193 -1.4191848 -1.1661543 -1.3231953 -1.5664515 0.055431955 -2.0329676
0.18607874 -1.4386858 0.23454365 0.06349548 0.14388579 -1.0097638 0.13383438 -1.6721311

0.weight f4 [40, 1]
00000000: ab74 c3bf 4019 1dc0 25ab 93bc b464 463f
00000010: 0e35 e73f 55f8 ccbf 8b3a 7fbf dab4 eabf
00000020: 762d 8ebf cfec e03f faf7 73bf da80 173f
00000030: 4476 f3bf 7e63 2e3f b9ab 693e 96c5 e0be
00000040: f1e0 06c0 d12c c83b fedd 723f 9888 da3f
00000050: b266 aabe 1fe3 703d 44f8 773f 05ff 903f
00000060: 30bd 9f3f 9ad9 65c0 137d b5bf 7697 993f
00000070: 97f1 9a3f 68bf bf3f 77c3 7f3e 25c5 f43f
00000080: f8d3 a4be 384c b4bf ce77 b7be 74f2 373f
00000090: 3206 50bd 07ba 7abf a94b b23d e7b4 d93f
-1.5269979 -2.4546661 -0.018025944 0.7749741 1.8063066 -1.6013285 -0.99698704 -1.8336442
-1.1107624 1.7572268 -0.9530026 0.59180987 -1.9020467 0.68120563 0.22819413 -0.43900746
-2.1074793 0.006108858 0.94869983 1.7072935 -0.33281475 0.05881035 0.968632 1.1327826
1.247961 -3.5914063 -1.4178795 1.1999347 1.2104977 1.4980288 0.24976908 1.9122664
-0.3219297 -1.408576 -0.3583359 0.7185433 -0.05078716 -0.97940105 0.08705837 1.7008332

0.bias f4 [40]
00000000: 2afc 303e 43ac 8d3e 2316 853c 796b c1bd
00000010: d26d 61be 3af2 073f 4525 e63d d465 1b3f
00000020: 9d32 003e 78eb 08bf a290 a13e 58c0 93bd
00000030: 9341 213f 175f 54be 9835 8ebd 0f16 153e
00000040: fe9b 323f c254 d3bb 9129 12bf c682 83bf
00000050: 7753 863e c5b1 38bd d9e2 2ebf 1483 2ebf
00000060: ad5b 61bf bf7b f53f 6c13 8f3f 00d3 6abf
00000070: 5eae 5abf 6c1b 89bf 1b16 7fbe f5c5 acbf
00000080: b94e 943e 0a29 8e3f 3b28 a53e 3f76 37bf
00000090: df2c 3b3d 0ea7 453f 2ce3 b1bd 1771 a6bf
0.17283693 0.27670488 0.016245907 -0.09444327 -0.2201455 0.53103983 0.11237577 0.6070225
0.12519307 -0.53484297 0.3155566 -0.07214421 0.62990683 -0.20739399 -0.06943816 0.14559196
0.69769275 -0.006449313 -0.57094675 -1.0274284 0.26235554 -0.04509141 -0.6831489 -0.6816876
-0.8803051 1.9178389 1.1177802 -0.9172821 -0.85422313 -1.0711493 -0.24910776 -1.3497912
0.2896631 1.1106274 0.32257256 -0.71664804 0.04569709 0.7720803 -0.08685908 -1.3003262

2.weight f4 [1, 40]
00000000: 4916 983f 9c14 1b40 9801 9b3d 1ed8 423f
00000010: 7397 db3f 599a c2bf 8e75 7f3f 322a d2bf
00000020: b271 8d3f 179e dfbf 4982 5cbf 74b7 173f
00000030: 27cd debf a9fd 2bbf 7d18 73be 65bf d5be
00000040: 9aa5 f3bf 00da 093e 26a3 8a3f c61f fa3f
00000050: 1f0b d4be 4ea0 94bd c018 8abf ddd1 a53f
00000060: 1637 b0bf aee8 7d40 d271 b7bf b79a 96bf
00000070: 88a8 aabf 881d cabf 9e0c 633d 9e21 03c0
00000080: 2d9f 4c3e c5ec b9bf a7cb 7f3e eb09 823d
00000090: 2259 153e 4b7b 82bf e10b 093e eaec d7bf
1.1881801 2.423133 0.07568663 0.7611102 1.7155594 -1.5203353 0.9978875 -1.6419127
1.1050322 -1.747012 -0.861363 0.592643 -1.7406358 -0.6718393 -0.2373981 -0.41747585
-1.9034913 0.13462067 1.0831039 1.9540946 -0.41414735 -0.07257138 -1.0788803 1.295467
-1.3766811 3.9673266 -1.433161 -1.1765965 -1.3332682 -1.5790262 0.055431955 -2.0489268
0.19982596 -1.4525381 0.24980031 0.06349548 0.14584783 -1.0193876 0.13383438 -1.6869175
