dis/dis03/code/ckpts/adam/width40/seed704/ckpt_and_history.pt (torch, 18111 bytes, 33 tensors)

0.weight f4 [40, 1]
0.6339735 0.067486115 0.85592717 -0.40972677 1.0113311 -0.14856832 0.04964626 -0.6007866
0.3992986 -0.09799669 0.9331916 0.21979733 -0.17309292 -0.94590807 -0.1237942 -0.8250199
0.26818708 0.9980122 -0.0027579926 0.74855375 0.33231917 0.45398188 -0.7696107 -0.15793453
-0.518265 -0.46490085 -0.52909005 -0.2829935 0.35534424 0.202589 -0.5678158 0.20208716
0.006940242 -0.26909176 -0.24395646 -0.534649 0.698585 -0.031799465 0.8217807 0.02363866
00000000: 164c 223f 2936 8a3d 0b1e 5b3f b5c7 d1be
00000010: 4c73 813f 4b22 18be e059 4b3d 27cd 19bf
00000020: de70 cc3e 7db2 c8bd a5e5 6e3f 8d12 613e
00000030: 453f 31be 0827 72bf d087 fdbd 8134 53bf
00000040: d14f 893e ba7d 7f3f 70bf 34bb 38a1 3f3f
00000050: bd25 aa3e 5070 e83e 3505 45bf 97b9 21be
00000060: 04ad 04bf 7c07 eebe 7272 07bf 86e4 90be
00000070: aeef b53e 7e73 4f3e 605c 11bf f0ef 4e3e
00000080: f86a e33b 65c6 89be b9cf 79be c2de 08bf
00000090: 77d6 323f 2840 02bd 3860 523f dda5 c13c

0.bias f4 [40]
-0.03780041 0.016507221 -0.070685625 0.06704025 -0.11206856 0.005535258 -0.03584575 0.17381524
-0.096516445 0.013927253 -0.2874044 -0.054353956 0.040049493 0.28521782 0.053324178 0.27032816
-0.105641454 -0.35072955 -0.026817627 -0.2861408 -0.17571563 -0.20025362 0.36899874 0.062039465
0.34517834 0.31727913 0.3068071 0.15732238 -0.2075241 -0.11704962 0.40084457 -0.20309167
-0.04239199 0.2651677 0.2613565 0.5334155 -0.6952071 0.06904477 -0.8469976 -0.06297597
00000000: 9ad4 1abd 273a 873c a0c3 90bd 664c 893d
00000010: 3484 e5bd 1c61 b53b fed2 12bd 9ffc 313e
00000020: 6aaa c5bd 222f 643c ab26 93be 41a2 5ebd
00000030: f00a 243d 1208 923e 746a 5a3d 7468 8a3e
00000040: 8c5a d8bd d392 b3be a4b0 dbbc 0c81 92be
00000050: ccee 33be 490f 4dbe 67ed bc3e 181d 7e3d
00000060: 37bb b03e 6972 a23e d215 9d3e 1e19 213e
00000070: 3381 54be b6b7 efbd 803b cd3e 43f7 4fbe
00000080: 39a3 2dbd 10c4 873e 85d0 853e eb8d 083f
00000090: 18f9 31bf 5867 8d3d d6d4 58bf 8cf9 80bd

2.weight f4 [1, 40]
0.069235824 0.0065769227 0.0023076758 -0.08864038 0.036282405 0.08329911 -0.04388975 -0.05118426
0.13689844 0.03344664 -0.05572816 0.12893616 0.1291109 -0.014864151 -0.123676516 0.12731609
-0.13844869 -0.15188165 0.057929873 -0.16100699 0.03906349 -0.15996733 -0.087170884 0.036834918
-0.037451513 -0.14658074 0.011816425 -0.015217592 0.0405872 -0.057995163 -0.1717849 0.077481024
0.1265439 -0.015968407 -0.0061514266 0.07846044 0.028966747 0.038758837 0.10202854 0.008638443
00000000: 83cb 8d3d 3a83 d73b 603c 173b 1689 b5bd
00000010: dc9c 143d b998 aa3d bdc5 33bd 96a6 51bd
00000020: 1b2f 0c3e 58ff 083d 3643 64bd d707 043e
00000030: a635 043e c588 73bc 1d4a fdbd 265f 023e
00000040: 7ec5 0dbe dd86 1bbe e047 6d3d 04df 24be
00000050: 0a01 203d 7ace 23be a686 b2bd 36e0 163d
00000060: c266 19bd 4319 16be ae99 413c 3553 79bc
00000070: c43e 263d 568c 6dbd 61e8 2fbe 5fae 9e3d
00000080: b994 013e 2dd0 82bc e891 c9bb deaf a03d
00000090: ac4b ed3c 96c1 1e3d 57f4 d03d 4288 0d3c

0.weight f4 [40, 1]
0.5751472 -0.07214652 1.6837245 -1.6233302 0.96866304 -0.24858768 -0.07096304 -1.8497511
0.30258605 -0.18668787 0.8817237 0.060064144 -0.20311993 -2.479671 -1.4050046 -2.1182265
1.3095677 0.797445 -0.10286731 0.5703734 1.3279558 0.5851822 -2.4036777 -0.2619124
-1.3151772 -1.2418411 -2.1619089 -3.1692934 1.3193568 1.0211614 -1.3380551 0.10197741
-0.09316966 -4.690902 -0.47654745 -0.5810281 0.59847593 -3.4376872 0.7216712 -0.07646855
00000000: d93c 133f 8ec1 93bd 4984 d73f 49c9 cfbf
00000010: 4dfa 773f c58d 7ebe 1255 91bd a5c4 ecbf
00000020: 8fec 9a3e 1b2b 3fbe a5b8 613f d205 763d
00000030: acfe 4fbe eeb2 1ec0 31d7 b3bf 0691 07c0
00000040: ea9f a73f 5b25 4c3f 19ac d2bd fe03 123f
00000050: 75fa a93f 80ce 153f dbd5 19c0 6219 86be
00000060: ba57 a8bf a6f4 9ebf b75c 0ac0 b4d5 4ac0
00000070: afe0 a83f 6bb5 823f 6445 abbf 88d9 d03d
00000080: bccf bebd df1b 96c0 07fe f3be 42be 14bf
00000090: b835 193f 1103 5cc0 72bf 383f 8b9b 9cbd

0.bias f4 [40]
-0.11877924 -0.07234174 -1.0182673 0.6499269 -0.19558877 -0.08998773 -0.18231736 0.6965817
-0.18390104 -0.12945496 -0.5359089 -0.05400134 -0.109567516 0.7533308 0.56370115 0.6420043
-0.7883699 -0.42069474 -0.12692694 -0.30803102 -0.97138524 -0.3538076 0.7307677 -0.020204194
0.9257467 0.8744745 0.6565325 0.28684425 -1.04149 -0.6170509 0.9416555 -0.3032014
-0.14250186 0.5092879 0.33655807 0.5326436 -0.7953162 1.774218 -0.9471071 -0.16308314
00000000: 8842 f3bd e827 94bd 9556 82bf 9c61 263f
00000010: 6c48 48be 7d4b b8bd 67b1 3abe 2e53 323f
00000020: 8e50 3cbe d78f 04be 5331 09bf 8230 5dbd
00000030: ef64 e0bd 4ada 403f b84e 103f 655a 243f
00000040: 9cd2 49bf 4d65 d7be 23f9 01be 3eb6 9dbe
00000050: b4ac 78bf 4526 b5be 9813 3b3f 4483 a5bc
00000060: bcfd 6c3f 90dd 5f3f 8412 283f 40dd 923e
00000070: 8b4f 85bf 0cf7 1dbf 5610 713f 373d 9bbe
00000080: 02ec 11be b160 023f 5751 ac3e 555b 083f
00000090: d899 4bbf 9319 e33f 9c75 72bf 44ff 26be

2.weight f4 [1, 40]
0.08408983 -0.0004950093 1.1838319 -1.5733025 0.17291184 -0.014373162 -0.14843376 -1.5653862
0.020371772 -0.07725269 0.13162264 0.018795583 -0.0034318662 -1.6979048 -1.2940338 -1.3377668
1.4744122 -0.057747725 -0.0421743 -0.018333487 -5.1243334 0.09895852 -1.724053 0.036056124
-1.4147699 -1.535463 -1.4648378 1.5717653 -5.4437637 0.9052324 -1.5933162 -0.022628201
0.026441386 3.0996244 -0.1669154 0.13520052 -0.071141824 5.2029214 0.0019341748 -0.09097912
00000000: 4a37 ac3d 83c3 01ba ce87 973f fa61 c9bf
00000010: cd0f 313e 697d 6bbc 05ff 17be 935e c8bf
00000020: b4e2 a63c a936 9ebd 16c8 063e 32f9 993c
00000030: 29e9 60bb f254 d9bf e6a2 a5bf f13b abbf
00000040: 8ab9 bc3f e188 6cbd f5be 2cbd 1c30 96bc
00000050: 8afa a3c0 c4aa ca3d c5ad dcbf 96af 133d
00000060: 2e17 b5bf 0d8a c4bf ce7f bbbf 9b2f c93f
00000070: 5033 aec0 50bd 673f c9f1 cbbf c75e b9bc
00000080: 9b9b d83c 3f60 4640 dfeb 2abe 0172 0a3e
00000090: ceb2 91bd 557e a640 2384 fd3a 4353 babd

0.weight f4 [40, 1]
0.31773508 -0.07214652 1.8908927 -1.7495944 0.5180496 -0.24858768 -0.07096304 -1.8966867
0.2169333 -0.18668787 0.90044963 0.049079794 -0.20311993 -2.6171541 -1.5185492 -2.2434227
1.5093681 0.62982666 -0.10286731 0.48065394 1.4205874 0.47266155 -2.5406187 -0.2619124
-1.4209914 -1.3492651 -2.294813 -3.7097661 1.437293 1.2008516 -1.4465951 0.10197741
-0.09316966 -4.9581065 -0.2576543 -1.3173938 0.59847593 -3.4544117 0.7216712 -0.07646855
00000000: 2cae a23e 8ec1 93bd c608 f23f b6f2 dfbf
00000010: e69e 043f c58d 7ebe 1255 91bd a1c6 f2bf
00000020: c323 5e3e 1b2b 3fbe de83 663f e507 493d
00000030: acfe 4fbe 747f 27c0 d25f c2bf 3d94 0fc0
00000040: f932 c13f 523c 213f 19ac d2bd 4618 f63e
00000050: cfd5 b53f b200 f23e 7f99 22c0 6219 86be
00000060: 0ce3 b5bf b8b4 acbf 37de 12c0 cf6c 6dc0
00000070: 38f9 b73f 81b5 993f 072a b9bf 88d9 d03d
00000080: bccf bebd cfa8 9ec0 44eb 83be 5ca0 a8bf
00000090: b835 193f 1515 5dc0 72bf 383f 8b9b 9cbd

0.bias f4 [40]
-0.19774014 -0.07234174 -1.1436392 0.6958364 -0.27343053 -0.08998773 -0.18231736 0.76949507
-0.29100338 -0.12945496 -0.55641234 -0.062237263 -0.109567516 0.7998108 0.6029379 0.6830952
-0.9118525 -0.5036672 -0.12692694 -0.38365424 -1.0280155 -0.3794105 0.7777557 -0.020204194
0.99574625 0.94582033 0.6982361 0.32402194 -1.1338499 -0.72620654 1.0133975 -0.3032014
-0.14250186 0.5560455 0.17848372 1.1740937 -0.7953162 1.7613665 -0.9471071 -0.16308314
00000000: 647c 4abe e827 94bd c562 92bf 5622 323f
00000010: 16ff 8bbe 7d4b b8bd 67b1 3abe a1fd 443f
00000020: 65fe 94be d78f 04be 0a71 0ebf 80ec 7ebd
00000030: ef64 e0bd 67c0 4c3f 235a 1a3f 54df 2e3f
00000040: 2a6f 69bf 55f0 00bf 23f9 01be 546e c4be
00000050: 0396 83bf 1842 c2be ff1a 473f 4483 a5bc
00000060: 3ae9 7e3f 4821 723f 9abf 323f 34e6 a53e
00000070: fe21 91bf ace8 39bf 02b7 813f 373d 9bbe
00000080: 02ec 11be ff58 0e3f 70c4 363e b448 963f
00000090: d899 4bbf 7574 e13f 9c75 72bf 44ff 26be

2.weight f4 [1, 40]
0.022826212 -0.0004950093 1.5891315 -1.5302962 -0.021583695 -0.014373162 -0.14843376 -1.5339959
0.09833157 -0.07725269 0.13533871 0.01903697 -0.0034318662 -1.7045544 -1.2096642 -1.3037478
1.7460989 -0.032363426 -0.0421743 -0.014633789 -4.823046 -0.033142485 -1.7238005 0.036056124
-1.4195601 -1.5281601 -1.4371916 1.376547 -5.4899054 1.0066833 -1.606205 -0.022628201
0.026441386 2.9567974 -0.02574128 1.0725138 -0.071141824 5.1132984 0.0019341748 -0.09097912
00000000: 09fe ba3c 83c3 01ba a968 cb3f bfe0 c3bf
00000010: 4ad0 b0bc 697d 6bbc 05ff 17be fa59 c4bf
00000020: 1062 c93d a936 9ebd 3b96 0a3e 6bf3 9b3c
00000030: 29e9 60bb d72e dabf 47d6 9abf 35e1 a6bf
00000040: 2b80 df3f 838f 04bd f5be 2cbd 8fc2 6fbc
00000050: 6556 9ac0 6ac0 07bd 7fa5 dcbf 96af 133d
00000060: 25b4 b5bf c09a c3bf e5f5 b7bf b132 b03f
00000070: 4ead afc0 00db 803f 2098 cdbf c75e b9bc
00000080: 9b9b d83c 2b3c 3d40 60df d2bc 2248 893f
00000090: ceb2 91bd 24a0 a340 2384 fd3a 4353 babd

0.weight f4 [40, 1]
0.22703461 -0.07214652 2.036596 -1.8637214 0.39774975 -0.24858768 -0.07096304 -2.0038822
0.2169333 -0.18668787 0.8019134 0.049079794 -0.20311993 -2.748135 -1.6185708 -2.3558257
1.6518933 0.86039454 -0.10286731 0.4926709 1.4710054 0.5385186 -2.673492 -0.2619124
-1.55814 -1.4889861 -2.4118142 -3.9204617 1.5435582 1.3292803 -1.5869168 0.10197741
-0.09316966 -5.1389713 -2.454296 -1.787148 0.59847593 -3.3992124 0.7216712 -0.07646855
00000000: c37b 683e 8ec1 93bd 9757 0240 6c8e eebf
00000010: dba5 cb3e c58d 7ebe 1255 91bd 9b3f 00c0
00000020: c323 5e3e 1b2b 3fbe 324a 4d3f e507 493d
00000030: acfe 4fbe 72e1 2fc0 542d cfbf d9c5 16c0
00000040: 3d71 d33f d142 5c3f 19ac d2bd 5c3f fc3e
00000050: e849 bc3f 5bdc 093f 7e1a 2bc0 6219 86be
00000060: 2271 c7bf 1997 bebf 2a5b 1ac0 d8e8 7ac0
00000070: 5193 c53f db25 aa3f 1720 cbbf 88d9 d03d
00000080: bccf bebd 7472 a4c0 3013 1dc0 44c1 e4bf
00000090: b835 193f b28c 59c0 72bf 383f 8b9b 9cbd

0.bias f4 [40]
-0.28925148 -0.07234174 -1.2369543 0.73110193 -0.31525514 -0.08998773 -0.18231736 0.8077757
-0.29100338 -0.12945496 -0.49733198 -0.062237263 -0.109567516 0.8281507 0.6338192 0.70926505
-1.0033479 -0.9860205 -0.12692694 -0.6070311 -1.0650171 -0.6285236 0.80564016 -0.020204194
1.0933369 1.043922 0.72637147 0.36262086 -1.2200336 -0.8089983 1.1129827 -0.3032014
-0.14250186 0.5432216 0.49689537 1.6159449 -0.7953162 1.7224358 -0.9471071 -0.16308314
00000000: c518 94be e827 94bd 8554 9ebf 7f29 3b3f
00000010: 1f69 a1be 7d4b b8bd 67b1 3abe 63ca 4e3f
00000020: 65fe 94be d78f 04be 4ca2 febe 80ec 7ebd
00000030: ef64 e0bd af01 543f fa41 223f 6592 353f
00000040: b46d 80bf d76b 7cbf 23f9 01be 6466 1bbf
00000050: 7b52 88bf ece6 20bf 6f3e 4e3f 4483 a5bc
00000060: 77f2 8b3f 3c9f 853f 7bf3 393f 71a9 b93e
00000070: 102a 9cbf 831a 4fbf 3876 8e3f 373d 9bbe
00000080: 02ec 11be 9210 0b3f 1269 fe3e 48d7 ce3f
00000090: d899 4bbf c778 dc3f 9c75 72bf 44ff 26be

2.weight f4 [1, 40]
0.04575523 -0.0004950093 1.8596739 -1.5154728 -0.016177757 -0.014373162 -0.14843376 -1.5354382
0.09833157 -0.07725269 0.060545594 0.01903697 -0.0034318662 -1.7230536 -1.1656309 -1.2924972
1.9140186 0.5479858 -0.0421743 0.16953017 -4.412812 0.27191225 -1.7373282 0.036056124
-1.5301911 -1.6305375 -1.4305186 1.069928 -5.690028 1.0410454 -1.7204605 -0.022628201
0.026441386 2.7262225 1.0869896 1.9345866 -0.071141824 4.9575086 0.0019341748 -0.09097912
00000000: d669 3b3d 83c3 01ba cb09 ee3f 03fb c1bf
00000010: 3787 84bc 697d 6bbc 05ff 17be 3d89 c4bf
00000020: 1062 c93d a936 9ebd a8fe 773d 6bf3 9b3c
00000030: 29e9 60bb 058d dcbf 6533 95bf 8c70 a5bf
00000040: 90fe f43f cc48 0c3f f5be 2cbd 5199 2d3e
00000050: c235 8dc0 1538 8b3e c560 debf 96af 133d
00000060: 4ddd c3bf 74b5 d0bf 3c1b b7bf 67f3 883f
00000070: b614 b6c0 fa40 853f 0d38 dcbf c75e b9bc
00000080: 9b9b d83c 6e7a 2e40 7a22 8b3f 89a0 f73f
00000090: ceb2 91bd e9a3 9e40 2384 fd3a 4353 babd

0.weight f4 [40, 1]
0.22703461 -0.07214652 2.152383 -1.8947945 0.38800094 -0.24858768 -0.07096304 -2.0416284
0.2169333 -0.18668787 0.58579427 0.049079794 -0.20311993 -2.8525832 -1.6405965 -2.4533238
1.7653236 0.86039454 -0.10286731 0.4926709 1.4750658 0.5385186 -2.7778199 -0.2619124
-1.6896324 -1.6206527 -2.514761 -4.0324326 1.6392745 1.4278336 -1.7169207 0.10197741
-0.09316966 -5.378808 -2.9487288 -2.1215868 0.59847593 -3.3552928 0.7216712 -0.07646855
00000000: c37b 683e 8ec1 93bd a5c0 0940 a088 f2bf
00000010: 0fa8 c63e c58d 7ebe 1255 91bd 0aaa 02c0
00000020: c323 5e3e 1b2b 3fbe 9df6 153f e507 493d
00000030: acfe 4fbe b990 36c0 11ff d1bf 4203 1dc0
00000040: 20f6 e13f d142 5c3f 19ac d2bd 5c3f fc3e
00000050: f5ce bc3f 5bdc 093f cdc7 31c0 6219 86be
00000060: e045 d8bf 8c71 cfbf d8f1 20c0 b009 81c0
00000070: bfd3 d13f 40c3 b63f 0fc4 dbbf 88d9 d03d
00000080: bccf bebd 321f acc0 f9b7 3cc0 14c8 07c0
00000090: b835 193f 1ebd 56c0 72bf 383f 8b9b 9cbd

0.bias f4 [40]
-0.28925148 -0.07234174 -1.2993745 0.7531573 -0.49475482 -0.08998773 -0.18231736 0.82818884
-0.29100338 -0.12945496 -0.66437435 -0.062237263 -0.109567516 0.85946584 0.6501982 0.7351429
-1.0652806 -0.9860205 -0.12692694 -0.6070311 -1.0788234 -0.6285236 0.83703864 -0.020204194
1.1775371 1.1290237 0.75299376 0.36784646 -1.304507 -0.8675322 1.2001559 -0.3032014
-0.14250186 0.54886806 0.5899368 1.8976334 -0.7953162 1.6861768 -0.9471071 -0.16308314
00000000: c518 94be e827 94bd e751 a6bf ebce 403f
00000010: 8150 fdbe 7d4b b8bd 67b1 3abe 2f04 543f
00000020: 65fe 94be d78f 04be 7014 2abf 80ec 7ebd
00000030: ef64 e0bd f405 5c3f 6473 263f 5332 3c3f
00000040: 1d5b 88bf d76b 7cbf 23f9 01be 6466 1bbf
00000050: e316 8abf ece6 20bf 2a48 563f 4483 a5bc
00000060: 89b9 963f d983 903f 33c4 403f 5f56 bc3e
00000070: 16fa a6bf 9716 5ebf b59e 993f 373d 9bbe
00000080: 02ec 11be 9e82 0c3f 1906 173f a7e5 f23f
00000090: d899 4bbf a4d4 d73f 9c75 72bf 44ff 26be

2.weight f4 [1, 40]
0.04575523 -0.0004950093 2.0374324 -1.4606963 0.12351027 -0.014373162 -0.14843376 -1.4950967
0.09833157 -0.07725269 0.099246256 0.01903697 -0.0034318662 -1.7469214 -1.0880159 -1.2923248
2.0065103 0.5479858 -0.0421743 0.16953017 -3.7222953 0.27191225 -1.7574098 0.036056124
-1.6489152 -1.7436243 -1.4343647 0.8572954 -5.943404 1.0245806 -1.8419387 -0.022628201
0.026441386 2.6612558 1.2571222 2.5702739 -0.071141824 4.825528 0.0019341748 -0.09097912
00000000: d669 3b3d 83c3 01ba 4b65 0240 19f8 babf
00000010: f4f2 fc3d 697d 6bbc 05ff 17be 545f bfbf
00000020: 1062 c93d a936 9ebd 9f41 cb3d 6bf3 9b3c
00000030: 29e9 60bb 1f9b dfbf 1b44 8bbf e66a a5bf
00000040: aa6a 0040 cc48 0c3f f5be 2cbd 5199 2d3e
00000050: 163a 6ec0 1538 8b3e cef2 e0bf 96af 133d
00000060: a70f d3bf 152f dfbf 4399 b7bf b677 5b3f
00000070: 5e30 bec0 7525 833f a6c4 ebbf c75e b9bc
00000080: 9b9b d83c 0452 2a40 61e9 a03f 5e7f 2440
00000090: ceb2 91bd ba6a 9a40 2384 fd3a 4353 babd

0.weight f4 [40, 1]
0.22703461 -0.07214652 2.2402415 -1.9552859 0.38800094 -0.24858768 -0.07096304 -2.1035016
0.2169333 -0.18668787 0.58579427 0.049079794 -0.20311993 -2.9203072 -1.6859856 -2.5160034
1.8504975 0.86039454 -0.10286731 0.4926709 1.4702207 0.5385186 -2.8458936 -0.2619124
-1.7786523 -1.7110789 -2.5684345 -4.179572 1.7290534 1.4964424 -1.8134333 0.10197741
-0.09316966 -5.628017 -3.0443034 -2.3071017 0.59847593 -3.3110394 0.7216712 -0.07646855
00000000: c37b 683e 8ec1 93bd 1e60 0f40 cf46 fabf
00000010: 0fa8 c63e c58d 7ebe 1255 91bd c59f 06c0
00000020: c323 5e3e 1b2b 3fbe 9df6 153f e507 493d
00000030: acfe 4fbe 50e6 3ac0 60ce d7bf 3306 21c0
00000040: 1add ec3f d142 5c3f 19ac d2bd 5c3f fc3e
00000050: 3130 bc3f 5bdc 093f 1f23 36c0 6219 86be
00000060: e1aa e3bf a204 dbbf 3b61 24c0 0ebf 85c0
00000070: 9f51 dd3f 6d8b bf3f 951e e8bf 88d9 d03d
00000080: bccf bebd b718 b4c0 ded5 42c0 8ea7 13c0
00000090: b835 193f 12e8 53c0 72bf 383f 8b9b 9cbd

0.bias f4 [40]
-0.28925148 -0.07234174 -1.3419341 0.7725476 -0.49475482 -0.08998773 -0.18231736 0.84822196
-0.29100338 -0.12945496 -0.66437435 -0.062237263 -0.109567516 0.8811385 0.66410327 0.7493595
-1.1088403 -0.9860205 -0.12692694 -0.6070311 -1.0708799 -0.6285236 0.85863864 -0.020204194
1.2431872 1.1952231 0.7746077 0.36241582 -1.3837563 -0.911535 1.2649212 -0.3032014
-0.14250186 0.57582057 0.6143344 2.078991 -0.7953162 1.663776 -0.9471071 -0.16308314
00000000: c518 94be e827 94bd 7fc4 abbf aec5 453f
00000010: 8150 fdbe 7d4b b8bd 67b1 3abe 1325 593f
00000020: 65fe 94be d78f 04be 7014 2abf 80ec 7ebd
00000030: ef64 e0bd 4b92 613f ac02 2a3f 06d6 3f3f
00000040: 7bee 8dbf d76b 7cbf 23f9 01be 6466 1bbf
00000050: 9812 89bf ece6 20bf becf 5b3f 4483 a5bc
00000060: c220 9f3f 12fd 983f b14c 463f 918e b93e
00000070: ed1e b1bf 5c5a 69bf f0e8 a13f 373d 9bbe
00000080: 02ec 11be fa68 133f 0545 1d3f 300e 0540
00000090: d899 4bbf 9df6 d43f 9c75 72bf 44ff 26be

2.weight f4 [1, 40]
0.04575523 -0.0004950093 2.1379282 -1.4206064 0.12351027 -0.014373162 -0.14843376 -1.4684068
0.09833157 -0.07725269 0.099246256 0.01903697 -0.0034318662 -1.7261175 -1.0243905 -1.2476043
2.0378036 0.5479858 -0.0421743 0.16953017 -2.9502554 0.27191225 -1.732648 0.036056124
-1.7177496 -1.8072888 -1.3937231 0.67237604 -6.2576365 0.9670094 -1.9131829 -0.022628201
0.026441386 2.6233227 1.1983695 2.9242141 -0.071141824 4.7103004 0.0019341748 -0.09097912
00000000: d669 3b3d 83c3 01ba d1d3 0840 6ed6 b5bf
00000010: f4f2 fc3d 697d 6bbc 05ff 17be c1f4 bbbf
00000020: 1062 c93d a936 9ebd 9f41 cb3d 6bf3 9b3c
00000030: 29e9 60bb 6bf1 dcbf 3a1f 83bf 7fb1 9fbf
00000040: 606b 0240 cc48 0c3f f5be 2cbd 5199 2d3e
00000050: fcd0 3cc0 1538 8b3e 69c7 ddbf 96af 133d
00000060: 38df dbbf 3d55 e7bf 8565 b2bf d620 2c3f
00000070: 8f3e c8c0 ee8d 773f 2de3 f4bf c75e b9bc
00000080: 9b9b d83c 85e4 2740 2c64 993f 5326 3b40
00000090: ceb2 91bd c8ba 9640 2384 fd3a 4353 babd

0.weight f4 [40, 1]
0.22703461 -0.07214652 2.3052444 -1.9933516 0.38800094 -0.24858768 -0.07096304 -2.1467469
0.2169333 -0.18668787 0.58579427 0.049079794 -0.20311993 -2.9811983 -1.7085708 -2.5518913
1.9127977 0.86039454 -0.10286731 0.4926709 1.4548435 0.5385186 -2.9069102 -0.2619124
-1.8509935 -1.7828246 -2.6299365 -4.298844 1.803895 1.5521557 -1.8851647 0.10197741
-0.09316966 -5.9085274 -3.1792164 -2.432717 0.59847593 -3.3011427 0.7216712 -0.07646855
00000000: c37b 683e 8ec1 93bd 2089 1340 2526 ffbf
00000010: 0fa8 c63e c58d 7ebe 1255 91bd 4d64 09c0
00000020: c323 5e3e 1b2b 3fbe 9df6 153f e507 493d
00000030: acfe 4fbe f4cb 3ec0 73b2 dabf 3052 23c0
00000040: 8ed6 f43f d142 5c3f 19ac d2bd 5c3f fc3e
00000050: 5038 ba3f 5bdc 093f d10a 3ac0 6219 86be
00000060: 5bed ecbf 9933 e4bf e150 28c0 2190 89c0
00000070: 08e6 e63f 0aad c63f 144d f1bf 88d9 d03d
00000080: bccf bebd a812 bdc0 4878 4bc0 a3b1 1bc0
00000090: b835 193f ec45 53c0 72bf 383f 8b9b 9cbd

0.bias f4 [40]
-0.28925148 -0.07234174 -1.3781947 0.7948841 -0.49475482 -0.08998773 -0.18231736 0.869822
-0.29100338 -0.12945496 -0.66437435 -0.062237263 -0.109567516 0.895322 0.68141615 0.76553386
-1.146766 -0.9860205 -0.12692694 -0.6070311 -1.0555137 -0.6285236 0.87281436 -0.020204194
1.2887746 1.2418116 0.78287727 0.37717512 -1.4454979 -0.9395819 1.3128036 -0.3032014
-0.14250186 0.60528505 0.6244532 2.1959755 -0.7953162 1.6557401 -0.9471071 -0.16308314
00000000: c518 94be e827 94bd af68 b0bf 867d 4b3f
00000010: 8150 fdbe 7d4b b8bd 67b1 3abe a8ac 5e3f
00000020: 65fe 94be d78f 04be 7014 2abf 80ec 7ebd
00000030: ef64 e0bd d333 653f 4a71 2e3f 07fa 433f
00000040: 3ac9 92bf d76b 7cbf 23f9 01be 6466 1bbf
00000050: 131b 87bf ece6 20bf c370 5f3f 4483 a5bc
00000060: 91f6 a43f aff3 9e3f a56a 483f 191d c13e
00000070: 1306 b9bf 7088 70bf f309 a83f 373d 9bbe
00000080: 02ec 11be f6f3 1a3f 2adc 1f3f dd8a 0c40
00000090: d899 4bbf 4bef d33f 9c75 72bf 44ff 26be

2.weight f4 [1, 40]
0.04575523 -0.0004950093 2.2227633 -1.3844004 0.12351027 -0.014373162 -0.14843376 -1.4446622
0.09833157 -0.07725269 0.099246256 0.01903697 -0.0034318662 -1.7031882 -0.9668656 -1.203226
2.0711536 0.5479858 -0.0421743 0.16953017 -2.2298572 0.27191225 -1.7063712 0.036056124
-1.7653334 -1.851193 -1.3535241 0.56667495 -6.568253 0.9349676 -1.9627757 -0.022628201
0.026441386 2.6434176 1.1751786 3.1564171 -0.071141824 4.6406407 0.0019341748 -0.09097912
00000000: d669 3b3d 83c3 01ba c141 0e40 0834 b1bf
00000010: f4f2 fc3d 697d 6bbc 05ff 17be b1ea b8bf
00000020: 1062 c93d a936 9ebd 9f41 cb3d 6bf3 9b3c
00000030: 29e9 60bb 1202 dabf 8184 77bf 4f03 9abf
00000040: c88d 0440 cc48 0c3f f5be 2cbd 5199 2d3e
00000050: fbb5 0ec0 1538 8b3e 5f6a dabf 96af 133d
00000060: 72f6 e1bf e4f3 ecbf 4740 adbf 9c11 113f
00000070: 212f d2c0 095a 6f3f 3c3c fbbf c75e b9bc
00000080: 9b9b d83c c12d 2940 416c 963f bd02 4a40
00000090: ceb2 91bd 2180 9440 2384 fd3a 4353 babd

0.weight f4 [40, 1]
0.22703461 -0.07214652 2.3562508 -2.059007 0.38800094 -0.24858768 -0.07096304 -2.2068892
0.2169333 -0.18668787 0.58579427 0.049079794 -0.20311993 -3.03597 -1.7584227 -2.5955622
1.9593935 0.86039454 -0.10286731 0.4926709 1.4488212 0.5385186 -2.961592 -0.2619124
-1.9010085 -1.8374729 -2.6693594 -4.3389745 1.8692203 1.5901997 -1.9370813 0.10197741
-0.09316966 -6.1126304 -3.2417898 -2.5253115 0.59847593 -3.305663 0.7216712 -0.07646855
00000000: c37b 683e 8ec1 93bd d0cc 1640 c5c6 03c0
00000010: 0fa8 c63e c58d 7ebe 1255 91bd ac3d 0dc0
00000020: c323 5e3e 1b2b 3fbe 9df6 153f e507 493d
00000030: acfe 4fbe 554d 42c0 ff13 e1bf b11d 26c0
00000040: 68cd fa3f d142 5c3f 19ac d2bd 5c3f fc3e
00000050: f972 b93f 5bdc 093f b98a 3dc0 6219 86be
00000060: 3f54 f3bf 5032 ebbf c9d6 2ac0 e1d8 8ac0
00000070: 9c42 ef3f aa8b cb3f 48f2 f7bf 88d9 d03d
00000080: bccf bebd ab9a c3c0 7c79 4fc0 b49e 21c0
00000090: b835 193f fc8f 53c0 72bf 383f 8b9b 9cbd

0.bias f4 [40]
-0.28925148 -0.07234174 -1.4043691 0.8117493 -0.49475482 -0.08998773 -0.18231736 0.889863
-0.29100338 -0.12945496 -0.66437435 -0.062237263 -0.109567516 0.9147113 0.6914126 0.7800361
-1.1772466 -0.9860205 -0.12692694 -0.6070311 -1.0442996 -0.6285236 0.8922088 -0.020204194
1.3260148 1.2779704 0.8028943 0.3620534 -1.4938692 -0.9633874 1.3511575 -0.3032014
-0.14250186 0.6247319 0.6519354 2.270964 -0.7953162 1.65348 -0.9471071 -0.16308314
00000000: c518 94be e827 94bd 5ec2 b3bf cdce 4f3f
00000010: 8150 fdbe 7d4b b8bd 67b1 3abe 10ce 633f
00000020: 65fe 94be d78f 04be 7014 2abf 80ec 7ebd
00000030: ef64 e0bd 852a 6a3f 6b00 313f 72b0 473f
00000040: 04b0 96bf d76b 7cbf 23f9 01be 6466 1bbf
00000050: 9cab 85bf ece6 20bf cc67 643f 4483 a5bc
00000060: daba a93f 8994 a33f 7b8a 4d3f 105f b93e
00000070: 1b37 bfbf 8fa0 76bf bbf2 ac3f 373d 9bbe
00000080: 02ec 11be 6eee 1f3f 3de5 263f 7957 1140
00000090: d899 4bbf 3ca5 d33f 9c75 72bf 44ff 26be

2.weight f4 [1, 40]
0.04575523 -0.0004950093 2.2665594 -1.3594941 0.12351027 -0.014373162 -0.14843376 -1.4312297
0.09833157 -0.07725269 0.099246256 0.01903697 -0.0034318662 -1.6868515 -0.9195365 -1.165979
2.0709894 0.5479858 -0.0421743 0.16953017 -1.664099 0.27191225 -1.6867785 0.036056124
-1.7888131 -1.8711727 -1.3199235 0.39517972 -6.7998734 0.8789938 -1.9881302 -0.022628201
0.026441386 2.6108732 1.1340028 3.2929366 -0.071141824 4.5853405 0.0019341748 -0.09097912
00000000: d669 3b3d 83c3 01ba 4f0f 1140 e703 aebf
00000010: f4f2 fc3d 697d 6bbc 05ff 17be 8932 b7bf
00000020: 1062 c93d a936 9ebd 9f41 cb3d 6bf3 9b3c
00000030: 29e9 60bb c0ea d7bf be66 6bbf cd3e 95bf
00000040: 178b 0440 cc48 0c3f f5be 2cbd 5199 2d3e
00000050: 3201 d5bf 1538 8b3e 5ce8 d7bf 96af 133d
00000060: d4f7 e4bf 9682 efbf 41f3 a8bf ff54 ca3e
00000070: 9098 d9c0 bd05 613f 0d7b febf c75e b9bc
00000080: 9b9b d83c 8c18 2740 0127 913f 79bf 5240
00000090: ceb2 91bd 1cbb 9240 2384 fd3a 4353 babd

0.weight f4 [40, 1]
0.22703461 -0.07214652 2.407195 -2.0759366 0.38800094 -0.24858768 -0.07096304 -2.2710338
0.2169333 -0.18668787 0.58579427 0.049079794 -0.20311993 -3.098342 -1.7775111 -2.6415017
1.9995385 0.86039454 -0.10286731 0.4926709 1.4543487 0.5385186 -3.023956 -0.2619124
-1.9500268 -1.8865476 -2.7207758 -4.3529897 1.9218045 1.62115 -1.9900073 0.10197741
-0.09316966 -6.3442283 -3.3474376 -2.5845618 0.59847593 -3.328908 0.7216712 -0.07646855
00000000: c37b 683e 8ec1 93bd 7c0f 1a40 25dc 04c0
00000010: 0fa8 c63e c58d 7ebe 1255 91bd 9e58 11c0
00000020: c323 5e3e 1b2b 3fbe 9df6 153f e507 493d
00000030: acfe 4fbe 3c4b 46c0 7c85 e3bf 5d0e 29c0
00000040: e1f0 ff3f d142 5c3f 19ac d2bd 5c3f fc3e
00000050: 1928 ba3f 5bdc 093f 7f88 41c0 6219 86be
00000060: 7a9a f9bf 647a f1bf 3121 2ec0 b14b 8bc0
00000070: b1fd f53f d881 cf3f 8fb8 febf 88d9 d03d
00000080: bccf bebd eb03 cbc0 6b3c 56c0 7669 25c0
00000090: b835 193f d40c 55c0 72bf 383f 8b9b 9cbd

0.bias f4 [40]
-0.28925148 -0.07234174 -1.4241033 0.8389491 -0.49475482 -0.08998773 -0.18231736 0.8996405
-0.29100338 -0.12945496 -0.66437435 -0.062237263 -0.109567516 0.9299572 0.70352674 0.7920255
-1.2095953 -0.9860205 -0.12692694 -0.6070311 -1.0538108 -0.6285236 0.9074217 -0.020204194
1.365938 1.318675 0.8163702 0.3524246 -1.5409184 -0.9817348 1.3913826 -0.3032014
-0.14250186 0.6367389 0.6682445 2.3232155 -0.7953162 1.664165 -0.9471071 -0.16308314
00000000: c518 94be e827 94bd 0449 b6bf 5ec5 563f
00000010: 8150 fdbe 7d4b b8bd 67b1 3abe d74e 663f
00000020: 65fe 94be d78f 04be 7014 2abf 80ec 7ebd
00000030: ef64 e0bd ad11 6e3f 541a 343f 2fc2 4a3f
00000040: 05d4 9abf d76b 7cbf 23f9 01be 6466 1bbf
00000050: 46e3 86bf ece6 20bf ca4c 683f 4483 a5bc
00000060: 0ed7 ae3f 58ca a83f a3fd 503f ff70 b43e
00000070: d03c c5bf f952 7bbf d318 b23f 373d 9bbe
00000080: 02ec 11be 5201 233f 1212 2b3f 90af 1440
00000090: d899 4bbf 5c03 d53f 9c75 72bf 44ff 26be

2.weight f4 [1, 40]
0.04575523 -0.0004950093 2.2573657 -1.3270628 0.12351027 -0.014373162 -0.14843376 -1.4092462
0.09833157 -0.07725269 0.099246256 0.01903697 -0.0034318662 -1.6722034 -0.86454105 -1.1306577
2.007201 0.5479858 -0.0421743 0.16953017 -1.18547 0.27191225 -1.6690705 0.036056124
-1.8210974 -1.900394 -1.288583 0.27731642 -6.78753 0.7488539 -2.0221083 -0.022628201
0.026441386 2.5951936 1.1121897 3.3694303 -0.071141824 4.562681 0.0019341748 -0.09097912
00000000: d669 3b3d 83c3 01ba ae78 1040 32dd a9bf
00000010: f4f2 fc3d 697d 6bbc 05ff 17be 2e62 b4bf
00000020: 1062 c93d a936 9ebd 9f41 cb3d 6bf3 9b3c
00000030: 29e9 60bb c30a d6bf 9052 5dbf 64b9 90bf
00000040: fb75 0040 cc48 0c3f f5be 2cbd 5199 2d3e
00000050: 7bbd 97bf 1538 8b3e 1aa4 d5bf 96af 133d
00000060: b819 e9bf 1c40 f3bf 4af0 a4bf 6bfc 8d3e
00000070: 7233 d9c0 e4b4 3f3f 396a 01c0 c75e b9bc
00000080: 9b9b d83c a717 2640 3b5c 8e3f bfa4 5740
00000090: ceb2 91bd 7c01 9240 2384 fd3a 4353 babd

0.weight f4 [40, 1]
0.22703461 -0.07214652 2.4448955 -2.1449988 0.38800094 -0.24858768 -0.07096304 -2.3239636
0.2169333 -0.18668787 0.58579427 0.049079794 -0.20311993 -3.1576142 -1.7873497 -2.6886592
2.0420587 0.86039454 -0.10286731 0.4926709 1.4578701 0.5385186 -3.0717175 -0.2619124
-1.9918507 -1.926718 -2.760048 -4.4329605 1.9704446 1.646658 -2.0308175 0.10197741
-0.09316966 -6.5665803 -3.429344 -2.6220713 0.59847593 -3.3324952 0.7216712 -0.07646855
00000000: c37b 683e 8ec1 93bd 2b79 1c40 a947 09c0
00000010: 0fa8 c63e c58d 7ebe 1255 91bd d2bb 14c0
00000020: c323 5e3e 1b2b 3fbe 9df6 153f e507 493d
00000030: acfe 4fbe 5a16 4ac0 e0c7 e4bf fe12 2cc0
00000040: 17b1 0240 d142 5c3f 19ac d2bd 5c3f fc3e
00000050: 7d9b ba3f 5bdc 093f 0597 44c0 6219 86be
00000060: f7f4 febf b29e f6bf a0a4 30c0 d0da 8dc0
00000070: 8737 fc3f b0c5 d23f eaf8 01c0 88d9 d03d
00000080: bccf bebd 6d21 d2c0 5f7a 5bc0 04d0 27c0
00000090: b835 193f 9a47 55c0 72bf 383f 8b9b 9cbd

0.bias f4 [40]
-0.28925148 -0.07234174 -1.4526924 0.85209996 -0.49475482 -0.08998773 -0.18231736 0.920033
-0.29100338 -0.12945496 -0.66437435 -0.062237263 -0.109567516 0.9461259 0.71983844 0.8001759
-1.2291844 -0.9860205 -0.12692694 -0.6070311 -1.0846153 -0.6285236 0.92841345 -0.020204194
1.3908719 1.3451773 0.8329165 0.26442248 -1.5772187 -0.99502105 1.418782 -0.3032014
-0.14250186 0.6644895 0.6871044 2.354858 -0.7953162 1.6727147 -0.9471071 -0.16308314
00000000: c518 94be e827 94bd d3f1 b9bf 3923 5a3f
00000010: 8150 fdbe 7d4b b8bd 67b1 3abe 4887 6b3f
00000020: 65fe 94be d78f 04be 7014 2abf 80ec 7ebd
00000030: ef64 e0bd 4f35 723f 5547 383f 54d8 4c3f
00000040: ea55 9dbf d76b 7cbf 23f9 01be 6466 1bbf
00000050: add4 8abf ece6 20bf 81ac 6d3f 4483 a5bc
00000060: 1708 b23f c52e ac3f 043a 553f 6262 873e
00000070: 4de2 c9bf b3b9 7ebf a69a b53f 373d 9bbe
00000080: 02ec 11be fc1b 2a3f 13e6 2f3f feb5 1640
00000090: d899 4bbf 841b d63f 9c75 72bf 44ff 26be

2.weight f4 [1, 40]
0.04575523 -0.0004950093 2.2446597 -1.2994955 0.12351027 -0.014373162 -0.14843376 -1.3910484
0.09833157 -0.07725269 0.099246256 0.01903697 -0.0034318662 -1.6495734 -0.8103975 -1.0847772
1.9450613 0.5479858 -0.0421743 0.16953017 -0.8681645 0.27191225 -1.6432427 0.036056124
-1.8215983 -1.8975787 -1.2478194 0.18885592 -6.7405353 0.6270271 -2.0243852 -0.022628201
0.026441386 2.6024907 1.0666183 3.3973093 -0.071141824 4.522597 0.0019341748 -0.09097912
00000000: d669 3b3d 83c3 01ba 81a8 0f40 de55 a6bf
00000010: f4f2 fc3d 697d 6bbc 05ff 17be e00d b2bf
00000020: 1062 c93d a936 9ebd 9f41 cb3d 6bf3 9b3c
00000030: 29e9 60bb 3925 d3bf 3676 4fbf fbd9 8abf
00000040: c5f7 f83f cc48 0c3f f5be 2cbd 5199 2d3e
00000050: 0740 5ebf 1538 8b3e c755 d2bf 96af 133d
00000060: 222a e9bf dce3 f2bf 8cb8 9fbf 7263 413e
00000070: 77b2 d7c0 d984 203f 878f 01c0 c75e b9bc
00000080: 9b9b d83c 358f 2640 f386 883f 846d 5940
00000090: ceb2 91bd 1db9 9040 2384 fd3a 4353 babd

0.weight f4 [40, 1]
0.22703461 -0.07214652 2.4866314 -2.190671 0.38800094 -0.24858768 -0.07096304 -2.3446057
0.2169333 -0.18668787 0.58579427 0.049079794 -0.20311993 -3.1942782 -1.8279909 -2.7252078
2.0778763 0.86039454 -0.10286731 0.4926709 1.4991486 0.5385186 -3.1333065 -0.2619124
-2.0186927 -1.9542115 -2.8136165 -4.4895535 2.0109434 1.6697633 -2.0596397 0.10197741
-0.09316966 -6.739941 -3.5262065 -2.6491566 0.59847593 -3.3664296 0.7216712 -0.07646855
00000000: c37b 683e 8ec1 93bd f824 1f40 f433 0cc0
00000010: 0fa8 c63e c58d 7ebe 1255 91bd 050e 16c0
00000020: c323 5e3e 1b2b 3fbe 9df6 153f e507 493d
00000030: acfe 4fbe 0e6f 4cc0 9bfb e9bf ce69 2ec0
00000040: edfb 0440 d142 5c3f 19ac d2bd 5c3f fc3e
00000050: 1ae4 bf3f 5bdc 093f 1888 48c0 6219 86be
00000060: 4332 01c0 9a23 fabf 4b12 34c0 6caa 8fc0
00000070: 4cb3 0040 ceba d53f 23d1 03c0 88d9 d03d
00000080: bccf bebd 99ad d7c0 5ead 61c0 c88b 29c0
00000090: b835 193f 9573 57c0 72bf 383f 8b9b 9cbd

0.bias f4 [40]
-0.28925148 -0.07234174 -1.4777724 0.86712515 -0.49475482 -0.08998773 -0.18231736 0.947242
-0.29100338 -0.12945496 -0.66437435 -0.062237263 -0.109567516 0.9684735 0.72292465 0.81257373
-1.260162 -0.9860205 -0.12692694 -0.6070311 -1.0749793 -0.6285236 0.9399528 -0.020204194
1.4127866 1.3674005 0.8418721 0.20025678 -1.6113284 -1.0138412 1.4414417 -0.3032014
-0.14250186 0.681811 0.6978101 2.3865619 -0.7953162 1.6864132 -0.9471071 -0.16308314
00000000: c518 94be e827 94bd a527 bdbf eafb 5d3f
00000010: 8150 fdbe 7d4b b8bd 67b1 3abe 747e 723f
00000020: 65fe 94be d78f 04be 7014 2abf 80ec 7ebd
00000030: ef64 e0bd e1ed 773f 9711 393f d504 503f
00000040: fd4c a1bf d76b 7cbf 23f9 01be 6466 1bbf
00000050: ec98 89bf ece6 20bf bfa0 703f 4483 a5bc
00000060: 31d6 b43f fb06 af3f ee84 573f 1d10 4d3e
00000070: 0240 cebf 8cc5 81bf 2981 b83f 373d 9bbe
00000080: 02ec 11be 2a8b 2e3f afa3 323f 6ebd 1840
00000090: d899 4bbf 63dc d73f 9c75 72bf 44ff 26be

2.weight f4 [1, 40]
0.04575523 -0.0004950093 2.2836864 -1.2877696 0.12351027 -0.014373162 -0.14843376 -1.3865862
0.09833157 -0.07725269 0.099246256 0.01903697 -0.0034318662 -1.6477172 -0.780134 -1.0659951
1.9478266 0.5479858 -0.0421743 0.16953017 -0.7029469 0.27191225 -1.6390891 0.036056124
-1.8237162 -1.8972417 -1.2324662 0.11645599 -6.7584057 0.58409446 -2.027874 -0.022628201
0.026441386 2.5954797 1.0663046 3.4306207 -0.071141824 4.5200844 0.0019341748 -0.09097912
00000000: d669 3b3d 83c3 01ba eb27 1240 a2d5 a4bf
00000010: f4f2 fc3d 697d 6bbc 05ff 17be a87b b1bf
00000020: 1062 c93d a936 9ebd 9f41 cb3d 6bf3 9b3c
00000030: 29e9 60bb 66e8 d2bf ddb6 47bf 8772 88bf
00000040: 6252 f93f cc48 0c3f f5be 2cbd 5199 2d3e
00000050: 54f4 33bf 1538 8b3e accd d1bf 96af 133d
00000060: 886f e9bf d1d8 f2bf 74c1 9dbf 7a80 ee3d
00000070: dc44 d8c0 3787 153f b0c8 01c0 c75e b9bc
00000080: 9b9b d83c 571c 2640 ab7c 883f 4a8f 5b40
00000090: ceb2 91bd 88a4 9040 2384 fd3a 4353 babd
