q_relu_optim/ckpts/sgd/width20/seed274/ckpt_and_history.pt (torch, 15999 bytes, 33 tensors)

0.weight f4 [20, 1]
000000 2d 4b 67 3a 64 c9 0b 3f 56 2f b1 bd 85 a2 83 be
       0.0008823153 0.5460417 -0.08651607 -0.2570993
000010 93 0f 96 3e c7 9a e8 be 6a b0 f5 3e 9b 5d 25 3f
       0.29308757 -0.45430586 0.47986156 0.64595956
000020 7e 4e 91 bc e4 c8 a3 3c 00 19 16 3f 87 1d 66 bf
       -0.017737623 0.019993253 0.58631897 -0.89888805
000030 d2 12 7b bf de a3 22 3f 4b 9b b6 3e 59 e5 56 3f
       -0.9807559 0.6353129 0.35665354 0.83943707
000040 97 1b 5a bf c6 9f 06 3f 8f 6a 20 3f 88 b6 4f 3e
       -0.8519835 0.52587545 0.62662596 0.20284474

0.bias f4 [20]
000000 23 02 2b b9 50 6e 1e bc 03 9e 4c 3c 29 7a 46 3d
       -0.00016308627 -0.009669855 0.012488845 0.048456345
000010 f1 96 9f bd 3a 95 6f 3e 30 fa 7d be 9d 13 b7 be
       -0.07792462 0.23396769 -0.2480247 -0.3575715
000020 37 47 26 3c 22 05 67 bc 7d dc d9 be e2 bf 29 3f
       0.010148815 -0.014100345 -0.42551032 0.66308415
000030 3c 75 42 3f 98 cc 00 bf c6 04 9a be ba a3 39 bf
       0.75960135 -0.50312185 -0.30081767 -0.7251545
000040 16 a0 40 3f 80 5c f9 be 49 13 15 bf ef 69 47 be
       0.7524427 -0.48703384 -0.5823255 -0.19474004

2.weight f4 [1, 20]
000000 4f 5c 78 3d 0c 9e 16 bd 64 18 35 be 87 cd a8 bd
       0.060634907 -0.03677182 -0.17685086 -0.08242326
000010 db df 82 3d 7b 69 1d 3e e2 bb fb 3d b8 f3 0f be
       0.06390353 0.15372269 0.12291695 -0.14057815
000020 b9 84 f7 3d 13 94 f7 3d 10 9e a6 bd 5b 5d 53 bd
       0.12085862 0.1208879 -0.08135617 -0.051602703
000030 e5 19 81 bd 53 5b 51 be 19 16 8f bd 46 25 8f 3d
       -0.06303767 -0.20444994 -0.06986637 0.06989531
000040 d4 09 03 3e 0e 13 30 be 00 c8 56 be a7 fb f3 bd
       0.12796718 -0.17194769 -0.20974731 -0.11913233

0.weight f4 [20, 1]
000000 de bd cb 39 bd 02 0b 3f 58 2e 92 be 59 13 da be
       0.0003886064 0.54301053 -0.28550982 -0.42592886
000010 56 5b 9e 3e e3 ca f1 be d1 db f5 3e be 70 86 3f
       0.3092906 -0.47225103 0.4801927 1.0503156
000020 42 75 e1 bc b2 ab 07 3d fd 6a 42 3f 31 85 85 bf
       -0.027521733 0.033122726 0.759445 -1.0431272
000030 4a 8c 94 bf 70 26 6a 3f 65 23 fe 3e 3e cc 48 3f
       -1.1605313 0.914649 0.4963638 0.7843665
000040 aa 69 48 bf 8d 09 4b 3f d1 e9 72 3f 0a 1d ae 3e
       -0.7828623 0.7931145 0.94888026 0.3400653

0.bias f4 [20]
000000 9d ab 1d ba cc c4 ac bc bc 8e ad 3d 48 95 01 3e
       -0.0006014647 -0.021089934 0.0847449 0.12654603
000010 87 06 ed bc d4 2f 88 3e fb ce 89 be d7 91 a2 be
       -0.028933777 0.2659899 -0.26915726 -0.31751892
000020 5d cc 31 3b 7c 64 9c bc d5 42 15 bf 9c 07 4b 3f
       0.0027129867 -0.019090883 -0.583051 0.79308486
000030 db f3 61 3f b1 a9 33 bf 73 27 c3 be 6e 43 48 bf
       0.8826272 -0.70180804 -0.38116035 -0.7822789
000040 14 95 60 3f d1 da 1b bf a7 76 3a bf 1f 8f 85 be
       0.87727475 -0.6088076 -0.728373 -0.26085755

2.weight f4 [1, 20]
000000 75 51 78 3d 4e 00 10 3d 99 23 ab be 5f 51 bc be
       0.06062456 0.03515654 -0.33425596 -0.3678083
000010 fa 68 c3 3d b0 b7 72 3e be 30 26 3e 41 c3 51 bf
       0.09541507 0.23702884 0.16229531 -0.8193856
000020 0d 45 fa 3d 71 6c fb 3d f8 51 21 bf a3 1f 2f bf
       0.12220202 0.12276543 -0.630157 -0.6840765
000030 f2 eb 43 bf 9d e3 57 bf 25 20 d8 be cb 01 22 3d
       -0.765319 -0.84331685 -0.42212024 0.03955249
000040 d2 7b ab 3e e9 6c 37 bf 64 3a 5c bf 9d 0e b0 be
       0.33492905 -0.7165056 -0.860266 -0.3438615

0.weight f4 [20, 1]
000000 de bd cb 39 9b 7f 11 3f 78 ba db be b3 99 17 bf
       0.0003886064 0.56835335 -0.42915702 -0.592189
000010 34 e8 b1 3e a9 ae 46 bf 57 9d 3b 3f a3 8e ad 3f
       0.3474747 -0.7761026 0.73286957 1.3559154
000020 aa 40 4d bd 4e 38 05 3e 3c 71 60 3f bf fc 91 bf
       -0.050110497 0.1300976 0.8767278 -1.1405257
000030 22 84 a2 bf 1d 07 89 3f aa 38 13 3f 3e cc 48 3f
       -1.2696574 1.0705296 0.5750834 0.7843665
000040 1c 4e 3c bf 47 09 6d 3f 5b db 8d 3f 5e 8e ce 3e
       -0.73556685 0.9259228 1.1082567 0.40342993

0.bias f4 [20]
000000 9d ab 1d ba cf a4 75 bd ab c7 f6 3d b9 76 2a 3e
       -0.0006014647 -0.059971627 0.120498024 0.16646852
000010 f7 0d 17 bd a0 92 e0 3e dc 7c d3 be ae a4 c8 be
       -0.036878552 0.43861866 -0.41306198 -0.3918814
000020 75 df bf 3b 8f 73 97 bd 28 bb 32 bf 58 5e 65 3f
       0.0058554956 -0.07395088 -0.6981683 0.8959708
000030 37 50 7f 3f a4 28 5a bf 06 38 ea be 6e 43 48 bf
       0.99731773 -0.8521826 -0.45745867 -0.7822789
000040 77 96 75 3f 29 a5 3c bf 84 d0 61 bf 7e 3f a4 be
       0.95932716 -0.73689514 -0.88208795 -0.3207969

2.weight f4 [1, 20]
000000 75 51 78 3d 08 40 3c 3e 92 6d f0 be 08 99 0f bf
       0.06062456 0.18383801 -0.46958596 -0.5609288
000010 b3 69 3e 3e d2 5a 3e 3f 86 91 27 3f 87 2c 99 bf
       0.18595009 0.7435733 0.65456426 -1.1966714
000020 40 3b 04 3e dc 38 41 3e 3f 71 5b bf 5c 56 6a bf
       0.12913227 0.18869346 -0.85719675 -0.91538024
000030 08 e7 82 bf bc 2f 8f bf fb 1c 12 bf cb 01 22 3d
       -1.0226755 -1.1186442 -0.5707547 0.03955249
000040 ae 83 e2 3e 22 77 74 bf 08 a3 92 bf b7 d2 e4 be
       0.4424109 -0.9549428 -1.1456003 -0.44692013

0.weight f4 [20, 1]
000000 de bd cb 39 e0 45 27 3f 7e 69 1a bf e9 dc 4d bf
       0.0003886064 0.65340996 -0.6031722 -0.8041521
000010 3f 78 d8 3e 83 dd ae bf dd 5a aa 3f 02 00 d6 3f
       0.4227924 -1.366135 1.3308979 1.6718752
000020 71 63 9f bd 1a fa 90 3e dd 47 7c 3f 7c 09 a5 bf
       -0.07782639 0.28315812 0.98547155 -1.2893519
000030 ec c7 b7 bf e3 08 9b 3f 7e ae 25 3f 3e cc 48 3f
       -1.4357886 1.2112087 0.6471938 0.7843665
000040 78 3d 2f bf 9f e5 85 3f 7e 4f a0 3f 24 18 eb 3e
       -0.6845317 1.04607 1.2524259 0.45916855

0.bias f4 [20]
000000 9d ab 1d ba 1c a9 8e bd ee 4b 3f 3e 46 28 7e 3e
       -0.0006014647 -0.06965849 0.18681309 0.2482005
000010 ac 12 38 bd 59 d4 40 3f 2e 4b 3e bf bd 42 04 bf
       -0.044939682 0.75324017 -0.74333465 -0.51664335
000020 49 8a 00 3c 54 dd 21 be 62 b0 46 bf c0 83 80 3f
       0.00784547 -0.15807086 -0.7761289 1.0040207
000030 ce 1c 8f 3f fa 34 74 bf c9 71 02 bf 6e 43 48 bf
       1.1180665 -0.95393336 -0.5095487 -0.7822789
000040 72 43 7e 3f 86 ed 52 bf 44 85 7c bf e1 1a b9 be
       0.99321663 -0.8239368 -0.9864085 -0.3615332

2.weight f4 [1, 20]
000000 75 51 78 3d 44 5d be 3e f5 92 25 bf 40 ff 4c bf
       0.06062456 0.3718053 -0.64677364 -0.8007698
000010 66 65 9b 3e 3e 90 bc 3f f9 63 b6 3f fd cf c8 bf
       0.30350798 1.4731519 1.4249259 -1.5688473
000020 5b 89 11 3e a9 77 af 3e 4c 32 83 bf 68 52 96 bf
       0.14212553 0.3427098 -1.0249724 -1.1743898
000030 e3 ce a7 bf 5f 7d a9 bf 81 4b 2e bf cb 01 22 3d
       -1.3110012 -1.3241385 -0.6808396 0.03955249
000040 3c 31 e2 3e 3d f7 90 bf cb d9 ad bf 1c 4a 06 bf
       0.44178188 -1.1325451 -1.358209 -0.5245683

0.weight f4 [20, 1]
000000 de bd cb 39 8c 86 50 3f 56 ff 5a bf 44 52 8f bf
       0.0003886064 0.814553 -0.8554586 -1.119698
000010 92 60 0c 3f b9 14 f2 bf 93 f1 fa 3f c9 91 06 40
       0.54834855 -1.8912574 1.9604973 2.102648
000020 fd 48 e3 bd 1e eb dc 3e 17 3d 8c 3f 1f e2 bb bf
       -0.11097906 0.4314813 1.0956143 -1.4678382
000030 4b 46 d1 bf cb 23 ad 3f a0 5e 38 3f 3e cc 48 3f
       -1.6349577 1.3526548 0.72019386 0.7843665
000040 d2 83 21 bf 24 67 95 3f 6d e7 b2 3f 02 ce 03 3f
       -0.63091767 1.1672101 1.3976876 0.5148622

0.bias f4 [20]
000000 9d ab 1d ba 49 6f bd bd ec 4c 89 3e c6 93 b3 3e
       -0.0006014647 -0.092497416 0.268165 0.3507368
000010 e9 e1 7e bd 4f eb 87 3f 74 b8 8c bf cb 2c 2a bf
       -0.062227163 1.0618685 -1.0993791 -0.664746
000020 08 b5 51 3c 35 d6 77 be 9b 6f 58 bf b2 8d 8d 3f
       0.012799509 -0.24202807 -0.84545296 1.1058867
000030 d6 ab 9d 3f e9 97 85 bf 15 42 0e bf 6e 43 48 bf
       1.2318065 -1.0436984 -0.55569583 -0.7822789
000040 1d d2 83 3f f5 90 66 bf d2 08 8a bf 69 62 cb be
       1.0298496 -0.90064937 -1.0783942 -0.39723518

2.weight f4 [1, 20]
000000 75 51 78 3d 3e c3 1c 3f b5 a1 67 bf ff 13 92 bf
       0.06062456 0.61235416 -0.9048112 -1.1412352
000010 ae 95 ec 3e 7c 2f 06 40 00 39 0b 40 ab 6d 03 c0
       0.46207947 2.0966482 2.175354 -2.0535686
000020 28 ae 26 3e 8c 6a 01 3f b7 e8 96 bf b5 95 b7 bf
       0.16277373 0.505532 -1.1789769 -1.4342562
000030 b0 d9 cc bf bb c4 c1 bf 0f 32 48 bf cb 01 22 3d
       -1.6003933 -1.5138162 -0.78201383 0.03955249
000040 08 15 e8 3e 1c ed a5 bf 7b f2 c6 bf 12 bb 18 bf
       0.45328546 -1.2962985 -1.5542749 -0.59660447

0.weight f4 [20, 1]
000000 de bd cb 39 f0 42 86 3f ee ba 85 bf 38 f7 ad bf
       0.0003886064 1.0489178 -1.0447671 -1.359107
000010 25 d8 38 3f b0 2c 10 c0 79 2a 17 40 d0 f0 1e 40
       0.7220481 -2.2527275 2.3619673 2.483448
000020 b3 17 26 be 40 3b 06 3f 7b 86 97 3f 25 f8 c9 bf
       -0.16219978 0.5243416 1.1837915 -1.5778853
000030 e3 fc e0 bf 0b 97 bb 3f b1 51 47 3f 3e cc 48 3f
       -1.7577175 1.465547 0.77859026 0.7843665
000040 6a c4 1d bf 85 cb a1 3f 90 be c1 3f 4c 2d 0f 3f
       -0.6162783 1.2640234 1.513628 0.5592849

0.bias f4 [20]
000000 9d ab 1d ba 13 e1 09 be 65 1d b1 3e 6d 3d e6 3e
       -0.0006014647 -0.13464765 0.3459274 0.4496874
000010 6e 93 bd bd f2 17 a0 3f 9c 51 a8 bf c9 d6 51 bf
       -0.092566356 1.2507308 -1.3149905 -0.8196836
000020 63 24 ab 3c 27 75 95 be 61 6b 67 bf ea 52 97 3f
       0.020891374 -0.29190943 -0.9039822 1.1822178
000030 72 93 a8 3f 0a 37 8f bf a5 36 18 bf 6e 43 48 bf
       1.3169997 -1.1188672 -0.5945838 -0.7822789
000040 ce 71 85 3f e6 03 77 bf 96 ea 93 bf 11 87 da be
       1.0425355 -0.96490324 -1.1555965 -0.42681172

2.weight f4 [1, 20]
000000 75 51 78 3d 34 27 67 3f fe 4b 8d bf 05 55 b3 bf
       0.06062456 0.90294194 -1.1038816 -1.4010321
000010 25 f0 28 3f b8 55 20 40 1a de 28 40 a7 c5 1e c0
       0.6599143 2.5052319 2.638556 -2.4808137
000020 ef 6f 4e 3e e5 9f 1b 3f 55 71 a6 bf 6c 07 cc bf
       0.20159887 0.60790855 -1.3003336 -1.5939765
000030 e4 9e e3 bf 69 f7 d4 bf fb 9e 5c bf cb 01 22 3d
       -1.7782865 -1.6638004 -0.86180085 0.03955249
000040 c0 28 f0 3e 43 7d b6 bf dd c7 da bf 10 5c 27 bf
       0.4690609 -1.4256977 -1.7092243 -0.6537485

0.weight f4 [20, 1]
000000 de bd cb 39 1b 38 aa 3f ad f5 90 bf f3 32 bc bf
       0.0003886064 1.3298372 -1.1324974 -1.4703048
000010 d0 01 6d 3f ca 5d 21 c0 fd f8 24 40 d0 48 32 40
       0.9258089 -2.5213494 2.577697 2.7856941
000020 04 aa 71 be c7 f1 12 3f c7 33 9e 3f 78 28 d3 bf
       -0.23600012 0.5740017 1.2359551 -1.6496725
000030 31 3d eb bf 2f 20 c4 3f f5 2a 50 3f 3e cc 48 3f
       -1.8378049 1.5322322 0.8131555 0.7843665
000040 dc 46 25 bf 5e 1c a9 3f 9b 83 ca 3f 21 e1 15 3f
       -0.6456125 1.3211782 1.5821413 0.58546644

0.bias f4 [20]
000000 9d ab 1d ba 2a aa 3b be 61 b9 c7 3e 3f ab 01 3f
       -0.0006014647 -0.18326631 0.3900862 0.50651926
000010 4a b7 02 be 4a f9 ae 3f c4 95 b9 bf e9 1d 69 bf
       -0.12765232 1.3669827 -1.449883 -0.91061264
000020 25 5e 03 3d fa 4e a5 be c9 6b 72 bf 14 60 9a 3f
       0.032072205 -0.32286817 -0.9469572 1.2060571
000030 01 fb ab 3f 47 3f 96 bf fa 80 1f bf 6e 43 48 bf
       1.3435975 -1.1738061 -0.6230618 -0.7822789
000040 72 9c 80 3f dd 88 81 bf 2c 24 9b bf 09 92 e5 be
       1.0047743 -1.0119892 -1.2120414 -0.44837978

2.weight f4 [1, 20]
000000 75 51 78 3d 65 4d 9c 3f ed 3b 99 bf cf db c2 bf
       0.06062456 1.2211119 -1.1971413 -1.522333
000010 3d 55 61 3f 88 d9 32 40 7c 35 39 40 d0 8e 33 c0
       0.8802069 2.794527 2.8938894 -2.8055916
000020 b0 dc 87 3e 51 26 2a 3f a7 27 b0 bf c3 80 d6 bf
       0.2653556 0.66464716 -1.3762101 -1.6758045
000030 70 49 ef bf 3b fe e0 bf d0 65 69 bf cb 01 22 3d
       -1.8694286 -1.7577585 -0.9117098 0.03955249
000040 6e 40 dc 3e 5e dc c0 bf 93 33 e7 bf 36 8a 30 bf
       0.43017906 -1.5067251 -1.8062614 -0.68960893

0.weight f4 [20, 1]
000000 de bd cb 39 a3 97 d0 3f 99 0c 94 bf 68 20 c0 bf
       0.0003886064 1.6296276 -1.1566344 -1.500989
000010 e8 10 92 3f 24 f1 2e c0 f2 7c 2b 40 bd 37 42 40
       1.1411409 -2.733468 2.679501 3.034652
000020 01 d4 aa be 7d e2 18 3f f7 2b a3 3f 77 e0 d8 bf
       -0.3336487 0.59720594 1.2747792 -1.6943501
000030 3a 9e f1 bf 47 78 ca 3f 37 c0 56 3f 3e cc 48 3f
       -1.8876412 1.5817956 0.83887047 0.7843665
000040 ab c8 31 bf 8c 8c ae 3f a3 08 d1 3f c9 da 1a 3f
       -0.6944682 1.3636642 1.6330761 0.6049009

0.bias f4 [20]
000000 9d ab 1d ba 9e a9 67 be cf 19 d3 3e df e9 08 3f
       -0.0006014647 -0.22623298 0.41230628 0.5348186
000010 1a 3a 22 be 2f b2 b8 3f 44 0b c4 bf f4 f6 7e bf
       -0.15842476 1.4429377 -1.5315938 -0.9959557
000020 ae 94 38 3d c3 0e af be 34 6e 79 bf b2 9b 9c 3f
       0.045063667 -0.3419095 -0.9743378 1.2235014
000030 be 78 ae 3f 93 b8 9a bf 88 25 24 bf 6e 43 48 bf
       1.3630598 -1.2087578 -0.6411977 -0.7822789
000040 18 00 71 3f 9b 5e 85 bf 0a bd 9f bf 53 96 ec be
       0.9414077 -1.0419496 -1.2479565 -0.46208438

2.weight f4 [1, 20]
000000 75 51 78 3d e7 b2 c5 3f 2b ac 9c bf 41 55 c7 bf
       0.06062456 1.5445222 -1.2240041 -1.5572892
000010 5a 91 8d 3f f1 eb 40 40 2b 62 41 40 a8 c3 44 c0
       1.1059983 3.0144007 3.0216167 -3.074442
000020 a0 42 b6 3e e5 6d 31 3f 29 e1 b6 bf 48 0e dd bf
       0.35597706 0.6930831 -1.4287463 -1.7269983
000030 d1 95 f6 bf 5b 54 e9 bf 16 3f 72 bf cb 01 22 3d
       -1.926447 -1.8228868 -0.9462751 0.03955249
000040 2f 75 b9 3e 5a 0c c8 bf 0c cf ef bf c2 e8 36 bf
       0.36222216 -1.5628769 -1.8735061 -0.7144891

0.weight f4 [20, 1]
000000 de bd cb 39 a6 32 f5 3f 42 a1 93 bf fb 8f bf bf
       0.0003886064 1.9156082 -1.1533587 -1.4965814
000010 47 3b ac 3f 79 1b 3a c0 92 0e 2f 40 f7 3e 51 40
       1.345559 -2.9079268 2.7352643 3.269468
000020 f2 10 e7 be 92 20 1c 3f 6e 29 a6 3f db 10 dd bf
       -0.45130116 0.609872 1.2981393 -1.7270769
000030 27 4e f6 bf 84 48 ce 3f 01 b6 5a 3f 3e cc 48 3f
       -1.92426 1.611588 0.85433966 0.7843665
000040 6b 1f 3e bf 8d d1 b1 3f 1a f4 d4 3f f5 d7 1d 3f
       -0.7426669 1.3892075 1.6636994 0.6165765

0.bias f4 [20]
000000 9d ab 1d ba 31 75 85 be 68 df db 3e 29 a8 0e 3f
       -0.0006014647 -0.26065972 0.42943883 0.5572534
000010 de 76 3b be 6c 8f c1 3f 2f 79 c9 bf 3f 4c 89 bf
       -0.18307063 1.5121894 -1.5740107 -1.0726393
000020 8d ce 6f 3d 1c 25 b4 be b9 91 7e bf 39 05 9e 3f
       0.05854659 -0.35184562 -0.99441105 1.2345344
000030 1b 07 b0 3f 7e ff 9d bf d3 8c 27 bf 6e 43 48 bf
       1.3752168 -1.2343595 -0.65449256 -0.7822789
000040 92 76 60 3f 0f 2e 88 bf 40 1b a3 bf 2d b9 f1 be
       0.87680924 -1.0639056 -1.2742691 -0.4721159

2.weight f4 [1, 20]
000000 75 51 78 3d c6 15 ec 3f ee ab 9c bf 33 57 c7 bf
       0.06062456 1.8444145 -1.2239969 -1.5573486
000010 fe 7b a8 3f bc ad 4c 40 d8 a6 45 40 f9 ca 54 c0
       1.316284 3.198104 3.0883083 -3.3248885
000020 96 20 f0 3e 15 3b 35 3f 8e 24 bb bf d6 99 e1 bf
       0.4689986 0.7079328 -1.4620531 -1.7625072
000030 e2 a5 fb bf a3 9d ee bf 6a db 77 bf cb 01 22 3d
       -1.9659998 -1.8641857 -0.96819174 0.03955249
000040 c3 20 96 3e 22 9b cc bf 5f 44 f5 bf f5 f2 3a bf
       0.2932187 -1.5984843 -1.916149 -0.73026973

0.weight f4 [20, 1]
000000 de bd cb 39 58 ba 0a 40 30 25 92 bf 1a ad bd bf
       0.0003886064 2.1676235 -1.1417599 -1.4818451
000010 d0 3a c3 3f ea 3b 44 c0 8d 0d 31 40 05 f8 5f 40
       1.5252323 -3.0661569 2.766452 3.499513
000020 bd 53 15 bf 24 02 1e 3f 20 1f a8 3f 42 00 e0 bf
       -0.583309 0.61722016 1.3134499 -1.7500079
000030 8a 90 f9 bf 47 c8 d0 3f 8d 4e 5d 3f 3e cc 48 3f
       -1.9497235 1.631112 0.86447984 0.7843665
000040 1d 60 48 bf ff f5 b3 3f 9f 85 d7 3f 2a cd 1f 3f
       -0.7827166 1.4059447 1.6837653 0.6242243

0.bias f4 [20]
000000 9d ab 1d ba 1b ba 98 be 4c 16 de 3e f8 0c 10 3f
       -0.0006014647 -0.29829487 0.43376386 0.5626979
000010 7b 06 57 be 3c fe c9 3f 49 56 cd bf 12 5e 90 bf
       -0.20998566 1.5780711 -1.6041957 -1.1278708
000020 dd ca 9c 3d b1 82 b7 be dc 18 81 bf 22 3a 9f 3f
       0.076558806 -0.35841897 -1.0085711 1.2439616
000030 0e 65 b1 3f fa 4e a0 bf 56 f3 29 bf 6e 43 48 bf
       1.3858964 -1.2524102 -0.66386926 -0.7822789
000040 86 af 52 3f 3e 29 8a bf 2b 7b a5 bf a9 57 f5 be
       0.8229908 -1.0793836 -1.2928213 -0.47918442

2.weight f4 [1, 20]
000000 75 51 78 3d 02 be 06 40 f4 32 9b bf c5 6f c5 bf
       0.06062456 2.1053472 -1.2124925 -1.5424734
000010 84 f5 bf 3f dd 7b 57 40 a2 1b 48 40 6b f6 63 c0
       1.49968 3.366935 3.1266866 -3.5619152
000020 c2 3d 19 3f f2 6a 37 3f b8 f3 bd bf e3 db e4 bf
       0.5985986 0.7164756 -1.4840002 -1.7879604
000030 bf 46 ff bf 28 19 f2 bf bb 8d 7b bf cb 01 22 3d
       -1.9943465 -1.8913927 -0.9826314 0.03955249
000040 dd 9f 75 3e bb 9b cf bf fe dc f8 bf 48 9c 3d bf
       0.23986764 -1.62194 -1.9442441 -0.7406659

0.weight f4 [20, 1]
000000 de bd cb 39 47 20 18 40 1a e9 8f bf fb cf ba bf
       0.0003886064 2.37697 -1.1243012 -1.4594721
000010 42 4f d6 3f 7d 4c 4c c0 bd 4e 32 40 4b 99 6c 40
       1.6742938 -3.1921685 2.7860558 3.6968563
000020 75 53 39 bf c4 34 1f 3f d6 b2 a9 3f c1 d9 e3 bf
       -0.7239297 0.6218989 1.3257701 -1.7800828
000030 b8 db fd bf d6 ca d2 3f 67 65 5f 3f 3e cc 48 3f
       -1.9832678 1.6468151 0.872641 0.7843665
000040 62 5c 57 bf 25 af b5 3f b2 96 d9 3f 49 60 21 3f
       -0.8412534 1.4194075 1.6999114 0.63037544

0.bias f4 [20]
000000 9d ab 1d ba 29 ec a5 be ee 22 e3 3e ec 5d 13 3f
       -0.0006014647 -0.32406738 0.44362587 0.5756519
000010 75 b9 69 be 8c 9d d0 3f 1d 60 cf bf 6a 06 98 bf
       -0.22824652 1.629808 -1.6201206 -1.1876957
000020 58 3c b7 3d 24 37 b9 be 7e ff 81 bf 80 d7 a0 3f
       0.089470565 -0.3617488 -1.0156095 1.2565765
000030 2f 32 b3 3f a4 74 a1 bf a9 24 2b bf 6e 43 48 bf
       1.399969 -1.2613721 -0.66852814 -0.7822789
000040 29 bc 40 3f 28 25 8b bf 18 a9 a6 bf 93 23 f7 be
       0.7528711 -1.0870714 -1.3020353 -0.48269328

2.weight f4 [1, 20]
000000 75 51 78 3d 77 63 14 40 32 59 99 bf 40 0a c3 bf
       0.06062456 2.3185709 -1.1980345 -1.5237503
000010 f0 2a d3 3f d7 0f 60 40 65 69 49 40 c2 14 71 c0
       1.6497478 3.5009668 3.1470578 -3.766892
000020 20 b9 3c 3f e4 92 38 3f f5 c8 bf bf 6e 59 e9 bf
       0.7371998 0.7209914 -1.4983202 -1.8230417
000030 a9 23 02 c0 7c 5e f4 bf 14 f7 7d bf cb 01 22 3d
       -2.0334265 -1.9091334 -0.99205136 0.03955249
000040 a1 5a 55 3e ec 90 d1 bf 3e 35 fb bf 21 58 3f bf
       0.20835353 -1.6372352 -1.9625623 -0.7474385
