dis/dis03/code/ckpts/sgd_momentum/width20/seed216/ckpt_and_history.pt (torch, 15999 bytes, 33 tensors)

0.weight f4 [20, 1]
0	0x3f066cb1	0.525096
1	0x3e440709	0.19143309
2	0x3f37b4db	0.7176034
3	0x3e544739	0.20730294
4	0x3f6c9bd6	0.92425287
5	0x3f63b929	0.88954407
6	0x3f3f072d	0.74620324
7	0x3f4ee160	0.80812645
8	0xbef63691	-0.48088506
9	0x3bc23961	0.0059272503
10	0xbedf6fb2	-0.43639904
11	0x3e481085	0.19537552
12	0xbe1f699d	-0.15567632
13	0x3ec4b8b9	0.38422182
14	0xbe430400	-0.19044495
15	0x3ec45662	0.38347155
16	0xbed4dbca	-0.41573936
17	0xbf1129ba	-0.56704295
18	0xbf3a7f22	-0.7285024
19	0x3f4e3b1c	0.80558944

0.bias f4 [20]
0	0xbc88d505	-0.016703138
1	0xbc0447e9	-0.008073785
2	0xbce5f99b	-0.028073123
3	0xbc5a3b8b	-0.01331986
4	0xbda1a079	-0.07891936
5	0xbdb9cc53	-0.09072175
6	0xbe16f927	-0.14743482
7	0xbe397944	-0.18112665
8	0x3e17e566	0.14833602
9	0xba876ae7	-0.0010331542
10	0x3e2ab103	0.16669087
11	0xbdb11fed	-0.086486675
12	0x3da40b35	0.0800995
13	0xbe5dd847	-0.21664535
14	0x3deced44	0.11568692
15	0xbe8000e7	-0.25000688
16	0x3e8eb87e	0.2787513
17	0x3ee9ab8e	0.45638698
18	0x3f16549a	0.5872284
19	0xbf3c78e1	-0.73621947

2.weight f4 [1, 20]
0	0xbe4e9763	-0.20174937
1	0xbe09f240	-0.13471317
2	0xbdee85e3	-0.116466306
3	0xbd73790c	-0.05944161
4	0x3e1b2552	0.15150955
5	0xbdf44da9	-0.11928875
6	0x3d3504d6	0.044194065
7	0x3da2af66	0.07943611
8	0xbe4692ab	-0.19391887
9	0x3dd74f40	0.105131626
10	0xbb8f42c1	-0.0043719714
11	0xbd8e8055	-0.06958071
12	0xbe1f5671	-0.15560319
13	0xbd41ffd0	-0.047363102
14	0x3e32b8ec	0.17453355
15	0x3e248e4f	0.16069911
16	0xbe059843	-0.13046364
17	0x3e0e3ed1	0.1389115
18	0xbdfd7dec	-0.12377533
19	0xbd9c13d5	-0.0762097

0.weight f4 [20, 1]
0	0x3fc17bc1	1.5115892
1	0x3f5ce223	0.8628256
2	0x3fc79036	1.5590885
3	0x3f3167ef	0.69299215
4	0x40131919	2.2984068
5	0x402d9134	2.7119875
6	0x3fb2d2e1	1.3970605
7	0x3fe9e0b1	1.8271695
8	0xbfd19382	-1.6373141
9	0xbcab58b0	-0.020916313
10	0xbf906749	-1.128152
11	0x3f6b06ab	0.9180705
12	0xbf43404c	-0.76269984
13	0x3fb24e3e	1.3930128
14	0xc047d8e4	-3.122613
15	0x40429d34	3.040845
16	0xbf8f596d	-1.1199166
17	0xbf0be9fe	-0.5465392
18	0xbff3cdfb	-1.9047235
19	0x4056c98d	3.3560517

0.bias f4 [20]
0	0xbef445d6	-0.4770953
1	0xbe8b6c40	-0.27231026
2	0xbefc35be	-0.49259752
3	0xbe5fd936	-0.21860203
4	0xbe9fc919	-0.31208113
5	0xbf5b5050	-0.8566942
6	0xbe428c39	-0.18998803
7	0xbe7d6776	-0.24746498
8	0x3f1b2d94	0.6061642
9	0x3c9a60db	0.018845012
10	0x3ed5b2d7	0.41738006
11	0xbe9441ab	-0.2895635
12	0x3e9069f8	0.28205848
13	0xbf88120a	-1.0630505
14	0x3fcd6ba1	1.6048471
15	0xbfe16a6c	-1.7610602
16	0x3f65f66d	0.8982914
17	0x3ef9e287	0.4880564
18	0x3fc31374	1.5240312
19	0xc01ae573	-2.4202545

2.weight f4 [1, 20]
0	0xbfae8132	-1.3633177
1	0xbf4a5ea9	-0.7905069
2	0xbfaf4145	-1.3691794
3	0xbf20cb3a	-0.628101
4	0x40015505	2.0208142
5	0xc01c9011	-2.446293
6	0x3f963b8c	1.1736922
7	0x3fcaefee	1.5854471
8	0xbfc083a8	-1.5040178
9	0x3d2b0a3c	0.041757807
10	0xbf8074f4	-1.0035691
11	0xbf568d5f	-0.83809465
12	0xbf378e45	-0.7170146
13	0xbfc9936b	-1.5748113
14	0x404e5078	3.2236614
15	0x404ae022	3.16993
16	0xbf8e9631	-1.1139585
17	0x3e629e34	0.22130662
18	0xbff0ab0d	-1.88022
19	0xc06bf172	-3.6866117

0.weight f4 [20, 1]
0	0x3fee76c4	1.8629994
1	0x3f879b5f	1.059429
2	0x3ff333aa	1.9000142
3	0x3f5965ae	0.84920776
4	0x4042f511	3.0462077
5	0x4056aebc	3.354415
6	0x3fea38dc	1.8298602
7	0x401a4302	2.4103398
8	0xbfc11a2e	-1.5086114
9	0xbcd708c4	-0.026249297
10	0xbf85512a	-1.0415394
11	0x3f8e244d	1.1104828
12	0xbf3398ac	-0.70154834
13	0x3fbf06df	1.4923972
14	0xc074a6f4	-3.82269
15	0x404c9d07	3.1970842
16	0xbfa463c8	-1.2842951
17	0xbf109f1a	-0.5649277
18	0xc00b04f4	-2.1721773
19	0x4064e1a0	3.576271

0.bias f4 [20]
0	0xbf185178	-0.5949931
1	0xbeb90f4e	-0.3614449
2	0xbf262770	-0.64903927
3	0xbe945dfa	-0.28977948
4	0xbeafc6d7	-0.3433139
5	0xbf841332	-1.0318358
6	0xbe6c4089	-0.23071493
7	0xbe9b9360	-0.30385876
8	0x3f1f1110	0.6213541
9	0x3cc0adc3	0.023520356
10	0x3edbcde3	0.42930517
11	0xbee5a7b9	-0.44854525
12	0x3e93d994	0.28876936
13	0xbf948a19	-1.1604644
14	0x3ff6fb45	1.9295431
15	0xbff4a061	-1.9111444
16	0x3f81d0e7	1.0141877
17	0x3f034c2a	0.5128809
18	0x3fdda500	1.7315979
19	0xc0220bf0	-2.5319786

2.weight f4 [1, 20]
0	0xbfc696c3	-1.5514759
1	0xbf656533	-0.8960754
2	0xbfc8c588	-1.5685282
3	0xbf36c0c5	-0.7138789
4	0x401eb34d	2.4796937
5	0xc0321e84	-2.7831125
6	0x3fbaff3f	1.4609145
7	0x3ffa04e5	1.9532744
8	0xbfa462ed	-1.284269
9	0x3d202ebc	0.03910707
10	0xbf5aa2c7	-0.8540463
11	0xbf75dd7a	-0.9604107
12	0xbf1d17cd	-0.6136444
13	0xbfcf08c5	-1.6174551
14	0x40741461	3.8137438
15	0x4040e87c	3.0141897
16	0xbf9ab7ee	-1.2087381
17	0x3e9bfc34	0.30465853
18	0xc002bb26	-2.0426726
19	0xc067ef9c	-3.6239996

0.weight f4 [20, 1]
0	0x4001add0	2.0262337
1	0x3f948881	1.1604158
2	0x4001a7ec	2.0258741
3	0x3f6dfffe	0.9296874
4	0x4056b3a0	3.3547134
5	0x4069ba52	3.651997
6	0x3fff773d	1.9958264
7	0x4029fad1	2.6559336
8	0xbfba72e5	-1.4566313
9	0xbd127e42	-0.03576494
10	0xbf80e878	-1.0070944
11	0x3f9c6f0f	1.2221392
12	0xbf2d3d0d	-0.6767128
13	0x3fc64d17	1.5492276
14	0xc081ab94	-4.0521946
15	0x40511c40	3.2673492
16	0xbfac9170	-1.3481884
17	0xbf273981	-0.6532212
18	0xc0127804	-2.2885752
19	0x406b0a31	3.672497

0.bias f4 [20]
0	0xbf252922	-0.6451589
1	0xbebcfe3a	-0.3691271
2	0xbf4af9f1	-0.7928763
3	0xbe97677f	-0.2957115
4	0xbebb0938	-0.3653047
5	0xbf8e728f	-1.112871
6	0xbea25620	-0.31706333
7	0xbe942a97	-0.28938743
8	0x3f19a0a7	0.6001076
9	0x3d03d574	0.032185987
10	0x3ed4589a	0.41473848
11	0xbef28717	-0.4736869
12	0x3e8eaddb	0.27867016
13	0xbf99fbac	-1.2029929
14	0x4003106b	2.047877
15	0xbffcbcf5	-1.9745165
16	0x3f8946b0	1.0724697
17	0x3f15b603	0.5848085
18	0x3fe8d79d	1.81908
19	0xc024342e	-2.5656848

2.weight f4 [1, 20]
0	0xbfcaa834	-1.5832582
1	0xbf69a428	-0.9126611
2	0xbfcc9565	-1.5983092
3	0xbf3a4bb9	-0.72771794
4	0x40244963	2.5669792
5	0xc035c79e	-2.8403087
6	0x3fc1a52c	1.5128531
7	0x400177fa	2.0229478
8	0xbf95c4f9	-1.1700736
9	0x3d3abaf8	0.045588464
10	0xbf46be5b	-0.7763421
11	0xbf7c97cf	-0.9866914
12	0xbf0f5b7b	-0.55998963
13	0xbfcff7da	-1.6247513
14	0x407c983b	3.9467914
15	0x4037b868	2.8706303
16	0xbf9b8dc6	-1.2152641
17	0x3efe7234	0.49696505
18	0xc00382f6	-2.0548682
19	0xc06101e7	-3.515741

0.weight f4 [20, 1]
0	0x4007f7ce	2.1244998
1	0x3f9bb409	1.2164317
2	0x4007b2aa	2.1202798
3	0x3f796db3	0.9743301
4	0x40638103	3.5547493
5	0x4075527a	3.833159
6	0x400654f8	2.098936
7	0x40340cb4	2.8132753
8	0xbfb6dfcc	-1.4287047
9	0xbd46ce49	-0.048536573
10	0xbf7d7369	-0.99004227
11	0x3fa3bacb	1.279138
12	0xbf29f6d1	-0.66392237
13	0x3fcd461d	1.6037022
14	0xc084af4f	-4.1464
15	0x405716ba	3.3607621
16	0xbfb292b0	-1.3951015
17	0xbf4d8dc8	-0.80294466
18	0xc017762e	-2.366588
19	0x406ea748	3.72896

0.bias f4 [20]
0	0xbf2cbbf0	-0.6747427
1	0xbec6ed0e	-0.38852733
2	0xbf54f505	-0.8318637
3	0xbe9f486e	-0.31109947
4	0xbec09f18	-0.3762138
5	0xbf94e26a	-1.1631596
6	0xbeadfc5b	-0.33981594
7	0xbe982cb1	-0.29721597
8	0x3f155176	0.58327425
9	0x3d33f60e	0.043935828
10	0x3eccb050	0.39978266
11	0xbf0070f8	-0.50172377
12	0x3e89e26e	0.26930565
13	0xbf9d644f	-1.2296237
14	0x400534f6	2.0813575
15	0xc000d746	-2.0131392
16	0x3f8d368f	1.1032275
17	0x3f38d708	0.7220311
18	0x3fefb122	1.8725932
19	0xc028a9fc	-2.635375

2.weight f4 [1, 20]
0	0xbfc58985	-1.5432593
1	0xbf6392e7	-0.8889603
2	0xbfc78bb0	-1.5589504
3	0xbf358df5	-0.70919734
4	0x4023834a	2.5548882
5	0xc0315a49	-2.7711356
6	0x3fbed9ec	1.4910254
7	0x4000f3b8	2.0148754
8	0xbf8bd55a	-1.0924485
9	0x3d6b9c79	0.05752227
10	0xbf39453c	-0.7237127
11	0xbf75bd2a	-0.95991766
12	0xbf05fd56	-0.52339685
13	0xbfcf7a32	-1.6209166
14	0x407ac70a	3.9183984
15	0x4030fee1	2.7655566
16	0xbf987189	-1.1909648
17	0x3f3dc0ac	0.7412212
18	0xc000ed75	-2.0144932
19	0xc05a125a	-3.40737

0.weight f4 [20, 1]
0	0x400d0389	2.2033408
1	0x3fa27c45	1.2694174
2	0x400cbba1	2.198952
3	0x3f821dd9	1.0165359
4	0x406d85ef	3.7112997
5	0x407ef82b	3.983897
6	0x400ac131	2.1680415
7	0x403bee66	2.9364257
8	0xbfb5a9fc	-1.41925
9	0xbd85c929	-0.06532509
10	0xbf7b7155	-0.98219806
11	0x3fa9ea80	1.3274689
12	0xbf28b308	-0.6589818
13	0x3fd1e5c5	1.6398245
14	0xc0861a12	-4.1906824
15	0x405c34ad	3.440715
16	0xbfb813b1	-1.4381009
17	0xbf832d1a	-1.0248139
18	0xc01c20f8	-2.4395123
19	0x40738b5b	3.8053806

0.bias f4 [20]
0	0xbf34597e	-0.70449054
1	0xbec46f3f	-0.38366124
2	0xbf5fab04	-0.87370324
3	0xbe9d527b	-0.3072699
4	0xbecccd76	-0.40000504
5	0xbf9a2bb8	-1.2044592
6	0xbec5df1a	-0.38646775
7	0xbea1f270	-0.31630278
8	0x3f142ef4	0.57884145
9	0x3d6bb2f7	0.05754372
10	0x3ecd1530	0.40055227
11	0xbf07344f	-0.5281419
12	0x3e895b25	0.2682735
13	0xbfa558bd	-1.2917706
14	0x40069b00	2.1032104
15	0xc00448d1	-2.0669444
16	0x3f91bf2a	1.1386464
17	0x3f6766fe	0.9039153
18	0x3ff75143	1.9321674
19	0xc02ba3b2	-2.6818662

2.weight f4 [1, 20]
0	0xbfc1b33f	-1.5132827
1	0xbf5f39e3	-0.87197703
2	0xbfc45ca6	-1.5340774
3	0xbf3228b3	-0.6959335
4	0x4023065a	2.5472627
5	0xc02e4fa8	-2.7236118
6	0x3fbb5c11	1.4637471
7	0x4000a188	2.009859
8	0xbf8685cc	-1.0509582
9	0x3d98455b	0.074351035
10	0xbf322824	-0.695925
11	0xbf7151d2	-0.9426547
12	0xbf00f07c	-0.5036695
13	0xbfd1b922	-1.6384623
14	0x4076e964	3.857995
15	0x402c5687	2.6927812
16	0xbf97bbb5	-1.1854159
17	0x3f845ae4	1.0340238
18	0xc0005b21	-2.005562
19	0xc0557ece	-3.3358645

0.weight f4 [20, 1]
0	0x4010e2d7	2.2638452
1	0x3fa6fd2a	1.304601
2	0x4010bedf	2.2616498
3	0x3f85b5d5	1.0446116
4	0x4074a389	3.8224814
5	0x4083009a	4.0938234
6	0x400d7845	2.2104657
7	0x404188fc	3.0239859
8	0xbfb40f83	-1.4067234
9	0xbdaaf334	-0.083471686
10	0xbf794e5e	-0.97385204
11	0x3faee6f8	1.3664236
12	0xbf27292e	-0.6529721
13	0x3fd88864	1.6916623
14	0xc086f301	-4.2171636
15	0x4061b440	3.5266266
16	0xbfbe8679	-1.4884788
17	0xbfa3b9d5	-1.2791086
18	0xc0219e19	-2.5252745
19	0x40769e79	3.8534224

0.bias f4 [20]
0	0xbf36c38d	-0.71392137
1	0xbec94f00	-0.39318085
2	0xbf66cd20	-0.90156746
3	0xbea12bd7	-0.3147876
4	0xbed2afac	-0.41149652
5	0xbf9de4cc	-1.2335448
6	0xbed675df	-0.41886804
7	0xbea69f81	-0.32543567
8	0x3f1555ce	0.5833405
9	0x3d986069	0.07440264
10	0x3ece9c98	0.40353847
11	0xbf0b63b2	-0.54449
12	0x3e8a850e	0.27054638
13	0xbfa77bd1	-1.3084661
14	0x4007a413	2.1193893
15	0xc00835ee	-2.1282916
16	0x3f961db7	1.1727818
17	0x3f923716	1.1423061
18	0x3ffe9d6e	1.9891794
19	0xc02de675	-2.717191

2.weight f4 [1, 20]
0	0xbfc089b2	-1.5042021
1	0xbf5e53ce	-0.86846626
2	0xbfc4797b	-1.5349573
3	0xbf317db7	-0.6933245
4	0x40239b1a	2.5563416
5	0xc02dadaa	-2.7137246
6	0x3fb8f166	1.4448669
7	0x40012087	2.0176103
8	0xbf8204d7	-1.0157727
9	0x3dc41ecf	0.09576189
10	0xbf2c1983	-0.6722643
11	0xbf711e0d	-0.9418648
12	0xbef9578f	-0.48699614
13	0xbfd3e1c5	-1.6553274
14	0x40734858	3.8012905
15	0x402d265d	2.7054665
16	0xbf9b6163	-1.2139095
17	0x3fb039fe	1.3767698
18	0xc00377c7	-2.0541856
19	0xc0524f05	-3.286073

0.weight f4 [20, 1]
0	0x401371b6	2.3038154
1	0x3faa5066	1.3305786
2	0x401449d5	2.3170063
3	0x3f885d3f	1.0653456
4	0x4079fbc3	3.9059913
5	0x408598aa	4.1748857
6	0x400fc765	2.246545
7	0x4045c015	3.0898488
8	0xbfb47ec6	-1.4101188
9	0xbdd11f6e	-0.10211073
10	0xbf79ddb4	-0.9760392
11	0x3fb3400e	1.4003923
12	0xbf278cc3	-0.6544916
13	0x3fdbcac0	1.7171249
14	0xc087232c	-4.2230434
15	0x40675687	3.6146562
16	0xbfc5554b	-1.5416654
17	0xbfc6a04f	-1.5517672
18	0xc027643c	-2.6154928
19	0x407931cf	3.893665

0.bias f4 [20]
0	0xbf3b7da2	-0.73238575
1	0xbecc8e53	-0.39952335
2	0xbf68e709	-0.9097753
3	0xbea3bab6	-0.31978387
4	0xbed6459c	-0.41849983
5	0xbfa06948	-1.2532129
6	0xbed89c82	-0.42306906
7	0xbea90604	-0.33012402
8	0x3f12b210	0.5730295
9	0x3dbd081a	0.09230061
10	0x3ecb20e7	0.3967354
11	0xbf0cc00d	-0.54980546
12	0x3e8825d7	0.2659137
13	0xbfab0d75	-1.3363482
14	0x40081950	2.126545
15	0xc00b64ef	-2.1780355
16	0x3f9c35b1	1.2203885
17	0x3fb2dbd3	1.3973335
18	0x40047133	2.0694091
19	0xc02edcd9	-2.7322295

2.weight f4 [1, 20]
0	0xbfbe2db8	-1.4857702
1	0xbf5c11c0	-0.85964584
2	0xbfc3d072	-1.5297987
3	0xbf2fb99e	-0.68642604
4	0x40233a6a	2.5504403
5	0xc02bf6f8	-2.6869488
6	0x3fb64337	1.4239262
7	0x4000db98	2.013403
8	0xbf7f7156	-0.9978231
9	0x3df10e5f	0.11770319
10	0xbf2910dd	-0.66041356
11	0xbf7010ae	-0.9377545
12	0xbef4edb4	-0.47837603
13	0xbfd49c2f	-1.6610163
14	0x406efca4	3.73417
15	0x402ec732	2.730908
16	0xbfa1cd32	-1.2640746
17	0x3fdbdb6c	1.7176337
18	0xc008efb3	-2.13963
19	0xc04ebdd8	-3.2303371

0.weight f4 [20, 1]
0	0x40153c8b	2.3318202
1	0x3faccba1	1.3499643
2	0x40164ee3	2.3485649
3	0x3f8a4956	1.080363
4	0x407e635b	3.9748142
5	0x40877af1	4.2337575
6	0x4011a2f6	2.2755713
7	0x404936e4	3.1439753
8	0xbfb46891	-1.4094411
9	0xbdf780fe	-0.1208515
10	0xbf79b10e	-0.9753579
11	0x3fb5bd99	1.4198486
12	0xbf277120	-0.6540699
13	0x3fde916b	1.7388128
14	0xc0876322	-4.230851
15	0x406cbf8d	3.6991913
16	0xbfccedca	-1.6010067
17	0xbfe9853d	-1.8243786
18	0xc02dc76c	-2.7152967
19	0x407ae8a9	3.9204504

0.bias f4 [20]
0	0xbf3f9f0b	-0.74852055
1	0xbececeff	-0.403923
2	0xbf6faffd	-0.9362791
3	0xbea64d9e	-0.32481092
4	0xbed464d8	-0.41483188
5	0xbfa2ded0	-1.2724247
6	0xbee103c6	-0.4394819
7	0xbea804a4	-0.3281604
8	0x3f136951	0.57582575
9	0x3ddd7e8b	0.10815152
10	0x3ecc4aa7	0.39900705
11	0xbf10e4d2	-0.5659915
12	0x3e88fcbb	0.26755318
13	0xbfac5edb	-1.3466448
14	0x4007b1f4	2.1202364
15	0xc00dd825	-2.2163174
16	0x3fa1eb1e	1.2649877
17	0x3fd0bc47	1.6307458
18	0x400952c1	2.145676
19	0xc02fc9a0	-2.7466812

2.weight f4 [1, 20]
0	0xbfbb488f	-1.4631518
1	0xbf59460f	-0.84872526
2	0xbfc1daed	-1.5144936
3	0xbf2d83d2	-0.67779267
4	0x4022be0f	2.5428503
5	0xc029d03e	-2.653335
6	0x3fb461e6	1.4092376
7	0x40007ee2	2.0077443
8	0xbf7b2651	-0.9810534
9	0x3e0d3f16	0.13793597
10	0xbf2640b6	-0.6494249
11	0xbf6d7aef	-0.92765707
12	0xbef0cb0e	-0.47029918
13	0xbfd3b77a	-1.6540368
14	0x406a2dad	3.6590378
15	0x40308291	2.7579691
16	0xbfa910cd	-1.3208252
17	0x4001c97f	2.0279233
18	0xc00f1d3e	-2.2361598
19	0xc04b32a0	-3.174965

0.weight f4 [20, 1]
0	0x4017285d	2.3618386
1	0x3faef2b3	1.3667816
2	0x401854df	2.3801801
3	0x3f8c086d	1.0940071
4	0x4080ffa1	4.0312047
5	0x40891d8d	4.2848573
6	0x401314cb	2.298144
7	0x404c0f6c	3.1884413
8	0xbfb4d0ad	-1.4126183
9	0xbe0d08e2	-0.1377292
10	0xbf7a35be	-0.97738254
11	0x3fb8412b	1.4394888
12	0xbf27dd81	-0.65572363
13	0x3fdfec15	1.7493922
14	0xc0874c83	-4.22809
15	0x4070ebf5	3.7644017
16	0xbfd45c8e	-1.6590745
17	0xc0049099	-2.0713255
18	0xc033d830	-2.81007
19	0x407c3acb	3.9410884

0.bias f4 [20]
0	0xbf3ceb00	-0.7379608
1	0xbecfc9a8	-0.4058354
2	0xbf71a20b	-0.9438788
3	0xbea6b665	-0.3256103
4	0xbed6a5e0	-0.41923428
5	0xbfa442a8	-1.2832842
6	0xbee6ba82	-0.4506417
7	0xbea9c266	-0.33156127
8	0x3f13aea8	0.5768838
9	0x3dfc63a7	0.12323695
10	0x3eccb168	0.399791
11	0xbf11f2f0	-0.5701132
12	0x3e891b4c	0.26778638
13	0xbfae4d45	-1.3617331
14	0x4007fd5f	2.1248395
15	0xc01082e9	-2.2579901
16	0x3fa880ac	1.3164268
17	0x3fed58c2	1.8542712
18	0x400f2d41	2.237137
19	0xc030ce23	-2.7625816

2.weight f4 [1, 20]
0	0xbfb9690c	-1.4485183
1	0xbf57d7b2	-0.843135
2	0xbfc0cf28	-1.5063219
3	0xbf2c6362	-0.67339146
4	0x4022e162	2.5450063
5	0xc028b67a	-2.6361375
6	0x3fb30801	1.3986818
7	0x40009eb3	2.0096862
8	0xbf791e40	-0.9731178
9	0x3e207fe4	0.15673786
10	0xbf24f659	-0.64438397
11	0xbf6c0d33	-0.9220764
12	0xbeeec9e1	-0.46638396
13	0xbfd2d5e9	-1.647153
14	0x406633a4	3.596902
15	0x403268ef	2.7876546
16	0xbfb1d281	-1.3892366
17	0x40141d80	2.3143005
18	0xc0168d24	-2.3523645
19	0xc048b9e0	-3.136345

0.weight f4 [20, 1]
0	0x40186df2	2.3817105
1	0x3fafad6c	1.3724799
2	0x401a2f6d	2.4091446
3	0x3f8ca38f	1.0987414
4	0x408232d6	4.0687056
5	0x4089c785	4.3056054
6	0x4014a043	2.3222816
7	0x404df3dc	3.218009
8	0xbfb51b1f	-1.4148902
9	0xbe1a7164	-0.15082318
10	0xbf7aa762	-0.97911656
11	0x3fba783b	1.4567941
12	0xbf282bd5	-0.6569188
13	0x3fdf8bc1	1.7464525
14	0xc087a06d	-4.238333
15	0x4074323c	3.815566
16	0xbfdac6a1	-1.7091867
17	0xc010fece	-2.265552
18	0xc0397c14	-2.8981981
19	0x407c3a10	3.9410439

0.bias f4 [20]
0	0xbf387071	-0.7204657
1	0xbed48853	-0.41510257
2	0xbf747470	-0.9549017
3	0xbeaa2eb0	-0.33238745
4	0xbed614f7	-0.4181287
5	0xbfa6b8dd	-1.3025166
6	0xbeeb725f	-0.45985696
7	0xbea95275	-0.33070722
8	0x3f14023d	0.57815915
9	0x3e0b14b4	0.13582116
10	0x3eccd187	0.40003607
11	0xbf13f8de	-0.57801616
12	0x3e894c98	0.2681625
13	0xbfad5605	-1.3541876
14	0x4007ca80	2.1217346
15	0xc011db2f	-2.279003
16	0x3fae2300	1.3604431
17	0x400280c9	2.0391104
18	0x4013af3e	2.307571
19	0xc030bd1d	-2.7615426

2.weight f4 [1, 20]
0	0xbfb8ad9a	-1.4427979
1	0xbf56f50b	-0.83967656
2	0xbfc35fdf	-1.5263633
3	0xbf2bb10b	-0.6706702
4	0x4023b9b1	2.5582087
5	0xc0280a44	-2.6256266
6	0x3fb513b3	1.4146637
7	0x40014ba7	2.0202425
8	0xbf783b77	-0.96965736
9	0x3e31712f	0.17328332
10	0xbf246ac0	-0.6422539
11	0xbf6f152a	-0.9339167
12	0xbeede62b	-0.46464667
13	0xbfcfa1fc	-1.6221309
14	0x4064b40d	3.5734894
15	0x4034df94	2.8261461
16	0xbfbb01a8	-1.460988
17	0x40242086	2.564485
18	0xc01e58d4	-2.4741716
19	0xc0461a44	-3.0953531
