dis/dis03/code/ckpts/adam/width40/seed325/ckpt_and_history.pt (torch, 18111 bytes, 33 tensors)

0.weight f4 [40, 1]
0	0x3d6f3fea	0.058410563
1	0xbe6e7af0	-0.23289084
2	0xbf5dfb7a	-0.8671185
3	0x3f0b8153	0.5449421
4	0xbf70ad6a	-0.9401461
5	0x3eefa035	0.46801916
6	0xbf09df74	-0.5385659
7	0xbe841d0e	-0.25803417
8	0x3e1aa499	0.15101852
9	0x3f0071b9	0.50173527
10	0xbf3e8ec2	-0.7443658
11	0xbe93acf2	-0.28842884
12	0x3e32be59	0.17455424
13	0x3f109890	0.5648279
14	0xbf20d8af	-0.6283063
15	0x3f50e308	0.8159642
16	0x3f00040e	0.50006187
17	0x3e906c84	0.2820779
18	0x3eef2d6a	0.46714336
19	0x3f59da85	0.8509906
20	0xbb5b7f98	-0.00334928
21	0x3f3048bf	0.68861
22	0xbf6f88b2	-0.93567955
23	0xbed0e047	-0.4079611
24	0xbf50e2eb	-0.8159625
25	0x3da59610	0.08085263
26	0xbe6072c0	-0.21918774
27	0x3d8b9dc0	0.06817198
28	0xbec10840	-0.37701607
29	0x3e82fbdc	0.25582778
30	0x3f4cd466	0.80011594
31	0x3dc6dade	0.09709714
32	0x3f1dae0c	0.615937
33	0xbf02b918	-0.5106368
34	0x3f55d088	0.8352132
35	0x3f5e0b64	0.8673613
36	0x3efeb960	0.49750805
37	0xbf06c77c	-0.5264814
38	0x3f76a78e	0.9634942
39	0x3f663956	0.8993124

0.bias f4 [40]
0	0x3ca2ef16	0.019889396
1	0x3ab95508	0.0014139721
2	0x3beaadd3	0.0071618347
3	0xbcd3174a	-0.025767941
4	0x3c0788d6	0.00827237
5	0xbb750488	-0.0037386734
6	0x3d775834	0.06038685
7	0x3aa7baa0	0.0012796707
8	0xbd357d0c	-0.044308707
9	0xbd668510	-0.056279242
10	0x3dfbe40d	0.122993566
11	0x3dcdb2a1	0.100438364
12	0xbd20de00	-0.039274216
13	0xbe5c724c	-0.21527976
14	0x3e75050c	0.23927706
15	0xbe8fb697	-0.28068992
16	0xbe79ed88	-0.24407017
17	0xbdda50d9	-0.10659952
18	0xbe57a282	-0.21058086
19	0xbee2da1c	-0.4430703
20	0x3d086650	0.033300698
21	0xbee82496	-0.45340413
22	0x3f300ff6	0.68774354
23	0x3ea7d80c	0.32782018
24	0x3f29a8a5	0.66272956
25	0xbce5df1c	-0.028060488
26	0x3e56a3a0	0.20960855
27	0xbdb8afbc	-0.09017894
28	0x3eac9cc7	0.33713362
29	0xbe78cbbd	-0.2429647
30	0xbf3590e8	-0.70924234
31	0xbd38789c	-0.045036897
32	0xbef97e72	-0.48729283
33	0x3ecbc689	0.39799908
34	0xbf40d71c	-0.7532823
35	0xbf4a862f	-0.79111
36	0xbecef6bd	-0.4042262
37	0x3eeae55e	0.45878118
38	0xbf6fbc2e	-0.93646514
39	0xbf615710	-0.8802347

2.weight f4 [1, 40]
0	0x3d0726c6	0.03299596
1	0xbca646bf	-0.020297406
2	0xbde55c2f	-0.11199223
3	0x3c591986	0.013250714
4	0xbe0c8f40	-0.1372652
5	0x3df99642	0.121868625
6	0xbe1967c1	-0.14980985
7	0xbb500180	-0.0031739175
8	0xbdb6b11a	-0.08920498
9	0x3e0a52f8	0.13508213
10	0x3df6551e	0.120279536
11	0xbd83eb90	-0.06441414
12	0x3d9ce56b	0.076609455
13	0x3d10d364	0.035357848
14	0x3db8e2a6	0.09027605
15	0xbcfdf2b4	-0.030999519
16	0x3dc4afb6	0.09603827
17	0xbd473858	-0.048637718
18	0xbcd81ea3	-0.026381796
19	0xbbcf7d58	-0.006332081
20	0xbd268b38	-0.040660113
21	0xbcbb6e52	-0.022879753
22	0xbe31dd3d	-0.17369552
23	0xbe348b27	-0.17631207
24	0x3d4c0cb0	0.049816787
25	0xbd25eaa3	-0.04050697
26	0x3dab9946	0.08378844
27	0x3dea7d43	0.11449673
28	0x3e02e0bf	0.12781046
29	0x3dacd5ea	0.08439238
30	0x3d26496a	0.040597357
31	0xbda4ccdf	-0.080468886
32	0xbe1bf95e	-0.15231845
33	0xbe170d22	-0.14751104
34	0x3cf38f31	0.029731365
35	0x3e0ab770	0.13546538
36	0xbe328abf	-0.1743574
37	0xbe0822ee	-0.13294575
38	0x3bf20aef	0.0073865573
39	0xbd894eaf	-0.06704461

0.weight f4 [40, 1]
0	0xbd9bcb25	-0.07607106
1	0xbeaaad7f	-0.33335492
2	0xbf788e3b	-0.97092026
3	0x40099f26	2.1503386
4	0xbf84a5af	-1.0363063
5	0x40234d26	2.5515838
6	0xbfd204a8	-1.6407671
7	0xbeb753f6	-0.35806245
8	0x3fab61ae	1.3389184
9	0x402436fd	2.5658562
10	0xbf71fb84	-0.9452441
11	0xbfbda1fc	-1.4815059
12	0x3dc44c6c	0.09584889
13	0x3f831b60	1.0242729
14	0xc033891f	-2.8052442
15	0x4004b51b	2.0735538
16	0x3eb9ace9	0.36264732
17	0x3fc1d806	1.514405
18	0x3fde3025	1.7358443
19	0x400b78b7	2.1792428
20	0xbb423646	-0.00296344
21	0x3fa97da8	1.3241472
22	0xbf961e65	-1.1728026
23	0xbea2686d	-0.31720296
24	0xbf3ae008	-0.72998095
25	0x3db0a0a7	0.08624392
26	0xbfa6b4ba	-1.3023903
27	0xbd02d145	-0.031937856
28	0xbeb885dd	-0.3603963
29	0x3df50a1b	0.11964818
30	0x3f23ac36	0.6393465
31	0x3fccf9b5	1.6013705
32	0x3f9f8caa	1.2464802
33	0xbee7160b	-0.45134005
34	0x3f30376e	0.6883458
35	0x3f394c44	0.72382
36	0x3f954771	1.1662427
37	0xbee8151a	-0.453286
38	0x3f5be2ff	0.85893244
39	0x3fcd8729	1.6056873

0.bias f4 [40]
0	0xbd11e822	-0.03562177
1	0xbdd33fb3	-0.10314884
2	0xbdc77f76	-0.09741108
3	0xbf9619f6	-1.1726673
4	0xbdbc11de	-0.091830954
5	0xbeacd09e	-0.33752912
6	0x3f27516a	0.65358603
7	0xbdca64c9	-0.098825045
8	0xbedfb076	-0.43689317
9	0xbeadccf4	-0.3394543
10	0xbd9773fa	-0.07395168
11	0x3f15cec1	0.58518606
12	0xbdd2b1c5	-0.10287813
13	0xbf4c6644	-0.79843545
14	0x3fafd0a3	1.3735546
15	0xbf2963ae	-0.66167724
16	0xbf04ba21	-0.5184651
17	0xbef8716d	-0.48524037
18	0xbf0db9cb	-0.5536162
19	0xbf31e01d	-0.69482595
20	0xbce06cde	-0.027395662
21	0xbf6f52f9	-0.9348598
22	0x3f6ccb04	0.9249728
23	0x3e79e95e	0.24405429
24	0x3f1223e8	0.5708604
25	0xbe044011	-0.12915064
26	0x3f218606	0.6309513
27	0xbe42db0a	-0.1902887
28	0x3e928e2f	0.28624102
29	0xbec2302a	-0.3792737
30	0xbf5eadc1	-0.8698388
31	0xbf749519	-0.95540005
32	0xbf78ce19	-0.9718948
33	0x3eb4134c	0.35170972
34	0xbf666e4e	-0.9001206
35	0xbf6f33aa	-0.9343821
36	0xbf535f7b	-0.82567567
37	0x3eb26694	0.34843886
38	0xbf85405e	-1.0410268
39	0xbf95f438	-1.1715155

2.weight f4 [1, 40]
0	0xbbf0b366	-0.0073456047
1	0x3dabea39	0.08394284
2	0xbbf4cc20	-0.0074706227
3	0x4084ddd7	4.15208
4	0xbd1859be	-0.03719496
5	0x3ffa4ee3	1.9555324
6	0xbfb56012	-1.4169943
7	0xbdd37e22	-0.10326792
8	0xbfa86351	-1.3155309
9	0x3ff95604	1.9479375
10	0xbd0435d7	-0.03227791
11	0xbf9c5a3d	-1.2215039
12	0xbb858f08	-0.0040758885
13	0xc0006bf0	-2.006588
14	0x40095472	2.1457791
15	0xbfe7198c	-1.8054671
16	0xbebe287d	-0.37140265
17	0xbfc2bebd	-1.5214459
18	0xbfd77889	-1.683366
19	0xbfe4401d	-1.7832066
20	0x3d0b405f	0.033996936
21	0xc044e606	-3.0765395
22	0xbf24cc3e	-0.6437415
23	0xbdd0d6e3	-0.101972364
24	0xbe4bbcfc	-0.1989631
25	0xbd63e070	-0.055633962
26	0x3f36c4b9	0.71393925
27	0x3c6bc0b3	0.014389205
28	0xbe03bec3	-0.12865739
29	0xbcb05ecd	-0.02152958
30	0xbddd8d86	-0.10818009
31	0x4082b67c	4.084776
32	0xc050e713	-3.2641037
33	0xbe2a5732	-0.16634825
34	0xbddf452c	-0.10901865
35	0x3b3a6921	0.002844401
36	0xc0499e32	-3.1502805
37	0xbe1a5b69	-0.15073933
38	0xbdc707ad	-0.09718261
39	0xc05b834f	-3.4298894

0.weight f4 [40, 1]
0	0xbd9bcb25	-0.07607106
1	0xbeaaad7f	-0.33335492
2	0xbf788e3b	-0.97092026
3	0x400786ec	2.11761
4	0xbf84a5af	-1.0363063
5	0x4043971a	3.0560975
6	0xbfac30ec	-1.345243
7	0xbeb753f6	-0.35806245
8	0x3fc3fcd5	1.5311533
9	0x40440f0a	3.063418
10	0xbf71fb84	-0.9452441
11	0xbf979e60	-1.1845207
12	0x3dc44c6c	0.09584889
13	0x3f8b2efe	1.0873716
14	0xc0512316	-3.2677665
15	0x40141f6a	2.3144174
16	0x3eb9ace9	0.36264732
17	0x3fda556f	1.7057322
18	0x3ffbbfb6	1.966788
19	0x401ae599	2.4202635
20	0xbb423646	-0.00296344
21	0x3fb0f77c	1.3825526
22	0xbfc777c6	-1.5583427
23	0xbea26357	-0.31716415
24	0xbf8197cb	-1.0124449
25	0x3db0a0a7	0.08624392
26	0xbfd749bf	-1.681938
27	0xbd02d145	-0.031937856
28	0xbeab96b1	-0.33513406
29	0x3df50a1b	0.11964818
30	0x3f23ac36	0.6393465
31	0x3fced211	1.6157857
32	0x3fa846e8	1.3146639
33	0xbf07faf9	-0.5311733
34	0x3f30376e	0.6883458
35	0x3f394c44	0.72382
36	0x3f9cbb54	1.2244668
37	0xbef6890c	-0.48151433
38	0x3f5be2ff	0.85893244
39	0x3fd6841b	1.6759065

0.bias f4 [40]
0	0xbd11e822	-0.03562177
1	0xbdd33fb3	-0.10314884
2	0xbdc77f76	-0.09741108
3	0xbf987fb8	-1.1913977
4	0xbdbc11de	-0.091830954
5	0xbeb12651	-0.34599546
6	0x3f0dc6b9	0.5538135
7	0xbdca64c9	-0.098825045
8	0xbf191233	-0.59793395
9	0xbec682aa	-0.38771564
10	0xbd9773fa	-0.07395168
11	0x3ef77f04	0.48339093
12	0xbdd2b1c5	-0.10287813
13	0xbf58bab8	-0.8465991
14	0x3fce065f	1.6095694
15	0xbf34cf38	-0.7062869
16	0xbf04ba21	-0.5184651
17	0xbf212d45	-0.629597
18	0xbf1e3e0e	-0.6181344
19	0xbf3d69ac	-0.7398937
20	0xbce06cde	-0.027395662
21	0xbf7867d9	-0.9703346
22	0x3f9e07c0	1.2346115
23	0x3d027c5d	0.031856883
24	0x3f447d95	0.7675412
25	0xbe044011	-0.12915064
26	0x3f52a055	0.822759
27	0xbe42db0a	-0.1902887
28	0x3e6f14d5	0.2334779
29	0xbec2302a	-0.3792737
30	0xbf5eadc1	-0.8698388
31	0xbf7d11fd	-0.9885557
32	0xbf82ef40	-1.0229263
33	0x3ebefa88	0.37300515
34	0xbf666e4e	-0.9001206
35	0xbf6f33aa	-0.9343821
36	0xbf5c406e	-0.8603581
37	0x3eb062ba	0.34450322
38	0xbf85405e	-1.0410268
39	0xbf9761a4	-1.1826673

2.weight f4 [1, 40]
0	0xbbf0b366	-0.0073456047
1	0x3dabea39	0.08394284
2	0xbbf4cc20	-0.0074706227
3	0x4076d221	3.8565753
4	0xbd1859be	-0.03719496
5	0x401f1ace	2.486011
6	0xbf504d9a	-0.8136841
7	0xbdd37e22	-0.10326792
8	0xbfc8a54d	-1.5675446
9	0x401ea254	2.4786577
10	0xbd0435d7	-0.03227791
11	0xbf1a790a	-0.6034094
12	0xbb858f08	-0.0040758885
13	0xbfd4532c	-1.6587882
14	0x4026d51c	2.6067572
15	0xc006de45	-2.1073163
16	0xbebe287d	-0.37140265
17	0xbfe2a10d	-1.7705399
18	0xbffaceb0	-1.9594326
19	0xc005dd61	-2.091637
20	0x3d0b405f	0.033996936
21	0xc038e554	-2.888997
22	0xbf9c9edc	-1.223598
23	0x3df4a291	0.119450696
24	0xbeed955e	-0.4640302
25	0xbd63e070	-0.055633962
26	0x3f71a5df	0.94393724
27	0x3c6bc0b3	0.014389205
28	0xbd8a0a1d	-0.0674021
29	0xbcb05ecd	-0.02152958
30	0xbddd8d86	-0.10818009
31	0x4076c3e9	3.8557074
32	0xc045ad62	-3.0887074
33	0xbe1d0215	-0.15332825
34	0xbddf452c	-0.10901865
35	0x3b3a6921	0.002844401
36	0xc03864a5	-2.8811429
37	0xbdffaefc	-0.124845475
38	0xbdc707ad	-0.09718261
39	0xc051ff36	-3.2812018

0.weight f4 [40, 1]
0	0xbd9bcb25	-0.07607106
1	0xbeaaad7f	-0.33335492
2	0xbf788e3b	-0.97092026
3	0x400798d5	2.1187031
4	0xbf84a5af	-1.0363063
5	0x4043cd93	3.0594223
6	0xbfd200dd	-1.6406513
7	0xbeb753f6	-0.35806245
8	0x3fc77cf0	1.5585003
9	0x40434cbf	3.0515592
10	0xbf71fb84	-0.9452441
11	0xbfc5749f	-1.5426215
12	0x3dc44c6c	0.09584889
13	0x3f91e34d	1.1397492
14	0xc058c18e	-3.3868136
15	0x401740ee	2.363338
16	0x3eb9ace9	0.36264732
17	0x3fdbe1f3	1.7178329
18	0x40012231	2.0177119
19	0x401e0e1b	2.469611
20	0xbb423646	-0.00296344
21	0x3fb6825e	1.4258535
22	0xbfe8feda	-1.8202775
23	0xc07eb266	-3.9796386
24	0xbf951385	-1.1646582
25	0x3db0a0a7	0.08624392
26	0xbfdc7695	-1.7223688
27	0xbd02d145	-0.031937856
28	0xbe8edcb2	-0.27902752
29	0x3df50a1b	0.11964818
30	0x3f23ac36	0.6393465
31	0x3fd377ca	1.6520932
32	0x3faff45c	1.3746448
33	0xbf015e7c	-0.50534797
34	0x3f30376e	0.6883458
35	0x3f394c44	0.72382
36	0x3f9d1e9a	1.2274964
37	0xbed441ec	-0.41456544
38	0x3f5be2ff	0.85893244
39	0x3fdecf80	1.7407074

0.bias f4 [40]
0	0xbd11e822	-0.03562177
1	0xbdd33fb3	-0.10314884
2	0xbdc77f76	-0.09741108
3	0xbf983366	-1.1890686
4	0xbdbc11de	-0.091830954
5	0xbe9a237e	-0.30105203
6	0x3f1c5bda	0.61077654
7	0xbdca64c9	-0.098825045
8	0xbf1e4e5b	-0.6183831
9	0xbec830a3	-0.39099607
10	0xbd9773fa	-0.07395168
11	0x3eee3fc5	0.46533027
12	0xbdd2b1c5	-0.10287813
13	0xbf648fd5	-0.8928197
14	0x3fd652b0	1.6743984
15	0xbf386e8d	-0.7204369
16	0xbf04ba21	-0.5184651
17	0xbf2ea9a9	-0.6822763
18	0xbf1f0688	-0.6211934
19	0xbf40b678	-0.75278425
20	0xbce06cde	-0.027395662
21	0xbf82f9df	-1.0232505
22	0x3fa1696a	1.2610295
23	0x3eb77d0f	0.358376
24	0x3f4c664e	0.79843605
25	0xbe044011	-0.12915064
26	0x3f5b2f72	0.8561927
27	0xbe42db0a	-0.1902887
28	0x3d9f5068	0.07779008
29	0xbec2302a	-0.3792737
30	0xbf5eadc1	-0.8698388
31	0xbf80c24b	-1.0059294
32	0xbf895097	-1.0727719
33	0x3e1a4c52	0.15068176
34	0xbf666e4e	-0.9001206
35	0xbf6f33aa	-0.9343821
36	0xbf7588df	-0.95911974
37	0x3df93c06	0.12169652
38	0xbf85405e	-1.0410268
39	0xbf9b5a30	-1.2136898

2.weight f4 [1, 40]
0	0xbbf0b366	-0.0073456047
1	0x3dabea39	0.08394284
2	0xbbf4cc20	-0.0074706227
3	0x40664b15	3.5983326
4	0xbd1859be	-0.03719496
5	0x401baad6	2.432302
6	0xbf67af13	-0.9050152
7	0xbdd37e22	-0.10326792
8	0xbfb76a15	-1.4329249
9	0x401a7549	2.4134085
10	0xbd0435d7	-0.03227791
11	0xbf28d4a7	-0.6594948
12	0xbb858f08	-0.0040758885
13	0xbfa995f4	-1.3248887
14	0x402b9913	2.681218
15	0xc005a777	-2.0883462
16	0xbebe287d	-0.37140265
17	0xbfd4ff24	-1.6640363
18	0xbff4f8cf	-1.913843
19	0xc0050f54	-2.0790606
20	0x3d0b405f	0.033996936
21	0xc02dd9cb	-2.716418
22	0xbfb378ec	-1.4021277
23	0x3fa1b533	1.2633423
24	0xbf0067b3	-0.5015823
25	0xbd63e070	-0.055633962
26	0x3f5b36e8	0.85630655
27	0x3c6bc0b3	0.014389205
28	0xbc3773e7	-0.011197067
29	0xbcb05ecd	-0.02152958
30	0xbddd8d86	-0.10818009
31	0x40692443	3.6428382
32	0xc03909b1	-2.8912165
33	0xbd116623	-0.035497796
34	0xbddf452c	-0.10901865
35	0x3b3a6921	0.002844401
36	0xc02b0e18	-2.6727352
37	0xbd06003e	-0.032715075
38	0xbdc707ad	-0.09718261
39	0xc04d8b45	-3.2116253

0.weight f4 [40, 1]
0	0xbd9bcb25	-0.07607106
1	0xbeaaad7f	-0.33335492
2	0xbf788e3b	-0.97092026
3	0x400753a2	2.1144795
4	0xbf84a5af	-1.0363063
5	0x4043db62	3.060265
6	0xbffd066b	-1.9767584
7	0xbeb753f6	-0.35806245
8	0x3fc83607	1.5641488
9	0x4041c3fc	3.027587
10	0xbf71fb84	-0.9452441
11	0xc001c00e	-2.027347
12	0x3dc44c6c	0.09584889
13	0x3f994ddb	1.1976885
14	0xc064379d	-3.5658944
15	0x4017e171	2.3731349
16	0x3eb9ace9	0.36264732
17	0x3fdd3466	1.7281616
18	0x40010722	2.0160604
19	0x401eae93	2.4794052
20	0xbb423646	-0.00296344
21	0x3fbcd725	1.4753157
22	0xbff535a4	-1.9156995
23	0xc09ef4f1	-4.9674
24	0xbf967737	-1.1755131
25	0x3db0a0a7	0.08624392
26	0xbfe8173f	-1.8132094
27	0xbd02d145	-0.031937856
28	0xbee21eff	-0.44164273
29	0x3df50a1b	0.11964818
30	0x3f23ac36	0.6393465
31	0x3fd649b2	1.674124
32	0x3fb87785	1.4411474
33	0xbf166b76	-0.5875772
34	0x3f30376e	0.6883458
35	0x3f394c44	0.72382
36	0x3fa53efc	1.2909846
37	0xbebe2180	-0.37134933
38	0x3f5be2ff	0.85893244
39	0x3fe5c830	1.7951717

0.bias f4 [40]
0	0xbd11e822	-0.03562177
1	0xbdd33fb3	-0.10314884
2	0xbdc77f76	-0.09741108
3	0xbf99b49d	-1.2008244
4	0xbdbc11de	-0.091830954
5	0xbe99922a	-0.29994327
6	0x3f3f64c6	0.74763143
7	0xbdca64c9	-0.098825045
8	0xbf1fc966	-0.62416685
9	0xbeca00a2	-0.39453608
10	0xbd9773fa	-0.07395168
11	0x3f1aa323	0.60405177
12	0xbdd2b1c5	-0.10287813
13	0xbf712203	-0.9419252
14	0x3fe244fd	1.7677304
15	0xbf3748de	-0.7159556
16	0xbf04ba21	-0.5184651
17	0xbf308037	-0.6894564
18	0xbf233ed3	-0.6376774
19	0xbf3f86c8	-0.74815035
20	0xbce06cde	-0.027395662
21	0xbf8982b0	-1.0743008
22	0x3fad0ca4	1.3519483
23	0x3ee2f38f	0.44326445
24	0x3f54906b	0.83032864
25	0xbe044011	-0.12915064
26	0x3f675400	0.9036255
27	0xbe42db0a	-0.1902887
28	0xbb0c6ba3	-0.0021426461
29	0xbec2302a	-0.3792737
30	0xbf5eadc1	-0.8698388
31	0xbf825247	-1.0181359
32	0xbf906857	-1.1281842
33	0x3ded5740	0.11588907
34	0xbf666e4e	-0.9001206
35	0xbf6f33aa	-0.9343821
36	0xbf81d2b4	-1.0142426
37	0xba8c0485	-0.0010682499
38	0xbf85405e	-1.0410268
39	0xbfa26006	-1.2685554

2.weight f4 [1, 40]
0	0xbbf0b366	-0.0073456047
1	0x3dabea39	0.08394284
2	0xbbf4cc20	-0.0074706227
3	0x405614bf	3.3450162
4	0xbd1859be	-0.03719496
5	0x40189dcd	2.3846314
6	0xbf8a3d5d	-1.0799977
7	0xbdd37e22	-0.10326792
8	0xbfa04798	-1.2521849
9	0x40155a5f	2.3336408
10	0xbd0435d7	-0.03227791
11	0xbf60ed6e	-0.8786229
12	0xbb858f08	-0.0040758885
13	0xbf891e1e	-1.0712316
14	0x4036b23d	2.8546288
15	0xbfff65ed	-1.995298
16	0xbebe287d	-0.37140265
17	0xbfc125e6	-1.5089691
18	0xbfe5a0c5	-1.7939688
19	0xbfff043f	-1.9923171
20	0x3d0b405f	0.033996936
21	0xc0239495	-2.5559437
22	0xbfbfe8d3	-1.4992927
23	0x3f90f7fb	1.1325678
24	0xbedbac6c	-0.42904985
25	0xbd63e070	-0.055633962
26	0x3f58dfe7	0.8471665
27	0x3c6bc0b3	0.014389205
28	0x3d3358b1	0.043785755
29	0xbcb05ecd	-0.02152958
30	0xbddd8d86	-0.10818009
31	0x40570436	3.359632
32	0xc031c91f	-2.7779005
33	0x3d9339fd	0.07188795
34	0xbddf452c	-0.10901865
35	0x3b3a6921	0.002844401
36	0xc01eef05	-2.4833386
37	0x3ca514f1	0.020151587
38	0xbdc707ad	-0.09718261
39	0xc04bc295	-3.1837513

0.weight f4 [40, 1]
0	0xbd9bcb25	-0.07607106
1	0xbeaaad7f	-0.33335492
2	0xbf788e3b	-0.97092026
3	0x4006ab04	2.104188
4	0xbf84a5af	-1.0363063
5	0x4043c38a	3.0588098
6	0xc00d6942	-2.2095494
7	0xbeb753f6	-0.35806245
8	0x3fc7c59f	1.5607184
9	0x40401739	3.0014174
10	0xbf71fb84	-0.9452441
11	0xc01daf42	-2.463822
12	0x3dc44c6c	0.09584889
13	0x3fa03e22	1.2518961
14	0xc06f2b07	-3.7370012
15	0x40180087	2.3750322
16	0x3eb9ace9	0.36264732
17	0x3fdd6f4b	1.7299589
18	0x4000e897	2.0141962
19	0x401ece4c	2.4813414
20	0xbb423646	-0.00296344
21	0x3fc33258	1.5249739
22	0xc002870d	-2.0394928
23	0xc0b539b5	-5.6632943
24	0xbf98996d	-1.1921822
25	0x3db0a0a7	0.08624392
26	0xbff51600	-1.9147339
27	0xbd02d145	-0.031937856
28	0xbee21eff	-0.44164273
29	0x3df50a1b	0.11964818
30	0x3f23ac36	0.6393465
31	0x3fd76890	1.6828785
32	0x3fc12929	1.5090686
33	0xbf80c2db	-1.0059465
34	0x3f30376e	0.6883458
35	0x3f394c44	0.72382
36	0x3fae06be	1.3595808
37	0xbebe2180	-0.37134933
38	0x3f5be2ff	0.85893244
39	0x3fede4bf	1.8585433

0.bias f4 [40]
0	0xbd11e822	-0.03562177
1	0xbdd33fb3	-0.10314884
2	0xbdc77f76	-0.09741108
3	0xbf9c9978	-1.2234335
4	0xbdbc11de	-0.091830954
5	0xbe9a409b	-0.30127415
6	0x3f5b5d78	0.85689497
7	0xbdca64c9	-0.098825045
8	0xbf1f47ba	-0.6221882
9	0xbec71d70	-0.38889647
10	0xbd9773fa	-0.07395168
11	0x3f3e29c3	0.74282473
12	0xbdd2b1c5	-0.10287813
13	0xbf7b1502	-0.9807893
14	0x3fef51a2	1.8696787
15	0xbf389d90	-0.7211542
16	0xbf04ba21	-0.5184651
17	0xbf307494	-0.68927884
18	0xbf2441b5	-0.6416276
19	0xbf40d5c2	-0.7532617
20	0xbce06cde	-0.027395662
21	0xbf8e8f24	-1.1137433
22	0x3fb65bd9	1.424678
23	0x3f026e68	0.50949717
24	0x3f547ff9	0.8300777
25	0xbe044011	-0.12915064
26	0x3f7465d1	0.9546786
27	0xbe42db0a	-0.1902887
28	0xbb0c6ba3	-0.0021426461
29	0xbec2302a	-0.3792737
30	0xbf5eadc1	-0.8698388
31	0xbf83966d	-1.0280281
32	0xbf95aa0e	-1.1692522
33	0xbc4a6824	-0.012353931
34	0xbf666e4e	-0.9001206
35	0xbf6f33aa	-0.9343821
36	0xbf86a9f3	-1.0520614
37	0xba8c0485	-0.0010682499
38	0xbf85405e	-1.0410268
39	0xbfa6c30c	-1.3028274

2.weight f4 [1, 40]
0	0xbbf0b366	-0.0073456047
1	0x3dabea39	0.08394284
2	0xbbf4cc20	-0.0074706227
3	0x404768a0	3.1157608
4	0xbd1859be	-0.03719496
5	0x4015b372	2.3390775
6	0xbf98837d	-1.1915127
7	0xbdd37e22	-0.10326792
8	0xbf890653	-1.0705055
9	0x401032f1	2.2531092
10	0xbd0435d7	-0.03227791
11	0xbf8ee6a9	-1.1164142
12	0xbb858f08	-0.0040758885
13	0xbf5fbedd	-0.8740061
14	0x4042c1b7	3.0430734
15	0xbff3f4ac	-1.9059043
16	0xbebe287d	-0.37140265
17	0xbfac79de	-1.3474691
18	0xbfd68a5a	-1.6760972
19	0xbff4506b	-1.9087042
20	0x3d0b405f	0.033996936
21	0xc01a3d04	-2.409974
22	0xbfcd39dd	-1.6033283
23	0x3f873c94	1.0565362
24	0xbec211f4	-0.37904322
25	0xbd63e070	-0.055633962
26	0x3f5fc6b8	0.87412596
27	0x3c6bc0b3	0.014389205
28	0x3d3358b1	0.043785755
29	0xbcb05ecd	-0.02152958
30	0xbddd8d86	-0.10818009
31	0x4043cb73	3.0592926
32	0xc02c9367	-2.6964967
33	0x3dc51350	0.09622824
34	0xbddf452c	-0.10901865
35	0x3b3a6921	0.002844401
36	0xc0147679	-2.319731
37	0x3ca514f1	0.020151587
38	0xbdc707ad	-0.09718261
39	0xc04b0a45	-3.1725018

0.weight f4 [40, 1]
0	0xbd9bcb25	-0.07607106
1	0xbeaaad7f	-0.33335492
2	0xbf788e3b	-0.97092026
3	0x40064617	2.098028
4	0xbf84a5af	-1.0363063
5	0x4042e8dd	3.0454628
6	0xc01af693	-2.4212997
7	0xbeb753f6	-0.35806245
8	0x3fc5e1ce	1.5459535
9	0x403d6ba9	2.959696
10	0xbf71fb84	-0.9452441
11	0xc034f900	-2.8276978
12	0x3dc44c6c	0.09584889
13	0x3fa6a6c3	1.3019642
14	0xc077d636	-3.8724494
15	0x4017f9d1	2.3746226
16	0x3eb9ace9	0.36264732
17	0x3fdd17bc	1.7272868
18	0x4000447d	2.0041802
19	0x401ec88c	2.4809904
20	0xbb423646	-0.00296344
21	0x3fc9cf6d	1.5766426
22	0xc0094a00	-2.1451416
23	0xc0caf3a2	-6.3422403
24	0xbf933d15	-1.1503016
25	0x3db0a0a7	0.08624392
26	0xbfff5472	-1.9947646
27	0xbd02d145	-0.031937856
28	0xbee21eff	-0.44164273
29	0x3df50a1b	0.11964818
30	0x3f23ac36	0.6393465
31	0x3fd97ca0	1.6991158
32	0x3fc925c5	1.5714651
33	0xbf80c2db	-1.0059465
34	0x3f30376e	0.6883458
35	0x3f394c44	0.72382
36	0x3fb5a2a7	1.4190263
37	0xbebe2180	-0.37134933
38	0x3f5be2ff	0.85893244
39	0x3ff5dc46	1.9207847

0.bias f4 [40]
0	0xbd11e822	-0.03562177
1	0xbdd33fb3	-0.10314884
2	0xbdc77f76	-0.09741108
3	0xbf9f8d80	-1.2465057
4	0xbdbc11de	-0.091830954
5	0xbe9b5f93	-0.30346355
6	0x3f737fbc	0.9511678
7	0xbdca64c9	-0.098825045
8	0xbf212bdf	-0.62957567
9	0xbeca2ea0	-0.39488697
10	0xbd9773fa	-0.07395168
11	0x3f5a9c4f	0.8539476
12	0xbdd2b1c5	-0.10287813
13	0xbf831d9b	-1.024341
14	0x3ffa2625	1.9542891
15	0xbf38d2f8	-0.7219691
16	0xbf04ba21	-0.5184651
17	0xbf3198ee	-0.6937398
18	0xbf26fee9	-0.6523271
19	0xbf4111e5	-0.7541793
20	0xbce06cde	-0.027395662
21	0xbf9435ae	-1.1578882
22	0x3fbf23d2	1.4932806
23	0x3f0f51aa	0.55983984
24	0x3f4b66a0	0.7945347
25	0xbe044011	-0.12915064
26	0x3f7afddb	0.980436
27	0xbe42db0a	-0.1902887
28	0xbb0c6ba3	-0.0021426461
29	0xbec2302a	-0.3792737
30	0xbf5eadc1	-0.8698388
31	0xbf828295	-1.01961
32	0xbf9cca8d	-1.2249314
33	0xbc4a6824	-0.012353931
34	0xbf666e4e	-0.9001206
35	0xbf6f33aa	-0.9343821
36	0xbf8dcfe8	-1.1079073
37	0xba8c0485	-0.0010682499
38	0xbf85405e	-1.0410268
39	0xbfacadd9	-1.3490554

2.weight f4 [1, 40]
0	0xbbf0b366	-0.0073456047
1	0x3dabea39	0.08394284
2	0xbbf4cc20	-0.0074706227
3	0x40368c03	2.8522956
4	0xbd1859be	-0.03719496
5	0x40115d90	2.2713356
6	0xbfa4367f	-1.2829131
7	0xbdd37e22	-0.10326792
8	0xbf5caaa1	-0.8619786
9	0x4009644f	2.1467474
10	0xbd0435d7	-0.03227791
11	0xbfa6d206	-1.3032844
12	0xbb858f08	-0.0040758885
13	0xbf23ec98	-0.6403289
14	0x404af39f	3.1711195
15	0xbfe5c5b1	-1.7950956
16	0xbebe287d	-0.37140265
17	0xbf94cf7b	-1.1625818
18	0xbfc3faf4	-1.531096
19	0xbfe700a6	-1.8047073
20	0x3d0b405f	0.033996936
21	0xc00e6b62	-2.2253041
22	0xbfd52938	-1.6653204
23	0x3f82328c	1.0171676
24	0xbe89b9b3	-0.2689949
25	0xbd63e070	-0.055633962
26	0x3f572f55	0.840566
27	0x3c6bc0b3	0.014389205
28	0x3d3358b1	0.043785755
29	0xbcb05ecd	-0.02152958
30	0xbddd8d86	-0.10818009
31	0x402bff75	2.6874669
32	0xc02543aa	-2.582255
33	0x3dc51350	0.09622824
34	0xbddf452c	-0.10901865
35	0x3b3a6921	0.002844401
36	0xc007550f	-2.1145666
37	0x3ca514f1	0.020151587
38	0xbdc707ad	-0.09718261
39	0xc0494ae8	-3.145197

0.weight f4 [40, 1]
0	0xbd9bcb25	-0.07607106
1	0xbeaaad7f	-0.33335492
2	0xbf788e3b	-0.97092026
3	0x400843f3	2.1291473
4	0xbf84a5af	-1.0363063
5	0x40421383	3.032441
6	0xc027034f	-2.609577
7	0xbeb753f6	-0.35806245
8	0x3fc4f06e	1.5385873
9	0x403ae5cf	2.9202764
10	0xbf71fb84	-0.9452441
11	0xc047d24e	-3.122211
12	0x3dc44c6c	0.09584889
13	0x3facce11	1.3500386
14	0xc07f7229	-3.9913428
15	0x401834e7	2.378229
16	0x3eb9ace9	0.36264732
17	0x3fddc83d	1.7326733
18	0x400001cc	2.0001097
19	0x401f0687	2.4847734
20	0xbb423646	-0.00296344
21	0x3fd0b00c	1.6303725
22	0xc00d4289	-2.207186
23	0xc0dabb90	-6.835396
24	0xbf847bfa	-1.0350335
25	0x3db0a0a7	0.08624392
26	0xc0023998	-2.0347652
27	0xbd02d145	-0.031937856
28	0xbee21eff	-0.44164273
29	0x3df50a1b	0.11964818
30	0x3f23ac36	0.6393465
31	0x3fdcccc6	1.7249992
32	0x3fd0c896	1.6311214
33	0xbf80c2db	-1.0059465
34	0x3f30376e	0.6883458
35	0x3f394c44	0.72382
36	0x3fbd1b59	1.4773971
37	0xbebe2180	-0.37134933
38	0x3f5be2ff	0.85893244
39	0x3ffd6ec8	1.9799433

0.bias f4 [40]
0	0xbd11e822	-0.03562177
1	0xbdd33fb3	-0.10314884
2	0xbdc77f76	-0.09741108
3	0xbfa1d3eb	-1.2642797
4	0xbdbc11de	-0.091830954
5	0xbe99fe45	-0.30076805
6	0x3f8199e9	1.0125095
7	0xbdca64c9	-0.098825045
8	0xbf1f4c62	-0.62225926
9	0xbec544f1	-0.3852916
10	0xbd9773fa	-0.07395168
11	0x3f70aa5a	0.94009936
12	0xbdd2b1c5	-0.10287813
13	0xbf878684	-1.0587926
14	0x4001a5de	2.0257487
15	0xbf38f6ef	-0.7225179
16	0xbf04ba21	-0.5184651
17	0xbf300aaf	-0.687663
18	0xbf27ca73	-0.6554329
19	0xbf41383c	-0.7547643
20	0xbce06cde	-0.027395662
21	0xbf9809db	-1.1878008
22	0x3fc53e1d	1.540958
23	0x3f1fe7f9	0.6246334
24	0x3f37429c	0.7158601
25	0xbe044011	-0.12915064
26	0x3f8220f0	1.0166302
27	0xbe42db0a	-0.1902887
28	0xbb0c6ba3	-0.0021426461
29	0xbec2302a	-0.3792737
30	0xbf5eadc1	-0.8698388
31	0xbf857da3	-1.0428966
32	0xbfa34255	-1.2754618
33	0xbc4a6824	-0.012353931
34	0xbf666e4e	-0.9001206
35	0xbf6f33aa	-0.9343821
36	0xbf9406bc	-1.1564555
37	0xba8c0485	-0.0010682499
38	0xbf85405e	-1.0410268
39	0xbfb199a8	-1.3875017

2.weight f4 [1, 40]
0	0xbbf0b366	-0.0073456047
1	0x3dabea39	0.08394284
2	0xbbf4cc20	-0.0074706227
3	0x402fe685	2.7484448
4	0xbd1859be	-0.03719496
5	0x400da933	2.213452
6	0xbfaf816e	-1.3711374
7	0xbdd37e22	-0.10326792
8	0xbf3436d1	-0.70396143
9	0x400334ef	2.0501058
10	0xbd0435d7	-0.03227791
11	0xbfbdcd71	-1.4828321
12	0xbb858f08	-0.0040758885
13	0xbf0c9036	-0.5490755
14	0x4052be96	3.2928824
15	0xbfdb3468	-1.7125368
16	0xbebe287d	-0.37140265
17	0xbf833ccd	-1.025293
18	0xbfb55270	-1.4165783
19	0xbfdd27a4	-1.7277722
20	0x3d0b405f	0.033996936
21	0xc00728ab	-2.1118572
22	0xbfd69f2d	-1.6767327
23	0x3f880d10	1.0628986
24	0xbe15b322	-0.14619115
25	0xbd63e070	-0.055633962
26	0x3f575232	0.84109795
27	0x3c6bc0b3	0.014389205
28	0x3d3358b1	0.043785755
29	0xbcb05ecd	-0.02152958
30	0xbddd8d86	-0.10818009
31	0x4020d474	2.512967
32	0xc02534fb	-2.5813587
33	0x3dc51350	0.09622824
34	0xbddf452c	-0.10901865
35	0x3b3a6921	0.002844401
36	0xc002bb19	-2.0426695
37	0x3ca514f1	0.020151587
38	0xbdc707ad	-0.09718261
39	0xc04aac5f	-3.1667707

0.weight f4 [40, 1]
0	0xbd9bcb25	-0.07607106
1	0xbeaaad7f	-0.33335492
2	0xbf788e3b	-0.97092026
3	0x400a36fb	2.1596057
4	0xbf84a5af	-1.0363063
5	0x4041d12a	3.0283914
6	0xc032d9d4	-2.7945452
7	0xbeb753f6	-0.35806245
8	0x3fc28f69	1.5200015
9	0x40379656	2.8685508
10	0xbf71fb84	-0.9452441
11	0xc05eea0d	-3.4830353
12	0x3dc44c6c	0.09584889
13	0x3fb12726	1.3840072
14	0xc082fdbe	-4.0934744
15	0x40188ea2	2.3837056
16	0x3eb9ace9	0.36264732
17	0x3fdd8e95	1.7309138
18	0x3fff3df6	1.9940784
19	0x401f69a5	2.490823
20	0xbb423646	-0.00296344
21	0x3fd459a0	1.6589851
22	0xc0116d24	-2.2722864
23	0xc0ebbfb0	-7.3671494
24	0xbf357d55	-0.70894367
25	0x3db0a0a7	0.08624392
26	0xc0023f5a	-2.0351167
27	0xbd02d145	-0.031937856
28	0xbee21eff	-0.44164273
29	0x3df50a1b	0.11964818
30	0x3f23ac36	0.6393465
31	0x3fe04876	1.7522113
32	0x3fd8ecd3	1.6947273
33	0xbf80c2db	-1.0059465
34	0x3f30376e	0.6883458
35	0x3f394c44	0.72382
36	0x3fc48c21	1.5355264
37	0xbebe2180	-0.37134933
38	0x3f5be2ff	0.85893244
39	0x4004120c	2.0636015

0.bias f4 [40]
0	0xbd11e822	-0.03562177
1	0xbdd33fb3	-0.10314884
2	0xbdc77f76	-0.09741108
3	0xbfa41aba	-1.2820656
4	0xbdbc11de	-0.091830954
5	0xbe9046de	-0.28179067
6	0x3f8ca431	1.0987607
7	0xbdca64c9	-0.098825045
8	0xbf1fb144	-0.6237986
9	0xbee2556b	-0.44205794
10	0xbd9773fa	-0.07395168
11	0x3f8456b7	1.0338963
12	0xbdd2b1c5	-0.10287813
13	0xbf8b9e7e	-1.0907743
14	0x400469f2	2.0689664
15	0xbf39bb3e	-0.72551334
16	0xbf04ba21	-0.5184651
17	0xbf346671	-0.70468813
18	0xbf2a8b2e	-0.6661862
19	0xbf41deb8	-0.75730467
20	0xbce06cde	-0.027395662
21	0xbfa089c1	-1.2542039
22	0x3fc8f7af	1.5700587
23	0x3f349ed3	0.70554847
24	0x3ec66378	0.38747764
25	0xbe044011	-0.12915064
26	0x3f81647a	1.0108788
27	0xbe42db0a	-0.1902887
28	0xbb0c6ba3	-0.0021426461
29	0xbec2302a	-0.3792737
30	0xbf5eadc1	-0.8698388
31	0xbf87fd70	-1.0624218
32	0xbfa878f9	-1.3161918
33	0xbc4a6824	-0.012353931
34	0xbf666e4e	-0.9001206
35	0xbf6f33aa	-0.9343821
36	0xbf9984be	-1.1993635
37	0xba8c0485	-0.0010682499
38	0xbf85405e	-1.0410268
39	0xbfb8b173	-1.4429153

2.weight f4 [1, 40]
0	0xbbf0b366	-0.0073456047
1	0x3dabea39	0.08394284
2	0xbbf4cc20	-0.0074706227
3	0x402653b5	2.598859
4	0xbd1859be	-0.03719496
5	0x4009f77a	2.1557298
6	0xbfbccddd	-1.4750324
7	0xbdd37e22	-0.10326792
8	0xbf086013	-0.532716
9	0x3ff921c7	1.9463433
10	0xbd0435d7	-0.03227791
11	0xbfdac240	-1.709053
12	0xbb858f08	-0.0040758885
13	0xbeaf9f06	-0.34301013
14	0x40559ff5	3.337888
15	0xbfcf47ba	-1.6193764
16	0xbebe287d	-0.37140265
17	0xbf61725e	-0.88065135
18	0xbfa48a90	-1.2854786
19	0xbfd219d9	-1.6414138
20	0x3d0b405f	0.033996936
21	0xbffc7e88	-1.9726114
22	0xbfd1fe47	-1.6405724
23	0x3f92b424	1.1461225
24	0x3c691ca1	0.014228017
25	0xbd63e070	-0.055633962
26	0x3f3e8b6e	0.744315
27	0x3c6bc0b3	0.014389205
28	0x3d3358b1	0.043785755
29	0xbcb05ecd	-0.02152958
30	0xbddd8d86	-0.10818009
31	0x401205ee	2.281612
32	0xc01cf33c	-2.4523458
33	0x3dc51350	0.09622824
34	0xbddf452c	-0.10901865
35	0x3b3a6921	0.002844401
36	0xbfeadf6c	-1.8349433
37	0x3ca514f1	0.020151587
38	0xbdc707ad	-0.09718261
39	0xc0539f91	-3.3066142

0.weight f4 [40, 1]
0	0xbd9bcb25	-0.07607106
1	0xbeaaad7f	-0.33335492
2	0xbf788e3b	-0.97092026
3	0x400cc279	2.1993697
4	0xbf84a5af	-1.0363063
5	0x4042abe6	3.0417418
6	0xc03d33d9	-2.9562895
7	0xbeb753f6	-0.35806245
8	0x3fbe0e6a	1.4848149
9	0x40312be3	2.7683036
10	0xbf71fb84	-0.9452441
11	0xc078d200	-3.8878174
12	0x3dc44c6c	0.09584889
13	0x3fb43dfb	1.4081415
14	0xc08604b4	-4.188074
15	0x4018a575	2.3850987
16	0x3eb9ace9	0.36264732
17	0x3fdd2965	1.7278258
18	0x3ffe7763	1.9880184
19	0x401f8942	2.4927526
20	0xbb423646	-0.00296344
21	0x3fd99350	1.6998081
22	0xc010ac34	-2.2605104
23	0xc0fe52d9	-7.9476132
24	0xbf861964	-1.0476499
25	0x3db0a0a7	0.08624392
26	0xc0022288	-2.0333576
27	0xbd02d145	-0.031937856
28	0xbee21eff	-0.44164273
29	0x3df50a1b	0.11964818
30	0x3f23ac36	0.6393465
31	0x3fe53aeb	1.7908605
32	0x3fe0bf4c	1.7558379
33	0xbf80c2db	-1.0059465
34	0x3f30376e	0.6883458
35	0x3f394c44	0.72382
36	0x3fcbf00b	1.593263
37	0xbebe2180	-0.37134933
38	0x3f5be2ff	0.85893244
39	0x40099430	2.1496696

0.bias f4 [40]
0	0xbd11e822	-0.03562177
1	0xbdd33fb3	-0.10314884
2	0xbdc77f76	-0.09741108
3	0xbfa71248	-1.3052454
4	0xbdbc11de	-0.091830954
5	0xbe9305fc	-0.28715503
6	0x3f961548	1.1725245
7	0xbdca64c9	-0.098825045
8	0xbf1e6106	-0.61866796
9	0xbf04dc11	-0.51898295
10	0xbd9773fa	-0.07395168
11	0x3f91dfa1	1.1396371
12	0xbdd2b1c5	-0.10287813
13	0xbf8d6851	-1.104746
14	0x4007a896	2.1196647
15	0xbf3b11ca	-0.7307402
16	0xbf04ba21	-0.5184651
17	0xbf371d99	-0.7152954
18	0xbf29f060	-0.6638241
19	0xbf433e93	-0.76267356
20	0xbce06cde	-0.027395662
21	0xbfa83b28	-1.3143053
22	0x3fca3178	1.5796347
23	0x3f48becc	0.7841613
24	0x3e4019c5	0.1875983
25	0xbe044011	-0.12915064
26	0x3f80c8d7	1.0061291
27	0xbe42db0a	-0.1902887
28	0xbb0c6ba3	-0.0021426461
29	0xbec2302a	-0.3792737
30	0xbf5eadc1	-0.8698388
31	0xbf8ab036	-1.0835025
32	0xbfad7c74	-1.3553605
33	0xbc4a6824	-0.012353931
34	0xbf666e4e	-0.9001206
35	0xbf6f33aa	-0.9343821
36	0xbf9e6cb2	-1.2376921
37	0xba8c0485	-0.0010682499
38	0xbf85405e	-1.0410268
39	0xbfc0d4e8	-1.5064974

2.weight f4 [1, 40]
0	0xbbf0b366	-0.0073456047
1	0x3dabea39	0.08394284
2	0xbbf4cc20	-0.0074706227
3	0x401fde0b	2.4979274
4	0xbd1859be	-0.03719496
5	0x4007e5dc	2.1234045
6	0xbfc7d68d	-1.5612351
7	0xbdd37e22	-0.10326792
8	0xbebd18b7	-0.36932918
9	0x3fe3fcbb	1.7811502
10	0xbd0435d7	-0.03227791
11	0xc0001cdc	-2.0017614
12	0xbb858f08	-0.0040758885
13	0xbe592478	-0.21205318
14	0x40597272	3.3976102
15	0xbfc3234b	-1.5245146
16	0xbebe287d	-0.37140265
17	0xbf3db014	-0.740968
18	0xbf934b2d	-1.1507317
19	0xbfc6d271	-1.5532972
20	0x3d0b405f	0.033996936
21	0xbff10b30	-1.8831539
22	0xbfc093cb	-1.5045103
23	0x3fa99c83	1.3250889
24	0xbdd4f3ce	-0.103980646
25	0xbd63e070	-0.055633962
26	0x3f2be0c9	0.6713987
27	0x3c6bc0b3	0.014389205
28	0x3d3358b1	0.043785755
29	0xbcb05ecd	-0.02152958
30	0xbddd8d86	-0.10818009
31	0x40067343	2.100785
32	0xc016f3ac	-2.3586226
33	0x3dc51350	0.09622824
34	0xbddf452c	-0.10901865
35	0x3b3a6921	0.002844401
36	0xbfd60ec2	-1.6723254
37	0x3ca514f1	0.020151587
38	0xbdc707ad	-0.09718261
39	0xc060640a	-3.506106

0.weight f4 [40, 1]
0	0xbd9bcb25	-0.07607106
1	0xbeaaad7f	-0.33335492
2	0xbf788e3b	-0.97092026
3	0x40100561	2.2503283
4	0xbf84a5af	-1.0363063
5	0x40415ebf	3.0214078
6	0xc04420e3	-3.0645072
7	0xbeb753f6	-0.35806245
8	0x3fb3a4c4	1.4034657
9	0x402b0e81	2.6727602
10	0xbf71fb84	-0.9452441
11	0xc085679b	-4.168897
12	0x3dc44c6c	0.09584889
13	0x3fb3e41f	1.4053992
14	0xc088ea73	-4.2786193
15	0x40191a68	2.3922367
16	0x3eb9ace9	0.36264732
17	0x3fdb2878	1.7121725
18	0x3ff936dc	1.9469867
19	0x40200ac6	2.5006576
20	0xbb423646	-0.00296344
21	0x3fe2507e	1.7680814
22	0xc01102e2	-2.265801
23	0xc104d7d1	-8.30269
24	0xbf9ff1c7	-1.249566
25	0x3db0a0a7	0.08624392
26	0xbfff6dc3	-1.9955372
27	0xbd02d145	-0.031937856
28	0xbee21eff	-0.44164273
29	0x3df50a1b	0.11964818
30	0x3f23ac36	0.6393465
31	0x3feba9ed	1.8411232
32	0x3fe7828e	1.8086717
33	0xbf80c2db	-1.0059465
34	0x3f30376e	0.6883458
35	0x3f394c44	0.72382
36	0x3fd2806f	1.6445445
37	0xbebe2180	-0.37134933
38	0x3f5be2ff	0.85893244
39	0x400e6264	2.2247553

0.bias f4 [40]
0	0xbd11e822	-0.03562177
1	0xbdd33fb3	-0.10314884
2	0xbdc77f76	-0.09741108
3	0xbfab1bd7	-1.3367871
4	0xbdbc11de	-0.091830954
5	0xbe95deb1	-0.29271463
6	0x3f99f96f	1.2029246
7	0xbdca64c9	-0.098825045
8	0xbf1830aa	-0.59449255
9	0xbf073da7	-0.5282845
10	0xbd9773fa	-0.07395168
11	0x3f9e4dcb	1.236749
12	0xbdd2b1c5	-0.10287813
13	0xbf8e4341	-1.1114274
14	0x400a67fb	2.1625965
15	0xbf3a3c38	-0.72748137
16	0xbf04ba21	-0.5184651
17	0xbf36127c	-0.71121955
18	0xbf39587b	-0.72400635
19	0xbf42766d	-0.75961953
20	0xbce06cde	-0.027395662
21	0xbfac59b4	-1.3464875
22	0x3fcb7e5b	1.5897936
23	0x3f54edd6	0.8317541
24	0x3e5b9bf2	0.21446207
25	0xbe044011	-0.12915064
26	0x3f7cf748	0.9881482
27	0xbe42db0a	-0.1902887
28	0xbb0c6ba3	-0.0021426461
29	0xbec2302a	-0.3792737
30	0xbf5eadc1	-0.8698388
31	0xbf8e3879	-1.1110984
32	0xbfb44a2b	-1.4085134
33	0xbc4a6824	-0.012353931
34	0xbf666e4e	-0.9001206
35	0xbf6f33aa	-0.9343821
36	0xbfa4bddf	-1.2870444
37	0xba8c0485	-0.0010682499
38	0xbf85405e	-1.0410268
39	0xbfc89ab6	-1.5672214

2.weight f4 [1, 40]
0	0xbbf0b366	-0.0073456047
1	0x3dabea39	0.08394284
2	0xbbf4cc20	-0.0074706227
3	0x401d136c	2.4543104
4	0xbd1859be	-0.03719496
5	0x40034a48	2.0514088
6	0xbfc61ced	-1.5477577
7	0xbdd37e22	-0.10326792
8	0xbe476dcf	-0.19475482
9	0x3fcbc9db	1.5920976
10	0xbd0435d7	-0.03227791
11	0xc00d445b	-2.207297
12	0xbb858f08	-0.0040758885
13	0xbde0a2d8	-0.1096856
14	0x405c05e2	3.437859
15	0xbfb7eaed	-1.4368569
16	0xbebe287d	-0.37140265
17	0xbf156c08	-0.5836797
18	0xbf810af7	-1.0081471
19	0xbfbc7a4b	-1.4724821
20	0x3d0b405f	0.033996936
21	0xbfe53e70	-1.790968
22	0xbfb26a67	-1.3938721
23	0x3facfac0	1.3514023
24	0xbda6095c	-0.08107254
25	0xbd63e070	-0.055633962
26	0x3f12bb6d	0.5731724
27	0x3c6bc0b3	0.014389205
28	0x3d3358b1	0.043785755
29	0xbcb05ecd	-0.02152958
30	0xbddd8d86	-0.10818009
31	0x3ffda6ca	1.9816525
32	0xc012a137	-2.2910898
33	0x3dc51350	0.09622824
34	0xbddf452c	-0.10901865
35	0x3b3a6921	0.002844401
36	0xbfc3f7c9	-1.5309993
37	0x3ca514f1	0.020151587
38	0xbdc707ad	-0.09718261
39	0xc069b44b	-3.6516292
