q_relu_optim/ckpts/sgd_momentum/width10/seed308/ckpt_and_history.pt (torch, 13887 bytes, 33 tensors)

0.weight f4 [10, 1]
0.64541614 0.8594382 -0.3023975 0.8335763 0.025429558 0.22843507 0.06909582 -0.914662
-0.5976131 -0.48414904
00000000: fe39 253f 2404 5c3f d8d3 9abe 4265 553f
00000010: a651 d03c e2ea 693e 1c82 8d3d 4a27 6abf
00000020: 2cfd 18bf 62e2 f7be

0.bias f4 [10]
-0.08113443 -0.14366587 0.05378637 -0.25186324 -0.010393237 -0.10661097 -0.034536123 0.4992372
0.4527227 0.42401913
00000000: cf29 a6bd 251d 13be 194f 5c3d 38f4 80be
00000010: 6548 2abc da56 dabd c075 0dbd 059c ff3e
00000020: 45cb e73e 0919 d93e

2.weight f4 [1, 10]
-0.30853826 -0.009848016 0.18840416 -0.2999519 0.31559062 -0.312521 -0.0009492798 0.2729772
0.12725332 0.16111259
00000000: baf8 9dbe 9359 21bc 05ed 403e 4c93 99be
00000010: 1895 a13e c102 a0be 17d9 78ba abc3 8b3e
00000020: b24e 023e b3fa 243e

0.weight f4 [10, 1]
1.596876 1.1766247 -0.30999565 2.2279642 -0.6572076 0.15252006 0.14476539 -1.4625384
-1.8436642 -1.3382962
00000000: 6f66 cc3f a39b 963f c0b7 9ebe f796 0e40
00000010: c23e 28bf 382e 1c3e 613d 143e 7534 bbbf
00000020: 30fd ebbf 4a4d abbf

0.bias f4 [10]
-0.44377148 -0.16357204 -0.039236523 -0.6152776 0.6504733 -0.22004203 -0.040066052 0.21811394
1.4807956 1.0770856
00000000: 0436 e3be 6e7f 27be 7ab6 20bd d582 1dbf
00000010: 6b85 263f b352 61be 4d1c 24bd 4359 5f3e
00000020: b68a bd3f f1dd 893f

2.weight f4 [1, 10]
-0.8924534 0.6192303 0.17851399 -1.2441411 0.6181097 -0.29948282 -0.07885668 1.0316048
-1.2597785 -0.90863997
00000000: d377 64bf e085 1e3f 5fcc 363e 0440 9fbf
00000010: 703c 1e3f d055 99be 9c7f a1bd a00b 843f
00000020: 6c40 a1bf a19c 68bf

0.weight f4 [10, 1]
2.1204743 1.3483288 -0.30999565 2.9578419 -0.8425041 0.15252006 0.19131942 -3.8308938
-2.5870442 -1.8773806
00000000: dab5 0740 0a96 ac3f c0b7 9ebe 484d 3d40
00000010: 59ae 57bf 382e 1c3e 3de9 433e 5d2d 75c0
00000020: 2292 25c0 024e f0bf

0.bias f4 [10]
-0.5394866 -0.13154024 -0.039236523 -0.75050354 0.80423754 -0.22004203 -0.048558068 0.35085502
2.0679367 1.4992892
00000000: cb1b 0abf 7cb2 06be 7ab6 20bd 0021 40bf
00000010: 83e2 4d3f b352 61be d3e4 46bd 45a3 b33e
00000020: 1359 0440 b5e8 bf3f

2.weight f4 [1, 10]
-0.97349155 0.54539186 0.17851399 -1.3572166 0.31565922 -0.29948282 -0.08753872 3.5381868
-1.4400856 -1.0428442
00000000: be36 79bf cd9e 0b3f 5fcc 363e 46b9 adbf
00000010: 169e a13e d055 99be 8047 b3bd a771 6240
00000020: ba54 b8bf eb7b 85bf

0.weight f4 [10, 1]
2.3528209 1.1801876 -0.30999565 3.280714 -0.75390816 0.15252006 0.21212938 -4.2159014
-2.9119573 -2.1130726
00000000: 9e94 1640 6310 973f c0b7 9ebe 38f7 5140
00000010: 2000 41bf 382e 1c3e 7238 593e aae8 86c0
00000020: 825d 3ac0 953c 07c0

0.bias f4 [10]
-0.5913714 -0.14567812 -0.039236523 -0.82691634 0.6844325 -0.22004203 -0.053473912 0.396564
2.4025013 1.7409773
00000000: 1e64 17bf a52c 15be 7ab6 20bd cab0 53bf
00000010: f836 2f3f b352 61be 7607 5bbd 700a cb3e
00000020: 95c2 1940 58d8 de3f

2.weight f4 [1, 10]
-0.95244646 0.32687348 0.17851399 -1.3280694 0.10202043 -0.29948282 -0.08582125 3.7602267
-1.4113808 -1.0235051
00000000: 88d3 73bf f65b a73e 5fcc 363e 2efe a9bf
00000010: 16f0 d03d d055 99be 0dc3 afbd 8ea7 7040
00000020: 20a8 b4bf 3702 83bf

0.weight f4 [10, 1]
2.4628046 1.0024494 -0.30999565 3.4351444 -0.69875175 0.15252006 0.22206108 -4.3986034
-3.1180356 -2.2612605
00000000: 979e 1d40 4350 803f c0b7 9ebe 68d9 5b40
00000010: 65e1 32bf 382e 1c3e fb63 633e 5cc1 8cc0
00000020: e58d 47c0 7eb8 10c0

0.bias f4 [10]
-0.6315007 -0.10177782 -0.039236523 -0.8789526 0.56023276 -0.22004203 -0.056949746 0.4098367
2.4949117 1.8093579
00000000: 08aa 21bf e470 d0bd 7ab6 20bd 0a03 61bf
00000010: 6a6b 0f3f b352 61be 2344 69bd 1ed6 d13e
00000020: a2ac 1f40 0a99 e73f

2.weight f4 [1, 10]
-0.9175981 0.2613899 0.17851399 -1.2798231 -0.1319746 -0.29948282 -0.08271674 3.7075038
-1.3765073 -0.9989692
00000000: b6e7 6abf e6d4 853e 5fcc 363e 3ed1 a3bf
00000010: 5924 07be d055 99be 6567 a9bd be47 6d40
00000020: 6431 b0bf 72bc 7fbf

0.weight f4 [10, 1]
2.5288877 0.8438029 -0.30999565 3.5268474 -0.6855415 0.15252006 0.22803584 -4.5134363
-3.1896925 -2.3131938
00000000: 4cd9 2140 7803 583f c0b7 9ebe deb7 6140
00000010: a67f 2fbf 382e 1c3e 3a82 693e 126e 90c0
00000020: ec23 4cc0 5e0b 14c0

0.bias f4 [10]
-0.62470067 -0.09900485 -0.039236523 -0.87111264 0.56070936 -0.22004203 -0.05626607 0.40797928
2.6219723 1.9016662
00000000: 62ec 1fbf 0ec3 cabd 7ab6 20bd 3d01 5fbf
00000010: a68a 0f3f b352 61be 4077 66bd a9e2 d03e
00000020: 65ce 2740 cc69 f33f

2.weight f4 [1, 10]
-0.90941495 0.21229325 0.17851399 -1.2683548 -0.24729176 -0.29948282 -0.081989095 3.6392932
-1.3622763 -0.9879348
00000000: 6bcf 68bf 6763 593e 5fcc 363e 7359 a2bf
00000010: 0d3a 7dbe d055 99be e6e9 a7bd 2eea 6840
00000020: 125f aebf 4ce9 7cbf

0.weight f4 [10, 1]
2.5553627 0.68984216 -0.30999565 3.5638354 -0.68909717 0.15252006 0.2304216 -4.6453404
-3.2481582 -2.356329
00000000: 108b 2340 7f99 303f c0b7 9ebe e115 6440
00000010: ac68 30bf 382e 1c3e a4f3 6b3e a1a6 94c0
00000020: d3e1 4fc0 18ce 16c0

0.bias f4 [10]
-0.6568944 -0.08414399 -0.039236523 -0.9161144 0.56907356 -0.22004203 -0.059215162 0.43284696
2.6848552 1.946649
00000000: 3b2a 28bf af53 acbd 7ab6 20bd 7986 6abf
00000010: ceae 113f b352 61be 998b 72bd 1e9e dd3e
00000020: abd4 2b40 cb2b f93f

2.weight f4 [1, 10]
-0.8943856 0.14995982 0.17851399 -1.2473608 -0.27683976 -0.29948282 -0.080657355 3.5506983
-1.3510456 -0.980002
00000000: 74f6 64bf 118f 193e 5fcc 363e 85a9 9fbf
00000010: f1bd 8dbe d055 99be af2f a5bd a43e 6340
00000020: 10ef acbf 69e1 7abf

0.weight f4 [10, 1]
2.5765069 0.5552396 -0.30999565 3.593324 -0.70225793 0.15252006 0.23232538 -4.760029
-3.3183837 -2.4064915
00000000: 7de5 2440 2f24 0e3f c0b7 9ebe 05f9 6540
00000010: 2dc7 33bf 382e 1c3e b4e6 6d3e 2852 98c0
00000020: 6660 54c0 f503 1ac0

0.bias f4 [10]
-0.6575685 -0.062708035 -0.039236523 -0.91706175 0.5674904 -0.22004203 -0.0592959 0.45543343
2.683302 1.9458927
00000000: 6956 28bf 126d 80bd 7ab6 20bd 8fc4 6abf
00000010: 0d47 113f b352 61be 42e0 72bd 922e e93e
00000020: 38bb 2b40 0313 f93f

2.weight f4 [1, 10]
-0.88286847 0.10943939 0.17851399 -1.2313036 -0.26968604 -0.29948282 -0.07961055 3.4739401
-1.2847943 -0.93174994
00000000: ab03 62bf c221 e03d 5fcc 363e 5b9b 9dbf
00000010: 4a14 8abe d055 99be db0a a3bd 0955 5e40
00000020: 2474 a4bf 2a87 6ebf

0.weight f4 [10, 1]
2.5923078 0.4644233 -0.30999565 3.6153612 -0.7019188 0.15252006 0.23375161 -4.8685446
-3.3165894 -2.4051774
00000000: 5fe8 2540 e4c8 ed3e c0b7 9ebe 1462 6740
00000010: f3b0 33bf 382e 1c3e 955c 6f3e 1ecb 9bc0
00000020: 0043 54c0 6dee 19c0

0.bias f4 [10]
-0.666316 -0.060836308 -0.039236523 -0.9292604 0.5779232 -0.22004203 -0.060083088 0.44111001
2.7359176 1.9840708
00000000: af93 2abf 7e2f 79bd 7ab6 20bd 02e4 6dbf
00000010: c6f2 133f b352 61be af19 76bd 2cd9 e13e
00000020: 4619 2f40 08f6 fd3f

2.weight f4 [1, 10]
-0.9048342 0.10206743 0.17851399 -1.261936 -0.2717129 -0.29948282 -0.081589624 3.4024646
-1.2882639 -0.9342428
00000000: 37a3 67bf bb08 d13d 5fcc 363e 1e87 a1bf
00000010: f41d 8bbe d055 99be 7618 a7bd fbc1 5940
00000020: d5e5 a4bf 892a 6fbf

0.weight f4 [10, 1]
2.5897143 0.3718883 -0.30999565 3.6117406 -0.70779324 0.15252006 0.23353729 -4.967886
-3.3468542 -2.4271245
00000000: e1bd 2540 2568 be3e c0b7 9ebe c226 6740
00000010: f031 35bf 382e 1c3e 6624 6f3e ecf8 9ec0
00000020: dc32 56c0 0256 1bc0

0.bias f4 [10]
-0.67979395 -0.045673005 -0.039236523 -0.9480609 0.57289857 -0.22004203 -0.061289545 0.44040066
2.709881 1.9651928
00000000: fa06 2ebf 9e13 3bbd 7ab6 20bd 1fb4 72bf
00000010: 7ba9 123f b352 61be bf0a 7bbd 327c e13e
00000020: b16e 2d40 708b fb3f

2.weight f4 [1, 10]
-0.8872703 0.08164764 0.17851399 -1.237439 -0.27365357 -0.29948282 -0.08001938 3.3009696
-1.2944257 -0.93871146
00000000: 2524 63bf e136 a73d 5fcc 363e 6764 9ebf
00000010: 521c 8cbe d055 99be 33e1 a3bd 1643 5340
00000020: beaf a5bf 654f 70bf

0.weight f4 [10, 1]
2.5943615 0.3066983 -0.30999565 3.6181037 -0.7080737 0.15252006 0.233936 -5.0826035
-3.3496442 -2.429142
00000000: 050a 2640 8f07 9d3e c0b7 9ebe 038f 6740
00000010: 5144 35bf 382e 1c3e eb8c 6f3e b0a4 a2c0
00000020: 9260 56c0 1077 1bc0

0.bias f4 [10]
-0.6591839 -0.034393158 -0.039236523 -0.9192096 0.57841116 -0.22004203 -0.059426945 0.4782903
2.7348986 1.9833304
00000000: 47c0 28bf d7df 0cbd 7ab6 20bd 5251 6bbf
00000010: c112 143f b352 61be ab69 73bd 77e2 f43e
00000020: 9408 2f40 c5dd fd3f

2.weight f4 [1, 10]
-0.8732281 0.06887005 0.17851399 -1.2180761 -0.27395636 -0.29948282 -0.07877138 3.2621086
-1.2948425 -0.9390124
00000000: e08b 5fbf be0b 8d3d 5fcc 363e ebe9 9bbf
00000010: 0244 8cbe d055 99be e452 a1bd 63c6 5040
00000020: 66bd a5bf 1e63 70bf
