dis/dis03/code/ckpts/sgd/width40/seed808/ckpt_and_history.pt (torch, 18111 bytes, 33 tensors)

0.weight f4 [40, 1]
0.31883514 0.33709764 0.46572673 0.04782035 0.4468927 -0.84037983 -0.47411406 -0.09993189
0.36815387 -0.89928997 0.6331422 -0.64713824 0.14177823 -0.6715334 0.9635709 -0.5471783
-0.49206704 -0.90312344 -0.7625776 -0.89542955 -0.83088994 -0.73381746 -0.08722312 -0.16470243
0.91273564 -0.19771206 0.94762534 0.89326054 0.90788364 0.6944726 0.3595059 0.2539279
0.19262746 -0.7899909 -0.2445536 -0.57941437 0.18031935 0.045130774 -0.0010399078 0.63265896
00000000: 5c3e a33e 1098 ac3e bc73 ee3e 45df 433d
00000010: 1fcf e43e 2223 57bf 14bf f2be 17a9 ccbd
00000020: aa7e bc3e de37 66bf 9b15 223f daaa 25bf
00000030: 502e 113e 9de9 2bbf 95ac 763f e113 0cbf
00000040: 36f0 fbbe 1933 67bf 4938 43bf df3a 65bf
00000050: 34b5 54bf 76db 3bbf 09a2 b2bd c1a7 28be
00000060: 0ba9 693f 0875 4abe 9397 723f b9ac 643f
00000070: 106b 683f f5c8 313f 2811 b83e d602 823e
00000080: 2240 453e d83c 4abf 426c 7abe 8054 14bf
00000090: a3a5 383e 0cdb 383d 844d 88ba f0f5 213f

0.bias f4 [40]
-0.015861295 -0.018384192 -0.033385415 -0.005268708 -0.041284256 0.08227 0.06420537 0.015861062
-0.06209563 0.15758501 -0.12709117 0.13316534 -0.032273576 0.15856983 -0.24865331 0.15186982
0.14600472 0.2794917 0.2706919 0.32014614 0.3158566 0.38707244 0.047373764 0.09184739
-0.55081713 0.12277089 -0.59252805 -0.5766877 -0.5938368 -0.45454237 -0.2358235 -0.17438918
-0.13211825 0.56569195 0.17800155 0.4401805 -0.15331662 -0.03920662 0.002268955 -0.6104278
00000000: 8cef 81bc 729a 96bc 25bf 08bd 20a5 acbb
00000010: ae19 29bd 2c7d a83d 1b7e 833d 0fef 813c
00000020: fd57 7ebd f75d 213e 3024 02be 7f5c 083e
00000030: 4c31 04bd 2160 223e f99e 7ebe c383 1b3e
00000040: 4382 153e 8919 8f3e 2198 8a3e 32ea a33e
00000050: f5b7 a13e 5c2e c63e fe0a 423d 7c1a bc3d
00000060: 5a02 0dbf 4e6f fb3d ebaf 17bf cea1 13bf
00000070: b005 18bf c7b9 e8be b77b 71be 1493 32be
00000080: 024a 07be 30d1 103f 0a46 363e 575f e13e
00000090: 08ff 1cbe 1f97 20bd c0b2 143b ff44 1cbf

2.weight f4 [1, 40]
-0.071609356 -0.076767094 0.0021552914 -0.1267035 -0.050770916 -0.10133026 -0.13053095 -0.10709704
0.15027243 -0.05051507 0.09464807 0.07056236 0.07532264 0.066717334 0.08070287 -0.09982989
-0.044549 -0.08956639 -0.05823187 0.11332766 -0.03691744 0.13244097 -0.06925123 0.04282424
0.064585306 0.01674527 -0.06860124 0.09480055 -0.12951776 -0.07149291 0.15649416 -0.12781478
-0.059814095 0.023635091 -0.14361322 -0.14503682 -0.15249555 0.13935451 0.12389153 0.072490506
00000000: eda7 92bd 1138 9dbd ca3f 0d3b 90be 01be
00000010: 2af5 4fbd 3d86 cfbd e8a9 05be b155 dbbd
00000020: 04e1 193e e4e8 4ebd d9d6 c13d 0083 903d
00000030: c242 9a3d 19a3 883d 8c47 a53d 9d73 ccbd
00000040: 0379 36bd 956e b7bd 8b84 6ebd 5518 e83d
00000050: be36 17bd 9b9e 073e 97d3 8dbd 7868 2f3d
00000060: 4d45 843d 602d 893c cf7e 8cbd ca26 c23d
00000070: 4ea0 04be e06a 92bd 0140 203e e1e1 02be
00000080: a0ff 74bd 619e c13c 580f 13be 8884 14be
00000090: cb27 1cbe f3b2 0e3e d8ba fd3d e775 943d

0.weight f4 [40, 1]
0.31805497 0.35354733 0.46651205 0.11959839 0.47427338 -0.8607275 -0.53746873 -0.14677738
0.3944119 -0.94605803 0.65329504 -0.6725854 0.155264 -0.6799541 1.0248507 -0.6293287
-0.5509937 -1.0183892 -0.8634255 -0.93456584 -0.9351095 -0.8934836 -0.12862399 -0.20942686
0.92634374 -0.23946148 1.0886198 0.9188065 1.0961089 0.8235977 0.4402269 0.3596124
0.2532233 -0.8152862 -0.29973426 -0.6595432 0.30423063 0.042265985 -0.0022278463 0.6224115
00000000: 1ad8 a23e 2804 b53e abda ee3e 00f0 f43d
00000010: f6d3 f23e a358 5cbf 8d97 09bf cf4c 16be
00000020: 5bf0 c93e dc30 72bf 583e 273f 8f2e 2cbf
00000030: 87fd 1e3e 7911 2ebf 4f2e 833f b01b 21bf
00000040: ec0d 0dbf 945a 82bf 7409 5dbf b53f 6fbf
00000050: 5663 6fbf 57bb 64bf 02b6 03be ff73 56be
00000060: dd24 6d3f 6435 75be e557 8b3f e736 6b3f
00000070: 4c4d 8c3f 4dd7 523f 6c65 e13e 1e1f b83e
00000080: 7ca6 813e 99b6 50bf c576 99be d3d7 28bf
00000090: 1ec4 9b3e 191f 2d3d 0f01 12bb 5c56 1f3f

0.bias f4 [40]
-3.8498843e-06 -0.10364711 -0.055046212 -0.035125535 -0.13907756 0.25006598 0.15627591 0.042866018
-0.047864888 0.2749632 -0.07989276 0.08326054 -0.018783547 0.105519414 -0.3004996 0.1830474
0.16036803 0.29606742 0.25108927 0.2707827 0.27206022 0.48426753 0.03748293 0.11337279
-0.7173012 0.1298293 -0.8439464 -0.71139073 -0.8499526 -0.63871664 -0.2384118 -0.27944556
-0.19653033 0.6296875 0.23180294 0.5100073 -0.23635845 -0.042159773 0.053644154 -0.620763
00000000: 412e 81b6 f044 d4bd 2378 61bd cbdf 0fbd
00000010: 596a 0ebe a608 803e cb06 203e 4794 2f3d
00000020: f90d 44bd fac7 8c3e d19e a3bd 8184 aa3d
00000030: f4df 99bc 901a d83d 15db 99be c770 3b3e
00000040: 8437 243e 2696 973e c68e 803e 08a4 8a3e
00000050: 7a4b 8b3e eaf1 f73e b387 193d fe2f e83d
00000060: 0da1 37bf f9f1 043e df0c 58bf b41d 36bf
00000070: 7e96 59bf ef82 23bf 3922 74be 7d13 8fbe
00000080: 3f3f 49be 3333 213f c05d 6d3e d78f 023f
00000090: f307 72be baaf 2cbd f9b9 5b3d 53ea 1ebf

2.weight f4 [1, 40]
-0.071632296 -0.16622527 0.065583296 -0.16882244 -0.213178 -0.31681412 -0.3177638 -0.15640563
0.20265003 -0.37316656 0.16618726 0.16654876 0.09437809 0.042997625 -0.3972453 -0.34147462
-0.26005828 -0.4881126 -0.39580122 -0.23533563 -0.39903998 0.6010245 -0.113214895 0.15136153
-0.4898998 0.1424985 -0.8068065 -0.478004 -0.8724148 -0.6333768 0.29945087 -0.3581202
-0.22704604 -0.34444946 -0.267489 -0.43018174 -0.33916304 0.13931072 0.13263673 0.07153223
00000000: f4b3 92bd f536 2abe 8950 863d cadf 2cbe
00000010: 554b 5abe 7635 a2be f0b1 a2be cc28 20be
00000020: 7d83 4f3e b00f bfbe fe2c 2a3e c28b 2a3e
00000030: 4d49 c13d 471e 303d bc63 cbbe c3d5 aebe
00000040: 5c26 85be e5e9 f9be 75a6 cabe d3fb 70be
00000050: f84e ccbe bedc 193f 36dd e7bd 84fe 1a3e
00000060: 26d4 fabe 20eb 113e df8a 4ebf f1bc f4be
00000070: 9456 5fbf fb24 22bf a051 993e 885b b7be
00000080: c27e 68be ae5b b0be 51f4 88be c840 dcbe
00000090: c7a6 adbe 78a7 0e3e ecd1 073e 7d7f 923d

0.weight f4 [40, 1]
0.31522194 0.3667236 0.5068147 0.13307482 0.4912153 -0.9056574 -0.5808271 -0.16758646
0.47359774 -0.9986862 0.73281187 -0.7416951 0.19089325 -0.7184076 1.0566552 -0.67622703
-0.587125 -1.0859954 -0.91851926 -0.96950537 -0.991 -1.4976268 -0.14377111 -0.3577231
1.0454485 -0.38930625 1.2747544 1.0352631 1.2956929 0.9690456 0.78601164 0.43955463
0.30445054 -0.94159055 -0.38325936 -0.8016869 0.37901363 0.042265985 0.0006861615 0.6224115
00000000: c564 a13e 32c3 bb3e 9cbe 013f c444 083e
00000010: 9280 fb3e 2ad9 67bf 16b1 14bf c99b 2bbe
00000020: 677b f23e e6a9 7fbf 8f99 3b3f bbdf 3dbf
00000030: 8579 433e 8fe9 37bf 7a40 873f 371d 2dbf
00000040: d34d 16bf e601 8bbf 1424 6bbf 8131 78bf
00000050: 2db2 7dbf 3cb2 bfbf bc38 13be 7b27 b7be
00000060: 42d1 853f 2653 c7be 272b a33f 8083 843f
00000070: 44d9 a53f 5f13 783f 0f38 493f 4e0d e13e
00000080: f1e0 9b3e 140c 71bf 923a c4be 5a3b 4dbf
00000090: 130e c23e 191f 2d3d 85df 333a 5c56 1f3f

0.bias f4 [40]
0.0058636577 -0.10703952 -0.06294703 -0.037797604 -0.14341432 0.27206418 0.1740801 0.049881976
-0.059040196 0.29976657 -0.09087166 0.08968387 -0.023845455 0.08703289 -0.30870113 0.20270564
0.17613928 0.325895 0.27551937 0.29105487 0.29750878 0.81001866 0.042937737 0.19358183
-0.8211868 0.21072263 -1.0005033 -0.8133781 -1.0163208 -0.76054895 -0.43381613 -0.34463745
-0.2387408 0.7463479 0.3043297 0.6360324 -0.2970072 -0.042159773 0.03936247 -0.620763
00000000: ed23 c03b 8937 dbbd 5fea 80bd a9d1 1abd
00000010: 34db 12be ff4b 8b3e 0e42 323e 0b51 4c3d
00000020: 22d4 71bd 017b 993e ec1a babd 2dac b73d
00000030: 8b57 c3bc 4d3e b23d 130e 9ebe 1192 4f3e
00000040: db5d 343e b6db a63e e010 8d3e 2505 953e
00000050: 1253 983e 625d 4f3f 7bdf 2f3d 513a 463e
00000060: 4c39 52bf acc7 573e 7e10 80bf 8c39 50bf
00000070: cd16 82bf 56b3 42bf 261d debe 5274 b0be
00000080: 7878 74be a810 3f3f 1ad1 9b3e 05d3 223f
00000090: 5411 98be baaf 2cbd 8b3a 213d 53ea 1ebf

2.weight f4 [1, 40]
-0.06293114 -0.19300193 0.21203102 -0.17700507 -0.24919169 -0.43652403 -0.3932725 -0.17746557
0.3313217 -0.5049053 0.3738273 0.35552946 0.14550914 0.22807778 -0.475619 -0.42968768
-0.3370521 -0.6304511 -0.51637644 -0.36464205 -0.5294438 1.4872572 -0.13151853 0.36152202
-0.7957912 0.37566996 -1.1731362 -0.7811602 -1.2430439 -0.91122824 0.8000326 -0.48188785
-0.3134326 -0.7042817 -0.4057833 -0.7277027 -0.44491014 0.13931072 0.12555118 0.07153223
00000000: 0be2 80bd 4ca2 45be a91e 593e d140 35be
00000010: 1b2c 7fbe 1480 dfbe 035b c9be 89b9 35be
00000020: ffa2 a93e 7941 01bf 4b66 bf3e f507 b63e
00000030: 5900 153e 398d 693e 5584 f3be 0600 dcbe
00000040: 1892 acbe 3e65 21bf 3f31 04bf 5db2 babe
00000050: a189 07bf 725e be3f cbac 06be 6a19 b93e
00000060: f9b8 4bbf d057 c03e 5429 96bf 1dfa 47bf
00000070: 101c 9fbf 4146 69bf f0ce 4c3f 01ba f6be
00000080: 3d7a a0be ce4b 34bf d4c2 cfbe b94a 3abf
00000090: 43cb e3be 78a7 0e3e 7d90 003e 7d7f 923d

0.weight f4 [40, 1]
0.31285328 0.3917931 0.5909648 0.15551995 0.52366614 -1.006929 -0.66803694 -0.20529869
0.59165615 -1.1149482 0.8743587 -0.8527945 0.24202725 -0.7971305 1.1188033 -0.77226883
-0.66337097 -1.2285231 -1.0357436 -1.0575974 -1.1120062 -2.1776175 -0.17208076 -0.52259815
1.1774863 -0.56199086 1.463275 1.1651667 1.4940097 1.1150397 1.2719946 0.5150576
0.3539602 -1.1498829 -0.4962103 -1.0094002 0.44811347 0.042265985 0.0040152706 0.6224115
00000000: 4e2e a03e 1b99 c83e 7849 173f 9f40 1f3e
00000010: fc0e 063f 0de3 80bf 7804 2bbf d239 52be
00000020: c776 173f 9fb6 8ebf f9d5 5f3f be50 5abf
00000030: fed5 773e bf10 4cbf f234 8f3f 69b3 45bf
00000040: aed2 29bf 3f40 9dbf 3f93 84bf 5a5f 87bf
00000050: 3856 8ebf 165e 0bc0 f035 30be fec8 05bf
00000060: dfb7 963f a2de 0fbf 984c bb3f 2f24 953f
00000070: b63b bf3f 9fb9 8e3f b8d0 a23f d1da 033f
00000080: 453a b53e 5d2f 93bf 470f febe 0734 81bf
00000090: 216f e53e 191f 2d3d 8892 833b 5c56 1f3f

0.bias f4 [40]
0.013178581 -0.12326044 -0.07171876 -0.049078144 -0.16460115 0.31756476 0.21069309 0.064742684
-0.071656466 0.35161662 -0.1059627 0.104499616 -0.029312273 0.09759151 -0.3518924 0.24334674
0.20927536 0.38727054 0.3263723 0.33358687 0.3506467 1.203684 0.05422075 0.28874406
-0.9024622 0.3107342 -1.1203109 -0.8930522 -1.1434754 -0.8535447 -0.70147747 -0.39384887
-0.27078456 0.8906918 0.38331762 0.78056866 -0.3424425 -0.042159773 0.019754564 -0.620763
00000000: faea 573c f86f fcbd 49e1 92bd 2a06 49bd
00000010: 348d 28be d997 a23e eebf 573e d097 843d
00000020: a0c0 92bd 1807 b43e f902 d9bd e503 d63d
00000030: 4b20 f0bc 0fde c73d 3e2b b4be e32f 793e
00000040: 484c 563e 5348 c63e 451a a73e e6cb aa3e
00000050: f787 b33e 5112 9a3f 9416 5e3d 43d6 933e
00000060: c307 67bf 8e18 9f3e 5966 8fbf 129f 64bf
00000070: 675d 92bf e881 5abf 0794 33bf 8fa6 c9be
00000080: 46a4 8abe 6104 643f 3542 c43e 59d3 473f
00000090: a054 afbe baaf 2cbd 53d4 a13c 53ea 1ebf

2.weight f4 [1, 40]
-0.05503458 -0.24377967 0.37100548 -0.19557755 -0.3171997 -0.6397823 -0.5256656 -0.21680266
0.48438898 -0.7294593 0.60595965 0.5530178 0.20761546 0.4159131 -0.6218428 -0.5833213
-0.46979645 -0.8761241 -0.72384983 -0.58036596 -0.75279653 2.336541 -0.16489859 0.5649167
-1.0320561 0.59556866 -1.4638501 -1.0150504 -1.5391494 -1.1324818 1.3900154 -0.58312654
-0.3832868 -1.0746446 -0.5603478 -1.0471283 -0.53258616 0.13931072 0.11949729 0.07153223
00000000: f16b 61bd 61a1 79be 6ef4 bd3e 7b45 48be
00000010: 0068 a2be c6c8 23bf 0592 06bf 8401 5ebe
00000020: d501 f83e d8bd 3abf 2c20 1b3f 9392 0d3f
00000030: 2699 543e 90f2 d43e 1731 1fbf 8b54 15bf
00000040: 2989 f0be ab49 60bf 394e 39bf dd92 14bf
00000050: 46b7 40bf e389 1540 2ddb 28be 619e 103f
00000060: 6a1a 84bf 3077 183f 715f bbbf 2ced 81bf
00000070: d902 c5bf 2af5 90bf 06ec b13f c847 15bf
00000080: 2b3e c4be f48d 89bf f472 0fbf 4d08 86bf
00000090: 9157 08bf 78a7 0e3e ffba f43d 7d7f 923d

0.weight f4 [40, 1]
0.31616575 0.43433833 0.69189143 0.18773723 0.5791626 -1.1146771 -0.75505406 -0.24055156
0.7188671 -1.2375026 1.0369242 -1.0315596 0.2962531 -0.9371304 1.2287761 -0.8690544
-0.7418042 -1.3746887 -1.1566122 -1.156805 -1.2380697 -2.6748462 -0.1990131 -0.6426634
1.2773845 -0.68891877 1.6017876 1.2635077 1.6389173 1.2218978 1.6166776 0.569187
0.38976076 -1.2964939 -0.57145625 -1.1508279 0.4971871 0.042265985 -0.0037572503 0.6224115
00000000: 7ae0 a13e 9861 de3e cc1f 313f 303e 403e
00000010: 0044 143f bdad 8ebf 394b 41bf 2653 76be
00000020: ad07 383f 7c66 9ebf efb9 843f 250a 84bf
00000030: 7cae 973e c7e7 6fbf 8948 9d3f 597a 5ebf
00000040: e1e6 3dbf cdf5 afbf de0b 94bf 3012 94bf
00000050: 1179 9ebf ae30 2bc0 17ca 4bbe 9785 24bf
00000060: 5681 a33f fb5c 30bf 6007 cd3f 9fba a13f
00000070: 0bc8 d13f 2667 9c3f 4bef ce3f 3db6 113f
00000080: b98e c73e 83f3 a5bf f54a 12bf 544e 93bf
00000090: 4f8f fe3e 191f 2d3d 333c 76bb 5c56 1f3f

0.bias f4 [40]
0.0231471 -0.13808066 -0.08527186 -0.059942335 -0.18407279 0.3602227 0.24362701 0.077301994
-0.088032894 0.39975095 -0.12731193 0.12559128 -0.03629803 0.114191145 -0.39046395 0.2805087
0.23947497 0.4435624 0.37342626 0.37392125 0.39993995 1.4815606 0.06408443 0.3559888
-0.96331936 0.38160506 -1.2084712 -0.95286506 -1.2366253 -0.9219476 -0.8985343 -0.42957443
-0.29415247 1.0175418 0.4483665 0.9031669 -0.37529933 -0.042159773 0.002476478 -0.620763
00000000: fd9e bd3c 0465 0dbe 03a3 aebd 1886 75bd
00000010: 947d 3cbe 1c6f b83e 5c79 793e 8250 9e3d
00000020: 974a b4bd 28ac cc3e 0f5e 02be 009b 003e
00000030: 3ead 14bd 0cdd e93d e4ea c7be d69e 8f3e
00000040: ed38 753e 9c1a e33e ba31 bf3e 9b72 bf3e
00000050: eec4 cc3e c7a3 bd3f b33e 833d 2a44 b63e
00000060: 199c 76bf bd61 c33e 2faf 9abf f7ee 73bf
00000070: bd49 9ebf c204 6cbf 5806 66bf 2ef1 dbbe
00000080: 279b 96be cf3e 823f 4b90 e53e f235 673f
00000090: 3c27 c0be baaf 2cbd 684c 223b 53ea 1ebf

2.weight f4 [1, 40]
-0.07553034 -0.31295073 0.5173916 -0.22396241 -0.40956563 -0.8146436 -0.642655 -0.25328735
0.633381 -0.9232811 0.82378846 0.8037498 0.26876995 0.64681315 -0.8186666 -0.71831346
-0.58546704 -1.0903866 -0.9043381 -0.7631507 -0.9463522 2.92549 -0.19531588 0.70632446
-1.1924883 0.74743116 -1.6640158 -1.1737753 -1.7437139 -1.2850854 1.7975019 -0.6538793
-0.43183273 -1.319616 -0.6666175 -1.2627461 -0.5942495 0.13931072 0.11700704 0.07153223
00000000: a7af 9abd 143b a0be c773 043f 6756 65be
00000010: 96b2 d1be 7c8c 50bf 0a85 24bf e1ae 81be
00000020: 4225 223f 265c 6cbf cde3 523f 8cc2 4d3f
00000030: 379c 893e 8c95 253f 2294 51bf 64e3 37bf
00000040: 2be1 15bf ca91 8bbf b482 67bf d85d 43bf
00000050: 2344 72bf 3a3b 3b40 e300 48be aed1 343f
00000060: 75a3 98bf a657 3f3f 78fe d4bf 453e 96bf
00000070: 0432 dfbf ae7d a4bf 8b14 e63f a264 27bf
00000080: 2e19 ddbe 2de9 a8bf 72a7 2abf aaa1 a1bf
00000090: bc20 18bf 78a7 0e3e 63a1 ef3d 7d7f 923d

0.weight f4 [40, 1]
0.32483158 0.48100078 0.7986922 0.21998376 0.6403373 -1.1939495 -0.8170056 -0.26467746
0.8475093 -1.3271414 1.205882 -1.2779375 0.35070062 -1.1390717 1.3517424 -0.9384202
-0.7984639 -1.4801372 -1.244186 -1.2314997 -1.3298441 -2.9943912 -0.2177065 -0.71980023
1.3351886 -0.7706252 1.6973553 1.3204353 1.7404219 1.2949766 1.7848802 0.6074953
0.4150711 -1.3765888 -0.6119011 -1.2275269 0.53189176 0.042265985 -0.016429469 0.6224115
00000000: 5350 a63e bc45 f63e 1877 4c3f 6c43 613e
00000010: 25ed 233f 56d3 98bf 4727 51bf ce83 87be
00000020: 5ff6 583f c5df a9bf 575a 9a3f 7593 a3bf
00000030: 088f b33e 1acd 91bf e505 ad3f 4e3c 70bf
00000040: 2168 4cbf 2375 bdbf 7d41 9fbf c8a1 9dbf
00000050: 5538 aabf 1ba4 3fc0 74ee 5ebe d444 38bf
00000060: 76e7 aa3f b147 45bf f042 d93f 0604 a93f
00000070: 25c6 de3f cbc1 a53f f476 e43f d084 1b3f
00000080: 3384 d43e 1034 b0bf 8da5 1cbf 9a1f 9dbf
00000090: 0f2a 083f 191f 2d3d 1897 86bc 5c56 1f3f

0.bias f4 [40]
0.037004024 -0.1526723 -0.10322439 -0.069816776 -0.20320532 0.3905528 0.26739857 0.08666622
-0.10942844 0.4343333 -0.15580924 0.16010691 -0.045291644 0.14253822 -0.4289731 0.3070991
0.26129195 0.4843272 0.4071378 0.40277246 0.4352404 1.6385245 0.07124405 0.39387015
-1.0069944 0.42167273 -1.248772 -0.9958333 -1.2768859 -0.9539935 -1.0108415 -0.44418526
-0.30383676 1.0869406 0.48307133 0.9691001 -0.3886579 -0.042159773 0.008972053 -0.620763
00000000: 8891 173d 2156 1cbe 4f67 d3bd 19fc 8ebd
00000010: 0e15 50be 89f6 c73e 77e8 883e 0f7e b13d
00000020: 051c e0bd ef60 de3e 758c 1fbe 11f3 233e
00000030: bb83 39bd 8af5 113e 5da2 dbbe 183c 9d3e
00000040: 0fc8 853e bcf9 f73e 5e74 d03e 3138 ce3e
00000050: d4d7 de3e 2cbb d13f 67e8 913d 59a9 c93e
00000060: 31e5 80bf 7de5 d73e c3d7 9fbf eeee 7ebf
00000070: ff70 a3bf eb38 74bf 4163 81bf 406c e3be
00000080: 7e90 9bbe df20 8b3f 2055 f73e f216 783f
00000090: 2bfe c6be baaf 2cbd 85ff 123c 53ea 1ebf

2.weight f4 [1, 40]
-0.11055782 -0.38003266 0.65447193 -0.25365674 -0.49895296 -0.9303575 -0.7212062 -0.27839994
0.7771113 -1.0517771 1.029884 1.1055714 0.32810828 0.9182522 -1.0079257 -0.80868614
-0.6625496 -1.2332394 -1.0245107 -0.8830759 -1.0749547 3.2858083 -0.21606718 0.7929045
-1.2873076 0.84021497 -1.783092 -1.2675543 -1.8656135 -1.3759279 2.0018873 -0.69628084
-0.4608489 -1.4451027 -0.7217776 -1.3739741 -0.63131833 0.13931072 0.11793096 0.07153223
00000000: 236c e2bd a493 c2be 798b 273f 4cdf 81be
00000010: c376 ffbe e92b 6ebf f8a0 38bf 708a 8ebe
00000020: c4f0 463f a2a0 86bf 3dd3 833f 5d83 8d3f
00000030: cffd a73e 9412 6b3f b603 81bf 0e06 4fbf
00000040: da9c 29bf cada 9dbf 2b23 83bf 4311 62bf
00000050: 1e98 89bf af4a 5240 b740 5dbe cafb 4a3f
00000060: 7fc6 a4bf 5418 573f 5c3c e4bf 383f a2bf
00000070: 6ccc eebf 681e b0bf ec1e 0040 763f 32bf
00000080: 63f4 ebbe 20f9 b8bf 6bc6 38bf 62de afbf
00000090: 149e 21bf 78a7 0e3e ca85 f13d 7d7f 923d

0.weight f4 [40, 1]
0.3382044 0.5247906 0.9006358 0.24858983 0.69786173 -1.2476907 -0.85846305 -0.280587
0.9675464 -1.3878502 1.3657981 -1.5645317 0.40130922 -1.3791305 1.4683254 -0.98494685
-0.83663917 -1.5511847 -1.3032305 -1.2826895 -1.3918402 -3.2082107 -0.23007677 -0.77139044
1.3699298 -0.82529783 1.7546285 1.3546171 1.8048078 1.3382298 1.8723621 0.63066053
0.4306443 -1.4261111 -0.63671815 -1.2745103 0.55267 0.042265985 -0.023838611 0.6224115
00000000: 2129 ad3e ad58 063f 1190 663f 558e 7e3e
00000010: 11a7 323f 54b4 9fbf 3cc4 5bbf 19a9 8fbe
00000020: 1fb1 773f 13a5 b1bf 79d2 ae3f 9342 c8bf
00000030: 6778 cd3e 5987 b0bf 16f2 bb3f 7a25 7cbf
00000040: fc2d 56bf 388d c6bf 42d0 a6bf 2b2f a4bf
00000050: d227 b2bf 5353 4dc0 3f99 6bbe d879 45bf
00000060: dc59 af3f b846 53bf ab97 e03f 1864 ad3f
00000070: f103 e73f 1d4b ab3f 90a9 ef3f f872 213f
00000080: 697d dc3e cf8a b6bf f6ff 22bf 2723 a3bf
00000090: c87b 0d3f 191f 2d3d 3149 c3bc 5c56 1f3f

0.bias f4 [40]
0.056368012 -0.16610785 -0.116922095 -0.07860472 -0.22092976 0.4115237 0.28364632 0.09293413
-0.12551816 0.4580398 -0.17721434 0.19492373 -0.05208315 0.17183606 -0.4648155 0.3253188
0.27622235 0.51211655 0.4302258 0.4226855 0.4594658 1.741584 0.07610961 0.4187393
-1.0359393 0.44805795 -1.276072 -1.0243765 -1.2992857 -0.9763178 -1.0819658 -0.45369375
-0.30981278 1.1328511 0.50583297 1.0128049 -0.39756614 -0.042159773 0.0127559835 -0.620763
00000000: 25e2 663d 2d18 2abe da74 efbd 83fb a0bd
00000010: 693b 62be 3cb3 d23e 173a 913e 4054 be3d
00000020: d587 00be 3184 ea3e ad77 35be 169a 473e
00000030: 2455 55bd cbf5 2f3e 4cfc edbe 3090 a63e
00000040: 046d 8d3e 121a 033f 8e46 dc3e 3c6a d83e
00000050: 1a3f eb3e 39ec de3f 5bdf 9b3d ff64 d63e
00000060: a999 84bf da67 e53e 5456 a3bf c51e 83bf
00000070: fe4e a6bf f7ef 79bf db7d 8abf 8c4a e8be
00000080: c89f 9ebe 4401 913f 457e 013f 97a3 813f
00000090: ca8d cbbe baaf 2cbd 79fe 503c 53ea 1ebf

2.weight f4 [1, 40]
-0.15157484 -0.43850136 0.7761485 -0.28077027 -0.5767561 -1.0049533 -0.7722275 -0.29491377
0.90686566 -1.1346908 1.2139181 1.4303004 0.38185182 1.2059995 -1.1719527 -0.867292
-0.71242404 -1.3256909 -1.1022258 -0.9600403 -1.1580294 3.5234904 -0.22965443 0.85004014
-1.3446412 0.9013853 -1.855123 -1.3242524 -1.9394519 -1.4308957 2.1135993 -0.7220295
-0.47844926 -1.5225824 -0.75603306 -1.4428635 -0.65385777 0.13931072 0.11920885 0.07153223
00000000: 6f36 1bbe 4083 e0be abb1 463f 1fc1 8fbe
00000010: 4aa6 13bf 4fa2 80bf b4b0 45bf f0fe 96be
00000020: 5928 683f 8c3d 91bf ab61 9b3f 1514 b73f
00000030: 1582 c33e 315e 9a3f 8c02 96bf d906 5ebf
00000040: 6c61 36bf 3db0 a9bf bc15 8dbf 33c5 75bf
00000050: 4f3a 94bf de80 6140 882a 6bbe 3b9c 593f
00000060: 341d acbf 30c1 663f ac74 edbf 1a81 a9bf
00000070: f63f f8bf 9727 b7bf 3645 0740 edd6 38bf
00000080: 4df7 f4be fbe3 c2bf 628b 41bf c0af b8bf
00000090: 3963 27bf 78a7 0e3e c523 f43d 7d7f 923d

0.weight f4 [40, 1]
0.35495844 0.56488633 0.98180056 0.2738417 0.7506696 -1.2879299 -0.8892961 -0.29231864
1.0619097 -1.4332625 1.4925103 -1.845074 0.4410185 -1.6166656 1.5758685 -1.0195916
-0.8651219 -1.6041819 -1.3473095 -1.3212085 -1.4381673 -3.3391945 -0.23922323 -0.80302554
1.3932319 -0.85881084 1.7967148 1.377545 1.8446898 1.3636289 1.9197596 0.64520717
0.4403295 -1.4667802 -0.6568499 -1.3129835 0.56577295 0.042265985 -0.028404482 0.6224115
00000000: 1dbd b53e 649c 103f 4857 7b3f fb34 8c3e
00000010: e22b 403f e3da a4bf e9a8 63bf caaa 95be
00000020: a8ec 873f 2575 b7bf 940a bf3f 632b ecbf
00000030: 2dcd e13e e6ee cebf 0fb6 c93f fa81 82bf
00000040: a178 5dbf d555 cdbf a374 acbf 5c1d a9bf
00000050: de15 b8bf 5db5 55c0 eff6 74be 1593 4dbf
00000060: 6c55 b23f 07db 5bbf c0fa e53f 6553 b03f
00000070: cc1e ec3f 648b ae3f afba f53f 4c2c 253f
00000080: de72 e13e 74bf bbbf 5127 28bf d80f a8bf
00000090: 7fd6 103f 191f 2d3d 84b0 e8bc 5c56 1f3f

0.bias f4 [40]
0.081264645 -0.17745261 -0.12284361 -0.08602408 -0.23572457 0.42361456 0.2929475 0.0964908
-0.13302223 0.47169343 -0.1867268 0.22407869 -0.055223916 0.19628437 -0.4948142 0.33576238
0.28479832 0.5280761 0.44349346 0.43422633 0.47340265 1.8078507 0.078878045 0.43465674
-1.0534911 0.46500966 -1.2863075 -1.0416887 -1.3158162 -0.9939442 -1.1293651 -0.46025458
-0.31410012 1.1661309 0.52241373 1.0444045 -0.40359464 -0.042159773 0.014736968 -0.620763
00000000: 146e a63d 23b6 35be 6e95 fbbd 652d b0bd
00000010: c861 71be 02e4 d83e 37fd 953e f89c c53d
00000020: fb36 08be cd81 f13e 4f35 3fbe e274 653e
00000030: 7932 62bd c5fe 483e 4958 fdbe 0ce9 ab3e
00000040: 16d1 913e ff2f 073f 9311 e33e ea52 de3e
00000050: d561 f23e a767 e73f d08a a13d 548b de3e
00000060: ccd8 86bf bf15 ee3e b9a5 a4bf 0e56 85bf
00000070: aa6c a8bf 2173 7ebf 098f 90bf 7da6 ebbe
00000080: bbd1 a0be c743 953f e8bc 053f 0caf 853f
00000090: f5a3 cebe baaf 2cbd 5373 713c 53ea 1ebf

2.weight f4 [1, 40]
-0.19509853 -0.4892732 0.8686338 -0.3050187 -0.6442527 -1.0579954 -0.8086828 -0.306809
1.0064379 -1.1936864 1.3542782 1.7351382 0.42316842 1.4738779 -1.313857 -0.9091301
-0.7479743 -1.3915981 -1.1576068 -1.0146048 -1.2171844 3.6697264 -0.23941416 0.88519937
-1.3808517 0.9390112 -1.9006034 -1.3600582 -1.9861789 -1.4655808 2.1779766 -0.7383347
-0.48958942 -1.5825472 -0.78268015 -1.4963218 -0.66813725 0.13931072 0.120221116 0.07153223
00000000: e9c7 47be 0482 fabe c95e 5e3f 692b 9cbe
00000010: bfed 24bf 656c 87bf d605 4fbf 1216 9dbe
00000020: f5d2 803f b7ca 98bf fd58 ad3f 0219 de3f
00000030: 88a9 d83e 08a8 bc3f 772c a8bf c0bc 68bf
00000040: 3e7b 3fbf e31f b2bf 762c 94bf 92de 81bf
00000050: b3cc 9bbf ccdc 6a40 fc28 75be 6d9c 623f
00000060: c0bf b0bf 0a63 703f f946 f3bf 6316 aebf
00000070: 1c3b febf 2798 bbbf f863 0b40 8103 3dbf
00000080: 77ab fabe e890 cabf ba5d 48bf 7987 bfbf
00000090: 0b0b 2bbf 78a7 0e3e 7d36 f63d 7d7f 923d

0.weight f4 [40, 1]
0.37187645 0.5978244 1.041027 0.29420042 0.79402316 -1.3126659 -0.90817404 -0.2994659
1.1304092 -1.4611659 1.5847701 -2.089526 0.46980488 -1.8247298 1.6643631 -1.0408218
-0.8825964 -1.6366938 -1.3743556 -1.3449588 -1.4666125 -3.428396 -0.24480474 -0.83436096
1.4041713 -0.88163906 1.8235253 1.3883585 1.8714299 1.3810678 1.9521163 0.6551262
0.4469054 -1.4966749 -0.67152905 -1.3412205 0.5747317 0.042265985 -0.03158979 0.6224115
00000000: 9766 be3e 050b 193f 5f40 853f 70a1 963e
00000010: 1a45 4b3f 7005 a8bf 187e 68bf 9853 99be
00000020: 40b1 903f 7c07 bbbf bfd9 ca3f cbba 05c0
00000030: 448a f03e bf90 e9bf da09 d53f a639 85bf
00000040: d6f1 61bf 2f7f d1bf e2ea afbf 9c27 acbf
00000050: f5b9 bbbf d76a 5bc0 18ae 7abe ae98 55bf
00000060: e3bb b33f 19b3 61bf 4769 e93f bbb5 b13f
00000070: 048b ef3f d4c6 b03f f2de f93f 5ab6 273f
00000080: c9d0 e43e 0b93 bfbf 54e9 2bbf 1dad abbf
00000090: 9e21 133f 191f 2d3d 4c64 01bd 5c56 1f3f

0.bias f4 [40]
0.10557412 -0.18526082 -0.13057154 -0.090886876 -0.24610803 0.4333506 0.3003949 0.099318534
-0.14181079 0.48267892 -0.19878526 0.25030342 -0.05895498 0.21867058 -0.5160511 0.34413314
0.29168293 0.5408864 0.4541485 0.44355807 0.48460567 1.8606087 0.08108397 0.43015113
-1.0705705 0.47851005 -1.2939188 -1.0584643 -1.3255515 -1.0041335 -1.1605654 -0.46389675
-0.31651887 1.1840508 0.5314148 1.0613912 -0.40691018 -0.042159773 0.016347045 -0.620763
00000000: 3f37 d83d 03b5 3dbe 8cb4 05be e622 babd
00000010: be03 7cbe 21e0 dd3e 5ccd 993e 8467 cb3d
00000020: d936 11be b121 f73e 5d8e 4bbe c527 803e
00000030: c77a 71bd 2eeb 5f3e ed1b 04bf 3832 b03e
00000040: 7757 953e 8877 0a3f 2786 e83e 0b1a e33e
00000050: 3c1e f83e 6d28 ee3f 5a0f a63d c53c dc3e
00000060: 7408 89bf 45ff f43e 229f a5bf c27b 87bf
00000070: acab a9bf 7287 80bf 688d 94bf e083 edbe
00000080: c30e a2be fa8e 973f cd0a 083f abdb 873f
00000090: 8856 d0be baaf 2cbd 3dea 853c 53ea 1ebf

2.weight f4 [1, 40]
-0.23442207 -0.529128 0.9349981 -0.32440552 -0.6972076 -1.0909886 -0.83142734 -0.31426573
1.0782528 -1.2303934 1.455183 1.9954488 0.45299715 1.701577 -1.4249856 -0.9352141
-0.7701184 -1.4326564 -1.1920937 -1.048483 -1.2540104 3.7730572 -0.24552184 0.91069245
-1.4039445 0.96559024 -1.9296643 -1.3828895 -2.0159566 -1.4876163 2.22075 -0.7487219
-0.49668807 -1.6215734 -0.80006725 -1.5311686 -0.6772332 0.13931072 0.12108663 0.07153223
00000000: 570c 70be ef74 07bf 095c 6f3f 7b18 a6be
00000010: 337c 32bf 84a5 8bbf 6cd8 54bf 70e7 a0be
00000020: 3004 8a3f 887d 9dbf 7043 ba3f de6a ff3f
00000030: 3eef e73e 46cd d93f ee65 b6bf 316a 6fbf
00000040: 7b26 45bf 4961 b7bf 8796 98bf b134 86bf
00000050: 6a83 a0bf c579 7140 146a 7bbe 2423 693f
00000060: 74b4 b3bf ec30 773f 3dff f6bf 8602 b1bf
00000070: 6f05 01c0 366a bebf c520 0e40 3dac 3fbf
00000080: e64d febe b88f cfbf 35d1 4cbf 55fd c3bf
00000090: 285f 2dbf 78a7 0e3e 44fc f73d 7d7f 923d

0.weight f4 [40, 1]
0.38428074 0.62204146 1.0908912 0.30875608 0.82596886 -1.3320116 -0.922903 -0.30502474
1.1878351 -1.4829794 1.6623377 -2.2869015 0.49392626 -1.993258 1.7298473 -1.0573915
-0.89624435 -1.6620847 -1.3954859 -1.3635627 -1.4888413 -3.4937031 -0.24914975 -0.85860014
1.4145455 -0.89835364 1.841156 1.3985769 1.8899168 1.3967096 1.9792774 0.66199213
0.45145974 -1.5180333 -0.68208253 -1.3612853 0.5809432 0.042265985 -0.034185626 0.6224115
00000000: 72c0 c43e 1c3e 1f3f 53a2 8b3f 4715 9e3e
00000010: b272 533f 5b7f aabf 5f43 6cbf 342c 9cbe
00000020: fb0a 983f 45d2 bdbf 7bc7 d43f 985c 12c0
00000030: e7e3 fc3e 1423 ffbf a36b dd3f 9b58 87bf
00000040: 4570 65bf 31bf d4bf 489f b2bf 3989 aebf
00000050: 5a92 bebf d598 5fc0 1d21 7fbe 38cd 5bbf
00000060: d40f b53f 81fa 65bf 00ab eb3f 9104 b33f
00000070: cbe8 f13f 61c7 b23f f658 fd3f 5178 293f
00000080: bb25 e73e ea4e c2bf f69c 2ebf 993e aebf
00000090: b2b8 143f 191f 2d3d 3a06 0cbd 5c56 1f3f

0.bias f4 [40]
0.12373614 -0.18850493 -0.13366303 -0.09361732 -0.25027978 0.43751147 0.3035712 0.1005225
-0.14541632 0.48737273 -0.20361398 0.2567152 -0.060461484 0.22385585 -0.5240678 0.34770635
0.294623 0.5463548 0.45869902 0.44755208 0.48939145 1.8915353 0.08202378 0.42659575
-1.0798231 0.48642334 -1.3022085 -1.0675755 -1.3341173 -1.007551 -1.1889132 -0.4670737
-0.31862712 1.1985465 0.53855324 1.0752195 -0.4097824 -0.042159773 0.01711082 -0.620763
00000000: 6069 fd3d 7007 41be f6de 08be 70ba bfbd
00000010: ac24 80be 8101 e03e af6d 9b3e bede cd3d
00000020: 04e8 14be eb88 f93e 2f80 50be 2d70 833e
00000030: 76a6 77bd 783a 653e 4f29 06bf 9106 b23e
00000040: d3d8 963e e8dd 0b3f 99da ea3e 8c25 e53e
00000050: 8491 fa3e d41d f23f 15fc a73d c26a da3e
00000060: a537 8abf 7b0c f93e c5ae a6bf 50a6 88bf
00000070: 5bc4 aabf 6ef7 80bf 4f2e 98bf 4924 efbe
00000080: 1823 a3be f969 993f a0de 093f cba0 893f
00000090: 00cf d1be baaf 2cbd fe2b 8c3c 53ea 1ebf

2.weight f4 [1, 40]
-0.26181883 -0.5569128 0.98960614 -0.33806524 -0.7341119 -1.1152683 -0.84819674 -0.31977987
1.1375428 -1.2574139 1.5383102 2.2014432 0.47763866 1.8813034 -1.5023468 -0.95443714
-0.7864277 -1.4628968 -1.2174937 -1.0733796 -1.281118 3.8448486 -0.25003436 0.9306908
-1.4204831 0.9840555 -1.9505279 -1.3992405 -2.0373363 -1.5034367 2.2576659 -0.756177
-0.5017834 -1.6503904 -0.8129265 -1.5569165 -0.6837617 0.13931072 0.12180279 0.07153223
00000000: 1e0d 86be d691 0ebf d456 7d3f e316 adbe
00000010: c2ee 3bbf 1dc1 8ebf 6c23 59bf 30ba a3be
00000020: 019b 913f f0f2 a0bf 59e7 c43f 72e4 0c40
00000030: 0e8d f43e 8dce f03f e64c c0bf fe55 74bf
00000040: 5353 49bf 3440 bbbf d5d6 9bbf 8164 89bf
00000050: adfb a3bf 0012 7640 8104 80be c141 6e3f
00000060: 64d2 b5bf 10eb 7b3f e6aa f9bf 501a b3bf
00000070: b863 02c0 9d70 c0bf 997d 1040 d194 41bf
00000080: e074 00bf fe3f d3bf f31b 50bf 0a49 c7bf
00000090: 020b 2fbf 78a7 0e3e be73 f93d 7d7f 923d

0.weight f4 [40, 1]
0.39433017 0.6390528 1.124065 0.31906155 0.84840757 -1.342592 -0.93092227 -0.30804408
1.2259519 -1.4948713 1.7139043 -2.4353144 0.50993073 -2.1202145 1.7757865 -1.0664146
-0.90368164 -1.6759195 -1.4069998 -1.373752 -1.5009583 -3.5410964 -0.25151202 -0.87599194
1.4236432 -0.91048497 1.8559551 1.4075437 1.9053737 1.4092948 2.0015128 0.6677312
0.45526677 -1.5332443 -0.68957525 -1.37583 0.5861308 0.042265985 -0.036398154 0.6224115
00000000: a5e5 c93e f798 233f 5de1 8f3f 095c a33e
00000010: 3d31 593f 0eda abbf ec50 6ebf f4b7 9dbe
00000020: feeb 9c3f f157 bfbf 3761 db3f 31dc 1bc0
00000030: d28a 023f 98b1 07c0 f94c e33f 4680 88bf
00000040: ae57 67bf 8884 d6bf 9218 b4bf 1bd7 afbf
00000050: 671f c0bf 53a1 62c0 2fc6 80be 0241 60bf
00000060: f139 b63f 8b15 69bf f08f ed3f 642a b43f
00000070: 49e3 f33f c663 b43f c918 0040 6ff0 2a3f
00000080: ba18 e93e 5941 c4bf 0188 30bf 331b b0bf
00000090: ab0c 163f 191f 2d3d 3b16 15bd 5c56 1f3f

0.bias f4 [40]
0.13788326 -0.19303018 -0.13884602 -0.09635385 -0.25620434 0.4405026 0.30592686 0.10141266
-0.1513538 0.4908584 -0.21162246 0.26238775 -0.06295813 0.22842804 -0.5361775 0.35035592
0.29680613 0.55041337 0.46207625 0.45042607 0.4929445 1.9208541 0.08271937 0.432468
-1.0876865 0.49392578 -1.3101074 -1.0753235 -1.3423619 -1.0119058 -1.2120022 -0.47013
-0.32065573 1.2099274 0.5441635 1.0857117 -0.41254443 -0.042159773 0.017984655 -0.620763
00000000: 4531 0d3e b4a9 45be a72d 0ebe 2b55 c5bd
00000010: 372d 83be 8f89 e13e 72a2 9c3e 71b1 cf3d
00000020: 7efc 1abe cb51 fb3e 8fb3 58be b057 863e
00000030: 31f0 80bd 0ae9 693e ee42 09bf da61 b33e
00000040: f9f6 973e e4e7 0c3f 4295 ec3e 3f9e e63e
00000050: 3963 fc3e 8cde f53f c668 a93d 726c dd3e
00000060: 5039 8bbf d7e3 fc3e 99b1 a7bf 33a4 89bf
00000070: 84d2 abbf 2186 81bf e322 9bbf e1b4 f0be
00000080: fd2c a4be e7de 9a3f 4d4e 0b3f 9af8 8a3f
00000090: 0639 d3be baaf 2cbd 8e54 933c 53ea 1ebf

2.weight f4 [1, 40]
-0.28308937 -0.57681674 1.0257788 -0.34790435 -0.7605467 -1.1287165 -0.85749316 -0.32284215
1.1768832 -1.2723818 1.5934103 2.3555748 0.49399412 2.0155678 -1.5577298 -0.9650942
-0.79546493 -1.4796563 -1.231568 -1.0871611 -1.2961377 3.9005 -0.25253963 0.9490101
-1.4345993 0.99836874 -1.968357 -1.4132001 -2.0556135 -1.516987 2.2874765 -0.7625462
-0.50613856 -1.6715622 -0.82238793 -1.5758501 -0.6893358 0.13931072 0.122508995 0.07153223
00000000: 17f1 90be 43aa 13bf b84c 833f 8520 b2be
00000010: 30b3 42bf c879 90bf ac84 5bbf 914b a5be
00000020: 1ca4 963f 68dd a2bf def4 cb3f bdc1 1640
00000030: ccec fc3e 10ff 0040 b163 c7bf 6a10 77bf
00000040: 97a3 4bbf 6165 bdbf 05a4 9dbf 1828 8bbf
00000050: d7e7 a5bf cba1 7940 e04c 81be 53f2 723f
00000060: f3a0 b7bf 1895 7f3f 1ff3 fbbf bee3 b4bf
00000070: 2c8f 03c0 a12c c2bf 0466 1240 3a36 43bf
00000080: 4c92 01bf c0f5 d5bf 0488 52bf 75b5 c9bf
00000090: 5078 30bf 78a7 0e3e ffe5 fa3d 7d7f 923d
