dis/dis03/code/ckpts/adam/width20/seed818/ckpt_and_history.pt (torch, 15999 bytes, 33 tensors)

0.weight f4 [20, 1]
00000000: 28cb e0be b441 66bf e036 413f 8c98 18bf
00000010: 20c2 39bf 037b 253e 6fb5 543f 68d8 1c3f
00000020: 5ea8 cbbe c01a b93e 89b2 19bf ec56 26be
00000030: 94a9 92bd 049a 36bf 963e 313f 04e1 303f
00000040: b89f bdbe 32e9 5b3f 7250 2d3f 5046 cc3e
-0.43904996 -0.89944005 0.7547436 -0.5960777 -0.72561836 0.16160206 0.83089346 0.6126771
-0.3977689 0.3615322 -0.6003805 -0.16244096 -0.07161251 -0.7132876 0.69236124 0.69093347
-0.37035918 0.859027 0.67700875 0.39897394

0.bias f4 [20]
00000000: ed78 e43b a758 953c 89f9 81bc 4e47 b63d
00000010: a97f a83d 4e3a 5cbd bdf2 26be 887d 9fbe
00000020: e4ac 6c3e c8b2 1cbe b2af 903e e5ac f63d
00000030: 51b5 9e3d bcbd ed3e 7d32 05bf 4662 0fbf
00000040: 1abf 993e 158e 56bf 74ec 19bf c681 d8be
0.0069724233 0.01823075 -0.015866058 0.08900319 0.08227474 -0.05376654 -0.16303535 -0.3115046
0.23112828 -0.15302575 0.28259045 0.12044696 0.07749427 0.46433818 -0.52030164 -0.5600933
0.3002861 -0.8381055 -0.60126424 -0.4228651

2.weight f4 [1, 20]
00000000: 4680 c2bd 44e2 0c3e aa20 a4bd e0da 5fbd
00000010: 3027 263e 4d59 853c 70a0 78bd 0e21 993d
00000020: 246f 7cbd 13ed 54be d3bf cc3d 51b6 ecbd
00000030: d01a 09bd 40a9 e63d aa81 db3d 06e8 263e
00000040: 1c85 b5bd c023 0e3b 23b5 56be 320d e33d
-0.094971225 0.13758188 -0.08014043 -0.054652095 0.16225886 0.016277933 -0.06069988 0.07477008
-0.06162943 -0.20793562 0.09997525 -0.115582116 -0.033472836 0.112627506 0.10718091 0.16299447
-0.08863279 0.002168879 -0.20967536 0.11086501

0.weight f4 [20, 1]
00000000: c84d f9bf e8e9 81bf 8f43 1a40 9601 0bc0
00000010: eff7 5ebf d549 7a3f def8 f33f e860 c63f
00000020: 0fa5 a0bf e762 913f b011 02c0 76d2 cfbf
00000030: 5521 33c0 4f88 18c0 2404 ee3e c884 003f
00000040: 02bb 3dbe 6d48 423f 3241 ce3f b804 993e
-1.9476862 -1.0149508 2.4103734 -2.1719718 -0.87097067 0.9776891 1.9060323 1.5498323
-1.2550372 1.1358308 -2.0323296 -1.6236103 -2.7989094 -2.3833196 0.46487534 0.5020261
-0.18528369 0.7589176 1.6113646 0.29886413

0.bias f4 [20]
00000000: b202 363f a71d eebd cb3b afbf 54e8 4e3f
00000010: 6e20 b6bd 2b7a 14bf 7711 90bf 61cc 8abf
00000020: 251f e53e 3267 63bf b6bf 393f b57a 143f
00000030: cdd5 b73f 6b2d 603f efa4 40bf eda6 3fbf
00000040: 5a70 4b3f db2e 70bf 16c4 9cbf ade1 05bf
0.7109786 -0.116267495 -1.3690122 0.80823255 -0.08892904 -0.57998914 -1.125533 -1.0843621
0.44750324 -0.8882934 0.7255815 0.57999736 1.4362122 0.875693 -0.7525167 -0.74864084
0.7946831 -0.93821496 -1.2247341 -0.5229748

2.weight f4 [1, 20]
00000000: 7882 bdbf 98df 5c3c cfed 2d40 f768 d1bf
00000010: 54aa 5abc 4dcb 653f 937a ec3f 556f 96c0
00000020: 7191 c3be ec14 49c0 7e7b 88bf ae7f 5ebf
00000030: 03c7 5340 63f5 9cbf 5753 a3bd e14e 0bbc
00000040: ac34 25bf 1d95 c8bd d8f0 adc0 3857 303c
-1.4805441 0.013481043 2.7176397 -1.6360158 -0.013346273 0.8976334 1.8474907 -4.7010903
-0.381969 -3.141902 -1.0662687 -0.86913574 3.3090217 -1.2262386 -0.0797488 -0.008502693
-0.64533496 -0.09794066 -5.43565 0.010762982

0.weight f4 [20, 1]
00000000: beed 10c0 e8e9 81bf b3ea 2040 3201 21c0
00000010: eff7 5ebf 21fe 853f 58bf 0040 fc06 dd3f
00000020: d34b 6cbf 9403 9a3f a9b4 13c0 415d e7bf
00000030: 762d 42c0 9d11 2cc0 2404 ee3e c884 003f
00000040: 96c5 18be 6d48 423f 737b d73f b804 993e
-2.2645106 -1.0149508 2.514325 -2.515698 -0.87097067 1.0468179 2.0116787 1.7267756
-0.923032 1.2032342 -2.3079016 -1.8075334 -3.0340247 -2.688575 0.46487534 0.5020261
-0.14919123 0.7589176 1.6834549 0.29886413

0.bias f4 [20]
00000000: 2fa0 503f a71d eebd 3ce3 b7bf a73e 6c3f
00000010: 6e20 b6bd 7aeb 21bf 6688 99bf 6fa4 99bf
00000020: 1eb2 9d3e c6f3 70bf 1168 4b3f 1358 1e3f
00000030: b935 c53f 6900 793f efa4 40bf eda6 3fbf
00000040: b1ca 143f db2e 70bf ec07 a4bf ade1 05bf
0.8149442 -0.116267495 -1.4366221 0.922831 -0.08892904 -0.63249934 -1.199475 -1.2003306
0.30799955 -0.9412197 0.7945567 0.6185314 1.540702 0.9726625 -0.7525167 -0.74864084
0.5812178 -0.93821496 -1.2814918 -0.5229748

2.weight f4 [1, 20]
00000000: 0cb3 afbf 98df 5c3c b18f 3440 2ebc ccbf
00000010: 54aa 5abc f2d4 193f b49e f33f 9a0b a4c0
00000020: 3d83 a7bd 41f7 1dc0 3212 77bf 5862 23bf
00000030: 499c 5240 c3ef 9cbf 5753 a3bd e14e 0bbc
00000040: c40d d4be 1d95 c8bd 44b4 a5c0 3857 303c
-1.3726516 0.013481043 2.8212702 -1.5994928 -0.013346273 0.60090554 1.9032807 -5.126416
-0.081793286 -2.4682162 -0.9651214 -0.63821936 3.290789 -1.226067 -0.0797488 -0.008502693
-0.41416752 -0.09794066 -5.178255 0.010762982

0.weight f4 [20, 1]
00000000: c499 38c0 e8e9 81bf 6aaa 2640 2cce 35c0
00000010: eff7 5ebf 7775 8a3f 4621 0640 50d5 ed3f
00000020: c97a e8c0 1467 a13f 9f58 37c0 ded2 10c0
00000030: f641 54c0 ddbe 50c0 2404 ee3e c884 003f
00000040: ad1c 73be 6d48 423f 2758 df3f b804 993e
-2.884385 -1.0149508 2.6041512 -2.8407087 -0.87097067 1.0817097 2.0957808 1.8580723
-7.2649884 1.2609582 -2.864784 -2.2628703 -3.316526 -3.2616494 0.46487534 0.5020261
-0.23741408 0.7589176 1.7448777 0.29886413

0.bias f4 [20]
00000000: 0acd 5f3f a71d eebd 9e4a bfbf a3f8 8f3f
00000010: 6e20 b6bd 8c09 29bf 6f53 a3bf b51f a5bf
00000020: 2b99 453f 9427 7dbf 0840 5e3f 5a97 2f3f
00000030: 9d3f d33f 2b05 873f efa4 40bf eda6 3fbf
00000040: 3ef5 d73e db2e 70bf 2639 abbf ade1 05bf
0.8742224 -0.116267495 -1.4944646 1.1247753 -0.08892904 -0.6603019 -1.2759837 -1.2900301
0.7718684 -0.98888516 0.86816454 0.6859032 1.6503788 1.0548452 -0.7525167 -0.74864084
0.42179292 -0.93821496 -1.3376815 -0.5229748

2.weight f4 [1, 20]
00000000: c2e0 d6bf 98df 5c3c 850a 3840 8718 f7bf
00000010: 54aa 5abc dc3a a43e f66f f53f 21e5 a9c0
00000020: 03c3 2a40 876a e7bf cff2 a3bf 7aac 65bf
00000030: d6b1 5d40 afc3 c7bf 5753 a3bd e14e 0bbc
00000040: b014 53be 1d95 c8bd f317 9cc0 3857 303c
-1.6787341 0.013481043 2.875642 -1.930436 -0.013346273 0.32076156 1.9174793 -5.30922
2.6681526 -1.8079385 -1.2808474 -0.89716303 3.4639792 -1.5606593 -0.0797488 -0.008502693
-0.2061336 -0.09794066 -4.8779235 0.010762982

0.weight f4 [20, 1]
00000000: 1b4b 3cc0 e8e9 81bf 7ac0 2b40 83a3 46c0
00000010: eff7 5ebf 60a2 863f 6ec1 0b40 1dc6 fb3f
00000020: 6542 f1c0 cc4c aa3f 8d98 3ac0 b5b5 12c0
00000030: bf03 5ec0 8ac5 54c0 2404 ee3e c884 003f
00000040: e631 a8be 6d48 423f c090 e83f b804 993e
-2.942084 -1.0149508 2.6836228 -3.10373 -0.87097067 1.0518303 2.183681 1.9669834
-7.539355 1.3304687 -2.915561 -2.2923405 -3.4689786 -3.3245568 0.46487534 0.5020261
-0.3285057 0.7589176 1.8169174 0.29886413

0.bias f4 [20]
00000000: 0261 653f a71d eebd 204f c5bf a8cd 9d3f
00000010: 6e20 b6bd f637 26bf e9e5 a9bf 8b25 b0bf
00000020: 2e29 493f b6e7 83bf 8ced 623f de7e 323f
00000030: dc56 db3f 2479 883f efa4 40bf eda6 3fbf
00000040: b7a1 a83e db2e 70bf d308 b3bf ade1 05bf
0.8960115 -0.116267495 -1.5414772 1.2328386 -0.08892904 -0.6492914 -1.3273288 -1.3761457
0.7857846 -1.0305088 0.8864372 0.69724834 1.7135882 1.0661969 -0.7525167 -0.74864084
0.3293588 -0.93821496 -1.3987068 -0.5229748

2.weight f4 [1, 20]
00000000: 4e00 d2bf 98df 5c3c f011 3940 e52e 0ac0
00000010: 54aa 5abc fdd7 df3d bc8f f43f 36b8 adc0
00000020: a290 2440 441a acbf 0a32 9ebf bf92 4ebf
00000030: a49f 6440 de3f c4bf 5753 a3bd e14e 0bbc
00000040: 3ac6 efbc 1d95 c8bd 4ed0 96c0 3857 303c
-1.6406343 0.013481043 2.8917198 -2.1591122 -0.013346273 0.10929868 1.9106364 -5.4287367
2.5713277 -1.3445516 -1.2359021 -0.80692667 3.5722437 -1.5331991 -0.0797488 -0.008502693
-0.029269326 -0.09794066 -4.712928 0.010762982

0.weight f4 [20, 1]
00000000: 631a 40c0 e8e9 81bf 7988 3040 8b64 4fc0
00000010: eff7 5ebf caa9 533f 6ae0 1040 cdbe 0340
00000020: 7ef5 f6c0 6b4a b13f 1d49 3dc0 16be 12c0
00000030: 11c1 61c0 dc0a 5ac0 2404 ee3e c884 003f
00000040: 8d55 93be 6d48 423f d518 f23f b804 993e
-3.0016105 -1.0149508 2.7583296 -3.2405117 -0.87097067 0.8268095 2.2636971 2.0585206
-7.7174673 1.3850836 -2.9575875 -2.292852 -3.5274088 -3.4069128 0.46487534 0.5020261
-0.28776208 0.7589176 1.8913828 0.29886413

0.bias f4 [20]
00000000: 8a1e 6b3f a71d eebd f238 cabf 2de6 a53f
00000010: 6e20 b6bd 2fa7 3cbf 2f62 b0bf 05a7 b9bf
00000020: b0cb 503f c8db 8abf 595d 673f d8c7 333f
00000030: f049 df3f a8de 883f efa4 40bf eda6 3fbf
00000040: 310e 6b3e db2e 70bf e3a4 bbbf ade1 05bf
0.91843474 -0.116267495 -1.5798628 1.2960869 -0.08892904 -0.736926 -1.3779963 -1.4504095
0.815608 -1.0848322 0.9037681 0.7022681 1.7444439 1.0692949 -0.7525167 -0.74864084
0.22954632 -0.93821496 -1.4659694 -0.5229748

2.weight f4 [1, 20]
00000000: 5111 cabf 98df 5c3c 6c51 3740 c923 0fc0
00000010: 54aa 5abc b163 8a3d a1eb ee3f 0018 adc0
00000020: 669a 1f40 8a31 6ebf 6ef1 95bf 8cd5 30bf
00000030: dc34 6440 240e bfbf 5753 a3bd e14e 0bbc
00000040: 960a b9bd 1d95 c8bd 3dfe 91c0 3857 303c
-1.5786535 0.013481043 2.8643446 -2.2365592 -0.013346273 0.06757296 1.8665658 -5.4091797
2.4937987 -0.9304434 -1.1714303 -0.69075847 3.5657263 -1.492619 -0.0797488 -0.008502693
-0.09035222 -0.09794066 -4.562285 0.010762982

0.weight f4 [20, 1]
00000000: 2106 4bc0 e8e9 81bf d004 3440 fee4 55c0
00000010: eff7 5ebf 3b75 3f3f 921a 1540 95a6 0940
00000020: 6fcf f9c0 dc37 b83f 551b 47c0 5967 19c0
00000030: 04ae 64c0 e93f 67c0 2404 ee3e c884 003f
00000040: 4290 2cc0 6d48 423f ba27 fc3f b804 993e
-3.172249 -1.0149508 2.8127937 -3.3421016 -0.87097067 0.74788254 2.3297467 2.1507924
-7.8065715 1.4392047 -3.1110432 -2.3969328 -3.573121 -3.6132758 0.46487534 0.5020261
-2.6963048 0.7589176 1.9699624 0.29886413

0.bias f4 [20]
00000000: 1ecd 743f a71d eebd 5efb cfbf d1c7 a93f
00000010: 6e20 b6bd ab06 8abf 39c1 b7bf 2a11 c0bf
00000020: 9617 493f 4304 90bf ecc1 6f3f 28e0 373f
00000030: 9688 e13f 156f 8b3f efa4 40bf eda6 3fbf
00000040: 6c65 063f db2e 70bf 30cf c2bf ade1 05bf
0.95625484 -0.116267495 -1.6248586 1.3264104 -0.08892904 -1.0783285 -1.4355842 -1.5005238
0.78551614 -1.12513 0.93655276 0.7182641 1.7619808 1.0893275 -0.7525167 -0.74864084
0.5249851 -0.93821496 -1.5219479 -0.5229748

2.weight f4 [1, 20]
00000000: 99b9 d2bf 98df 5c3c f391 3440 bb7a 10c0
00000010: 54aa 5abc 4cba bf3e 9526 eb3f 0e97 acc0
00000020: f71f 1240 d37b 25bf 123a 9ebf 2b31 34bf
00000030: 7c9d 6240 ccae cabf 5753 a3bd e14e 0bbc
00000040: 5151 ac3f 1d95 c8bd 2274 8fc0 3857 303c
-1.646289 0.013481043 2.821408 -2.2574909 -0.013346273 0.3744682 1.8371149 -5.3934393
2.283201 -0.64642066 -1.2361472 -0.70387524 3.540862 -1.5834594 -0.0797488 -0.008502693
1.3462316 -0.09794066 -4.4829264 0.010762982

0.weight f4 [20, 1]
00000000: 0a16 4fc0 e8e9 81bf 7a5e 3840 2479 57c0
00000010: eff7 5ebf 3b75 3f3f fa68 1a40 f9db 0d40
00000020: 625b fdc0 9796 bc3f 5094 4ac0 61fc 1ac0
00000030: 7387 67c0 ec38 6bc0 2404 ee3e c884 003f
00000040: e228 37c0 6d48 423f a95a 0240 b804 993e
-3.2357202 -1.0149508 2.8807664 -3.3667688 -0.87097067 0.74788254 2.4126573 2.216551
-7.917405 1.4733456 -3.1653023 -2.421654 -3.6176422 -3.6753492 0.46487534 0.5020261
-2.8618703 0.7589176 2.0367835 0.29886413

0.bias f4 [20]
00000000: a6d9 793f a71d eebd 60c5 d2bf 8c66 ac3f
00000010: 6e20 b6bd ab06 8abf 0e4c bbbf c83d c8bf
00000020: 273a 4a3f d53e 95bf b2fe 733f 4e46 393f
00000030: 4b1c e33f b1fb 8d3f efa4 40bf eda6 3fbf
00000040: 13fc 113f db2e 70bf 2632 ccbf ade1 05bf
0.9759773 -0.116267495 -1.6466484 1.3468795 -0.08892904 -1.0783285 -1.4632585 -1.5643854
0.78994983 -1.16598 0.9531051 0.723729 1.7743009 1.1092435 -0.7525167 -0.74864084
0.5702526 -0.93821496 -1.5952804 -0.5229748

2.weight f4 [1, 20]
00000000: 5c77 d2bf 98df 5c3c 3837 3040 27e6 0fc0
00000010: 54aa 5abc 4cba bf3e 9c27 e33f 6a10 a8c0
00000020: c68c 0f40 425c afbe e691 9dbf dc6b 29bf
00000030: e342 6240 382c ccbf 5753 a3bd e14e 0bbc
00000040: 9885 a43f 1d95 c8bd b031 8bc0 3857 303c
-1.6442676 0.013481043 2.7533703 -2.2484224 -0.013346273 0.3744682 1.7746463 -5.2520037
2.2429671 -0.34250075 -1.231015 -0.66180205 3.5353324 -1.5950994 -0.0797488 -0.008502693
1.285327 -0.09794066 -4.3498154 0.010762982

0.weight f4 [20, 1]
00000000: a61f 53c0 e8e9 81bf 4514 3c40 3ad6 59c0
00000010: eff7 5ebf 3b75 3f3f af98 1e40 d7d0 1240
00000020: dedf 00c1 7387 c03f 76e6 4dc0 a27a 1bc0
00000030: c017 69c0 0a39 6fc0 2404 ee3e c884 003f
00000040: fddf 3fc0 6d48 423f 4af5 0840 b804 993e
-3.2988067 -1.0149508 2.9387372 -3.4037004 -0.87097067 0.74788254 2.478069 2.2939966
-8.054655 1.5041336 -3.2171912 -2.42936 -3.6420746 -3.7378564 0.46487534 0.5020261
-2.9980462 0.7589176 2.1399713 0.29886413

0.bias f4 [20]
00000000: 9e2c 7d3f a71d eebd 5b9d d8bf f05f ad3f
00000010: 6e20 b6bd ab06 8abf 1d73 c2bf 599d cfbf
00000020: 859b 4d3f 3bfa 96bf b356 763f e852 383f
00000030: 465d e53f c89c 8f3f efa4 40bf eda6 3fbf
00000040: 79e6 183f db2e 70bf 7704 d3bf ade1 05bf
0.98896205 -0.116267495 -1.6923021 1.3544903 -0.08892904 -1.0783285 -1.519138 -1.6219894
0.8031543 -1.1795114 0.9622604 0.72001505 1.791909 1.1219721 -0.7525167 -0.74864084
0.59726673 -0.93821496 -1.6485738 -0.5229748

2.weight f4 [1, 20]
00000000: fd96 d0bf 98df 5c3c 1cf1 2b40 eb45 0ec0
00000010: 54aa 5abc 4cba bf3e ed68 da3f 36c7 a3c0
00000020: 2847 0d40 d1eb 55be c152 9bbf 6b50 1bbf
00000030: 3776 6140 4a21 ccbf 5753 a3bd e14e 0bbc
00000040: 44a4 a13f 1d95 c8bd 0f43 8ac0 3857 303c
-1.6296078 0.013481043 2.6865911 -2.2230175 -0.013346273 0.3744682 1.7063271 -5.1180677
2.207468 -0.20890738 -1.213463 -0.60669583 3.5228403 -1.5947659 -0.0797488 -0.008502693
1.2628255 -0.09794066 -4.320686 0.010762982

0.weight f4 [20, 1]
00000000: c13f 57c0 e8e9 81bf 19c3 4040 5cc6 5bc0
00000010: eff7 5ebf 3b75 3f3f 96fd 2340 4045 1740
00000020: a541 02c1 9a8f ba3f 86fc 50c0 7ffa 1bc0
00000030: bc43 6ac0 155f 73c0 2404 ee3e c884 003f
00000040: 9db1 46c0 6d48 423f ce52 0d40 b804 993e
-3.3632662 -1.0149508 3.0119078 -3.433982 -0.87097067 0.74788254 2.5623527 2.3636017
-8.1410265 1.4575074 -3.2654128 -2.437164 -3.6603842 -3.8026783 0.46487534 0.5020261
-3.1045907 0.7589176 2.208179 0.29886413

0.bias f4 [20]
00000000: 098e 813f a71d eebd e6c2 dcbf dee0 af3f
00000010: 6e20 b6bd ab06 8abf fbfc c7bf 700a d4bf
00000020: 38c6 523f 772f 96bf a781 7b3f f325 373f
00000030: 23d0 e63f c687 923f efa4 40bf eda6 3fbf
00000040: 66fc 1d3f db2e 70bf 63fb d9bf ade1 05bf
1.0121471 -0.116267495 -1.7246978 1.3740499 -0.08892904 -1.0783285 -1.5624079 -1.6565685
0.8233371 -1.1733235 0.9824471 0.7154228 1.8032268 1.1447685 -0.7525167 -0.74864084
0.61713254 -0.93821496 -1.7029842 -0.5229748

2.weight f4 [1, 20]
00000000: a450 cfbf 98df 5c3c fd08 2c40 e415 0dc0
00000010: 54aa 5abc 4cba bf3e f566 de3f f408 9fc0
00000020: 1a3c 0940 9d8b 10bd 1f92 99bf e6ec 0bbf
00000030: 348a 5f40 bcea ccbf 5753 a3bd e14e 0bbc
00000040: 760e 9a3f 1d95 c8bd b2c0 86c0 3857 303c
-1.6196485 0.013481043 2.6880486 -2.204461 -0.013346273 0.3744682 1.737517 -4.969843
2.1442933 -0.035289396 -1.1997718 -0.54658353 3.4928102 -1.6009135 -0.0797488 -0.008502693
1.2035663 -0.09794066 -4.2110224 0.010762982

0.weight f4 [20, 1]
00000000: 81f9 5ac0 e8e9 81bf 2b8a 4340 9cf4 5dc0
00000010: eff7 5ebf 3b75 3f3f eec0 2740 803d 1d40
00000020: 413a 05c1 9c90 0640 46d1 54c0 b28a 1ac0
00000030: 7e32 6cc0 33e8 76c0 2404 ee3e c884 003f
00000040: 282b 4dc0 6d48 423f 94ca 1340 b804 993e
-3.4214785 -1.0149508 3.055308 -3.4680548 -0.87097067 0.74788254 2.6211505 2.4568787
-8.326722 2.1025763 -3.325273 -2.4147153 -3.6905818 -3.8579223 0.46487534 0.5020261
-3.205759 0.7589176 2.3092394 0.29886413

0.bias f4 [20]
00000000: f6f5 833f a71d eebd 9e5c dfbf c08f b13f
00000010: 6e20 b6bd ab06 8abf 1500 ccbf 3886 debf
00000020: cfe4 543f f876 f3bf 4599 7d3f 21e1 353f
00000030: 55ff e73f 5119 953f efa4 40bf eda6 3fbf
00000040: 0fea 243f db2e 70bf b2b7 ecbf ade1 05bf
1.0309436 -0.116267495 -1.745014 1.3871994 -0.08892904 -1.0783285 -1.5937525 -1.738471
0.83161634 -1.9020681 0.99061996 0.71046644 1.8124796 1.1648351 -0.7525167 -0.74864084
0.64419645 -0.93821496 -1.8493559 -0.5229748

2.weight f4 [1, 20]
00000000: 4b9e cdbf 98df 5c3c d1a4 2640 459e 0bc0
00000010: 54aa 5abc 4cba bf3e 2759 d83f a900 a6c0
00000020: c0a9 0840 081c 5d40 b45d 97bf b43c f7be
00000030: 1bd7 5d40 851e cdbf 5753 a3bd e14e 0bbc
00000040: fc98 943f 1d95 c8bd ff89 9ec0 3857 303c
-1.6063932 0.013481043 2.6038096 -2.181535 -0.013346273 0.3744682 1.6902207 -5.1875806
2.1353607 3.454836 -1.1825471 -0.482885 3.466254 -1.6024939 -0.0797488 -0.008502693
1.1609187 -0.09794066 -4.954345 0.010762982
