q_relu_optim/ckpts/sgd/width10/seed704/ckpt_and_history.pt (torch, 13887 bytes, 33 tensors)

0.weight f4 [10, 1]
0	0xbf1760d5	-0.5913213
1	0x3e2dfd47	0.16991149
2	0xbed1e5b6	-0.40995568
3	0x3f782ecd	0.9694641
4	0xbead7e3d	-0.33885375
5	0x3f18c8fa	0.59681666
6	0xbf1c4b5e	-0.610525
7	0xbedca53d	-0.43094817
8	0x3e4c5c3e	0.19957063
9	0xbe435d34	-0.19078523

0.bias f4 [10]
0	0x3de8139a	0.11331864
1	0xbd0ce544	-0.034398332
2	0x3dc50e1e	0.09621833
3	0xbebf08f4	-0.37311518
4	0x3e377212	0.17914608
5	0xbea96826	-0.3308727
6	0x3eda6d9d	0.42661753
7	0x3eb26707	0.3484423
8	0xbe330cb7	-0.17485319
9	0x3e3c6670	0.18398452

2.weight f4 [1, 10]
0	0x3e0c433a	0.1369752
1	0xbdfc0b48	-0.12306839
2	0xbe608a20	-0.2192769
3	0x3e40434d	0.18775673
4	0x3d94c3be	0.07263897
5	0xbd71b9d8	-0.059015125
6	0x3d984262	0.074345365
7	0xbe870d8c	-0.26377523
8	0x3e9da03b	0.3078631
9	0xbe33dced	-0.17564745

0.weight f4 [10, 1]
0	0xbf1b8dc8	-0.60763216
1	0x3eb66db6	0.35630578
2	0xbf5ba1f7	-0.85794014
3	0x3f991509	1.1959544
4	0xbea143d0	-0.3149705
5	0x3f637d14	0.8886273
6	0xbf41e0d6	-0.757337
7	0xbf4ce619	-0.800386
8	0x3e401dc6	0.18761358
9	0xbed4cdc5	-0.4156324

0.bias f4 [10]
0	0x3d83f084	0.06442359
1	0xbde0a322	-0.10968615
2	0x3e826f44	0.25475514
3	0xbebd6b35	-0.36995855
4	0x3e71198a	0.23544899
5	0xbe8c4387	-0.2739527
6	0x3f102211	0.5630198
7	0x3f17d32c	0.593066
8	0xbe3fa8f7	-0.18716799
9	0x3e9d28e0	0.30695248

2.weight f4 [1, 10]
0	0x3e3022d5	0.17200787
1	0xbeb2ac3b	-0.34897026
2	0xbf5159fd	-0.81777936
3	0xbf38b3fa	-0.7214962
4	0xbdeafc19	-0.11473865
5	0xbf218e55	-0.63107806
6	0xbf150797	-0.58214706
7	0xbf5cc2bf	-0.8623466
8	0x3e9d77aa	0.3075536
9	0xbef24872	-0.47320896

0.weight f4 [10, 1]
0	0xbf2d663f	-0.6773414
1	0x3ee31ea9	0.4435933
2	0xbf750d9e	-0.95723903
3	0x3fb205f8	1.3908072
4	0xbeb13979	-0.3461416
5	0x3f86e631	1.0538999
6	0xbf64c4bd	-0.893627
7	0xbf7e61e9	-0.9936815
8	0x3e401dc6	0.18761358
9	0xbf05535b	-0.52080315

0.bias f4 [10]
0	0x3db810bf	0.08987569
1	0xbe02e26f	-0.1278169
2	0x3e88eac2	0.26741606
3	0xbecb6fdb	-0.39733776
4	0x3e85fd99	0.26170042
5	0xbe9a8bb6	-0.30184716
6	0x3f2c5d3d	0.6732977
7	0x3f3f9038	0.74829435
8	0xbe3fa8f7	-0.18716799
9	0x3ec8aaac	0.39192712

2.weight f4 [1, 10]
0	0x3eb37acf	0.35054633
1	0xbedf5e1c	-0.43626487
2	0xbf6c1e0a	-0.92233336
3	0xbf815681	-1.0104524
4	0xbe5bd763	-0.21468882
5	0xbf58b98b	-0.84658116
6	0xbf539b1d	-0.8265856
7	0xbf8fe011	-1.1240255
8	0x3e9d77aa	0.3075536
9	0xbf1bfcb0	-0.60932446

0.weight f4 [10, 1]
0	0xbf58d1f4	-0.84695363
1	0x3ef7c1ae	0.48389953
2	0xbf5bd9ec	-0.858794
3	0x3fbdfcfb	1.4842829
4	0xbebba21b	-0.36647114
5	0x3f90e9ff	1.132141
6	0xbf7839d0	-0.96963215
7	0xbf8c4e29	-1.0961353
8	0x3e401dc6	0.18761358
9	0xbf1382f6	-0.57621706

0.bias f4 [10]
0	0x3ded1647	0.11576515
1	0xbe1284e5	-0.14308508
2	0x3e7b01be	0.24512383
3	0xbede9a4f	-0.43477103
4	0x3e8e6fcf	0.27819678
5	0xbeaa4ea1	-0.33263114
6	0x3f3c53f6	0.73565614
7	0x3f552c8c	0.832711
8	0xbe3fa8f7	-0.18716799
9	0x3ee02049	0.43774632

2.weight f4 [1, 10]
0	0x3f1f04ab	0.621165
1	0xbef2abf5	-0.47396818
2	0xbf4f5bad	-0.8099926
3	0xbf910ad5	-1.1331431
4	0xbe8557cf	-0.26043555
5	0xbf70431d	-0.93852407
6	0xbf7103ed	-0.94146615
7	0xbf9ff22c	-1.249578
8	0x3e9d77aa	0.3075536
9	0xbf2cc646	-0.6749004

0.weight f4 [10, 1]
0	0xbf90870e	-1.1291215
1	0x3f049b35	0.5179933
2	0xbf4119ec	-0.7543018
3	0x3fc875b9	1.5660926
4	0xbec2b81a	-0.38031083
5	0x3f99960d	1.1998917
6	0xbf82f9d5	-1.0232493
7	0xbf95a853	-1.1691993
8	0x3e401dc6	0.18761358
9	0xbf1db3aa	-0.6160227

0.bias f4 [10]
0	0x3e1cedba	0.1532506
1	0xbe1603ac	-0.14649838
2	0x3e5b1a59	0.2139677
3	0xbee263e2	-0.4421683
4	0x3e981243	0.29701433
5	0xbead6c21	-0.33871558
6	0x3f4c47a0	0.7979679
7	0x3f699946	0.912495
8	0xbe3fa8f7	-0.18716799
9	0x3ef5ed46	0.48032588

2.weight f4 [1, 10]
0	0x3f79a8a0	0.97522926
1	0xbf006aaf	-0.50162786
2	0xbf2f8805	-0.68566924
3	0xbf9c885f	-1.2229117
4	0xbe96c237	-0.2944505
5	0xbf80c05b	-1.0058702
6	0xbf839363	-1.0279354
7	0xbfac21d5	-1.3447825
8	0x3e9d77aa	0.3075536
9	0xbf398527	-0.724688

0.weight f4 [10, 1]
0	0xbfc2f1d6	-1.5230052
1	0x3f0b8be6	0.54510343
2	0xbf2c94ec	-0.67414737
3	0x3fd0e5ee	1.6320169
4	0xbeca002b	-0.39453253
5	0x3fa084d0	1.2540531
6	0xbf896d10	-1.0736408
7	0xbf9e5097	-1.2368344
8	0x3e401dc6	0.18761358
9	0xbf2704ec	-0.65241885

0.bias f4 [10]
0	0x3e4f025a	0.20215741
1	0xbe19bff8	-0.15014637
2	0x3e3acf86	0.18243226
3	0xbee6c22b	-0.45070013
4	0x3e9ee5a1	0.31034568
5	0xbeb14506	-0.34622973
6	0x3f57e46f	0.84332937
7	0x3f7842bf	0.96976846
8	0xbe3fa8f7	-0.18716799
9	0x3f02e039	0.51123387

2.weight f4 [1, 10]
0	0x3fb55e10	1.4169331
1	0xbf05c5bf	-0.5225486
2	0xbf158307	-0.58403057
3	0xbfa53564	-1.2906919
4	0xbea453dc	-0.3209523
5	0xbf87434e	-1.0567415
6	0xbf8c3a27	-1.0955247
7	0xbfb5b1fe	-1.4194944
8	0x3e9d77aa	0.3075536
9	0xbf4386a3	-0.76377314

0.weight f4 [10, 1]
0	0xbffcbd38	-1.9745245
1	0x3f1319c7	0.5746121
2	0xbf222ee2	-0.6335279
3	0x3fda385c	1.704845
4	0xbed1cdb8	-0.40977263
5	0x3fa82ad3	1.3138069
6	0xbf90214c	-1.1260161
7	0xbfa7160f	-1.3053607
8	0x3e401dc6	0.18761358
9	0xbf307065	-0.689215

0.bias f4 [10]
0	0x3e83bd25	0.25730243
1	0xbe243393	-0.16035299
2	0x3e30dfd5	0.17272885
3	0xbef383ea	-0.4756158
4	0x3ea6c10e	0.32569164
5	0xbebb88cf	-0.36627814
6	0x3f65279b	0.8951356
7	0x3f84a3c2	1.0362475
8	0xbe3fa8f7	-0.18716799
9	0x3f0c0dd3	0.54708594

2.weight f4 [1, 10]
0	0x3ff30574	1.8986039
1	0xbf0c379b	-0.5477235
2	0xbf0841d0	-0.5322542
3	0xbfaf6496	-1.3702571
4	0xbeb28b4d	-0.34871903
5	0xbf8ef63f	-1.1168898
6	0xbf9576df	-1.1676902
7	0xbfc0094b	-1.5002836
8	0x3e9d77aa	0.3075536
9	0xbf4e5f21	-0.80613905

0.weight f4 [10, 1]
0	0xc01ae8e7	-2.4204652
1	0x3f1b319e	0.60622585
2	0xbf210345	-0.62895614
3	0x3fe45bae	1.7840478
4	0xbedaddbe	-0.427473
5	0x3fb069f9	1.378234
6	0xbf97d8ce	-1.1863039
7	0xbfb0e368	-1.3819399
8	0x3e401dc6	0.18761358
9	0xbf3afae0	-0.73039055

0.bias f4 [10]
0	0x3e966d4f	0.2938027
1	0xbe274f32	-0.16338804
2	0x3e2c31f7	0.16815935
3	0xbef6a2e8	-0.48171163
4	0x3eae4146	0.34034175
5	0xbebe721f	-0.37196442
6	0x3f715ebc	0.9428518
7	0x3f8ca35d	1.0987355
8	0xbe3fa8f7	-0.18716799
9	0x3f14a59c	0.580652

2.weight f4 [1, 10]
0	0x40171ee2	2.36126
1	0xbf1295e3	-0.5725996
2	0xbf064451	-0.5244799
3	0xbfb958ae	-1.4480188
4	0xbec0ded6	-0.3767001
5	0xbf9681ec	-1.1758399
6	0xbf9ee508	-1.2413645
7	0xbfcaac98	-1.5833921
8	0x3e9d77aa	0.3075536
9	0xbf598dfc	-0.84982276

0.weight f4 [10, 1]
0	0xc0346bc5	-2.8190777
1	0x3f2161f2	0.6304008
2	0xbf243cff	-0.6415557
3	0x3fec3639	1.8454047
4	0xbee32609	-0.44364956
5	0x3fb6c70d	1.4279495
6	0xbf9ea3a2	-1.2393687
7	0xbfb9cbf9	-1.4515373
8	0x3e401dc6	0.18761358
9	0xbf44911d	-0.76783925

0.bias f4 [10]
0	0x3ea73a48	0.32661653
1	0xbe2c8548	-0.16847718
2	0x3e2ddf55	0.16979726
3	0xbefc255a	-0.49247247
4	0x3eb66adc	0.35628402
5	0xbec34e25	-0.38145557
6	0x3f7ee8b0	0.995738
7	0x3f94f902	1.1638491
8	0xbe3fa8f7	-0.18716799
9	0x3f1d927f	0.6155166

2.weight f4 [1, 10]
0	0x4031502b	2.770518
1	0xbf1701c3	-0.58987063
2	0xbf0a1586	-0.5393909
3	0xbfc05de0	-1.5028648
4	0xbece0ea9	-0.4024556
5	0xbf9bcebd	-1.2172467
6	0xbfa7a1fa	-1.3096306
7	0xbfd4914b	-1.660684
8	0x3e9d77aa	0.3075536
9	0xbf63f2b8	-0.89042234

0.weight f4 [10, 1]
0	0xc049ed99	-3.1551268
1	0x3f28c623	0.6592733
2	0xbf291765	-0.6605132
3	0x3ff59473	1.9185928
4	0xbee948ba	-0.45563298
5	0x3fbe5f23	1.4872783
6	0xbfa3b35b	-1.278911
7	0xbfc00d27	-1.5004014
8	0x3e401dc6	0.18761358
9	0xbf4b43fa	-0.794006

0.bias f4 [10]
0	0x3eb06e74	0.3445927
1	0xbe2b5dc1	-0.16734983
2	0x3e30eeaa	0.17278543
3	0xbefafb05	-0.49019638
4	0x3ebe49c0	0.37165642
5	0xbec26023	-0.37963971
6	0x3f85cea9	1.0453693
7	0x3f9d3f9b	1.2285036
8	0xbe3fa8f7	-0.18716799
9	0x3f2675f7	0.6502375

2.weight f4 [1, 10]
0	0x404733de	3.1125407
1	0xbf1c35fa	-0.6101986
2	0xbf0fef2b	-0.56224316
3	0xbfc87a0b	-1.5662245
4	0xbed7fa33	-0.42183074
5	0xbfa1f72c	-1.2653556
6	0xbfae2871	-1.3606092
7	0xbfdbea1e	-1.7180822
8	0x3e9d77aa	0.3075536
9	0xbf6baa9d	-0.9205721

0.weight f4 [10, 1]
0	0xc05ad82c	-3.419444
1	0x3f2e8612	0.68173325
2	0xbf2f3c15	-0.6845105
3	0x3ffcf4e5	1.9762236
4	0xbeef4315	-0.46730867
5	0x3fc45a64	1.5340085
6	0xbfa88221	-1.3164712
7	0xbfc63c1c	-1.5487094
8	0x3e401dc6	0.18761358
9	0xbf51ea9a	-0.819986

0.bias f4 [10]
0	0x3eb823fe	0.3596496
1	0xbe3164aa	-0.17323557
2	0x3e357ede	0.17724177
3	0xbf0119be	-0.50429904
4	0x3ec36ef6	0.38170594
5	0xbec807a5	-0.39068332
6	0x3f8a02a7	1.078206
7	0x3fa26d8a	1.2689679
8	0xbe3fa8f7	-0.18716799
9	0x3f2bfdaf	0.67183965

2.weight f4 [1, 10]
0	0x40586280	3.381012
1	0xbf201917	-0.62538284
2	0xbf175b9d	-0.59124166
3	0xbfcea03f	-1.6142653
4	0xbedf087b	-0.43561158
5	0xbfa69cf4	-1.3016648
6	0xbfb2b25b	-1.396068
7	0xbfe0f5e4	-1.757504
8	0x3e9d77aa	0.3075536
9	0xbf70f514	-0.9412396
