q_relu_optim/ckpts/sgd/width40/seed209/ckpt_and_history.pt (torch, 18111 bytes, 33 tensors)

0.weight f4 [40, 1]
0	0x3d567688	0.052359134
1	0xbe4022e0	-0.18763304
2	0xbe760d50	-0.24028516
3	0x3e444cdc	0.19169945
4	0x3f5ff835	0.8748811
5	0x3f400419	0.7500625
6	0xbe626a25	-0.22110803
7	0x3f5736b4	0.84067845
8	0xbea931ed	-0.33045903
9	0xbf2d5108	-0.6770177
10	0xbf442a37	-0.76626915
11	0xbedd6fd6	-0.43249387
12	0x3db10a76	0.086445734
13	0x3f17b6cc	0.592633
14	0xbf59e99f	-0.851221
15	0xbf56d94b	-0.8392531
16	0xbf69269a	-0.91074526
17	0x3d50c3ed	0.0509681
18	0xbeb035ef	-0.34416148
19	0xbe718670	-0.2358644
20	0x3f083590	0.5320673
21	0x3f66a6df	0.90098375
22	0xbf743a6f	-0.9540166
23	0xbf2dab23	-0.6783926
24	0xbf01afcf	-0.5065889
25	0x3f4b011b	0.7929856
26	0x3d0fd028	0.035110623
27	0xbeca7687	-0.39543554
28	0x3f07d3f2	0.5305778
29	0x3e7b0932	0.24515226
30	0xbf4a0404	-0.7891238
31	0x3f0623a3	0.5239813
32	0x3e705baa	0.23472467
33	0x3f2e4db0	0.6808729
34	0xbf051254	-0.5198109
35	0xbeab63ae	-0.33474487
36	0x3df1d7f8	0.11808771
37	0xbe96b165	-0.29432216
38	0x3f008315	0.50200015
39	0x3f73416c	0.950217

0.bias f4 [40]
0	0xbb48c807	-0.0030636804
1	0x3c40f997	0.011778257
2	0x3ca51d44	0.020155556
3	0xbca35f7c	-0.019942991
4	0xbdcf1b0f	-0.10112583
5	0xbdbb7438	-0.09153026
6	0x3cf0c129	0.029388981
7	0xbe4a8440	-0.19777012
8	0x3db0cc61	0.08632732
9	0x3e3ea7dd	0.18618722
10	0x3e61e4b3	0.22059898
11	0x3e20bf94	0.15698081
12	0xbd048171	-0.032350007
13	0xbe7c6ae6	-0.24650154
14	0x3ec3382d	0.38128796
15	0x3ed3a7e3	0.41339025
16	0x3ef1a4e7	0.47196123
17	0xbcd90e51	-0.026496084
18	0x3e3ea1ba	0.18616381
19	0x3e03838e	0.12843153
20	0xbe978f80	-0.2960167
21	0xbf016001	-0.50537115
22	0x3f181714	0.59410214
23	0x3edcb076	0.4310338
24	0x3eaa3ba4	0.33248627
25	0xbf0673f9	-0.5252071
26	0xbcbdcc46	-0.023168694
27	0x3e8dab24	0.27669632
28	0xbec141fc	-0.37745655
29	0xbe4cb6ba	-0.1999158
30	0x3f25f5fe	0.6482848
31	0xbedcfcc5	-0.43161598
32	0xbe4b1318	-0.19831502
33	0xbf1cd285	-0.6125873
34	0x3eefb7c1	0.4681988
35	0x3e99b247	0.30018827
36	0xbddbce4a	-0.10732706
37	0x3e89689b	0.2683762
38	0xbef08231	-0.46974328
39	0xbf6ce6e2	-0.925398

2.weight f4 [1, 40]
0	0x3d28e5fa	0.041234948
1	0x3cf0774b	0.029353758
2	0x3e00b2b6	0.12568173
3	0x3c85f802	0.01635361
4	0x3b9ea307	0.0048412117
5	0x3c95adfb	0.018271437
6	0xbd866eae	-0.06564079
7	0x3dcbdaad	0.099538185
8	0x3d955318	0.072912395
9	0x3d29a6da	0.041418888
10	0x3c23d1c1	0.00999874
11	0xbd8813c2	-0.066443935
12	0xbc34a92f	-0.011026665
13	0x3be59aaf	0.007006965
14	0xbdf5a626	-0.11994581
15	0x3c2f4141	0.01069671
16	0x3d6e7ec7	0.058226373
17	0x3c91e683	0.017810112
18	0xbe1144d3	-0.1418641
19	0x3d77b671	0.060476724
20	0x3dd9d577	0.10636418
21	0xbc702dda	-0.014659369
22	0xbdbc60e0	-0.09198165
23	0xbdfd0c8b	-0.12355908
24	0xbdcc3c74	-0.09972468
25	0x3d5499ee	0.05190461
26	0x3d63d526	0.055623196
27	0xbdcb5b4d	-0.099295236
28	0x3d002e5a	0.031294204
29	0xbc54bf13	-0.012985009
30	0x3cfadc5d	0.030622656
31	0xbde31faa	-0.11090024
32	0xbdfb483f	-0.12269639
33	0x3e1e9005	0.15484627
34	0x3e0d3fea	0.13793913
35	0xbdb6f1d3	-0.08932843
36	0x3c6fcbe5	0.014636015
37	0x3cc104e7	0.023561908
38	0xbd9e7a16	-0.0773813
39	0x3ced4c1b	0.028966954

0.weight f4 [40, 1]
0	0x3d763170	0.06010574
1	0xbe469f9f	-0.19396828
2	0xbe86d5ef	-0.26335093
3	0x3e48f784	0.1962567
4	0x3f61b3de	0.8816508
5	0x3f3d0cc6	0.73847616
6	0xbe8c5c11	-0.2741399
7	0x3f5f346d	0.8718937
8	0xbeb25c13	-0.34835872
9	0xbf3f1585	-0.7464221
10	0xbf5ed835	-0.87048656
11	0xbf0a74c9	-0.5408445
12	0x3de5aa98	0.11214179
13	0x3f38279a	0.7193543
14	0xbf89c0eb	-1.0761999
15	0xbf745030	-0.95434856
16	0xbf7db029	-0.99096924
17	0x3d62f62f	0.05541056
18	0xbefc4231	-0.4926925
19	0xbe8daf03	-0.27672586
20	0x3f121fb5	0.5707963
21	0x3f74e8df	0.95667833
22	0xbf80e0dd	-1.0068623
23	0xbf3e61f3	-0.7436821
24	0xbf1059d0	-0.56387043
25	0x3f6306ec	0.88682437
26	0x3d4bc433	0.049747657
27	0xbee9e210	-0.45680285
28	0x3f1dfa85	0.6171039
29	0x3ea07a95	0.31343523
30	0xbf37e291	-0.7183009
31	0x3f38e13a	0.7221867
32	0x3ebc8dc1	0.368269
33	0x3f25e5e3	0.64803904
34	0xbef304ca	-0.4746459
35	0xbed74918	-0.42047954
36	0x3de742b7	0.11292022
37	0xbe8d188d	-0.27557793
38	0x3f3166ff	0.69297785
39	0x3f706872	0.9390937

0.bias f4 [40]
0	0xbbec6853	-0.007214585
1	0x3cbecc30	0.023290724
2	0x3d010114	0.03149517
3	0xbcbb96ac	-0.022898994
4	0xbe827542	-0.25480086
5	0xbe5ba946	-0.21451291
6	0x3da105f7	0.07862466
7	0xbe80f5e8	-0.25187612
8	0x3d2b4d89	0.04182199
9	0x3e5bbe32	0.21459273
10	0x3e80130c	0.25014532
11	0x3e1eee45	0.1552058
12	0xbd02f9de	-0.031976573
13	0xbe533dd8	-0.2062906
14	0x3e9e242f	0.3088698
15	0x3e8cd43d	0.27505675
16	0x3f0ad3cd	0.5422943
17	0xbcf8316d	-0.030297006
18	0x3e109a74	0.14121419
19	0x3e1acb24	0.15116554
20	0xbe9fa345	-0.31179252
21	0xbf3c7ce6	-0.7362808
22	0x3f454ad8	0.7706733
23	0x3f11a560	0.5689297
24	0x3edcefec	0.43151796
25	0xbf2eb708	-0.68248034
26	0xbcdc4aef	-0.0268912
27	0x3eb318aa	0.34979755
28	0xbef2fb37	-0.47457287
29	0xbe76ce39	-0.24102105
30	0x3f3e304e	0.7429246
31	0xbf0e175d	-0.555044
32	0xbe90d52c	-0.28287637
33	0xbf2575d0	-0.6463289
34	0x3f1a99c2	0.60390866
35	0x3ea4c4b3	0.3218132
36	0xbde6a60c	-0.1126214
37	0x3ea1b6c2	0.31584746
38	0xbf08747d	-0.53302747
39	0xbf6fc471	-0.9365912

2.weight f4 [1, 40]
0	0x3d4f28f9	0.050576184
1	0x3d787514	0.06065853
2	0x3e2b3701	0.16720201
3	0x3d4a41a4	0.049379006
4	0xbe86cea1	-0.2632952
5	0xbe1c7bba	-0.15281573
6	0xbe419606	-0.18904886
7	0xbe991cf8	-0.29904914
8	0x3dddf346	0.10837416
9	0xbeab1880	-0.3341713
10	0xbedbb33d	-0.42910185
11	0xbea8fd2c	-0.33005655
12	0xbd92aabf	-0.071614735
13	0xbec42bfd	-0.3831481
14	0xbf213b85	-0.62981445
15	0xbeaacedf	-0.33360955
16	0x3ef450b1	0.47717813
17	0x3d018158	0.031617492
18	0xbeb7fb59	-0.3593395
19	0x3e33ed8a	0.17571083
20	0x3e810efe	0.2520675
21	0xbf1fc489	-0.62409264
22	0xbf17b3b0	-0.59258556
23	0xbefcc8e5	-0.4937202
24	0xbec34e06	-0.38145465
25	0xbf175386	-0.5911182
26	0x3d886e76	0.06661694
27	0xbea7493f	-0.3267307
28	0xbedac200	-0.42726135
29	0xbe72e15f	-0.23718785
30	0x3e31a8c5	0.17349537
31	0xbf1db9d5	-0.6161168
32	0xbebc89c5	-0.3682386
33	0x3e1a9e88	0.15099537
34	0x3eb1298f	0.3460202
35	0xbe9584be	-0.29202837
36	0x3c5ea43f	0.013588964
37	0x3e09c2c9	0.13453211
38	0xbf0b6d58	-0.5446372
39	0x3cd37f80	0.025817633

0.weight f4 [40, 1]
0	0x3da66219	0.081241794
1	0xbe5ec526	-0.21754894
2	0xbea30886	-0.3184244
3	0x3e66231e	0.22474334
4	0x3f686c81	0.90790564
5	0x3f410fde	0.75414836
6	0xbe9bac71	-0.30405
7	0x3f66d285	0.9016498
8	0xbec7f68d	-0.3905529
9	0xbf4d3fca	-0.8017546
10	0xbf70d1cc	-0.94070125
11	0xbf17f652	-0.5936023
12	0x3df40307	0.1191464
13	0x3f41c6d6	0.75694025
14	0xbf96b15d	-1.1772877
15	0xbf8174c3	-1.0113758
16	0xbfc50412	-1.5391867
17	0x3db8cd3e	0.09023522
18	0xbf0c9e33	-0.5492889
19	0xbeea0cab	-0.4571279
20	0x3f618576	0.8809427
21	0x3f9092c8	1.1294794
22	0xbf953755	-1.1657511
23	0xbf5f759b	-0.87288827
24	0xbf29ddd2	-0.66354096
25	0x3f865dd0	1.0497379
26	0x3dd99fdd	0.106261946
27	0xbf0a974b	-0.54137105
28	0x3f3be444	0.7339518
29	0x3ec13afc	0.37740314
30	0xbf339ffe	-0.70166004
31	0x3f62aeb9	0.88547856
32	0x3eed76fe	0.46379846
33	0x3f25e5e3	0.64803904
34	0xbee24a82	-0.4419747
35	0xbefe2409	-0.49636868
36	0x3de742b7	0.11292022
37	0xbe869193	-0.2628294
38	0x3f56d207	0.83914226
39	0x3f706872	0.9390937

0.bias f4 [40]
0	0xbc1eed0f	-0.009700074
1	0x3cd6cc3f	0.026220439
2	0x3d1ca946	0.03824737
3	0xbcdbc12b	-0.026825508
4	0xbe8b739c	-0.2723664
5	0xbe67ff44	-0.2265597
6	0x3db91f1b	0.09039136
7	0xbe8a51b4	-0.2701546
8	0x3d40cc3d	0.047069777
9	0x3e738d95	0.23784478
10	0x3e8ef0a6	0.27917975
11	0x3e34b87b	0.17648499
12	0xbd113b2e	-0.03545683
13	0xbe6774ae	-0.22603104
14	0x3eb3227a	0.3498724
15	0x3e9a124c	0.30092084
16	0x3f5906a6	0.8477577
17	0xbd4d7cfc	-0.050168023
18	0x3e273296	0.16327891
19	0x3e810a2f	0.25203082
20	0xbefa3954	-0.48871863
21	0xbf643557	-0.8914389
22	0x3f68f769	0.9100252
23	0x3f2e9369	0.6819368
24	0x3f04ab65	0.5182403
25	0xbf542a27	-0.8287682
26	0xbd72a59d	-0.059239972
27	0x3ed8a5dd	0.42314044
28	0xbf14552c	-0.5794246
29	0xbe9886cc	-0.29790342
30	0x3f43c52a	0.76472723
31	0xbf32dc81	-0.6986771
32	0xbebb6437	-0.36599895
33	0xbf2575d0	-0.6463289
34	0x3f265d2e	0.6498593
35	0x3ec699af	0.38789126
36	0xbde6a60c	-0.1126214
37	0x3eaabf04	0.33348858
38	0xbf298d66	-0.6623138
39	0xbf6fc471	-0.9365912

2.weight f4 [1, 40]
0	0x3d97c3e3	0.07410409
1	0x3dedfaae	0.11620079
2	0x3e7b81b2	0.24561194
3	0x3df79154	0.12088266
4	0xbeb4e16f	-0.35328242
5	0xbe6a393f	-0.228734
6	0xbe6f8fa4	-0.23394638
7	0xbec684d2	-0.3877321
8	0x3e551962	0.20810464
9	0xbee8e65e	-0.45488256
10	0xbf11f8c1	-0.57020193
11	0xbed6281a	-0.4182747
12	0xbda989a6	-0.082782075
13	0xbee91f6d	-0.45531788
14	0xbf4e1c54	-0.80511975
15	0xbef97150	-0.48719263
16	0x3fb636e5	1.4235502
17	0x3db2a65c	0.08723137
18	0xbee16124	-0.44019425
19	0x3ee667c5	0.45001045
20	0x3f4e7b41	0.8065682
21	0xbf7ffd27	-0.99995655
22	0xbf751fce	-0.95751655
23	0xbf43b58b	-0.7644889
24	0xbf16424c	-0.5869491
25	0xbf70a5e8	-0.9400315
26	0x3e0107c5	0.1260062
27	0xbefcbf3f	-0.4936466
28	0xbf2badb6	-0.67061937
29	0xbeb92265	-0.36159053
30	0x3e55bed9	0.20873584
31	0xbf67cce5	-0.9054702
32	0xbf049607	-0.51791424
33	0x3e1a9e88	0.15099537
34	0x3ec4afc3	0.38415346
35	0xbee4109a	-0.44543916
36	0x3c5ea43f	0.013588964
37	0x3e1bbc72	0.15208605
38	0xbf520dba	-0.82052195
39	0x3cd37f80	0.025817633

0.weight f4 [40, 1]
0	0x3dee8478	0.1164636
1	0xbe83b9ae	-0.257276
2	0xbecb5d94	-0.39719832
3	0x3e93fb7d	0.28902808
4	0x3f730e8a	0.9494406
5	0x3f480a45	0.7814067
6	0xbeb737a2	-0.35784632
7	0x3f7269e7	0.94692844
8	0xbeec687c	-0.46173465
9	0xbf68f540	-0.9099922
10	0xbf899fae	-1.0751855
11	0xbf30d159	-0.6906944
12	0x3e03b289	0.12861075
13	0x3f4f3066	0.80933225
14	0xbfaeb12c	-1.3647819
15	0xbf90ac39	-1.1302558
16	0xc00d019f	-2.203224
17	0x3e0f468a	0.13991752
18	0xbf266ce5	-0.6500991
19	0xbf2a2553	-0.664632
20	0x3fac36fe	1.3454282
21	0x3fa7e1ca	1.311578
22	0xbfb25929	-1.393346
23	0xbf86bd7a	-1.0526574
24	0xbf4d1c15	-0.80120975
25	0x3f9c3ed2	1.2206671
26	0x3e33653b	0.17519085
27	0xbf281668	-0.6565919
28	0x3f5afde8	0.8554368
29	0x3ee2811e	0.44239134
30	0xbf2db1e8	-0.6784959
31	0x3f85f394	1.0464959
32	0x3f0e0646	0.5547832
33	0x3f25e5e3	0.64803904
34	0xbeca3a2a	-0.394975
35	0xbf19c59d	-0.6006716
36	0x3de742b7	0.11292022
37	0xbe7a8c66	-0.2446762
38	0x3f7c75d9	0.9861732
39	0x3f706872	0.9390937

0.bias f4 [40]
0	0xbc7595f0	-0.014989361
1	0x3d028f9e	0.031875245
2	0x3d49d038	0.04927084
3	0xbd168cf8	-0.036755532
4	0xbe98ac00	-0.29818726
5	0xbe7ba6ac	-0.24575299
6	0x3de7ca9e	0.11317943
7	0xbe984734	-0.29741824
8	0x3d6a4ca4	0.057201996
9	0x3e9339f1	0.28755143
10	0x3eae204d	0.3400902
11	0x3e5f938b	0.21833627
12	0xbd253f8f	-0.040343817
13	0xbe82097f	-0.2539787
14	0x3edcd390	0.4313016
15	0x3eb6d168	0.3570664
16	0x3f9c03ee	1.2188699
17	0xbd9f655b	-0.07783004
18	0x3e5291a0	0.20563364
19	0x3ebc43e5	0.3677055
20	0xbf3f9c9d	-0.7484835
21	0xbf80e38b	-1.0069441
22	0x3f87bdc7	1.060479
23	0x3f4d200a	0.8012701
24	0x3f1c2497	0.6099333
25	0xbf6feeef	-0.9372396
26	0xbdc7a838	-0.09748882
27	0x3f000349	0.5000501
28	0xbf28275b	-0.6568505
29	0xbeade517	-0.33963844
30	0x3f468382	0.77544415
31	0xbf4d9f49	-0.80321175
32	0xbed9ef81	-0.4256554
33	0xbf2575d0	-0.6463289
34	0x3f2cfd79	0.6757427
35	0x3eea238a	0.4573024
36	0xbde6a60c	-0.1126214
37	0x3eafac8e	0.34311336
38	0xbf41c78a	-0.756951
39	0xbf6fc471	-0.9365912

2.weight f4 [1, 40]
0	0x3de467d1	0.11152614
1	0x3e38f216	0.18061098
2	0x3eaf67ed	0.34258977
3	0x3e600cd7	0.21879898
4	0xbeed7622	-0.4637919
5	0xbea42297	-0.3205764
6	0xbe9d5ca0	-0.3073473
7	0xbefeb254	-0.4974543
8	0x3ea5be7a	0.32371885
9	0xbf252b1d	-0.6451891
10	0xbf4b51eb	-0.7942187
11	0xbf0f911b	-0.5608079
12	0xbdc72cdd	-0.09725354
13	0xbf0c1d79	-0.5473247
14	0xbf8b2cd8	-1.087306
15	0xbf39c05b	-0.72559136
16	0x40126865	2.2876217
17	0x3e196d76	0.14983162
18	0xbf12b9ae	-0.57314575
19	0x3f3579a2	0.7088872
20	0x3fb4c240	1.412178
21	0xbfa4f0f9	-1.2886039
22	0xbfaa6b16	-1.331393
23	0xbf85ce6a	-1.0453618
24	0xbf4cf074	-0.800544
25	0xbf9ab039	-1.2085029
26	0x3e4f5f7d	0.2025127
27	0xbf2b10f8	-0.6682277
28	0xbf5bc9d1	-0.8585482
29	0xbeeac05a	-0.45849878
30	0x3e38a43e	0.18031403
31	0xbf911f0c	-1.13376
32	0xbf236245	-0.6382182
33	0x3e1a9e88	0.15099537
34	0x3ec24c63	0.37948903
35	0xbf1af999	-0.60537106
36	0x3c5ea43f	0.013588964
37	0x3e149f52	0.14513901
38	0xbf84a448	-1.0362635
39	0x3cd37f80	0.025817633

0.weight f4 [40, 1]
0	0x3e2a6d31	0.16643216
1	0xbea643c3	-0.32473573
2	0xbf055ef7	-0.5209803
3	0x3ec8475b	0.3911694
4	0x3f80fec1	1.0077745
5	0x3f528001	0.8222657
6	0xbed3b944	-0.41352284
7	0x3f812d88	1.009202
8	0xbf152a27	-0.58267444
9	0xbf83ad9c	-1.0287356
10	0xbf9c44a6	-1.220845
11	0xbf4aeec1	-0.7927056
12	0x3e0ff0d7	0.14056717
13	0x3f608088	0.87696123
14	0xbfc80c84	-1.562882
15	0xbfa1eb36	-1.2649906
16	0xc02b92e6	-2.680841
17	0x3e3531fb	0.17694847
18	0xbf40f1a1	-0.75368696
19	0xbf4ff11f	-0.81227297
20	0x3fd90236	1.69538
21	0x3fb8f51f	1.4449805
22	0xbfc7439f	-1.5567511
23	0xbf971b72	-1.1805251
24	0xbf662aa5	-0.8990882
25	0x3fac45fc	1.3458858
26	0x3e663adf	0.22483395
27	0xbf3cfb2c	-0.7382076
28	0x3f71be8c	0.94431376
29	0x3efac097	0.4897506
30	0xbf2a8de5	-0.66622764
31	0x3f94e592	1.1632559
32	0x3f1ec9aa	0.62026465
33	0x3f25e5e3	0.64803904
34	0xbebc1346	-0.36733454
35	0xbf2cb358	-0.67461157
36	0x3de742b7	0.11292022
37	0xbe6fe43d	-0.2342691
38	0x3f8beb0c	1.0931106
39	0x3f706872	0.9390937

0.bias f4 [40]
0	0xbcac3cb0	-0.021025032
1	0x3d2361b6	0.039888106
2	0x3d823ada	0.06358881
3	0xbd4a3e6e	-0.049375944
4	0xbea95b82	-0.33077627
5	0xbe8a2505	-0.2698137
6	0x3e0cc775	0.13747962
7	0xbea9b2b5	-0.33144155
8	0x3d92942c	0.07157168
9	0x3eaeab95	0.34115282
10	0x3ecf7f84	0.40526974
11	0x3e86d6e6	0.2633583
12	0xbd3d532f	-0.04622191
13	0xbe938f87	-0.2882044
14	0x3f04da42	0.51895535
15	0x3ed6aaa5	0.41927066
16	0x3fbd2758	1.4777632
17	0xbdc92099	-0.09820671
18	0x3e8065ae	0.25077575
19	0x3ee534ec	0.4476694
20	0xbf70d648	-0.9407697
21	0xbf8d2562	-1.1027033
22	0x3f96c75b	1.1779588
23	0x3f64b221	0.89334303
24	0x3f2e2fcc	0.6804168
25	0xbf836d32	-1.0267699
26	0xbdff86fb	-0.12476917
27	0x3f0f0c5b	0.5587823
28	0xbf386bf1	-0.72039706
29	0xbebf3b96	-0.37350148
30	0x3f48574b	0.782582
31	0xbf62fefa	-0.88670313
32	0xbef1e8f9	-0.47248057
33	0xbf2575d0	-0.6463289
34	0x3f322e04	0.69601464
35	0x3f02b748	0.51060915
36	0xbde6a60c	-0.1126214
37	0x3eb367c6	0.3504011
38	0xbf555aa5	-0.8334144
39	0xbf6fc471	-0.9365912

2.weight f4 [1, 40]
0	0x3e26fb6f	0.16306852
1	0x3e899fe4	0.268798
2	0x3ef6957a	0.48160917
3	0x3eaf9d9a	0.34299928
4	0xbf170ab0	-0.5900068
5	0xbed933b7	-0.42422268
6	0xbec15092	-0.37756783
7	0xbf1f9bee	-0.62347305
8	0x3ef6c4bf	0.4819698
9	0xbf527862	-0.8221494
10	0xbf8078da	-1.0036881
11	0xbf322a16	-0.6959547
12	0xbdea767f	-0.114483826
13	0xbf27cf4d	-0.6555069
14	0xbfad5379	-1.3541099
15	0xbf71c970	-0.94447994
16	0x40372e95	2.8622181
17	0x3e46a4f6	0.19398865
18	0xbf336d80	-0.7008896
19	0x3f61ee54	0.88254285
20	0x3feb0166	1.8359802
21	0xbfbf07a1	-1.4924203
22	0xbfca0f53	-1.5785927
23	0xbf9db8e9	-1.2322055
24	0xbf71599d	-0.94277364
25	0xbfb2fa4f	-1.3982638
26	0x3e8436dd	0.25823107
27	0xbf48ea8b	-0.78482884
28	0xbf7dd9b7	-0.9916033
29	0xbf07037e	-0.52739704
30	0x3e361e55	0.17785008
31	0xbfa6052d	-1.297033
32	0xbf399938	-0.7249942
33	0x3e1a9e88	0.15099537
34	0x3ec84700	0.3911667
35	0xbf3646ad	-0.7120159
36	0x3c5ea43f	0.013588964
37	0x3e178089	0.14795126
38	0xbf984f82	-1.1899264
39	0x3cd37f80	0.025817633

0.weight f4 [40, 1]
0	0x3e6d5523	0.23177008
1	0xbedd7f27	-0.43261072
2	0xbf360030	-0.71094036
3	0x3f07e83b	0.5308873
4	0x3f882afe	1.063812
5	0x3f5ceb7d	0.86296827
6	0xbee6f6f3	-0.45110282
7	0x3f88ba57	1.0681866
8	0xbf46aff6	-0.77612245
9	0xbf8e37e5	-1.1110808
10	0xbfa9200b	-1.3212904
11	0xbf5cb166	-0.8620819
12	0x3e1ad6f6	0.15121064
13	0x3f702e3a	0.93820536
14	0xbfd952a8	-1.697835
15	0xbfae17f3	-1.3601059
16	0xc03df996	-2.9683585
17	0x3e4aad70	0.19792724
18	0xbf52cc96	-0.82343423
19	0xbf669c1a	-0.9008194
20	0x3ff26f19	1.8940154
21	0x3fc1a503	1.5128483
22	0xbfd467e8	-1.659421
23	0xbfa15826	-1.2605026
24	0xbf75d54b	-0.96028584
25	0x3fb46910	1.4094563
26	0x3e815f3d	0.25267974
27	0xbf4a0936	-0.78920305
28	0x3f7d4835	0.98938304
29	0x3f038204	0.51370263
30	0xbf2a885d	-0.66614324
31	0x3f9c6d91	1.2220937
32	0x3f273219	0.6531082
33	0x3f25e5e3	0.64803904
34	0xbebb5baf	-0.36593387
35	0xbf388c9c	-0.7208955
36	0x3de742b7	0.11292022
37	0xbe6f73f6	-0.2338408
38	0x3f92d521	1.1471292
39	0x3f706872	0.9390937

0.bias f4 [40]
0	0xbd000507	-0.031254794
1	0x3d6c027b	0.057619553
2	0x3dc1b9c5	0.09459261
3	0xbd929946	-0.07158141
4	0xbeb5a196	-0.35474843
5	0xbe9310f4	-0.28723872
6	0x3e1ed670	0.15511489
7	0xbeb69cc2	-0.35666472
8	0x3dd3b2f3	0.10336866
9	0x3ec2aa24	0.38020432
10	0x3ee7b7e0	0.45257473
11	0x3e9795e1	0.29606536
12	0xbd4ff0c6	-0.05076673
13	0xbea0f4b7	-0.31436703
14	0x3f15421b	0.58303994
15	0x3eed903b	0.46399102
16	0x3fd0b1fb	1.6304315
17	0xbde173a3	-0.11008384
18	0x3e910f63	0.28332052
19	0x3efd5175	0.4947621
20	0xbf86d457	-1.0533551
21	0xbf950915	-1.1643397
22	0x3f9ca156	1.2236736
23	0x3f6ddcf8	0.92915297
24	0x3f353233	0.7077972
25	0xbf8ad10a	-1.0845044
26	0xbe0fed24	-0.14055306
27	0x3f14dbe4	0.58148026
28	0xbf42e637	-0.7613253
29	0xbeca5e0f	-0.39524886
30	0x3f470b16	0.7775129
31	0xbf70abc9	-0.94012123
32	0xbf00961c	-0.5022905
33	0xbf2575d0	-0.6463289
34	0x3f308e30	0.6896696
35	0x3f07fc32	0.53119195
36	0xbde6a60c	-0.1126214
37	0x3eb1f811	0.34759572
38	0xbf61e906	-0.8824619
39	0xbf6fc471	-0.9365912

2.weight f4 [1, 40]
0	0x3e6b6bde	0.22990367
1	0x3ec9b6c4	0.39397252
2	0x3f2f659a	0.68514407
3	0x3efee88c	0.49786794
4	0xbf3136f6	-0.6922449
5	0xbf01ebc7	-0.5075039
6	0xbed897a5	-0.42303196
7	0xbf39d739	-0.7259403
8	0x3f34e0a6	0.70655286
9	0xbf6f6097	-0.9350676
10	0xbf91a18f	-1.1377429
11	0xbf4876d3	-0.7830631
12	0xbe03ea23	-0.12882285
13	0xbf3eac70	-0.7448187
14	0xbfc34e37	-1.5258244
15	0xbf8aa72d	-1.0832268
16	0x404c760f	3.1947057
17	0x3e6000ca	0.21875301
18	0xbf48a5be	-0.783779
19	0x3f7bb8c5	0.9832881
20	0x4004adfd	2.0731194
21	0xbfccfe1d	-1.6015049
22	0xbfda3970	-1.7048779
23	0xbfa9f67e	-1.3278348
24	0xbf81fec9	-1.0155879
25	0xbfbffb66	-1.4998596
26	0x3e945b7e	0.28976053
27	0xbf583644	-0.844578
28	0xbf880d20	-1.0629005
29	0xbf107b76	-0.56438386
30	0x3e2b4479	0.16725339
31	0xbfb144dc	-1.3849139
32	0xbf4599e9	-0.77187973
33	0x3e1a9e88	0.15099537
34	0x3ec35a6f	0.38154933
35	0xbf444249	-0.76663643
36	0x3c5ea43f	0.013588964
37	0x3e12927f	0.14313696
38	0xbfa2e0b9	-1.272483
39	0x3cd37f80	0.025817633

0.weight f4 [40, 1]
0	0x3ea27f64	0.31737816
1	0xbf1591b9	-0.5842548
2	0xbf78f554	-0.9724934
3	0x3f37bc27	0.7177147
4	0x3f8d9b18	1.1062956
5	0x3f64ede8	0.89425516
6	0xbef3b4c2	-0.47598845
7	0x3f8e6bd2	1.1126654
8	0xbf862961	-1.0481378
9	0xbf953270	-1.1656017
10	0xbfb1a479	-1.3878318
11	0xbf68787b	-0.9080884
12	0x3e22db88	0.15904057
13	0x3f7bcbd1	0.98357874
14	0xbfe4ca56	-1.7874248
15	0xbfb62291	-1.4229299
16	0xc04a6842	-3.1626134
17	0x3e56d804	0.20980841
18	0xbf5e9cf1	-0.86958224
19	0xbf75e851	-0.9605761
20	0x40006bdb	2.006583
21	0x3fc73677	1.5563496
22	0xbfdceca5	-1.7259718
23	0xbfa7ed54	-1.3119302
24	0xbf7fe344	-0.99956155
25	0x3fb99fc9	1.4501888
26	0x3e897488	0.2684672
27	0xbf525b77	-0.82170814
28	0x3f8255df	1.0182456
29	0x3f076e2a	0.5290247
30	0xbf2b1ba4	-0.6683905
31	0x3fa13cd1	1.2596685
32	0x3f2c8d9c	0.6740358
33	0x3f25e5e3	0.64803904
34	0xbebd67ae	-0.36993164
35	0xbf401df0	-0.7504568
36	0x3de742b7	0.11292022
37	0xbe7114fd	-0.23543163
38	0x3f9740cf	1.1816653
39	0x3f706872	0.9390937

0.bias f4 [40]
0	0xbd2e2823	-0.042518746
1	0x3d9f17f1	0.07768238
2	0x3e043ceb	0.12913863
3	0xbdc53d5d	-0.09630845
4	0xbebdebbb	-0.3709391
5	0xbe993107	-0.29920217
6	0x3e296180	0.165411
7	0xbebf475f	-0.3735914
8	0x3e0e6597	0.13905941
9	0x3ecf5c12	0.40499932
10	0x3ef6c64e	0.4819817
11	0x3ea18227	0.3154461
12	0xbd5c1157	-0.053727474
13	0xbea9c1d6	-0.33155698
14	0x3f1efdd8	0.62106085
15	0x3efcf760	0.49407482
16	0x3fdaebb0	1.7103176
17	0xbdf54478	-0.1197595
18	0x3e9abb6d	0.3022112
19	0x3f04f4f7	0.51936287
20	0xbf9295e8	-1.1451998
21	0xbf9999c4	-1.200005
22	0x3f9fd173	1.2485794
23	0x3f72f98f	0.94912046
24	0x3f392040	0.72314835
25	0xbf8f1760	-1.1179008
26	0xbe1ce930	-0.15323329
27	0x3f182f1a	0.5944687
28	0xbf48f4dc	-0.78498626
29	0xbed0cbef	-0.4078059
30	0x3f454dea	0.7707201
31	0xbf788dd4	-0.9709141
32	0xbf04f9d6	-0.5194372
33	0xbf2575d0	-0.6463289
34	0x3f2dc152	0.6787311
35	0x3f0afba7	0.5429024
36	0xbde6a60c	-0.1126214
37	0x3eafad72	0.34312016
38	0xbf69280d	-0.9107674
39	0xbf6fc471	-0.9365912

2.weight f4 [1, 40]
0	0x3ea2197e	0.31660074
1	0x3f0ed221	0.5578938
2	0x3f74dac4	0.9564631
3	0x3f31f013	0.6950695
4	0xbf434319	-0.7627426
5	0xbf108db6	-0.56466234
6	0xbee73f30	-0.45165396
7	0xbf4bf7b1	-0.7967482
8	0x3f801469	1.0006229
9	0xbf80bb5d	-1.0057179
10	0xbf9c6179	-1.2217246
11	0xbf567a31	-0.837802
12	0xbe0e31af	-0.1388614
13	0xbf4e9c34	-0.807071
14	0xbfd11b95	-1.6336542
15	0xbf95bbba	-1.1697915
16	0x4059c2fa	3.4025254
17	0x3e6fc0cb	0.23413388
18	0xbf5604a8	-0.83600855
19	0x3f85edcd	1.0463196
20	0x400e18dd	2.2202675
21	0xbfd5660d	-1.6671768
22	0xbfe3df60	-1.7802544
23	0xbfb14585	-1.3849341
24	0xbf878f90	-1.0590687
25	0xbfc7d022	-1.5610392
26	0x3e9e6aec	0.3094095
27	0xbf615908	-0.88026476
28	0xbf8d8c57	-1.1058453
29	0xbf1630c7	-0.5866818
30	0x3e1fbb33	0.15598755
31	0xbfb80ef7	-1.4379567
32	0xbf4cdb63	-0.8002226
33	0x3e1a9e88	0.15099537
34	0x3ebc9b04	0.36837018
35	0xbf4c9bff	-0.7992553
36	0x3c5ea43f	0.013588964
37	0x3e0c799d	0.13718267
38	0xbfa9402f	-1.3222712
39	0x3cd37f80	0.025817633

0.weight f4 [40, 1]
0	0x3ed323da	0.4123829
1	0xbf444356	-0.76665246
2	0xbfa45a9f	-1.2840155
3	0x3f6d5229	0.9270349
4	0x3f93a471	1.1534559
5	0x3f6de506	0.9292759
6	0xbefec310	-0.49758196
7	0x3f94b93f	1.1619033
8	0xbfb00831	-1.37525
9	0xbf9b5f11	-1.2138387
10	0xbfb92106	-1.4463203
11	0xbf72b98a	-0.9481436
12	0x3e2b964c	0.16756552
13	0x3f843fe8	1.0332003
14	0xbfeecbf1	-1.8655988
15	0xbfbd5182	-1.4790499
16	0xc051db71	-3.2790186
17	0x3e5dc006	0.21655282
18	0xbf68d74e	-0.9095353
19	0xbf80641e	-1.0030553
20	0x40048154	2.0703936
21	0x3fcb2b61	1.5872613
22	0xbfe2d092	-1.7719901
23	0xbfac7eb8	-1.3476171
24	0xbf836f59	-1.0268356
25	0x3fbd5422	1.47913
26	0x3e8e0888	0.27740884
27	0xbf5826ef	-0.8443441
28	0x3f84f59f	1.0387458
29	0x3f0a36c8	0.5398984
30	0xbf2c304c	-0.67261195
31	0x3fa4a5cd	1.2863098
32	0x3f3064bb	0.689037
33	0x3f25e5e3	0.64803904
34	0xbec21792	-0.37908608
35	0xbf456202	-0.77102673
36	0x3de742b7	0.11292022
37	0xbe74a351	-0.23890425
38	0x3f9a6d6f	1.2064646
39	0x3f706872	0.9390937

0.bias f4 [40]
0	0xbd5c6dd3	-0.053815674
1	0x3dc98771	0.098402865
2	0x3e28a429	0.16468872
3	0xbdf7f971	-0.12108124
4	0xbec0eab4	-0.37679064
5	0xbe9b735d	-0.30361453
6	0x3e2e0bc5	0.16996677
7	0xbec25424	-0.3795482
8	0x3e34c040	0.17651463
9	0x3ed47ee2	0.41503054
10	0x3efd204e	0.4943871
11	0x3ea5df58	0.3239696
12	0xbd6040e7	-0.054749396
13	0xbeacd937	-0.33759472
14	0x3f233560	0.6375332
15	0x3f0183d6	0.5059179
16	0x3fe358cb	1.7761472
17	0xbe00aa60	-0.12564993
18	0x3e9f0d43	0.31064805
19	0x3f06fdff	0.5273132
20	0xbf99c541	-1.2013322
21	0xbf9c8933	-1.222937
22	0x3fa19574	1.2623734
23	0x3f75c4c7	0.96003383
24	0x3f3b44b5	0.73151714
25	0xbf91d6fa	-1.1393731
26	0xbe24d0ed	-0.16095324
27	0x3f19fa83	0.60147876
28	0xbf4cd9a2	-0.8001958
29	0xbed4ed33	-0.4158722
30	0x3f433ecc	0.76267695
31	0xbf7d9cb3	-0.9906723
32	0xbf07bad1	-0.53019434
33	0xbf2575d0	-0.6463289
34	0x3f29da16	0.663484
35	0x3f0c9af8	0.54923964
36	0xbde6a60c	-0.1126214
37	0x3eac9e79	0.33714655
38	0xbf6db5f7	-0.9285578
39	0xbf6fc471	-0.9365912

2.weight f4 [1, 40]
0	0x3ed319f9	0.41230753
1	0x3f3f916f	0.7483129
2	0x3fa322a7	1.274495
3	0x3f692c6d	0.91083413
4	0xbf54dc73	-0.8314888
5	0xbf1ec5ae	-0.62020385
6	0xbef30a5a	-0.47468835
7	0xbf5dabf8	-0.8659053
8	0x3fabcd96	1.3422115
9	0xbf87f9be	-1.062309
10	0xbfa4ffe4	-1.2890592
11	0xbf61bd07	-0.8817906
12	0xbe18548d	-0.14876004
13	0xbf5e463c	-0.8682592
14	0xbfdc31c0	-1.7202682
15	0xbf9e972b	-1.2389883
16	0x406214fb	3.5325305
17	0x3e78d15d	0.24298616
18	0xbf60c94c	-0.87807155
19	0x3f8afea2	1.0858958
20	0x401383fc	2.3049307
21	0xbfdb0f0d	-1.7113968
22	0xbfea1086	-1.8286293
23	0xbfb5f637	-1.4215764
24	0xbf8b21e1	-1.0869714
25	0xbfcd1616	-1.6022365
26	0x3ea43747	0.32073423
27	0xbf6735c2	-0.903164
28	0xbf914015	-1.1347681
29	0xbf1a0940	-0.60170364
30	0x3e138bb6	0.14408764
31	0xbfbca290	-1.473711
32	0xbf51c078	-0.8193431
33	0x3e1a9e88	0.15099537
34	0x3eb42373	0.35183296
35	0xbf51f7c2	-0.82018673
36	0x3c5ea43f	0.013588964
37	0x3e05473a	0.13015452
38	0xbfad8b4e	-1.3558137
39	0x3cd37f80	0.025817633

0.weight f4 [40, 1]
0	0x3f00304f	0.50073713
1	0xbf748677	-0.9551768
2	0xbfcd604b	-1.6045011
3	0x3f8faf3e	1.1225355
4	0x3f9a29e0	1.2044029
5	0x3f77a84f	0.96741194
6	0xbf047c51	-0.5175219
7	0x3f9b819a	1.2148926
8	0xbfdb5000	-1.7133789
9	0xbfa11861	-1.2585565
10	0xbfc0123f	-1.5005568
11	0xbf7c364e	-0.9852036
12	0x3e34d57e	0.17659566
13	0x3f8b028a	1.086015
14	0xbff80d83	-1.9379123
15	0xbfc40074	-1.5312638
16	0xc056a815	-3.354009
17	0x3e61def0	0.220577
18	0xbf7247ab	-0.94640607
19	0xbf83c034	-1.0293031
20	0x4006f1f2	2.1085172
21	0x3fcdb356	1.6070354
22	0xbfe74c2c	-1.8070121
23	0xbfaffa03	-1.3748173
24	0xbf8618f5	-1.0476366
25	0x3fbfdc15	1.4989039
26	0x3e90c384	0.28274167
27	0xbf5c9231	-0.8616057
28	0x3f86a31d	1.0518528
29	0x3f0c1b2d	0.54728967
30	0xbf2da1ac	-0.67824817
31	0x3fa6f996	1.3044918
32	0x3f3305f1	0.6993094
33	0x3f25e5e3	0.64803904
34	0xbec8e820	-0.39239597
35	0xbf496539	-0.7867008
36	0x3de742b7	0.11292022
37	0xbe79b737	-0.24386297
38	0x3f9c9a7b	1.2234644
39	0x3f706872	0.9390937

0.bias f4 [40]
0	0xbd831e99	-0.064023204
1	0x3df74206	0.1207314
2	0x3e4fed92	0.2030547
3	0xbe12fe0d	-0.14354725
4	0xbec583fb	-0.38577256
5	0xbe9edd67	-0.31028292
6	0x3e315028	0.17315733
7	0xbec71b34	-0.38887942
8	0x3e5df43b	0.21675198
9	0x3ed82177	0.42213032
10	0x3f00c562	0.5030118
11	0x3ea8e703	0.32988748
12	0xbd67076d	-0.056403566
13	0xbeb1c735	-0.34722295
14	0x3f26296d	0.6490696
15	0x3f03a0b9	0.5141712
16	0x3fe8f2f7	1.8199147
17	0xbe04d249	-0.12970842
18	0x3ea2136b	0.3165544
19	0x3f09575e	0.53648937
20	0xbf9eb56c	-1.2399116
21	0xbf9e5c67	-1.2371949
22	0x3fa3265b	1.274608
23	0x3f7837e7	0.969603
24	0x3f3d23cb	0.7388274
25	0xbf9356da	-1.151088
26	0xbe2a4297	-0.16626965
27	0x3f1b8b1f	0.60759157
28	0xbf4f4514	-0.8096478
29	0xbed73372	-0.42031437
30	0x3f40c2d0	0.7529726
31	0xbf802f20	-1.0014381
32	0xbf0934ff	-0.5359649
33	0xbf2575d0	-0.6463289
34	0x3f247261	0.6423703
35	0x3f0e06cd	0.5547913
36	0xbde6a60c	-0.1126214
37	0x3ea884bd	0.3291377
38	0xbf70284e	-0.938115
39	0xbf6fc471	-0.9365912

2.weight f4 [1, 40]
0	0x3f0045fe	0.501068
1	0x3f7136ea	0.9422442
2	0x3fccc6ca	1.5998166
3	0x3f8e1796	1.1100948
4	0xbf675faf	-0.90380377
5	0xbf2dae3a	-0.67843974
6	0xbefdcb53	-0.49569187
7	0xbf705315	-0.93876773
8	0x3fd8550f	1.6900958
9	0xbf8e8cdf	-1.113674
10	0xbfacd476	-1.3502338
11	0xbf6bfe12	-0.92184556
12	0xbe231a65	-0.15928037
13	0xbf6edfdf	-0.9331035
14	0xbfe648e9	-1.7991
15	0xbfa69c80	-1.301651
16	0x406765b3	3.6155822
17	0x3e7e7003	0.24847417
18	0xbf6a9c9f	-0.91645235
19	0x3f8e56da	1.1120255
20	0x4016dfc3	2.3574073
21	0xbfde9140	-1.7388077
22	0xbfeeeb76	-1.8665607
23	0xbfb9a470	-1.4503307
24	0xbf8def81	-1.1088716
25	0xbfd05b13	-1.6277794
26	0x3ea7d009	0.32775906
27	0xbf6bd019	-0.92114407
28	0xbf938bb0	-1.1527004
29	0xbf1c6bb9	-0.6110187
30	0x3e011758	0.12606561
31	0xbfbf7924	-1.4958844
32	0xbf54c9b4	-0.83120275
33	0x3e1a9e88	0.15099537
34	0x3ea7fc07	0.3280947
35	0xbf562cb7	-0.8366198
36	0x3c5ea43f	0.013588964
37	0x3df58d63	0.11989858
38	0xbfb034ee	-1.3766153
39	0x3cd37f80	0.025817633

0.weight f4 [40, 1]
0	0x3f12177d	0.5706709
1	0xbf8fd244	-1.1236043
2	0xbff1f46c	-1.8902717
3	0x3fa3888b	1.2776045
4	0x3fa06fa9	1.2534076
5	0x3f809343	1.0044941
6	0xbf086554	-0.53279614
7	0x3fa200e0	1.2656517
8	0xc000fe2d	-2.0155137
9	0xbfa57e7e	-1.2929227
10	0xbfc56740	-1.5422134
11	0xbf81be5b	-1.0136217
12	0x3e3d8a1c	0.18509716
13	0x3f916929	1.1360217
14	0xbfff272c	-1.9933829
15	0xbfc925c4	-1.571465
16	0xc05ac0b2	-3.4180112
17	0x3e64a6d6	0.22329268
18	0xbf79820e	-0.9746407
19	0xbf86b426	-1.0523727
20	0x40089812	2.1342816
21	0x3fce61a7	1.6123551
22	0xbfe9fd52	-1.8280432
23	0xbfb21142	-1.3911517
24	0xbf87b245	-1.0601279
25	0x3fc2254b	1.5167631
26	0x3e9299d7	0.28632995
27	0xbf5f39e7	-0.87197727
28	0x3f876156	1.057658
29	0x3f0dd27e	0.5539931
30	0xbf2ef6da	-0.68345416
31	0x3fa91332	1.3208983
32	0x3f355b75	0.7084268
33	0x3f25e5e3	0.64803904
34	0xbecfb1e6	-0.40565413
35	0xbf4bce96	-0.796121
36	0x3de742b7	0.11292022
37	0xbe7eb2fb	-0.24872963
38	0x3f9e894f	1.2385653
39	0x3f706872	0.9390937

0.bias f4 [40]
0	0xbd8e463b	-0.06946989
1	0x3e0a8fa7	0.13531362
2	0x3e6901aa	0.22754541
3	0xbe1f26c8	-0.15542138
4	0xbecb01cb	-0.39649805
5	0xbea2a819	-0.31768873
6	0x3e34f227	0.17670499
7	0xbeccf7ae	-0.40032715
8	0x3e788e69	0.24273075
9	0x3edc336e	0.43007988
10	0x3f033d5f	0.5126552
11	0x3eac4717	0.33647987
12	0xbd6fdb9f	-0.058559056
13	0xbeb808b0	-0.35944128
14	0x3f297465	0.6619323
15	0x3f0600b0	0.523448
16	0x3fec800a	1.8476574
17	0xbe06fcd3	-0.13182382
18	0x3ea56f59	0.32311514
19	0x3f0abc4b	0.5419356
20	0xbfa146cf	-1.2599734
21	0xbfa1cd63	-1.2640804
22	0x3fa4c284	1.2871861
23	0x3f7aba53	0.9794056
24	0x3f3f0f33	0.7463257
25	0xbf946d00	-1.1595764
26	0xbe2d1aea	-0.16904798
27	0x3f1d23e3	0.61382884
28	0xbf5313c0	-0.8245201
29	0xbed8d4e9	-0.42349938
30	0x3f3ed13f	0.74538034
31	0xbf812e8f	-1.0092334
32	0xbf0a50d6	-0.54029596
33	0xbf2575d0	-0.6463289
34	0x3f1fd8d6	0.6244024
35	0x3f0f79e8	0.5604539
36	0xbde6a60c	-0.1126214
37	0x3ea5172c	0.3224424
38	0xbf71fea7	-0.94529194
39	0xbf6fc471	-0.9365912

2.weight f4 [1, 40]
0	0x3f122491	0.57087046
1	0x3f8e8c5e	1.1136587
2	0x3ff1a995	1.8879877
3	0x3fa21c20	1.2664833
4	0xbf78c010	-0.97168064
5	0xbf3ba287	-0.7329487
6	0xbf0320e6	-0.51222074
7	0xbf80ed31	-1.0072385
8	0x3fffb09d	1.9975773
9	0xbf93b4b8	-1.1539526
10	0xbfb2f964	-1.3982358
11	0xbf740d91	-0.953332
12	0xbe2d4d0b	-0.16923921
13	0xbf7e8cdd	-0.9943369
14	0xbfee36a8	-1.861043
15	0xbface3f9	-1.3507072
16	0x406bbd78	3.6834393
17	0x3e80eae8	0.2517922
18	0xbf7258f8	-0.94667006
19	0x3f9132d8	1.1343641
20	0x4018e7ac	2.3891401
21	0xbfe18385	-1.7618262
22	0xbff23fa1	-1.8925668
23	0xbfbc2af5	-1.470061
24	0xbf8fdbd4	-1.1238961
25	0xbfd31867	-1.6491822
26	0x3ea9fc92	0.33200508
27	0xbf6ef8ce	-0.93348396
28	0xbf957841	-1.1677324
29	0xbf1e6b14	-0.6188214
30	0x3de923fd	0.11383817
31	0xbfc1d9f0	-1.5144634
32	0xbf57550e	-0.8411416
33	0x3e1a9e88	0.15099537
34	0x3e9ebbeb	0.31002745
35	0xbf590fa7	-0.8478951
36	0x3c5ea43f	0.013588964
37	0x3de62f5f	0.11239504
38	0xbfb2703f	-1.3940505
39	0x3cd37f80	0.025817633

0.weight f4 [40, 1]
0	0x3f1edbef	0.6205434
1	0xbfa02218	-1.2510405
2	0xc006cc64	-2.106225
3	0x3fb1b306	1.3882759
4	0x3fa56c04	1.2923589
5	0x3f845850	1.0339451
6	0xbf0b721e	-0.54471004
7	0x3fa729da	1.3059647
8	0xc00f9f3f	-2.2440946
9	0xbfa8ef16	-1.3197963
10	0xbfc991ee	-1.5747659
11	0xbf849531	-1.035803
12	0x3e447078	0.19183528
13	0x3f967d1f	1.1756934
14	0xc0025930	-2.0366936
15	0xbfcd2cf7	-1.6029347
16	0xc05e341c	-3.4719305
17	0x3e673256	0.22577795
18	0xbf7f24fe	-0.9966582
19	0xbf893db8	-1.072196
20	0x400a1a7e	2.157867
21	0x3fcf7e26	1.6210372
22	0xbfec0dd5	-1.8441721
23	0xbfb3abb2	-1.4036772
24	0xbf88ec1f	-1.0697058
25	0x3fc38721	1.5275613
26	0x3e944785	0.28960815
27	0xbf613f8c	-0.8798759
28	0x3f881dc3	1.0634083
29	0x3f0edc19	0.5580459
30	0xbf2fcf1b	-0.6867539
31	0x3faa580f	1.3308123
32	0x3f36c478	0.7139354
33	0x3f25e5e3	0.64803904
34	0xbed43c78	-0.41452384
35	0xbf4da7f8	-0.80334425
36	0x3de742b7	0.11292022
37	0xbe810009	-0.2519534
38	0x3f9fb470	1.247694
39	0x3f706872	0.9390937

0.bias f4 [40]
0	0xbd9a9208	-0.075473845
1	0x3e145adc	0.14487785
2	0x3e799bf8	0.24375904
3	0xbe2cd5a7	-0.16878377
4	0xbecef38b	-0.40420184
5	0xbea59739	-0.32341936
6	0x3e3793eb	0.1792752
7	0xbed11f77	-0.40844318
8	0x3e850fd3	0.25988635
9	0x3edf2969	0.4358628
10	0x3f0508b8	0.5196643
11	0x3eaeb9c6	0.3412611
12	0xbd75a843	-0.05997492
13	0xbebc36a0	-0.36760426
14	0x3f2bd836	0.67126787
15	0x3f07bbf6	0.5302118
16	0x3feed8c3	1.86599
17	0xbe09b6ab	-0.13448589
18	0x3ea7de3a	0.32786733
19	0x3f0bd3a6	0.54619825
20	0xbfa48296	-1.2852352
21	0xbfa3050a	-1.2735913
22	0x3fa59672	1.2936537
23	0x3f7c045e	0.98444164
24	0x3f400bb0	0.75017834
25	0xbf951f20	-1.1650124
26	0xbe30b29c	-0.17255634
27	0x3f1dfad4	0.6171086
28	0xbf54b0cf	-0.8308229
29	0xbed9e02e	-0.42553848
30	0x3f3d9d21	0.74067885
31	0xbf81d1f5	-1.0142199
32	0xbf0b0656	-0.5430654
33	0xbf2575d0	-0.6463289
34	0x3f1cd284	0.6125872
35	0x3f1038aa	0.5633646
36	0xbde6a60c	-0.1126214
37	0x3ea2dcfe	0.3180923
38	0xbf732bc8	-0.9498868
39	0xbf6fc471	-0.9365912

2.weight f4 [1, 40]
0	0x3f1eeb78	0.62078047
1	0x3f9f13f7	1.2427968
2	0x4006bda9	2.105326
3	0x3fb06886	1.3781898
4	0xbf830765	-1.0236632
5	0xbf464d63	-0.7746183
6	0xbf066f90	-0.5251398
7	0xbf87a506	-1.0597236
8	0x400eaba3	2.2292259
9	0xbf97b96f	-1.1853465
10	0xbfb7c427	-1.4356736
11	0xbf7a591b	-0.97792214
12	0xbe3527cd	-0.17690964
13	0xbf854d66	-1.0414245
14	0xbff467a4	-1.9094129
15	0xbfb1c73a	-1.3888924
16	0x406f554e	3.7395816
17	0x3e82aa0f	0.2552037
18	0xbf7865ae	-0.9703015
19	0x3f93b1c3	1.1538624
20	0x401afe00	2.421753
21	0xbfe343ee	-1.7755105
22	0xbff49564	-1.910809
23	0xbfbdf0b5	-1.4839083
24	0xbf913572	-1.1344435
25	0xbfd4b9c8	-1.6619196
26	0x3eac391e	0.33637327
27	0xbf7130b2	-0.9421493
28	0xbf969d6c	-1.1766791
29	0xbf1f9b84	-0.62346673
30	0x3dd8dcd6	0.10588996
31	0xbfc343d3	-1.5255073
32	0xbf58d80c	-0.8470466
33	0x3e1a9e88	0.15099537
34	0x3e98cd9b	0.29844365
35	0xbf5b1692	-0.85581315
36	0x3c5ea43f	0.013588964
37	0x3ddc4d7b	0.10756966
38	0xbfb3c3f6	-1.4044178
39	0x3cd37f80	0.025817633
