dis/dis03/code/ckpts/sgd/width20/seed316/ckpt_and_history.pt (torch, 15999 bytes, 33 tensors)

0.weight f4 [20, 1]
00000000: d842 843e ccf9 b4be b4be 443e f0ee 5a3e
00000010: 0eb0 5d3f 58cf 373f 6834 bd3d 7498 533f
00000020: c726 07bf 1d9b 403f 1727 d6be 4762 2abf
00000030: 7cdf 5ebf 97a9 1a3d c943 203f d20b 69bf
00000040: afb4 2a3f 7769 36bf 6821 ffbe 486f 64be
0.25832248 -0.3534683 0.19213372 0.2138021 0.86596763 0.71800756 0.09238511 0.826545
-0.52793545 0.75236684 -0.41826698 -0.6655621 -0.8705976 0.03775939 0.6260343 -0.9103366
0.6668195 -0.71254677 -0.49830174 -0.22308075

0.bias f4 [20]
00000000: fb6e b4bc 6860 463d 096f 0abd 485c 74bd
00000010: c536 7fbe d255 73be a540 04bd 1757 c0be
00000020: 830c 803e ecb5 bebe 593a 633e 95fc c43e
00000030: 1be2 033f 5e24 c8bc 729a e8be 4ffb 2e3f
00000040: 4288 0bbf 2250 213f ad97 ee3e 2d01 5a3e
-0.022025576 0.048431784 -0.033797298 -0.05965832 -0.24923237 -0.23763207 -0.032288212 -0.37566444
0.25009546 -0.3724817 0.22190227 0.38473955 0.51516885 -0.024431404 -0.45430332 0.68352216
-0.5450479 0.630129 0.46600094 0.21289511

2.weight f4 [1, 20]
00000000: a3b9 033e 3023 88bd 0ca0 eabd 067c 4f3d
00000010: 0187 1c3e 16ba 7a3d 6131 64bd 9547 82bd
00000020: 6641 1a3e 1a06 02be 0538 973d cf9a 2d3e
00000030: 8238 993c dfe6 ea3d b1a7 1f3e c4c4 2bba
00000040: 778f e83c 3614 2bbe 663d 283e f0e6 c43c
0.12863784 -0.066473365 -0.11456308 0.050655387 0.15285875 0.06121262 -0.055711154 -0.063613094
0.1506401 -0.1269764 0.07383732 0.16953586 0.018703703 0.114698164 0.15591313 -0.00065524527
0.028388722 -0.16706929 0.16429672 0.0240359

0.weight f4 [20, 1]
00000000: 4f39 9e3e f914 f7be 6c45 9f3e 95e4 773e
00000010: 8e58 713f f1b4 5b3f a93b 203e 278c 8e3f
00000020: 7ffc 07bf 304b 893f 60f6 d9be db68 32bf
00000030: 9dfa 6ebf fcd4 3d3d 9f98 363f f771 8bbf
00000040: 1ee3 5e3f cea8 7dbf da64 d2be e30d 51be
0.30903098 -0.48258188 0.31107652 0.24208291 0.9427575 0.8582297 0.15647759 1.1136521
-0.53119653 1.072607 -0.42570782 -0.69691247 -0.93351156 0.046345696 0.7132663 -1.0894154
0.87065303 -0.990857 -0.4109257 -0.20415454

0.bias f4 [20]
00000000: f148 ca3d 050e 0e3e 29d6 bbbd fa60 d2bc
00000010: 7ab3 cbbd 7ff9 81be aae1 3cbd 6d60 a8be
00000020: 4daf 953e b57b a1be a94d 703e 9692 c43e
00000030: 6305 363f e6ec d1bc eb2c 0bbf 81b4 543f
00000040: 8412 2abf 7ae3 413f 2fa6 283f 6697 833e
0.09877194 0.13872536 -0.09171707 -0.025681008 -0.09946342 -0.25385663 -0.046113648 -0.32886067
0.29235306 -0.31539693 0.23467125 0.38393086 0.7110197 -0.025625657 -0.54365414 0.8308793
-0.664345 0.75737727 0.65878576 0.25701445

2.weight f4 [1, 20]
00000000: cd0f 6f3e f8c3 b7be d8a8 8fbe c35b e73d
00000010: c5d0 ad3e 6959 f6be 01f2 0fbe 700d 39bf
00000020: c223 633e ff96 3ebf 5c7c 083e 7e9f 883e
00000030: 0cdc 17bf 4855 ee3d 1161 f5be b463 42bf
00000040: 2f07 2dbf e393 51bf b3ea cf3e 249f ee3d
0.23345871 -0.358917 -0.28058505 0.11296799 0.3394834 -0.4811509 -0.14057161 -0.7228613
0.2218161 -0.7444915 0.1332869 0.26684183 -0.5932014 0.1163736 -0.47925618 -0.75933385
-0.67589086 -0.8186628 0.4060875 0.116514474

0.weight f4 [20, 1]
00000000: 211d a93e ffbb 11bf 38be bd3e 5ba4 913e
00000010: a108 8a3f 9654 773f 60c7 3e3e a4e0 a23f
00000020: 8e2b 52bf 4f0d 9e3f 1ad4 20bf 68d8 87bf
00000030: eeec 8abf 223e 073e 8623 613f 4007 a4bf
00000040: feba 8c3f bbbc 98bf 8f01 bebe 42fb 44be
0.33030036 -0.56927484 0.37059188 0.28445706 1.0783883 0.9661344 0.18630743 1.2724805
-0.8209771 1.2347811 -0.6282364 -1.0612917 -1.0853555 0.13207296 0.8794483 -1.2814713
1.0994565 -1.1932596 -0.37110564 -0.19236472

0.bias f4 [20]
00000000: 8acb 1e3e a252 2d3e 59c1 debd aa98 07bd
00000010: 793c ffbd ba9d 91be 47dd 5fbd 77b7 bfbe
00000020: a871 e93e 1d85 b9be 1f57 b23e 2ea9 163f
00000030: 6b05 583f 9fb4 97bd 86ac 2fbf 9212 7f3f
00000040: 6e42 5bbf 98c6 6d3f 79f3 423f 5b0e 933e
0.15507331 0.16926053 -0.10876722 -0.033104576 -0.12462706 -0.28440648 -0.054654386 -0.3744466
0.45594525 -0.3623437 0.34832093 0.588519 0.8438327 -0.074074976 -0.68622625 0.9963771
-0.8564824 0.92881155 0.7615276 0.2872189

2.weight f4 [1, 20]
00000000: 4bfd 923e 09a1 f4be 5b2e b1be 86de 3f3e
00000010: 886f 203f 2a14 29bf c4aa 31be aabc 74bf
00000020: 658a 3f3f f81e 78bf 3737 0b3f 738c 733f
00000030: f6f8 6bbf 8b80 3a3e bb21 51bf 5b78 92bf
00000040: dff2 8bbf b1f9 95bf 393d 073f 6698 233e
0.28708872 -0.4777911 -0.3460568 0.1873723 0.62670183 -0.6604639 -0.17350298 -0.9560038
0.7482055 -0.96922255 0.54381126 0.95136184 -0.9217676 0.18213098 -0.81692094 -1.144298
-1.0933493 -1.1716825 0.52827793 0.15976104

0.weight f4 [20, 1]
00000000: 195b bf3e cf94 38bf f26e df3e 7636 bb3e
00000010: 1ab7 ad3f cc1b 8c3f 6292 603e 3284 ba3f
00000020: 59c6 a1bf dbe2 b53f b131 74bf 8a27 d0bf
00000030: 35e8 a7bf 7686 7c3e 9362 863f ccbf c7bf
00000040: 2090 a93f 98da bcbf a14b 97be c0d8 2dbe
0.3737419 -0.72102064 0.43639332 0.36564988 1.3571503 1.0945983 0.2193084 1.4571593
-1.2638656 1.4209856 -0.95388323 -1.6262066 -1.3117739 0.24660668 1.0498832 -1.5605407
1.3247108 -1.475421 -0.29549888 -0.16977215

0.bias f4 [20]
00000000: 50e5 453e 3b3b 623e b362 09be c026 26bd
00000010: 5417 1abe 6f27 adbe b002 8abd 1503 e6be
00000020: 386d 343f 9d78 e0be 6421 083f 6725 683f
00000030: 5c1f 813f 4eb4 0dbe add8 50bf 5887 993f
00000040: cfc5 83bf 4a1c 913f 7bd9 533f 850f 9d3e
0.19325757 0.22092907 -0.13416557 -0.0405643 -0.15047961 -0.33819148 -0.06738794 -0.44924226
0.70479155 -0.4384202 0.5317595 0.9068207 1.0087695 -0.13838312 -0.8158062 1.1994429
-1.0294741 1.1336758 0.82753724 0.30675903

2.weight f4 [1, 20]
00000000: e3c2 b53e 1c37 2abf 7bbf d6be c232 973e
00000010: e41b 843f eab4 59bf 4c6f 57be 1074 9abf
00000020: e595 a93f 2738 9bbf 9545 7b3f 22ed d83f
00000030: a861 a5bf 2512 993e 6282 8bbf 9f90 cabf
00000040: 00d5 b7bf 5c7c cabf 3807 143f 3b37 2f3e
0.3550025 -0.6649034 -0.41942963 0.29530913 1.0321012 -0.8504168 -0.2103855 -1.206667
1.3248869 -1.2126511 0.9815305 1.6947367 -1.2920427 0.29896656 -1.0899165 -1.5825385
-1.4361877 -1.5819201 0.57823515 0.17110913

0.weight f4 [20, 1]
00000000: bf7d d93e fbe9 71bf cf51 053f 643f f83e
00000010: da93 e33f 057d a23f b4f5 853e 020b da3f
00000020: 99d5 d0bf 4d7e d53f 2103 9dbf 5f2e 06c0
00000030: e56f c4bf a129 b73e d86a 953f b584 eabf
00000040: e046 bd3f 0655 dfbf e76d 5fbe 80f3 16be
0.4247875 -0.9449765 0.52077955 0.48485863 1.7779496 1.2694403 0.2616402 1.7034609
-1.6315185 1.6679169 -1.226658 -2.0965803 -1.5346648 0.35773948 1.1673231 -1.8321749
1.4787254 -1.7447822 -0.21819268 -0.14741325

0.bias f4 [20]
00000000: a2c5 5e3e c1b6 9a3e 3c44 29be 73b0 67bd
00000010: 8e2b 55be 752d cebe 2f04 aabd 2d55 0abf
00000020: c621 683f 4976 07bf 03a1 2e3f f639 953f
00000030: 6e29 953f 44c2 4cbe 95fb 67bf 0119 b23f
00000040: c603 93bf 2da8 a93f 64e3 5c3f 3626 a23e
0.21755078 0.30217555 -0.16529936 -0.05656476 -0.20817396 -0.40269056 -0.08301579 -0.5403622
0.90676534 -0.52914864 0.68214434 1.1658313 1.1653268 -0.19995981 -0.9061826 1.391388
-1.1485527 1.3254448 0.8628447 0.31669778

2.weight f4 [1, 20]
00000000: 4cc1 d63e 8175 6cbf 5146 03bf a2dd dd3e
00000010: 094f c53f c38c 8abf 24bc 83be 6116 c2bf
00000020: 4ada e13f 70ec c1bf e806 a83f 8aa4 1040
00000030: f495 cebf 62fd d63e 97f8 a1bf 8d9d fbbf
00000040: ae3a d4bf c9ee f8bf 3aff 183f 5640 2e3e
0.4194435 -0.92366797 -0.5127917 0.43333155 1.5414745 -1.0824207 -0.25729477 -1.516308
1.7644742 -1.515028 1.3127108 2.2600427 -1.6139512 0.4199019 -1.2653989 -1.9657456
-1.6580408 -1.9447871 0.59764445 0.1701673

0.weight f4 [20, 1]
00000000: dfc9 e23e 09b4 92bf f88f 1a3f 801f 1e3f
00000010: 8025 1040 dc27 b93f e745 9b3e 06af f93f
00000020: 4c38 f0bf 380f f53f df65 b4bf 5c4d 1ac0
00000030: c051 d6bf 5dc4 df3e cdb4 9c3f bbb3 fdbf
00000040: b7d3 c63f dcf5 f1bf 7f44 46be d0f7 0fbe
0.4429464 -1.1461192 0.6037593 0.61766815 2.2522888 1.4465289 0.3032677 1.9506538
-1.876718 1.9145269 -1.4093589 -2.4109716 -1.6743698 0.437045 1.2242676 -1.9820474
1.553336 -1.8903155 -0.19362067 -0.14059377

0.bias f4 [20]
00000000: c051 543e f9a5 bf3e 04fb 47be bfc7 98bd
00000010: f058 8bbe 4329 efbe 84eb c8bd 7555 21bf
00000020: dcf8 853f 8660 1ebf d638 493f 1b1c ac3f
00000030: a646 9f3f 1522 7abe 979c 6fbf b3d3 c13f
00000040: 3fff 97bf a59e b93f 65d9 583f 9fba 9f3e
0.2073431 0.37431315 -0.19529349 -0.074599735 -0.2721629 -0.46711168 -0.09810546 -0.6302102
1.0466571 -0.61866033 0.7860235 1.3446077 1.2443435 -0.24427064 -0.9359831 1.514273
-1.187477 1.450154 0.8470672 0.31197068

2.weight f4 [1, 20]
00000000: a7fe dc3e 78d3 92bf 1c8d 1abf 39d1 133f
00000010: cc61 0440 9dbe a6bf 321f 9bbe c2fc e7bf
00000020: 0956 0340 7e10 e7bf e1b3 c33f e34c 2840
00000030: ef36 e5bf 5f05 023f c23d abbf af4d 0bc0
00000040: 4afa dfbf 794e 09c0 9f90 113f 7fa2 203e
0.43163034 -1.1470785 -0.60371566 0.57741123 2.068469 -1.302692 -0.30297238 -1.812401
2.0521262 -1.8051908 1.528927 2.6296928 -1.7907389 0.50789446 -1.3378222 -2.1766164
-1.7498257 -2.1454146 0.568613 0.15686987

0.weight f4 [20, 1]
00000000: 4347 da3e cdff a0bf 6746 2b3f a665 3c3f
00000010: 8d4c 2b40 2d48 cb3f 4e0c ac3e 386e 0940
00000020: 42c8 03c0 2a0f 0740 3ad9 c5bf b543 29c0
00000030: 1a69 dfbf 1e5c f73e 88c5 a33f 05f4 03c0
00000040: 58ef cf3f 561c fbbf a2a0 5cbe de23 16be
0.42632493 -1.2578064 0.669043 0.73592603 2.6765473 1.5881401 0.33603138 2.1473522
-2.0590978 2.1103005 -1.5456917 -2.6447575 -1.745395 0.48312467 1.2794657 -2.0617688
1.6244917 -1.9618022 -0.21545652 -0.1466212

0.bias f4 [20]
00000000: 9d00 2c3e 780b d53e c892 5bbe 8a12 bbbd
00000010: dc4b aabe bd3d 02bf 4096 dcbd 6020 30bf
00000020: 8618 913f af17 2dbf e89d 593f a65a ba3f
00000030: 4126 a63f 58c3 8dbe a0f3 6bbf d055 cb3f
00000040: 6cca 95bf 1928 c43f e169 4b3f 2b43 983e
0.16797109 0.41610312 -0.21442711 -0.091343954 -0.33261 -0.50875455 -0.107708454 -0.687994
1.1335609 -0.67614263 0.8500657 1.4558914 1.2980424 -0.27688098 -0.9216862 1.5885563
-1.1702399 1.5324737 0.79458433 0.29738745

2.weight f4 [1, 20]
00000000: 4459 ca3e 3271 a2bf 1638 2cbf 7a98 333f
00000010: d752 2140 e4de bbbf fcde acbe f83e 02c0
00000020: 8757 1040 2986 01c0 943c d73f 4d02 3940
00000030: 1151 f1bf f8f2 0f3f 9259 b0bf f681 12c0
00000040: 7f76 e6bf d62b 10c0 5060 ff3e 9021 093e
0.3952123 -1.2690794 -0.6727308 0.70154536 2.5206811 -1.4677396 -0.33763874 -2.0350933
2.2553422 -2.0238135 1.6815362 2.8907654 -1.8852865 0.56230116 -1.3777335 -2.2891822
-1.8004912 -2.2526755 0.49878168 0.1339171

0.weight f4 [20, 1]
00000000: 5161 cb3e 7d39 a7bf 07a2 383f 65a9 533f
00000010: 3636 4040 0ee5 d93f f274 b93e 638d 1340
00000020: c3f9 0ac0 0f1f 1140 81be d0bf 3587 32c0
00000030: 0a98 e6bf b8d4 013f 9137 a73f 5094 07c0
00000040: 766b d43f e3bb 00c0 7d05 81be 4320 20be
0.39722684 -1.3064419 0.72122234 0.8268035 3.0033088 1.7023027 0.36222035 2.3055046
-2.1714942 2.2675207 -1.6308137 -2.7895024 -1.8015149 0.5071521 1.3063833 -2.1184273
1.6595294 -2.0114677 -0.251995 -0.15637307

0.bias f4 [20]
00000000: 0519 f63d db47 eb3e 6f94 6dbe 0af2 d4bd
00000010: 2777 c1be a71f 0cbf 88a9 eebd 9ccd 3dbf
00000020: cd94 983f 79ae 3abf db2b 643f 81ca c33f
00000030: ff38 a93f 60db 97be f724 6fbf 490e d13f
00000040: d9e5 97bf a8cf ca3f 3dd6 3b3f f2e1 8f3e
0.12016491 0.4595326 -0.23201154 -0.10397728 -0.3778622 -0.547358 -0.11653429 -0.7414186
1.192041 -0.72922474 0.8912942 1.5296174 1.3220519 -0.29659557 -0.9341578 1.6332484
-1.1867019 1.5844622 0.73373777 0.2810207

2.weight f4 [1, 20]
00000000: f3b7 af3e 2529 aabf e153 3abf 2d77 4b3f
00000010: fa05 3740 549f ccbf 0c0b bbbe d891 0dc0
00000020: 4766 1840 f0a6 0cc0 7855 e33f da5b 4340
00000030: 9e23 f9bf 1573 173f 856a b4bf 8221 17c0
00000040: d19e ebbf ed95 14c0 8a32 d63e 218d de3d
0.3432003 -1.3293806 -0.7278424 0.7947872 2.8597398 -1.5986123 -0.36531866 -2.2120266
2.3812425 -2.197689 1.7760458 3.0524812 -1.9463995 0.59159976 -1.4095007 -2.3614202
-1.8407842 -2.3216507 0.41835433 0.10866762

0.weight f4 [20, 1]
00000000: f330 bb3e 4e0e a7bf db70 423f 39e3 633f
00000010: 64d0 4e40 d3b1 e43f c54e c33e f204 1b40
00000020: 891d 10c0 9688 1840 5769 d8bf e91d 39c0
00000030: 564e eabf 8aa5 043f b54e aa3f 2f9e 09c0
00000040: 9f6f d83f 0fc6 02c0 97b5 94be 8c43 2abe
0.36560783 -1.305124 0.75953454 0.8901859 3.2314692 1.7866768 0.38146034 2.4221768
-2.2518027 2.3833365 -1.6907147 -2.8924506 -1.8305156 0.5181509 1.330527 -2.1502798
1.6909064 -2.0433385 -0.29044792 -0.1662733

0.bias f4 [20]
00000000: 0a1b 973d 8cbd fd3e 29db 77be f96a edbd
00000010: 1b53 d7be 53b2 11bf 3eeb f8bd 2f89 45bf
00000020: f534 9d3f 6069 42bf 9912 6b3f 83b8 c93f
00000030: 4861 ab3f e8a4 a0be e648 6fbf 533a d43f
00000040: 1104 98bf 60e4 cd3f ac38 2d3f 484c 883e
0.07378204 0.49558675 -0.24204697 -0.11592669 -0.42055592 -0.56912726 -0.12154244 -0.7716245
1.2281786 -0.7594204 0.9182525 1.5759434 1.3389063 -0.31375813 -0.9347061 1.6580299
-1.1876241 1.608532 0.676646 0.26620698

2.weight f4 [1, 20]
00000000: 0c8f 943e 2669 abbf 7a30 44bf 34c7 5b3f
00000010: 47d7 4540 4f4c d8bf 18f3 c4be fe77 15c0
00000020: a3ea 1d40 f76a 14c0 819d eb3f c271 4a40
00000030: 7530 fdbf 88cb 1b3f db1b b7bf bc79 19c0
00000040: a708 efbf aed3 16c0 9b29 af3e 2ddc ad3d
0.29015386 -1.3391464 -0.7663647 0.85850835 3.0912645 -1.6898288 -0.38466716 -2.3354487
2.467446 -2.3190286 1.8407441 3.1631932 -1.9780413 0.6085744 -1.4305376 -2.398055
-1.8674515 -2.35667 0.3421143 0.08489261

0.weight f4 [20, 1]
00000000: 99ea ac3e 3c6f a4bf 01fc 483f 63a8 6f3f
00000010: f267 5940 72e7 eb3f f2de c93e a600 2040
00000020: 1e9c 13c0 6e7b 1d40 1cb7 ddbf d498 3dc0
00000030: 96d0 ecbf 5fa4 063f 1935 ac3f f1c2 0ac0
00000040: 5ddf da3f 9dd8 03c0 4c9f a5be 8999 32be
0.33772734 -1.2846446 0.7850953 0.9361631 3.3969693 1.8430007 0.39427906 2.5000396
-2.3064036 2.4606586 -1.7321506 -2.962453 -1.8501155 0.5259456 1.3453704 -2.1681483
1.7099415 -2.060096 -0.32348096 -0.17441382

0.bias f4 [20]
00000000: 22ac 0e3d 5444 023f b7e1 7fbe af47 f9bd
00000010: 8036 e2be 132a 16bf e386 00be abb0 4bbf
00000020: 68c6 a03f 6284 48bf a010 703f b04b ce3f
00000030: 7fe5 ab3f bf3e a6be 7bcb 70bf a1da d53f
00000040: 4910 99bf 44b2 cf3f 5e38 213f 194f 823e
0.034832127 0.5088551 -0.24988447 -0.12171876 -0.44182205 -0.5865795 -0.12551455 -0.7956645
1.2560549 -0.78327 0.9377537 1.6116848 1.3429412 -0.32469746 -0.94060487 1.6707345
-1.1958095 1.6226277 0.62976635 0.25450972

2.weight f4 [1, 20]
00000000: 8789 7a3e 9142 a9bf 8460 4abf 6bdc 663f
00000010: 7fe8 4f40 2ea4 dfbf 392a cbbe f96e 1ac0
00000020: e8a0 2140 024c 19c0 e92f f13f 4736 4f40
00000030: 0bd8 febf 0891 1e3f 4c14 b9bf 4858 1ac0
00000040: 0487 f1bf 93a7 17c0 8be6 8e3e fe3c 853d
0.24466525 -1.322344 -0.7905352 0.9018008 3.2485654 -1.7471979 -0.3968065 -2.4130232
2.525446 -2.3952641 1.8842746 3.2376878 -1.9909681 0.6194005 -1.4459319 -2.4116383
-1.8869328 -2.369603 0.27910265 0.06505774

0.weight f4 [20, 1]
00000000: 7484 a13e 2bad a3bf 17b7 4e3f ac6c 783f
00000010: 764d 6140 993c f23f 5da0 cf3e 0760 2440
00000020: ad06 15c0 33d3 2140 e6cd e6bf bf94 43c0
00000030: 34ad efbf 95f7 0a3f 3e37 ad3f bf53 0cc0
00000040: d134 dc3f b066 05c0 3f9b b2be 9991 38be
0.31546366 -1.2787222 0.8074812 0.9704082 3.5203528 1.8924743 0.40552035 2.568361
-2.3285325 2.5285156 -1.8031585 -3.0559537 -1.8724732 0.5428403 1.3532484 -2.1926115
1.7203618 -2.0843925 -0.34884068 -0.18024291

0.bias f4 [20]
00000000: 96b0 923a 39ab 013f f04c 84be 7704 fbbd
00000010: 7f9f e3be 89fc 1abf 7ee3 04be 635b 52bf
00000020: 5473 ad3f 3f18 4fbf 360d 693f ab01 ce3f
00000030: 3889 ad3f e596 a6be 13d8 72bf 1e4f d83f
00000040: 1d60 9abf 5327 d23f e83d 173f d751 7b3e
0.0011191543 0.5065189 -0.2583995 -0.12256711 -0.44457623 -0.6054159 -0.12977406 -0.82170695
1.355082 -0.8089637 0.91035783 1.6094259 1.3557501 -0.32536998 -0.94860953 1.6899145
-1.2060581 1.6418251 0.59078836 0.24542938

2.weight f4 [1, 20]
00000000: 1e07 563e 982e a8bf febf 4fbf cd91 6e3f
00000010: 64e9 5640 6f04 e6bf f38f d0be 74be 1ec0
00000020: e7c1 2540 a388 1dc0 0e73 f73f 3d36 5440
00000030: 28c9 00c0 71f0 213f ce5f babf 80db 1bc0
00000040: f329 f3bf 921a 19c0 4bbf 623e 05e7 3a3d
0.20901152 -1.3139219 -0.8115233 0.93191224 3.357995 -1.7970103 -0.40734825 -2.4803743
2.5899599 -2.4614646 1.9331987 3.3158104 -2.0122776 0.6325751 -1.4560487 -2.4352722
-1.8997177 -2.3922467 0.22143285 0.045630474
